result/config6_main_batch_epoch/preliminary_model7.pt (torch_old, 996807 bytes, 8 tensors)

weight f4 [24, 2, 192]
-0.32334474 -0.2363099 0.085662685 0.15543284 0.5267154 -0.1674712 -0.28680888 0.19040331
0.37762618 -0.24084008 -0.12000473 0.15749452 -0.10975932 0.24533013 -0.10228968 -0.36207703
-0.24502932 -0.071194805 -0.2702537 -0.32381177 -0.4598511 -0.64060533 -0.6820302 -0.23156282
-0.32825273 -0.29188538 -0.2689928 -0.034071125 0.15677874 0.029916126 0.64893454 0.45118988
0.53256035 0.43452716 0.39521956 0.35410762 0.36638018 0.134246 -0.31712458 0.028048689
0.07124035 0.07724275 0.08054667 0.428057 0.17797789 0.14659058 0.5117224 0.3651399
0.26334321 0.28036526 0.13828959 -0.045383364 0.07323535 -0.18224078 -0.39623687 -0.29675245
-0.5244661 -0.56694824 -0.47108874 -0.24464756 -0.08645644 0.06448872 -0.19872837 -0.35764855
0.03973221 -0.21572515 -0.0023430947 0.31203273 0.32871437 0.39621902 0.29431424 0.29394665
0.42456108 0.15253827 0.22122791 0.38930535 0.26694745 -0.04965957 0.098027654 0.4832701
0.24047875 0.38269562 -0.17380765 -0.4299538 -0.5999078 -0.7683095 -0.2268646 -0.3461019
-0.6514371 -0.46864668 -0.23156129 -0.36681318 -0.26942492 -0.16988893 -0.1626106 -0.35349172
-0.25532138 0.17185928 0.1942487 0.10306088 0.19569269 0.5472787 0.4456815 0.6419455
0.27290362 0.27729735 0.07218189 0.20176356 -0.08201568 -0.26332986 0.013524966 -0.050136197
0.04768811 -0.09955326 -0.20694397 0.0709879 0.36520678 -0.09634143 -0.18521407 0.09882994
-0.039039254 -0.5083538 -0.43196645 -0.14485651 -0.32743302 -0.19183058 0.0094750095 -0.14372948
0.03615311 0.2728744 -0.033488646 0.0027746037 0.47192588 0.021896925 0.1585544 0.12188029
-0.24901548 -0.31543115 -0.02886191 -0.092980616 -0.43401513 -0.076849446 -0.098040424 0.04324215
0.22963916 -0.12003689 -0.05271004 0.216678 0.26715422 0.14028913 -0.32494405 -0.32935917
-0.31321093 -0.33281738 -0.4583079 -0.46458337 -0.013411407 -0.2720284 -0.20739229 0.117672905
-0.09447191 -0.04784477 0.24183156 -0.05850479 0.0223154 0.5716429 0.50398225 0.37338534
0.16539718 0.31580028 0.5193059 0.4598767 0.27259973 0.2404926 0.16639483 0.08525878
-0.12033084 0.05666781 0.09400419 -0.004245733 0.25852242 -0.047238544 -0.53004 -0.65558106
-0.03684033 -0.10752205 0.17320481 0.50174874 0.63174736 0.48122022 0.18635948 -0.09028673
0.25291854 -0.12372898 -0.021459049 -0.03903657 -0.0918533 -0.2104392 -0.3679888 0.27901927
0.6908607 0.296228 -0.3687867 -0.6216959 -0.39573312 -0.34241492 -0.6736394 -0.4225235
-0.23915054 0.19670087 -0.057807457 -0.080362245 0.39499536 0.6754243 0.432578 0.24722986
0.10040482 0.16924855 0.44919506 0.3208046 -0.024317872 -0.05646004 0.24038868 0.0076111704
0.5261017 0.4175031 0.04602911 0.21039584 0.22019258 0.06343998 0.040803157 -0.28352123
0.10983341 -0.055697657 0.12764493 0.2560507 0.22751541 0.12668096 -0.40877277 -0.1383213
-0.37316895 0.1376888 0.024970472 -0.1997417 0.11355499 -0.42029536 -0.63815063 -0.3279219
-0.21869008 -0.11093334 0.004455388 -0.060186908 0.021084381 0.055732038 0.22230023 0.12861107
00000000: 718d a5be 39fb 71be eb6f af3d c929 1f3e
00000010: d2d6 063f 927d 2bbe 9dd8 92be 16f9 423e
00000020: 3858 c13e c89e 76be 0ac5 f5bd 3e46 213e
00000030: 7fc9 e0bd d237 7b3e 407d d1bd 2962 b9be
00000040: f7e8 7abe 95ce 91bd b15e 8abe a8ca a5be
00000050: 9a71 ebbe b6fe 23bf 8899 2ebf ce1e 6dbe
00000060: be10 a8be 0072 95be 6db9 89be 2a8e 0bbd
00000070: 9b8a 203e aa12 f53c 9320 263f 5c02 e73e
00000080: e055 083f 587a de3e 385a ca3e 984d b53e
00000090: 2f96 bb3e c977 093e 275e a2be 5dc6 e53c
000000a0: 76e6 913d 7231 9e3d a7f5 a43d 492a db3e
000000b0: d63f 363e d71b 163e 3d00 033f 9ef3 ba3e
000000c0: ecd4 863e 098c 8f3e c99b 0d3e e8e3 39bd
000000d0: 6afc 953d 549d 3abe 8fdf cabe f0ef 97be
000000e0: 6943 06bf 8523 11bf 8b32 f1be e484 7abe
000000f0: 1310 b1bd a912 843d 737f 4bbe b61d b7be
00000100: 3ebe 223d 0ee7 5cbe 9b8e 19bb c1c2 9f3e
00000110: 404d a83e 38dd ca3e 5bb0 963e 2d80 963e
00000120: 1260 d93e fe32 1c3e 9289 623e 0853 c73e
00000130: 56ad 883e d567 4bbd b9c2 c83d 2e6f f73e
00000140: 1040 763e aef0 c33e a2fa 31be e822 dcbe
00000150: 8f93 19bf eeaf 44bf 324f 68be 4534 b1be
00000160: 95c4 26bf 75f2 efbe 671e 6dbe f0ce bbbe
00000170: 10f2 89be 5df7 2dbe 6583 26be defc b4be
00000180: 7cb9 82be e1fb 2f3e 22e9 463e 9511 d33d
00000190: aa63 483e 751a 0c3f 5e30 e43e 8a56 243f
000001a0: 06ba 8b3e ebf9 8d3e 19d4 933d 1b9b 4e3e
000001b0: d6f7 a7bd 2cd3 86be d297 5d3c 9d5b 4dbd
000001c0: 9c54 433d 94e2 cbbd 1fe9 53be 1b62 913d
000001d0: 62fc ba3e a84e c5bd c2a8 3dbe 5a67 ca3d
000001e0: a0e7 1fbd 7a23 02bf b52a ddbe 4455 14be
000001f0: 4da5 a7be 3c6f 44be 123d 1b3c d22d 13be
00000200: 4915 143d 31b6 8b3e 642b 09bd 20d6 353b
00000210: 45a0 f13e 2e61 b33c 165c 223e 609c f93d
00000220: eafd 7ebe 3180 a1be d06f ecbc 9f6c bebd
00000230: 3b37 debe 3e63 9dbd 6bc9 c8bd ae1e 313d
00000240: 8726 6b3e e7d5 f5bd 7ce6 57bd d6e0 5d3e
00000250: 70c8 883e f4a7 0f3e 115f a6be c4a1 a8be
00000260: 2f5d a0be 0a67 aabe 55a7 eabe dfdd edbe
00000270: 85bb 5bbc 4e47 8bbe a55e 54be 7efe f03d
00000280: 7d7a c1bd e1f8 43bd b1a2 773e b8a2 6fbd
00000290: c9ce b63c 3057 123f fb04 013f 5d2c bf3e
000002a0: e15d 293e 93b0 a13e 3bf1 043f f574 eb3e
000002b0: 3192 8b3e b143 763e 6863 2a3e 289c ae3d
000002c0: 0470 f6bd 811c 683d 4585 c03d ca1f 8bbb
000002d0: 0d5d 843e 347d 41bd b4b0 07bf 29d4 27bf
000002e0: e3e5 16bd 8534 dcbd 9a5c 313e 9b72 003f
000002f0: 32ba 213f 7f62 f63e 05d5 3e3e 40e8 b8bd
00000300: 8a7e 813e 9f65 fdbd e3ca afbc cfe4 1fbd
00000310: 951d bcbd 607d 57be 0769 bcbe 9ddb 8e3e
00000320: 3fdc 303f 32ab 973e 9cd1 bcbe 7627 1fbf
00000330: 889d cabe 0251 afbe a273 2cbf 0055 d8be
00000340: e1e3 74be f46b 493e 83c7 6cbd f694 a4bd
00000350: d53c ca3e 9be8 2c3f dd7a dd3e d329 7d3e
00000360: 0ba1 cd3d 7e4f 2d3e e5fc e53e 8040 a43e
00000370: 4636 c7bc a542 67bd 7328 763e 2067 f93b
00000380: 9aae 063f f7c2 d53e 0589 3c3d 0272 573e
00000390: 2a7a 613e d2ec 813d 3621 273d b229 91be
000003a0: 57f0 e03d 3a23 64bd 5ab5 023e 1419 833e
000003b0: cdf9 683e a7b8 013e aa4a d1be 19a4 0dbe
000003c0: 0010 bfbe 4bfe 0c3e e08e cc3c 1789 4cbe
000003d0: 858f e83d f430 d7be d75d 23bf 61e5 a7be
000003e0: 4bf0 5fbe 0531 e3bd 81fe 913b 8c86 76bd
000003f0: 27b9 ac3c 4747 643d aca2 633e 9fb2 033e

bias f4 [24]
-0.7131956 -0.35748747 -0.70645803 -0.44636956 -0.5094309 -0.016274787 -0.8214047 -0.5619792
-0.24885486 -0.4919489 -0.48578945 0.3132614 -0.41714928 -0.3653284 -0.739567 0.009944701
-0.29491836 -0.31886876 -0.7983088 -0.43869713 -0.18969743 -0.2601447 -0.681779 -0.4858692
00000000: fd93 36bf 9908 b7be 6fda 34bf 8d8a e4be
00000010: 106a 02bf b452 85bc 9447 52bf dedd 0fbf
00000020: cfd3 7ebe bae0 fbbe 65b9 f8be cc63 a03e
00000030: 9794 d5be 530c bbbe 4354 3dbf 19ef 223c
00000040: 8aff 96be c442 a3be f75d 4cbf e99c e0be
00000050: 0b40 42be b031 85be 1289 2ebf d9c3 f8be

weight f4 [96, 24, 16]
0.072474316 -0.060875777 -0.4907352 -0.15479392 0.48730838 0.59603393 0.117218316 0.04166951
-0.42317632 0.15473154 -0.32464987 -0.08145945 0.044427235 -0.011429165 -0.53291565 -0.007938099
0.20486972 -0.25636375 -0.4855073 -0.31379485 0.082843706 -0.14191331 -0.21480177 0.17051832
-0.20468509 0.27240443 -0.3878835 0.25206742 -0.18541393 -0.4076512 -0.082182504 -0.11396499
-0.1921903 0.09837914 -0.29623744 -0.2323265 0.19364582 0.6480475 0.05300619 0.20047225
0.090379395 0.26589358 0.16949946 0.026094174 0.06376768 -0.14933935 -0.1035726 0.09925274
0.30552152 -0.2650087 -0.22797401 0.109862864 0.08696543 -0.69784415 -0.2862551 -0.25200698
0.5441827 0.15461722 0.23230536 0.47173342 -0.7435559 -0.46957707 0.03034299 0.1491757
-0.26101446 -0.034952972 -0.36062178 -0.5158784 -0.17779262 0.30537584 -0.15146364 0.5889694
-0.4544316 -0.80274636 0.33912143 -0.35027185 -0.14316578 0.20774248 -0.37814063 -0.018351771
0.08245537 -0.28134045 -0.3553163 -0.57865196 -0.3253239 0.100973435 0.12376289 -0.22471124
-0.29533944 -0.29228133 0.29721147 -0.21365665 0.41794902 -0.060636375 -0.18045259 -0.3874747
-0.33672667 -0.23146513 -0.23271039 0.13289046 0.003484939 0.1432423 -0.11900352 -0.27390647
-0.49147946 -0.04427925 0.13321339 -0.29826182 -0.27394542 -0.2856618 -0.05840185 0.05331701
0.050488308 0.09122987 0.2336795 -0.066720754 0.052935857 -0.059646156 -0.4761061 -0.19092675
-0.59499615 -0.124078825 0.2830433 0.031948958 -0.47423512 -0.21630128 0.18279596 0.37612996
0.47366697 0.25385144 0.56284237 0.13728476 0.2900511 0.26170838 -0.049203347 0.050558716
-0.1591355 0.075841226 -0.3002221 0.21518148 -0.8226765 -0.30498707 -1.0861257 -0.16724813
0.117423475 -0.23513797 0.6377925 0.025715316 0.23191954 0.03685903 0.0965135 -0.05085776
-0.7943334 -0.11554163 -0.118099935 0.19502157 0.079903774 0.17910656 0.2609812 0.44560638
0.14204241 -0.1924834 0.15978162 0.44509408 0.778571 0.51114357 -0.14486232 0.6282852
-0.06314204 -0.16397728 -0.4217019 0.19018707 0.59229225 -0.11847673 0.21804765 0.14735629
-0.61978704 -0.25301316 0.4508265 -0.29735303 0.13009042 0.11018294 -0.5055547 0.25471556
0.020804869 -0.21084397 -0.55670476 0.051828552 0.028777232 -0.9614841 -0.3494798 -0.41133174
-0.5068936 0.29806054 0.07965013 0.22941014 0.44434482 -0.15698135 -0.2638543 -0.15155897
-0.21908963 0.11190047 -0.9225056 0.038374078 0.0049077193 0.5160249 0.31927 -0.3266896
0.1917883 -0.3620395 -0.42435148 -0.10499981 -0.094361395 -0.3551325 -0.010916211 -0.36583728
0.29800275 0.1792248 -0.2403679 -0.07204465 0.3695295 -0.1750393 0.25173926 -0.070523135
0.31784868 -0.23075499 -0.09082518 0.059777297 -0.006602435 0.41741037 0.42024535 -0.36065993
-0.21243781 -0.37441236 0.15303193 -0.01657716 0.1622044 -0.15416953 0.06936368 0.5352602
-0.39078155 -0.43079382 -0.024068523 -0.29612878 -0.49778363 -0.6290825 0.17372066 -0.26507106
0.2732632 0.30256572 0.073157355 -0.71924585 0.38189915 0.50120366 -0.14430831 -0.16815054
00000000: 6a6d 943d e158 79bd a541 fbbe 4c82 1ebe
00000010: 7c80 f93e ae95 183f 2810 f03d a6ad 2a3d
00000020: 91aa d8be f271 1e3e 8238 a6be 36d4 a6bd
00000030: 55f9 353d 6441 3bbc 296d 08bf cd0e 02bc
00000040: 5ec9 513e 1c42 83be 6a94 f8be b8a9 a0be
00000050: f6a9 a93d b951 11be fff4 5bbe 5b9c 2e3e
00000060: f898 51be 9878 8b3e ab98 c6be fb0e 813e
00000070: 26dd 3dbe a8b7 d0be 4d4f a8bd 7a66 e9bd
00000080: 89cd 44be 017b c93d 6fac 97be ffe6 6dbe
00000090: 174b 463e 71e6 253f 051d 593d 9948 4d3e
000000a0: d518 b93d 3423 883e 4491 2d3e 73c3 d53c
000000b0: a198 823d 6aec 18be df1d d4bd 0545 cb3d
000000c0: 516d 9c3e 38af 87be 0572 69be c8ff e03d
000000d0: ee1a b23d eaa5 32bf 0790 92be 0f07 81be
000000e0: 8f4f 0b3f fa53 1e3e 75e1 6d3e 0b87 f13e
000000f0: ae59 3ebf 686c f0be dd91 f83c 84c1 183e
00000100: b0a3 85be d92a 0fbd 6ba3 b8be 9b10 04bf
00000110: 450f 36be 395a 9c3e 4919 1bbe b3c6 163f
00000120: 42ab e8be c980 4dbf 53a1 ad3e d556 b3be
00000130: 0d9a 12be 72ba 543e a69b c1be 7456 96bc
00000140: 5cde a83d db0b 90be 05ec b5be 8922 14bf
00000150: db90 a6be 29cb ce3d 6677 fd3d b41a 66be
00000160: bb36 97be e6a5 95be 1a2c 983e cfc8 5abe
00000170: 6afd d53e d95d 78bd 90c8 38be 1563 c6be
00000180: 7067 acbe 3205 6dbe a24b 6ebe 7014 083e
00000190: 9363 643b 1cae 123e 1eb8 f3bd 783d 8cbe
000001a0: 32a3 fbbe 295e 35bd 1769 083e c6b5 98be
000001b0: 9342 8cbe 4342 92be c736 6fbd f062 5a3d
000001c0: d4cc 4e3d bad6 ba3d ae49 6f3e e4a4 88bd
000001d0: 45d3 583d 874f 74bd 2ec4 f3be 4d82 43be
000001e0: ab51 18bf 0a1d febd 0deb 903e e9dc 023d
000001f0: f2ce f2be 157e 5dbe dd2e 3b3e 1b94 c03e
00000200: 7a84 f23e d1f8 813e 7016 103f 6094 0c3e
00000210: 9481 943e a4fe 853e 7389 49bd a816 4f3d
00000220: 6bf4 22be a552 9b3d b6b6 99be 8958 5c3e
00000230: ed9a 52bf 4427 9cbe 2b06 8bbf 1843 2bbe
00000240: b87b f03d 02c8 70be 5f46 233f eda8 d23c
00000250: 517c 6d3e 7ff9 163d dfa8 c53d 3a50 50bd
00000260: 6f59 4bbf 17a1 ecbd 61de f1bd bcb3 473e
00000270: 97a4 a33d b667 373e 549f 853e 8526 e43e
00000280: 9173 113e 5e1a 45be cb9d 233e 5fe3 e33e
00000290: 6e50 473f 4eda 023f ca56 14be 4dd7 203f
000002a0: 9d50 81bd a9e9 27be 50e9 d7be 66c0 423e
000002b0: 77a0 173f eea3 f2bd e247 5f3e 91e4 163e
000002c0: 5daa 1ebf f18a 81be bbd2 e63e a83e 98be
000002d0: 6c36 053e 98a7 e13d 086c 01bf 146a 823e
000002e0: f96e aa3c 7be7 57be 3484 0ebf 2d4a 543d
000002f0: 3bbe eb3c d223 76bf 04ef b2be 139a d2be
00000300: c7c3 01bf 649b 983e 9b1f a33d 7eea 6a3e
00000310: 2a81 e33e b8bf 20be e917 87be 4632 1bbe
00000320: 0859 60be 132c e53d 5429 6cbf 232e 1d3d
00000330: efd0 a03b 351a 043f 5c77 a33e dc43 a7be
00000340: 2764 443e 3e5d b9be 9944 d9be 240a d7bd
00000350: 8c40 c1bd edd3 b5be e8d9 32bc 064f bbbe
00000360: d193 983e b586 373e 0123 76be 258c 93bd
00000370: f832 bd3e 813d 33be f8e3 803e 6f6e 90bd
00000380: 10bd a23e 094b 6cbe 8d02 babd 0ad9 743d
00000390: 3d59 d8bb d0b6 d53e 662a d73e 6ba8 b8be
000003a0: 4c89 59be fab2 bfbe 67b4 1c3e d3cc 87bc
000003b0: e918 263e 9ede 1dbe 8c0e 8e3d d006 093f
000003c0: 8514 c8be 0291 dcbe 5a2b c5bc 319e 97be
000003d0: 7fdd febe 8d0b 21bf d4e3 313e 65b7 87be
000003e0: 27e9 8b3e e5e9 9a3e 86d3 953d 7f20 38bf
000003f0: 4988 c33e e24e 003f 8fc5 13be a82f 2cbe

bias f4 [96]
-0.15775435 -0.25451934 0.0095890295 -0.49390468 -0.2730638 0.032188416 -0.027142359 -0.06447758
-0.123750225 -0.14849804 -0.045616224 0.25786257 0.17031696 0.20244105 -0.12330044 -0.30573642
0.51589894 -0.14070567 0.06035076 -0.35447967 -0.014236249 0.22607894 0.29272118 -0.14643422
0.055808164 -0.009248148 -0.17866382 0.10781473 0.18992431 0.101789236 0.040854458 -0.26572096
0.2591699 -0.24874066 -0.36088562 0.5491485 -0.10635752 0.049158096 -0.1268149 -0.10935684
-0.0913008 0.054282863 -0.02841435 -0.042350285 -0.13476978 -0.012038016 -0.22236307 0.008577345
-0.2113156 0.089415744 0.36184126 -0.4436644 -0.01821036 -0.2990851 -0.10954428 -0.028458692
-0.13489962 0.7820208 0.16505189 0.20245184 0.19194041 0.25670695 -0.20459555 0.20369977
-0.02905006 -0.29529008 -0.07527919 -0.07124492 -0.12945957 0.15904044 0.042634953 0.09533193
-0.47720107 0.07333031 0.3527467 -0.26550335 -0.04869093 -0.02909767 0.03409579 -0.23390225
-0.16096115 0.18819384 0.2991891 0.0048559504 0.0025136834 -0.22461413 0.35739467 0.064323105
-0.08676531 0.060852356 -0.18410413 -0.09327637 -0.07084742 0.43477282 0.054041613 -0.17841376
00000000: 5b8a 21be 5c50 82be 4e1b 1d3c 13e1 fcbe
00000010: 05cf 8bbe 00d8 033d a759 debc d20c 84bd
00000020: c270 fdbd df0f 18be 14d8 3abd 9006 843e
00000030: 9267 2e3e b54c 4f3e f184 fcbd 7c89 9cbe
00000040: f411 043f 2615 10be 5c32 773d 5c7e b5be
00000050: 283f 69bc 3d81 673e 8ddf 953e daf2 15be
00000060: 1a97 643d 8b85 17bc a6f3 36be f8cd dc3d
00000070: 857b 423e e076 d03d 0157 273d 940c 88be
00000080: ebb1 843e dfb5 7ebe 00c6 b8be ff94 0c3f
00000090: f9d1 d9bd 005a 493d c4db 01be 7bf6 dfbd
000000a0: eafb babd b557 5e3d 36c5 e8bc 7e77 2dbd
000000b0: 1701 0abe 193b 45bc 25b3 63be fe87 0c3c
000000c0: 1e63 58be 9a1f b73d 4243 b93e fb27 e3be
000000d0: e52d 95bc af21 99be c058 e0bd 3422 e9bc
000000e0: 2023 0abe 8432 483f 5d03 293e 894f 4f3e
000000f0: 078c 443e 186f 833e 7f81 51be ac96 503e
00000100: 64fa edbc 4330 97be fa2b 9abd dbe8 91bd
00000110: 0d91 04be 7fdb 223e fda1 2e3d 633d c33d
00000120: b353 f4be 342e 963d 379b b43e 0ef0 87be
00000130: 2470 47bd 3d5e eebc 07a8 0b3d 1284 6fbe
00000140: 00d3 24be e3b5 403e 502f 993e aa1e 9f3b
00000150: 9cbc 243b 3f01 66be 6ffc b63e d5bb 833d
00000160: 03b2 b1bd 5240 793d cb85 3cbe ae07 bfbd
00000170: 7418 91bd 8b9a de3e bd5a 5d3d 19b2 36be

weight f4 [64, 3072]
-0.015988508 0.01255778 0.004918962 0.004667356 -0.0004586744 -0.017995633 -0.015615702 -0.007499391
-0.022933427 -0.022016466 0.012733484 -0.018495467 0.003430634 -0.0075481427 0.002493513 0.015298734
-0.0047848774 0.0049998597 0.022811247 0.004893656 -0.020304348 4.3252487e-05 0.0063255685 -0.02265008
0.008146088 0.010131763 -0.013885512 0.009511165 -0.014500249 -0.018964728 -0.008946632 -0.019251246
0.012365018 0.0061041983 -0.014586495 0.0054051583 -0.0012106932 0.0084741395 -0.018697634 0.010736446
0.0003914085 -0.015652377 -0.007926759 0.013186156 0.013325142 0.0054881726 -0.004004719 -0.013217458
-0.01016584 0.0025774743 0.0065415944 0.001106033 -0.002048238 -0.006841695 0.013021737 0.013462837
0.00075004244 -0.013855155 -0.006283032 -0.012906808 0.007516136 -0.0016720088 -0.01904308 -0.019883305
-0.009397373 0.0063447976 -0.003789031 -0.020897092 -0.015582897 -0.0047917627 -0.011994186 -0.011439978
0.006741201 -0.0154802995 -0.021576509 0.0019756758 0.011760369 0.0046863705 -0.012660338 0.0032417143
-0.0039822045 -0.01012656 -0.009812863 -0.00978745 0.013616852 -0.01014113 -0.019782245 0.0035252587
0.0113172205 -0.0041066986 0.0028970367 -0.0070235943 -0.007731587 -0.014443928 -0.014794331 -0.01779181
0.008235923 0.009446346 -0.009412428 -0.0012086754 0.011191879 -0.022529636 0.0066921143 0.0060331863
0.008999566 0.0059923446 -0.022857547 0.009147903 -0.007897908 -0.022598626 -0.0046412684 -0.014817074
-0.016645404 0.014333042 0.0023155392 0.011367792 0.013946328 -0.011032579 -3.4845987e-05 0.0014485753
0.008768981 -0.009607998 -0.007477599 -0.020350073 -0.0014311117 -0.0029294752 0.024388796 -0.0064702295
0.0095364535 -0.020414313 -0.009083657 -0.022237716 -0.01816598 -0.0012545169 0.005372454 -0.0128697
0.008858935 -0.018936362 0.00046782405 -0.0038963296 0.0008345075 -0.0059616105 0.0060937284 0.0046672784
-0.013629462 -0.006192818 -0.021199761 -0.017896406 -0.0071418053 0.00044761386 0.010604757 -0.003351264
-0.014840139 0.011711108 -0.016016591 -0.012348672 -0.0043937084 7.866687e-05 0.005478059 -0.010584049
0.013403082 -0.007796117 0.0031732945 0.012765174 -0.017430987 0.008327665 -0.005853722 0.012064325
0.0029104394 -0.012452443 -0.006321666 -0.013560501 -0.009101475 -0.002074577 -0.013554326 0.008133526
-0.005194168 -0.007563361 -0.0010439404 -0.017059201 -0.01673392 0.0036311636 0.0017941574 0.004702946
-0.014611777 -0.012422795 -0.005388801 -0.011833113 0.009704009 -0.020459015 -0.015929922 -0.008950325
0.003500428 -0.007824232 0.008670423 -0.021195045 0.011457805 0.0009460064 -0.007528193 0.012724774
-0.010141877 -0.008467189 -0.01431221 -0.01730555 -0.012843056 -0.0019599528 -0.015742755 -0.021128686
-0.0010537342 0.010262358 -0.019005137 -0.02011364 0.010991009 0.0050679334 -0.012194079 -0.01584425
-0.009833311 0.0027447415 -0.013927007 -0.00614169 0.006521279 0.0008977439 -0.021919785 -0.0031647135
-0.011443946 -0.005566743 0.010491337 0.0035886113 0.023579849 -0.017734198 0.00754367 -0.008857815
0.009008083 -0.011817113 -0.00022575298 -0.0011616427 -0.00017682038 -0.014186407 0.009415586 -0.008842009
0.0042775203 -0.011183254 0.01286184 0.014748785 0.0016231318 0.009646123 -0.019234072 -0.0034562473
-0.0028682493 0.0071129357 0.0005113684 0.0073200115 -0.018040083 0.0016628164 -0.0056860517 0.011469417
00000000: 55fa 82bc 26bf 4d3c 3e2f a13b 9ff0 983b
00000010: 3c7a f0b9 946b 93bc 00d9 7fbc 74bd f5bb
00000020: e2de bbbc e05b b4bc 1aa0 503c ce83 97bc
00000030: 7dd4 603b 6956 f7bb 356a 233b 8ba7 7a3c
00000040: 76ca 9cbb ddd5 a33b a7de ba3c f65a a03b
00000050: 4e55 a6bc 016a 3538 b746 cf3b a98c b9bc
00000060: 2b77 053c b2ff 253c 0f80 63bc b8d4 1b3c
00000070: 7492 6dbc eb5b 9bbc e594 12bc cab4 9dbc
00000080: a596 4a3c ba05 c83b 32fc 6ebc c11d b13b
00000090: 1fb0 9eba 1ed7 0a3c c82b 99bc ebe7 2f3c
000000a0: f635 cd39 6a39 80bc 3ddf 01bc bf0a 583c
000000b0: b251 5a3c 21d6 b33b 053a 83bb 098e 58bc
000000c0: a08e 26bc d8ea 283b df5a d63b 4ff8 903a
000000d0: bb3b 06bb 4c30 e0bb 2059 553c 3b93 5c3c
000000e0: 7f9e 443a bb00 63bc e4e1 cdbb 1477 53bc
000000f0: eb49 f63b 4e27 dbba 3c00 9cbc 50e2 a2bc
00000100: 70f7 19bc 05e8 cf3b 6451 78bb 6130 abbc
00000110: 684f 7fbc 3804 9dbb 4383 44bc bf6e 3bbc
00000120: 4be5 dc3b 15a1 7dbc 38c1 b0bc 577a 013b
00000130: 90ae 403c 2090 993b 4e6d 4fbc f172 543b
00000140: 277d 82bb dfe9 25bc 21c6 20bc 8a5b 20bc
00000150: 3819 5f3c fb26 26bc 600e a2bc 0708 673b
00000160: dd6b 393c 7c91 86bb 36dc 3d3b 2e26 e6bb
00000170: 4159 fdbb 3aa6 6cbc ec63 72bc 21c0 91bc
00000180: f7ef 063c d9c4 1a3c 9636 1abc 6b6c 9eba
00000190: 255e 373c 1290 b8bc 8649 db3b 09b2 c53b
000001a0: ea72 133c 6e5b c43b c03f bbbc 16e1 153c
000001b0: 3a66 01bc c120 b9bc c815 98bb 50c3 72bc
000001c0: f15b 88bc 23d5 6a3c 4dc0 173b fa3f 3a3c
000001d0: 247f 643c fdc1 34bc 9827 12b8 1fde bd3a
000001e0: c6ab 0f3c dd6a 1dbc a606 f5bb 32b5 a6bc
000001f0: 2494 bbba 70fc 3fbb 03cb c73c 3804 d4bb
00000200: c93e 1c3c eb3b a7bc 9ed3 14bc df2b b6bc
00000210: d2d0 94bc 9a6e a4ba 690b b03b 6fdb 52bc
00000220: 1125 113c 6e20 9bbc 4846 f539 9059 7fbb
00000230: dac2 5a3a 9d59 c3bb e6ad c73b f8ef 983b
00000240: 1b4e 5fbc 1fed cabb 1fab adbc 7c9b 92bc
00000250: ce05 eabb b7ad ea39 93bf 2d3c e1a0 5bbb
00000260: 0e24 73bc f2df 3f3c 3a35 83bc 1652 4abc
00000270: 19f9 8fbb f4f9 a438 4a81 b33b b868 2dbc
00000280: 9a98 5b3c 9276 ffbb 0cf7 4f3b 0525 513c
00000290: 6ecb 8ebc c270 083c 94d0 bfbb 72a9 453c
000002a0: 12bd 3e3b 5505 4cbc fa25 cfbb dd2c 5ebc
000002b0: 5a1e 15bc a0f5 07bb f712 5ebc 7b42 053c
000002c0: d733 aabb 12d6 f7bb d4d4 88ba bdbf 8bbc
000002d0: 9315 89bc d1f8 6d3b ef29 eb3a 2c1b 9a3b
000002e0: 3c66 6fbc fb88 4bbc 8a94 b0bb acdf 41bc
000002f0: 90fd 1e3c aa99 a7bc 787f 82bc 62a4 12bc
00000300: 7067 653b 3531 00bc 640e 0e3c 3ba1 adbc
00000310: 84b9 3b3c 6afd 773a 0faf f6bb 927b 503c
00000320: 1e2a 26bc f7b9 0abc c27d 6abc 5ec4 8dbc
00000330: ae6b 52bc 8d72 00bb f3f6 80bc 1116 adbc
00000340: 741d 8aba 7323 283c a9b0 9bbc 5cc5 a4bc
00000350: a213 343c e810 a63b adc9 47bc cdcb 81bc
00000360: e51b 21bc 1fe1 333b 1a2e 64bc 3b40 c9bb
00000370: 74b0 d53b 9356 6b3a 1f91 b3bc 1567 4fbb
00000380: 637f 3bbc 3a69 b6bb dbe3 2b3c e82e 6b3b
00000390: 872a c13c 4f47 91bc e430 f73b 5e20 11bc
000003a0: a396 133c 909c 41bc 1bb8 6cb9 4342 98ba
000003b0: dc68 39b9 1b6e 68bc d443 1a3c 13de 10bc
000003c0: 712a 8c3b f839 37bc 78ba 523c e3a4 713c
000003d0: 44bf d43a c60a 1e3c c690 9dbc 3582 62bb
000003e0: 3df9 3bbb a113 e93b 5a0d 063a b5dc ef3b
000003f0: ccc8 93bc dcf2 d93a 0f52 babb 39ea 3b3c

bias f4 [64]
-0.011557478 0.012900469 -0.028789153 0.05468075 0.5079659 0.18617833 -0.25083002 -0.56427556
0.21819253 -0.01491099 0.77963877 -0.049433406 0.08691212 -0.01081349 -0.0034729557 -0.022902021
0.31074804 -0.012880234 -0.02774301 -0.08029837 0.0012268814 -0.021482103 0.009392981 -0.002149311
0.0028653657 -0.057500973 -0.025133222 -0.017310264 -0.03902207 -0.026677158 0.004796601 -0.02932207
0.00459498 -0.022884076 -0.0068060523 -0.025958799 -0.192687 0.18954363 -0.006511807 -0.023191832
0.019970378 -0.281192 -0.19228223 -0.020129448 -0.042355526 -0.017798418 -0.0008106236 0.2814917
0.12682864 -0.20795539 -0.006907512 -0.06129278 -0.10248405 -0.038699843 0.0032918619 -0.048300233
0.002750271 -0.031958632 0.0003717636 -0.03571898 -0.018634813 -0.09769217 -0.023240656 -0.029767793
00000000: 945b 3dbc 7d5c 533c 3bd7 ebbc ecf8 5f3d
00000010: 0e0a 023f 88a5 3e3e cb6c 80be 5d74 10bf
00000020: dd6d 5f3e 3a4d 74bc 6896 473f af7a 4abd
00000030: fbfe b13d 102b 31bc 879a 63bb 059d bbbc
00000040: 5e1a 9f3e 9e07 53bc 4f45 e3bc 7973 a4bd
00000050: 4fcf a03a 3cfb afbc 05e5 193c 74db 0cbb
00000060: dcc8 3b3b 2486 6bbd 30e4 cdbc 41ce 8dbc
00000070: 9bd5 1fbd 0e8a dabc ce2c 9d3b d634 f0bc
00000080: 7c91 963b 6377 bbbc 4e05 dfbb 8ca7 d4bc
00000090: be4f 45be ba17 423e ff60 d5bb ccfc bdbc
000000a0: eb98 a33c 66f8 8fbe a2e5 44be 83e6 a4bc
000000b0: fd7c 2dbd fdcd 91bc 0780 54ba ae1f 903e
000000c0: 5edf 013e 42f2 54be 6958 e2bb 230e 7bbd
000000d0: 28e3 d1bd ba83 1ebd 47bc 573b 77d6 45bd
000000e0: e43d 343b 0ee7 02bd 44e9 c239 114e 12bd
000000f0: 09a8 98bc d512 c8bd 3063 bebc 96db f3bc

weight f4 [25, 64]
-0.08549995 -0.08315318 -0.017702715 -0.16342983 0.33222657 -0.1229468 -0.032947235 0.530773
0.41409793 0.10853792 0.28241304 -0.083668776 -0.5522392 -0.07774748 0.062454335 -0.06922418
0.20269737 0.10791704 0.07225879 -0.052176964 0.02837564 -0.056968946 -0.07512013 -0.052616384
0.07880051 -0.022166384 0.028575297 0.0065292884 0.16536397 -0.11638546 0.08338508 -0.061379828
0.12973097 0.3802614 0.09738337 -0.08606492 -0.49276087 0.30648556 0.109860644 -0.10394145
0.3984394 0.20550479 -1.0458316 -0.055537615 -0.09545599 -0.039002206 -0.07792084 0.6172398
0.25309244 -0.22289574 0.07037358 -0.06867241 -0.23290251 0.04952403 0.0021885945 0.06837683
0.051755216 0.10064294 -0.081286706 -0.0113978125 0.09677289 -0.38267282 -0.09702295 0.1077395
-0.00082080945 -0.0033542225 0.048681196 0.031126084 -0.12531883 -0.22499955 0.49141702 0.36013132
-0.17270152 0.048130177 -0.011067634 0.051167414 0.13074869 0.08375592 0.0010170497 0.07241521
0.6066018 -0.09948145 -0.051115382 0.0072209183 0.041736618 -0.07308202 -0.03536108 0.041105907
0.07607353 0.046934023 0.09728311 0.063437626 -0.4551898 -0.027630018 0.113336734 -0.034344587
0.43422487 -0.37524113 -0.08849552 0.03577148 0.49075472 -0.116908796 0.09857569 -0.000121779
0.43322688 -0.47763398 0.307443 -0.088848375 0.017725995 0.042868577 -0.09502219 0.27518708
0.042625915 0.16053021 -0.13328867 -0.12570372 -0.77544665 -0.07421738 -0.10371978 0.10988199
0.020972865 0.09574417 0.035625596 -0.065148994 -0.06805008 0.49113435 -0.02451403 0.00478727
-0.11993618 -0.07897161 -0.044583812 0.089844026 0.15672183 0.28213143 0.24355133 0.31869575
0.34079957 0.08743272 0.49178678 0.09983693 0.038352635 -0.02047683 -0.020765334 0.09111991
0.014938152 -0.01786835 -0.03274529 -0.07479055 0.11581353 0.09852977 -0.0134810405 0.121061616
-0.020282732 -0.09882606 0.011367244 0.010189094 -0.4217988 0.03294419 0.046728715 0.007600278
-0.34176177 -0.035480354 0.009387108 0.051456787 -0.53433406 0.75481915 0.0067992713 0.022591624
0.24310261 -0.071259476 0.22204295 0.034116942 0.042954553 -0.04605264 -0.017035253 0.38325834
0.4408765 -0.17980012 -0.119947694 -0.0072887926 -0.039949283 0.07969845 -0.11858249 -0.05669731
0.108354 0.035728745 -0.09154392 -0.041517608 0.0033948475 -0.34892565 -0.035784323 -0.026191395
-0.0026675481 0.030960275 0.10186226 0.1341024 -0.044672307 0.32534644 0.37275347 0.6104909
-0.17955674 0.077608466 0.111106955 0.05367947 0.07356909 -0.08439868 -0.06871981 -0.009062349
-0.47916126 -0.010901501 0.063626386 -0.11760711 0.10388873 -0.029254636 -0.09234962 -0.08005121
0.10001197 -0.024481066 -0.12233753 0.021550601 0.04561276 -0.08962227 -0.09566832 0.06851644
0.64646566 -0.16642804 -0.029924955 0.020089285 -0.22358403 0.24799232 0.055660482 -0.116251744
0.14503124 -0.40373537 0.015392182 0.08516179 0.039573364 -0.06675779 0.0842424 0.042408872
0.75994325 0.6479352 0.011066532 0.08198427 -0.31529897 -0.044621903 0.07386199 0.036505703
-0.08830085 -0.0386909 0.014492834 -0.026467932 -0.076150365 0.030930001 -0.09802956 -0.058162056
00000000: 991a afbd 374c aabd 4905 91bc 265a 27be
00000010: 9a19 aa3e 88cb fbbd aef3 06bd bde0 073f
00000020: a504 d43e 2149 de3d 7198 903e 895a abbd
00000030: 8c5f 0dbf 123a 9fbd 1ed0 7f3d 68c5 8dbd
00000040: e68f 4f3e 9c03 dd3d 6bfc 933d 83b7 55bd
00000050: 0874 e83c 4558 69bd 95d8 99bd 4784 57bd
00000060: 2962 a13d 4796 b5bc be16 ea3c a4f3 d53b
00000070: 2c55 293e 805b eebd ccc5 aa3d 6a69 7bbd
00000080: 32d8 043e 9fb1 c23e ef70 c73d ce42 b0bd
00000090: 274b fcbe adeb 9c3e 9efe e03d 41df d4bd
000000a0: 4000 cc3e d96f 523e cfdd 85bf 697b 63bd
000000b0: 6e7e c3bd c7c0 1fbd f694 9fbd 6d03 1e3f
000000c0: 5595 813e c83e 64be 0620 903d 1fa4 8cbd
000000d0: ff7d 6ebe b6d9 4a3d 866e 0f3b 2709 8c3d
000000e0: 47fd 533d e31d ce3d a579 a6bd e4bd 3abc
000000f0: dd30 c63d b1ed c3be f8b3 c6bd 87a6 dc3d
00000100: 972b 57ba 84d2 5bbb ef65 473d 21fc fe3c
00000110: 9453 00be 4866 66be 039b fb3e 2263 b83e
00000120: abd8 30be 2624 453d 0655 35bc ec94 513d
00000130: fce2 053e 3988 ab3d 864e 853a 6d4e 943d
00000140: 414a 1b3f eebc cbbd 5d5e 51bd 749d ec3b
00000150: 04f4 2a3d 07ac 95bd c8d6 10bd ab5e 283d
00000160: 70cc 9b3d e43d 403d 5e3c c73d 96eb 813d
00000170: a30e e9be 5958 e2bc 171d e83d e9ac 0cbd
00000180: b952 de3e 9b1f c0be 243d b5bd 1e85 123d
00000190: 3444 fb3e e16d efbd 0de2 c93d 9a63 ffb8
000001a0: eacf dd3e 718c f4be 2b69 9d3e 23f6 b5bd
000001b0: 1b36 913c f696 2f3d fe9a c2bd 52e5 8c3e
000001c0: 8398 2e3d 0862 243e d37c 08be 7ab8 00be
000001d0: ac83 46bf 48ff 97bd 096b d4bd cf09 e13d
000001e0: 49cf ab3c 8515 c43d 25ec 113d d66c 85bd
000001f0: d75d 8bbd f675 fb3e a6d1 c8bc 88de 9c3b
00000200: 1aa1 f5bd debb a1bd 849d 36bd 2500 b83d
00000210: b07b 203e 8873 903e 8565 793e 172c a33e
00000220: 487d ae3e ed0f b33d 7acb fb3e 4e77 cc3d
00000230: a717 1d3d 06bf a7bc 101c aabc 139d ba3d
00000240: 27bf 743c a560 92bc ed1f 06bd ca2b 99bd
00000250: a52f ed3d fac9 c93d 95df 5cbc 27ef f73d
00000260: f927 a6bc 5165 cabd ad3d 3a3c 28f0 263c
00000270: 03f6 d7be 7df0 063d 9c66 3f3d c10b f93b
00000280: 66fb aebe d953 11bd 62cc 193c 5ac4 523d
00000290: 1eca 08bf d43b 413f 6ccc de3b 1212 b93c
000002a0: e4ef 783e 7df0 91bd 3a5f 633e 35be 0b3d
000002b0: 1df1 2f3d b1a1 3cbd 848d 8bbc 703a c43e
000002c0: 91ba e13e 861d 38be 23a7 f5bd d3d6 eebb
000002d0: dca1 23bd f138 a33d 60db f2bd 703b 68bd
000002e0: b4e8 dd3d 4e58 123d 617b bbbd 5e0e 2abd
000002f0: 177c 5e3b 62a6 b2be 9592 12bd 568f d6bc
00000300: 08d2 2ebb 67a0 fd3c 299d d03d 2452 093e
00000310: 4ffa 36bd cf93 a63e 8bd9 be3e 2249 1c3f
00000320: b9dd 37be 30f1 9e3d 0b8c e33d 01df 5b3d
00000330: 64ab 963d 37d9 acbd f9bc 8cbd 3f7a 14bc
00000340: a054 f5be 369c 32bc 8d4e 823d ffdb f0bd
00000350: 9dc3 d43d 6ba7 efbc cc21 bdbd e4f1 a3bd
00000360: 13d3 cc3d 848c c8bc 198c fabd e38a b03c
00000370: 72d4 3a3d e18b b7bd c1ed c3bd 5952 8c3d
00000380: c67e 253f 1d6c 2abe 2e25 f5bc 4992 a43c
00000390: 36f3 64be b3f1 7d3e 3ffc 633d 6515 eebd
000003a0: 1283 143e 67b6 cebe 7e2f 7c3c 4e69 ae3d
000003b0: ae17 223d 4fb8 88bd 4887 ac3d edb4 2d3d
000003c0: a48b 423f 15df 253f 6650 353c 5ee7 a73d
000003d0: de6e a1be 75c5 36bd f444 973d 0187 153d
000003e0: 13d7 b4bd 597a 1ebd 5a73 6d3c 47d3 d8bc
000003f0: b9f4 9bbd ea60 fd3c b9c3 c8bd 563b 6ebd

bias f4 [25]
0.3521643 0.035779152 0.56612355 0.007849236 0.06554425 0.4104412 0.59489655 -0.112350054
0.24229987 -0.3775391 0.55098677 0.17422813 0.31421065 -0.068858325 -0.18145585 0.5429502
0.47204283 0.5119117 0.388002 -0.045409497 0.55574554 0.23341928 0.5458037 0.110810556
-0.23973833
00000000: e14e b43e 298d 123d 79ed 103f 159a 003c
00000010: 103c 863d 5925 d23e 244b 183f c917 e6bd
00000020: 751d 783e ce4c c1be 780d 0d3f dc68 323e
00000030: 38e0 a03e 9805 8dbd 90cf 39be c9fe 0a3f
00000040: 99af f13e a50c 033f 33a8 c63e 4fff 39bd
00000050: 5745 0e3f 7705 6f3e cbb9 0b3f a5f0 e23d
00000060: f77d 75be
