result/config1_main/preliminary_model31.pt (torch_old, 428387 bytes, 10 tensors)

weight f4 [12, 2, 192]
0	0xbe942489	-0.28934124
1	0x3cdd4c0b	0.0270138
2	0x3d863b0f	0.06554233
3	0xbd3ad884	-0.04561664
4	0xbe210efb	-0.15728371
5	0xbe22e793	-0.15908651
6	0xbe272323	-0.16321997
7	0x3da8c15f	0.082400076
8	0x3e84d0f8	0.2594068
9	0xbd37b25a	-0.044847824
10	0xbea411df	-0.32044885
11	0xbe717cc1	-0.23582746
12	0x3d9afa47	0.07567268
13	0x3ea1c88d	0.3159832
14	0x3e1339a4	0.14377457
15	0xbea0bf0a	-0.3139575
16	0x3e88f7b2	0.26751477
17	0xbd5c0fab	-0.05372588
18	0xbe89dbe8	-0.26925588
19	0xbea3bbcd	-0.31979218
20	0x3e510ae6	0.20414314
21	0x3e66a14c	0.22522467
22	0xbecc3ba6	-0.39889258
23	0xbc96f67f	-0.018428085
24	0xbe5a91f0	-0.21344733
25	0x3bdd7b75	0.006759102
26	0x3eac0f04	0.33605206
27	0x3e8b6dc4	0.27232182
28	0x3e048e03	0.12944798
29	0xbeab732d	-0.3348631
30	0xbe990c9a	-0.29892427
31	0x3ce43d29	0.027861195
32	0x3c9c632e	0.019090261
33	0x3e60d2c8	0.21955407
34	0x3dc6083b	0.096695386
35	0xbe2161bc	-0.15759939
36	0xbddf2742	-0.1089616
37	0xbe0dea4c	-0.13858908
38	0x3e369655	0.17830785
39	0x3eb4ec93	0.35336742
40	0xbd5cd336	-0.053912364
41	0x3e1301f5	0.14356215
42	0x3db1600a	0.08660896
43	0xbd9079b6	-0.070544645
44	0x3e50ac26	0.2037817
45	0x3d665f99	0.056243513
46	0xbda1ce0d	-0.07900629
47	0xbed0f431	-0.40811303
48	0x3df2dcd8	0.11858529
49	0xbd9f046e	-0.07764517
50	0xbe38ed3e	-0.1805925
51	0x3e438b00	0.19095993
52	0x3ea75eb0	0.32689428
53	0xbc21a766	-0.009866571
54	0xbee6a6ed	-0.4504923
55	0x3ca2fc54	0.01989571
56	0xbe0f2425	-0.13978632
57	0xbd6f9e4c	-0.058500573
58	0x3d921433	0.07132759
59	0x3e16101c	0.14654583
60	0xbec4b9d1	-0.38423017
61	0xbede3a9c	-0.4340409
62	0x3d347f58	0.044066757
63	0xbe3cfbed	-0.18455477
64	0x3daf24f3	0.085519694
65	0xbe885d03	-0.26633462
66	0x3d63650d	0.05551629
67	0xbcca3bc5	-0.024686703
68	0x3eab3f30	0.33446646
69	0x3e403bd7	0.18772827
70	0xbe8be9fb	-0.2732695
71	0xbdb58236	-0.088627264
72	0x3da6e892	0.08149828
73	0x3e96b925	0.2943813
74	0xbd69662b	-0.0569822
75	0xbdbed5e6	-0.09318142
76	0x3cf1b856	0.029506844
77	0x3d12b38f	0.03581577
78	0xbe21b8a6	-0.15793094
79	0x3cf4a870	0.029865474
80	0x3e53e8dd	0.20694299
81	0xbc6ea22e	-0.014565034
82	0xbefa2a27	-0.48860285
83	0xbed9e4ad	-0.42557278
84	0x3d51ff2d	0.051268745
85	0xbda0d6fd	-0.07853506
86	0xbcaae98f	-0.020863323
87	0x3e5aa65a	0.2135252
88	0x3da8be21	0.08239389
89	0x3ec5d481	0.3863869
90	0x3cccb83c	0.024990194
91	0xbd6cf4b4	-0.057850555
92	0x3cca0568	0.024660781
93	0x3e3d81a4	0.18506485
94	0x3e890e99	0.2676895
95	0x3d3d5f14	0.04623325
96	0xbe4f4daf	-0.20244478
97	0xbef157aa	-0.47137195
98	0x3e3b3b96	0.18284449
99	0x3e4959fb	0.19663231
100	0x3c25c7ac	0.010118406
101	0x3e148e0c	0.14507312
102	0x3e17d9fc	0.14829248
103	0xbd915f31	-0.070982344
104	0xbe8c998e	-0.27460903
105	0x3e8cdbc8	0.2751143
106	0x3ead534a	0.33852607
107	0xbd1ecc0e	-0.03876882
108	0x3d9f94f8	0.077920854
109	0xbe08c732	-0.13357237
110	0xbe238e79	-0.15972318
111	0x3e5be2d4	0.21473247
112	0x3e0c9285	0.13727768
113	0x3d3a5b75	0.045497376
114	0x3e1afdd2	0.15135887
115	0x3dd1df19	0.102476306
116	0x3e8a163f	0.26970097
117	0x3e496b47	0.1966983
118	0x3e774312	0.24146679
119	0x3d30564b	0.043051045
120	0x3e5d5306	0.21613702
121	0x3e4a61f9	0.19763936
122	0x3e661fce	0.2247307
123	0x3f007cfd	0.50190717
124	0x3edb99f8	0.42890906
125	0xbd0b214c	-0.0339673
126	0xbd7572ba	-0.059923865
127	0xbdc78acf	-0.097432725
128	0xbc3c34c7	-0.0114871925
129	0x3e631c8d	0.2217886
130	0x3e448c01	0.19194032
131	0x3e56ca4f	0.20975612
132	0x3d3f19f3	0.046655606
133	0xbd8adca9	-0.06780369
134	0x3e0ce826	0.13760433
135	0x3ee6eacc	0.4510101
136	0x3ea8379c	0.32854927
137	0x3e043903	0.12912373
138	0xbcbeae4d	-0.023276472
139	0x3dbc8343	0.09204724
140	0x3e8183e4	0.25295937
141	0x3e62cc2d	0.221482
142	0x3e808841	0.25103953
143	0x3e3ef9cc	0.18649977
144	0xbc4ef9fe	-0.012632845
145	0xbdad1f5d	-0.08453248
146	0xbd8bee9c	-0.068326205
147	0x3e5e3c8d	0.21702786
148	0x3deb49c7	0.11488681
149	0xbe03ac47	-0.12858687
150	0xbba09f73	-0.0049018203
151	0x3e836ede	0.25670522
152	0x3e19a5e4	0.15004689
153	0x3e3a7919	0.18210258
154	0x3e230cbd	0.15922828
155	0xbe26f4b1	-0.1630428
156	0xbdd62210	-0.10455716
157	0xbe5da6c4	-0.21645647
158	0xbe288e9b	-0.1646065
159	0xbd31e5d7	-0.043432083
160	0xbd31d4bf	-0.04341578
161	0x3e70bb1c	0.23508877
162	0x3eab2737	0.33428356
163	0x3e1cd911	0.1531718
164	0x3e0b9db5	0.13634379
165	0xbe34163b	-0.17586605
166	0xbdfe9cfd	-0.12432287
167	0x3dc1f5ea	0.094707325
168	0x3df849c3	0.12123444
169	0xbde979bb	-0.11400171
170	0xbe6bed9a	-0.23039857
171	0x3dd4a9c6	0.10383944
172	0xbe44fd5d	-0.19237275
173	0x3d983ad6	0.07433097
174	0xbe2f0985	-0.17093475
175	0xbeb6028d	-0.3554882
176	0xbeac54a2	-0.3365832
177	0xbe6ba70c	-0.23012942
178	0x3a482b69	0.0007635863
179	0xbe66ae8b	-0.2252752
180	0x3e365792	0.17806843
181	0x3ec80a3a	0.39070302
182	0xbddef194	-0.10885921
183	0xbf238bbc	-0.6388509
184	0xbe852ade	-0.26009268
185	0xbea9862b	-0.33110175
186	0xbe4add68	-0.19811022
187	0x3c86db83	0.016462093
188	0x3de929db	0.113849364
189	0xbd60ea90	-0.054911196
190	0xbe017afd	-0.12644573
191	0xbea321db	-0.31861767
192	0x3c8900ec	0.016724072
193	0x3d97dee2	0.074155584
194	0xbe28e98c	-0.16495341
195	0x3d54908c	0.051895663
196	0xbd6b0d4d	-0.05738573
197	0xbdb9d7f8	-0.09074396
198	0xbe8511f9	-0.25990275
199	0x3de12c67	0.10994797
200	0x3ebc523b	0.36781487
201	0xbd8a40b0	-0.067506194
202	0xbe5ecc84	-0.21757704
203	0xbeed8aff	-0.46395108
204	0xbe0638de	-0.1310763
205	0x3eb905ca	0.3613723
206	0x3db50ab2	0.088399306
207	0xbef41562	-0.47672564
208	0xbe2e3d44	-0.17015558
209	0x3e8f14f4	0.27945673
210	0xbc1d4e1e	-0.009601144
211	0xbe3882db	-0.18018667
212	0xbddacb7d	-0.106833436
213	0x3c97eccc	0.01854553
214	0xbe3a0ef5	-0.18169768
215	0xbd0c85e9	-0.034307394
216	0x3e06e307	0.13172542
217	0xbc4708f8	-0.012148134
218	0x3e578bb8	0.21049392
219	0xbdd27f6e	-0.102782115
220	0x3dd6d7bd	0.104903676
221	0x3e5b84ef	0.21437429
222	0x3eea80d3	0.4580141
223	0x3f05507f	0.5207595
224	0x3e4d79c1	0.20065977
225	0x3e29dd46	0.16588315
226	0x3d6b7555	0.057484943
227	0x3ecd723b	0.40126213
228	0x3efd8646	0.49516505
229	0x3edd0c56	0.43173474
230	0x3ebdbefd	0.37059775
231	0x3dc89218	0.0979349
232	0xbd091b2d	-0.033473182
233	0xbe8b0522	-0.27152354
234	0xbda43df3	-0.080196284
235	0x3d46c7f7	0.048530545
236	0x3edfe64e	0.43730396
237	0x3d9f013d	0.07763908
238	0xbe4811e0	-0.19538069
239	0x3dd00080	0.10156345
240	0x3de0e829	0.10981781
241	0xbd820a2d	-0.06349597
242	0xbe472050	-0.1944592
243	0x3ec324d9	0.3811405
244	0x3d5cc37a	0.05389736
245	0x3c051ab6	0.008124044
246	0x3e25da43	0.16196541
247	0x3eca54e4	0.3951789
248	0xbd34db42	-0.044154413
249	0xbe26d399	-0.16291656
250	0xbe22a504	-0.15883261
251	0x3f27e0d2	0.65577424
252	0x3ed17ab2	0.40913922
253	0xbc6a83ae	-0.014313621
254	0xbe03b09b	-0.12860338
255	0xbe5add9e	-0.21373603

bias f4 [12]
0	0xbeb216a5	-0.347829
1	0xbedfe867	-0.43731996
2	0xbeaa2c3f	-0.33236882
3	0xbf1a5801	-0.60290533
4	0xbea00198	-0.31251216
5	0xbeb92bb6	-0.3616616
6	0xbea227fe	-0.31671137
7	0xbef18ec8	-0.47179246
8	0xbf082963	-0.5318815
9	0xbed6cd17	-0.41953346
10	0xbe88ef0f	-0.26744887
11	0xbed9de15	-0.42552248

weight f4 [24, 12, 16]
0	0xbd655b64	-0.05599536
1	0x3db8f379	0.09030814
2	0xbe48915a	-0.19586697
3	0x3dd41793	0.10356059
4	0xbe8d9098	-0.2764938
5	0xbeb0b1e0	-0.34510708
6	0x3e301a92	0.17197636
7	0xbd4d7102	-0.0501566
8	0xbe603c32	-0.21897963
9	0xbdccdfb4	-0.100036055
10	0xbe8abe30	-0.27098227
11	0xbe2d6263	-0.16932063
12	0xbe820ac3	-0.25398836
13	0xbeaa3544	-0.33243763
14	0x3eaa01fa	0.33204633
15	0xbde9e24f	-0.11420118
16	0xbcea338f	-0.028589038
17	0x3ef2b4de	0.47403616
18	0x3f2559db	0.64590234
19	0xbe07c05e	-0.13256976
20	0x3e8f662b	0.28007635
21	0x3e16edae	0.14739105
22	0xbd612118	-0.0549632
23	0x3e80f851	0.2518945
24	0x3e660963	0.22464518
25	0x3eac9083	0.33704004
26	0x3dff23bb	0.12457987
27	0x3ea8d5eb	0.32975706
28	0xbe809924	-0.25116837
29	0x3d438cbd	0.04774164
30	0xbe6fa5d0	-0.23403096
31	0x3d09f1f5	0.033678014
32	0xbd393518	-0.04521665
33	0x3daa630d	0.08319674
34	0xbe7e1500	-0.24812698
35	0xbe00f24c	-0.12592429
36	0xbe0a185e	-0.13485858
37	0x3e47af23	0.19500403
38	0xbdac2eca	-0.08407362
39	0xbe9eba5d	-0.3100156
40	0xbf176fc7	-0.59154934
41	0x3de91fbb	0.11383005
42	0xbe834de7	-0.25645372
43	0x3cedd3f8	0.029031739
44	0x3d8f6a6d	0.07002721
45	0xbd954d52	-0.07290138
46	0x3b445082	0.0029955213
47	0x3e59a2ad	0.21253462
48	0xbe15a8b2	-0.14615133
49	0xbc9cea56	-0.019154709
50	0x3e1beaa0	0.15226221
51	0x3e4269c6	0.18985662
52	0x3e040908	0.1289407
53	0xbca3e539	-0.020006763
54	0x3ddacde9	0.106838055
55	0xbe3a634a	-0.18201938
56	0x3e7db9b0	0.24777865
57	0xbe76e48c	-0.24110621
58	0xbd89eb7e	-0.0673437
59	0x3ead3b73	0.3383442
60	0x3df79feb	0.12091049
61	0xbb6b544b	-0.0035908397
62	0xbd2991cf	-0.04139882
63	0xbdb53688	-0.08848292
64	0xbb58c396	-0.0033075563
65	0x3c8e338f	0.01735857
66	0xbdd215cb	-0.10258063
67	0x3d3a6184	0.045503154
68	0x3e1ae42a	0.151261
69	0xbc032bb3	-0.008006024
70	0x3d0ce4e5	0.03439798
71	0x3e2f48a1	0.1711755
72	0xbe1615c6	-0.14656743
73	0x3e462b38	0.19352424
74	0xbe19d37a	-0.15022078
75	0xbe77957c	-0.24178118
76	0xbeb52ed9	-0.35387304
77	0xbe80d31e	-0.2516107
78	0xbcbe7e77	-0.023253663
79	0xbe304031	-0.17211987
80	0xbd51d398	-0.051227182
81	0x3c165a6b	0.009176831
82	0xbf251d4e	-0.6449784
83	0xbe18d902	-0.14926532
84	0xbea3418d	-0.3188595
85	0xbc9edd93	-0.019392764
86	0xbe9eb928	-0.31000638
87	0xbe7df948	-0.24802125
88	0xbe86ac95	-0.26303545
89	0xbe96c711	-0.2944875
90	0xbf2ba7d2	-0.6705295
91	0xbc2a4536	-0.010392478
92	0x3d00dc0f	0.031459864
93	0xbe75da0d	-0.24008961
94	0xbe3b3dc6	-0.18285283
95	0xbe11b87f	-0.14230536
96	0xbd82f6fb	-0.06394764
97	0xbe4b2e05	-0.19841774
98	0x3e059b73	0.1304758
99	0xbcabe401	-0.020982744
100	0x3eb264f0	0.34842634
101	0x3e3b1fe4	0.18273884
102	0x3dd8f7f2	0.10594167
103	0x3e9cdb7b	0.306362
104	0x3ee349dd	0.4439229
105	0xbe7c698f	-0.24649642
106	0x3f1de7d4	0.61681867
107	0x3e5caeba	0.21551028
108	0x3e35da36	0.17759022
109	0x3db220f2	0.0869769
110	0xbe789f82	-0.24279597
111	0x3b280717	0.0025638992
112	0xbe84244e	-0.25808948
113	0x3e83fcb1	0.25778726
114	0xbd2a2569	-0.041539583
115	0xbdff86f1	-0.1247691
116	0x3b4c4a50	0.0031172223
117	0x3cb01c5b	0.021497896
118	0x3ea837df	0.32855126
119	0x3e9f91c4	0.31165898
120	0xbea1b041	-0.31579784
121	0x3e98a3e7	0.29812548
122	0x3d1ed2b0	0.038775146
123	0xbe3b8529	-0.18312515
124	0xbe63900e	-0.22222921
125	0x3d6f9cff	0.058499333
126	0x3d9bdb80	0.07610226
127	0x3d943fdf	0.07238745
128	0x3eb99bab	0.36251578
129	0x3e80a0ed	0.25122777
130	0x3ecda349	0.4016364
131	0x3ec91660	0.39274883
132	0x3ee1a5d5	0.44071832
133	0xbca97ce8	-0.020689443
134	0x3d5023bf	0.05081534
135	0xbd51cbef	-0.051219877
136	0x3e8a76e2	0.27043825
137	0x3e5e15fb	0.21688072
138	0xbd80b453	-0.06284394
139	0x3e2c8f4c	0.16851538
140	0x3dd35f1f	0.10320877
141	0xbc1a3780	-0.009412646
142	0xbe8aaffc	-0.2708739
143	0xbe10223b	-0.14075558
144	0xbecfcd93	-0.40586528
145	0xbe835c22	-0.2565623
146	0xbefd9145	-0.49524894
147	0xbf044d23	-0.516802
148	0xbdc8c176	-0.09802525
149	0x3e3e66d8	0.1859392
150	0xbd2f9313	-0.04286487
151	0x3de67acd	0.11253891
152	0xbc95b558	-0.018274948
153	0xbe5898ea	-0.21152082
154	0xbc2c3d93	-0.010512727
155	0xbe4e60ce	-0.20154116
156	0x3dd6f16a	0.10495265
157	0x3e73c46a	0.23805395
158	0xbdebfc96	-0.11522786
159	0x3d06e096	0.032929026
160	0xbddfdcc6	-0.10930781
161	0xbdcf27fb	-0.101150475
162	0xbe341c7f	-0.17588995
163	0xbd8dfe81	-0.069333084
164	0x3efb41e3	0.49073705
165	0xbf27aaae	-0.6549481
166	0xbdc3b14f	-0.09555303
167	0x3e21dee7	0.15807687
168	0x3d976b72	0.073935404
169	0x3d890a18	0.06691378
170	0xbea6ea28	-0.32600522
171	0xbe502aa0	-0.2032876
172	0xbed5c65d	-0.41752902
173	0xbe904ce8	-0.28183675
174	0xbe9e44b1	-0.30911782
175	0xbe904ed0	-0.2818513
176	0xbe55d11a	-0.20880547
177	0xbd88002f	-0.0664066
178	0xbeb2a54b	-0.34891734
179	0xbe0f4308	-0.13990414
180	0xbea65087	-0.32483312
181	0x3e264702	0.16238025
182	0x3e05a98b	0.13052957
183	0xbe5b14ce	-0.21394655
184	0xbe61b9e0	-0.22043562
185	0x3ea65393	0.32485637
186	0xbeb72c57	-0.35776016
187	0x3ee0f46a	0.43936473
188	0xbd7a2d3b	-0.06107829
189	0xbe4044fd	-0.18776317
190	0xbea1e851	-0.31622556
191	0x3e3d663b	0.18496029
192	0x3d1b5089	0.0379186
193	0x3dd198dd	0.102342345
194	0x3d2f5280	0.042803288
195	0xbe56b519	-0.20967521
196	0xbdffbeee	-0.12487589
197	0x3efbec40	0.49203682
198	0xbc8a30d9	-0.016868996
199	0xbf23580a	-0.6380621
200	0x3e8c5d49	0.2741492
201	0xbe1fbfd8	-0.15600526
202	0xbf239b2f	-0.63908666
203	0x3e01fd95	0.1269439
204	0xbd0355f7	-0.032064404
205	0x3d371eb9	0.044707034
206	0xbe6a2abc	-0.22867864
207	0x3e3f3fb6	0.18676648
208	0xbef44ceb	-0.47714934
209	0x3e900ce1	0.28134826
210	0xbd1cf77a	-0.03832195
211	0x3e24391a	0.16037408
212	0xbedb3ea7	-0.42821237
213	0x3d811d02	0.06304361
214	0x3c81328f	0.015771179
215	0xbca909e2	-0.020634595
216	0xbe3712b0	-0.17878222
217	0x3d360324	0.04443659
218	0xbf057f30	-0.521472
219	0xbe614f33	-0.22002868
220	0x3d464660	0.04840696
221	0x3c94645e	0.018114265
222	0x3e0f03af	0.13966249
223	0xbdb659f9	-0.0890388
224	0x3dfd524c	0.123692125
225	0xbe2fd55c	-0.17171234
226	0xbebc6c14	-0.36801207
227	0x3d0da498	0.034580797
228	0xbe1d6385	-0.15369995
229	0xbe119587	-0.14217196
230	0xbe5d3a1f	-0.21604203
231	0xbe6b1101	-0.22955705
232	0xbc81add1	-0.015829952
233	0x3e8bdaaf	0.2731528
234	0xbb1221d9	-0.0022298007
235	0xbeb5b798	-0.35491633
236	0xbe0f46a9	-0.13991798
237	0xbe441d06	-0.19151697
238	0x3e6cd29d	0.23127218
239	0xbe334ce5	-0.17509802
240	0x3e2199a0	0.1578126
241	0xbd42446a	-0.047428526
242	0xbd9e52ba	-0.077306226
243	0x3d2e5d2e	0.04256933
244	0x3e12dd52	0.1434224
245	0xbd88de1f	-0.06682991
246	0xbd0a2a8b	-0.03373198
247	0x3dfc4db2	0.12319507
248	0xbe9e27ac	-0.30889642
249	0x3e6bc225	0.23023279
250	0xbdf3baf1	-0.119008906
251	0xbd44a503	-0.04800893
252	0xbe6c37e4	-0.23068196
253	0x3d26f530	0.040761173
254	0xbd6f3703	-0.058402073
255	0xbe87ccad	-0.26523343

bias f4 [24]
0	0xbcfbf6b3	-0.030757284
1	0xbee3ea92	-0.445149
2	0xbe60c15d	-0.21948762
3	0x3e57b24e	0.21064112
4	0x3db43ec1	0.08801032
5	0x3e4e5df7	0.20153032
6	0xbd9a1408	-0.07523352
7	0xbe57efe1	-0.210876
8	0xbebd222d	-0.36940137
9	0x3d82b659	0.06382436
10	0xbee99b4c	-0.45626295
11	0xbcb85008	-0.0224991
12	0xbeb4ea8c	-0.35335195
13	0x3a7428b9	0.00093139295
14	0xbda59339	-0.08084721
15	0xbe96fb47	-0.29488584
16	0xbdc39166	-0.09549217
17	0xbc51e79c	-0.012811568
18	0x3ed297d4	0.4113146
19	0x3e99aec3	0.30016145
20	0xbda1bbd1	-0.07897151
21	0xbe00e861	-0.12588646
22	0xbe681270	-0.22663283
23	0x3dd3947e	0.10331057

weight f4 [48, 24, 6]
0	0xbe9abcdf	-0.30222222
1	0xbd860607	-0.065441184
2	0xbe02bdd7	-0.1276773
3	0xbe8ce665	-0.27519527
4	0xbe80ba11	-0.25141957
5	0x3e44eeb3	0.19231682
6	0xbe4d7a80	-0.20066261
7	0xbe24eacf	-0.16105197
8	0xbe8a46ed	-0.27007237
9	0xbe4b5924	-0.19858223
10	0xbe28e680	-0.16494179
11	0xbb5a76d1	-0.003333498
12	0xbeaed131	-0.34143975
13	0x3d219731	0.039450828
14	0xbf214c9c	-0.6300752
15	0xbda1ddac	-0.07903609
16	0xbe947736	-0.289972
17	0xbe94b070	-0.2904086
18	0xbe932236	-0.28737038
19	0xbf0cb694	-0.5496609
20	0xbf3722ea	-0.7153765
21	0xbf32af8a	-0.697991
22	0xbf1e6ef9	-0.6188808
23	0x3dc2a613	0.095043324
24	0x3ef2d9a2	0.47431666
25	0x3edbf1d6	0.42957944
26	0xbbdef8b5	-0.0068045505
27	0x3ef001bd	0.46876326
28	0x3e5ce79f	0.21572731
29	0x3ef1cc33	0.47226104
30	0x3d8c863f	0.06861543
31	0x3eb4c6cc	0.3530792
32	0x3ebbca44	0.36677754
33	0x3e9214a9	0.28531387
34	0x3e816879	0.2527502
35	0x3e038ab0	0.12845874
36	0x3ef4e014	0.47827208
37	0x3f12a96c	0.5728977
38	0xbdd93a63	-0.106068395
39	0xbe466f48	-0.19378388
40	0x3eb52687	0.35380957
41	0x3e606850	0.21914792
42	0xbec8f859	-0.39251974
43	0xbe9f05c4	-0.31059086
44	0x3d97fe0f	0.07421505
45	0x3d93c41a	0.07215138
46	0x3e1e2e8d	0.15447445
47	0x3dd88877	0.105729036
48	0x3ad973b3	0.0016590267
49	0x3e93275c	0.28740966
50	0xbd6c47eb	-0.057685774
51	0xbed1ea7d	-0.40999213
52	0xbee81cd7	-0.45334503
53	0x3dafb1ba	0.085788205
54	0xbdf6618c	-0.12030324
55	0x3dd8341e	0.105568156
56	0x3d99059c	0.07471773
57	0xbdde02ad	-0.10840354
58	0xbd42a823	-0.04752363
59	0x3e71ab1a	0.23600426
60	0xbdf67fd7	-0.12036102
61	0xbe45eec7	-0.19329368
62	0x3e101407	0.1407014
63	0xbedc8c6a	-0.43075877
64	0xbe407492	-0.18794468
65	0xbdf14590	-0.11780846
66	0x3d8cb8b4	0.06871167
67	0x3c1a21eb	0.009407501
68	0x3d80d7b0	0.06291139
69	0xbd1487a1	-0.03626216
70	0xbd8a2ce4	-0.067468435
71	0x3dc80209	0.09766013
72	0xbeec5ee1	-0.46166137
73	0xbe956db9	-0.29185274
74	0x3ca2eb1f	0.019887505
75	0xbde04537	-0.10950702
76	0xbdf7cf71	-0.12100113
77	0xbda5179e	-0.08061145
78	0xbd8b862f	-0.06812703
79	0xbe8da7de	-0.27667135
80	0x3e07a8a0	0.13247919
81	0x3eec1f67	0.46117708
82	0xbe3d0fce	-0.1846306
83	0xbddca1fe	-0.10773085
84	0x3df1e2b1	0.11810816
85	0xbe96737b	-0.2938498
86	0xbeda47f9	-0.42633036
87	0xbe7311e1	-0.23737289
88	0xbda342cc	-0.07971725
89	0xbe6036ef	-0.21895956
90	0x3ea4fb4e	0.3222298
91	0xbe717ecc	-0.23583525
92	0x3e0eced4	0.13946086
93	0x3e0970c1	0.13421918
94	0x3c1f6d8d	0.009730709
95	0xbe8d8184	-0.27637875
96	0x3eb8ac97	0.36069176
97	0x3e1e3a08	0.15451825
98	0x3e3720aa	0.17883554
99	0xbf04a2af	-0.51810735
100	0xbeddf429	-0.43350342
101	0x3d0d7824	0.034538403
102	0x3cc8feaf	0.024535505
103	0xbe849bea	-0.25900203
104	0xbf46d3b9	-0.77666813
105	0xbeb6d059	-0.35705832
106	0xbe8804e2	-0.26566225
107	0xbe97ff52	-0.2968698
108	0xbe06818b	-0.13135354
109	0xbe9c4469	-0.30520943
110	0xbf1350d1	-0.5754519
111	0xbe740795	-0.23831017
112	0xbf37b19f	-0.71755403
113	0xbd82b703	-0.06382563
114	0xbecc6eb7	-0.3992822
115	0xbf1dd580	-0.616539
116	0xbea7b590	-0.3275571
117	0xbf697110	-0.91188145
118	0xbf21d09f	-0.63208956
119	0x3e950c1c	0.291108
120	0xbdc20e02	-0.09475328
121	0xbd7efc2b	-0.062252205
122	0xbe969d08	-0.2941668
123	0xbe1ea79f	-0.1549363
124	0x3e887e4a	0.2665885
125	0xbe7a2148	-0.24426758
126	0x3d8e651f	0.06952881
127	0x3df841a4	0.12121895
128	0xbf22c2fe	-0.63578784
129	0xbd5efb98	-0.054439157
130	0xbe1957e5	-0.14974935
131	0xbea5aeb6	-0.32359856
132	0xbdc40bdf	-0.09572577
133	0x3e1b6485	0.15175064
134	0xbf2eb0d9	-0.682386
135	0xbeaea7f6	-0.3411252
136	0x3d9dd05b	0.07705756
137	0xbe9e489f	-0.3091478
138	0x3e8386e5	0.25688854
139	0x3e3c8627	0.1841055
140	0xbe9ad4c1	-0.30240443
141	0xbe663934	-0.22482759
142	0xbee328fa	-0.443672
143	0x3d899561	0.06717945
144	0x3e2f82da	0.1713976
145	0x3e33c673	0.17556171
146	0xbdf9b963	-0.12193563
147	0x3dabc592	0.08387293
148	0x3dd939be	0.106067166
149	0x3ea6286f	0.32452723
150	0x3ca9ee2a	0.020743448
151	0x3e9c598c	0.3053707
152	0xbe981b4f	-0.29708335
153	0x3ea5f177	0.32410786
154	0xbdcae12d	-0.0990623
155	0xbdc988bb	-0.098405324
156	0xbe177325	-0.14790018
157	0xbec4b81e	-0.3842172
158	0xbea9b414	-0.331452
159	0x3e3cefc7	0.18450843
160	0x3cdd57e8	0.027019456
161	0x3c1ba5b3	0.009499955
162	0xbed5c12b	-0.41748938
163	0xbe0c2745	-0.13686855
164	0x3dcd4dcd	0.10024605
165	0x3d8216a5	0.06351975
166	0xbeec0830	-0.46099997
167	0xbd71ed63	-0.05906428
168	0x3ea4155f	0.32047555
169	0x3d2bf75b	0.041983943
170	0x3ec338b8	0.3812921
171	0x3d89661f	0.06708931
172	0xbf38139b	-0.71904916
173	0xbddfd612	-0.109295025
174	0x3cc6400e	0.024200466
175	0xbe98a15e	-0.29810613
176	0xbdcb2b19	-0.099203296
177	0xbdef6dd6	-0.116908714
178	0x3ea903ce	0.33010715
179	0xbe839d73	-0.25706062
180	0xbd8a4095	-0.06750599
181	0xbf1d2868	-0.6138978
182	0xbec116e0	-0.37712765
183	0xbd09f2f3	-0.03367896
184	0xbd035f4e	-0.03207331
185	0xbee3ebef	-0.4451594
186	0xbe26b763	-0.16280894
187	0xbf1150dd	-0.5676401
188	0xbdf27ed7	-0.11840599
189	0xbf12bb31	-0.5731688
190	0xbe33f997	-0.1757568
191	0xbe7f8f62	-0.2495704
192	0xbdc8029e	-0.09766124
193	0xbe4293be	-0.19001672
194	0xbf21156f	-0.6292333
195	0xbee93429	-0.45547608
196	0xbd39a9a0	-0.045327783
197	0xbe0895d3	-0.13338403
198	0x3ef4c924	0.47809708
199	0xbe96900b	-0.2940677
200	0xbe5d54c3	-0.21614365
201	0xbdb53ed4	-0.08849874
202	0x3e139338	0.14411628
203	0xbecc367f	-0.39885327
204	0xbf4fd01a	-0.8117691
205	0xbeb7c0af	-0.35889193
206	0xbea6ebaa	-0.32601672
207	0x3d69354c	0.056935593
208	0xbeda5510	-0.42643023
209	0xbeebe82d	-0.46075574
210	0xbf292ee3	-0.6608717
211	0x3d6c6f35	0.057723243
212	0x3e903788	0.28167367
213	0x3e8a6306	0.27028674
214	0x3cdbdb6b	0.026838025
215	0x3cc3f17d	0.023918862
216	0x3e098535	0.1342972
217	0xbebf5381	-0.37368396
218	0x3e071937	0.13193212
219	0xbe4cfb8f	-0.20017837
220	0x3d414642	0.047186144
221	0x3da3d80d	0.08000193
222	0x3cd9c9de	0.026585516
223	0xbebc4a83	-0.36775598
224	0x3e808b9e	0.2510652
225	0x3d706077	0.058685746
226	0xbd2aa779	-0.04166362
227	0xbe44243a	-0.19154444
228	0xbd5d53d6	-0.05403503
229	0xbeedbd8e	-0.4643368
230	0xbe09c572	-0.13454226
231	0xbe65ae00	-0.22429657
232	0x3ef20bd4	0.4727465
233	0xbd8ae6f9	-0.06782336
234	0x3e100315	0.14063676
235	0x3efe371a	0.49651414
236	0xba035acc	-0.0005010783
237	0xbd15b854	-0.036552742
238	0x3e7ed386	0.24885377
239	0x3e98183e	0.29705995
240	0xbdb0e6f0	-0.08637798
241	0xbe0c8c06	-0.1372529
242	0x3eab2bed	0.3343195
243	0xbea619fa	-0.32441694
244	0x3d3b539b	0.04573403
245	0x3d1d3f1d	0.038390268
246	0xbdd9be6b	-0.106320225
247	0x3e123af7	0.14280306
248	0xbe0e5446	-0.13899335
249	0xbddc67a0	-0.107619524
250	0x3ec7816b	0.38965926
251	0x3f245496	0.6419157
252	0x3d33bf92	0.043883868
253	0x3e8f429b	0.27980503
254	0x3c6437c2	0.013929309
255	0xbe87779b	-0.2645844

bias f4 [48]
0	0x3ed1af28	0.40953946
1	0xbd5c487b	-0.05378006
2	0xbd98db1e	-0.07463668
3	0xbe7312d0	-0.23737645
4	0xbeaa93de	-0.3331594
5	0xbf40d3e9	-0.7532335
6	0x3eabef6a	0.33581096
7	0xbeb21d4e	-0.34787983
8	0xbe007e72	-0.12548235
9	0xbecfaf24	-0.4056331
10	0x3d8df808	0.06932074
11	0x3eeebe91	0.46629766
12	0xbeb824af	-0.35965487
13	0x3e90398c	0.28168905
14	0x3f18374a	0.59459364
15	0x3e7a3dd4	0.24437648
16	0xbf02a970	-0.5103979
17	0x3f0a52bc	0.5403249
18	0xbe94e62f	-0.29081866
19	0xbe419aec	-0.18906754
20	0x3d87519c	0.06607363
21	0xbec7c4b6	-0.39017266
22	0x3e68b37b	0.22724716
23	0xbeedd708	-0.46453118
24	0xbf288ea1	-0.65842634
25	0x3e6d0fa0	0.23150492
26	0x3e76b86d	0.2409379
27	0x3e023f63	0.12719493
28	0xbee5a45e	-0.44851965
29	0xbeaf6cdd	-0.34262744
30	0x3eb2cd41	0.3492222
31	0x3d266cd1	0.04063112
32	0xbea68401	-0.32522586
33	0x3ceef8de	0.029171403
34	0x3e510025	0.20410211
35	0x3e1b8d85	0.15190704
36	0xbea7c632	-0.327684
37	0x3d026a9c	0.031839952
38	0xbdb01f28	-0.085996926
39	0x3e29f7b7	0.16598402
40	0xbdb4ddb7	-0.08831351
41	0xbee43946	-0.44574946
42	0x3e50b938	0.20383155
43	0xbe109a39	-0.14121331
44	0x3eb1fc93	0.3476301
45	0x3e9ca52a	0.3059476
46	0x3d54778e	0.05187183
47	0x3e8f3dc9	0.27976826

weight f4 [64, 1344]
0	0x3cd763be	0.026292678
1	0xbe1ca3e4	-0.15296894
2	0xbeb91b6b	-0.3615373
3	0x3e484ea4	0.19561249
4	0x3eae0387	0.33987066
5	0xbd1e0df3	-0.03858752
6	0xbe5e70b1	-0.21722676
7	0xbe858c76	-0.26083726
8	0xbe1fa2b4	-0.1558941
9	0xbe0f6ca6	-0.1400629
10	0x3d8b0310	0.067876935
11	0xbdad9607	-0.08475881
12	0xbe8989a5	-0.26862827
13	0xbd3f8058	-0.046753258
14	0x3d98f041	0.074677
15	0x3e8947ab	0.2681249
16	0xbd2a1628	-0.041525036
17	0xbebc2be4	-0.36752236
18	0xbd8c4577	-0.06849187
19	0x3e0a9b98	0.13535917
20	0xbe844336	-0.25832528
21	0x3e54bb6d	0.20774622
22	0xbe30935c	-0.17243713
23	0x3e7d07da	0.24710026
24	0x3e150d22	0.14555791
25	0xbe8e0dcf	-0.2774491
26	0x3d00484e	0.031318955
27	0x3c8c4eec	0.017127477
28	0x3ed9fd97	0.42576286
29	0x3e83999c	0.25703132
30	0x3db07f46	0.086180255
31	0x3e45227b	0.19251435
32	0x3e70aa78	0.23502529
33	0xbe264185	-0.16235931
34	0xbd0ae7af	-0.033912357
35	0x3e684e14	0.22686034
36	0x3e868e7b	0.2628058
37	0x3e0b0859	0.13577403
38	0x3d40c525	0.04706301
39	0x3d831d91	0.06402124
40	0x3dc0955c	0.09403488
41	0xbd9702db	-0.073735915
42	0xbe09a1d0	-0.13440633
43	0x3dc0a9e5	0.09407405
44	0xbc5d3e7c	-0.013503667
45	0xbca6ff06	-0.020385277
46	0x3d0aa88d	0.03385215
47	0x3ca945ec	0.020663224
48	0xbea7d1fd	-0.32777396
49	0xbe4bab9a	-0.1988968
50	0xbe5b33dc	-0.21406502
51	0x3e8dbcab	0.27683005
52	0x3e14f87c	0.14547914
53	0xbe534e23	-0.20635276
54	0xbbca4ad8	-0.006173473
55	0x3e8d5b5e	0.2760877
56	0xbde48629	-0.111584015
57	0x3d469e49	0.048490796
58	0xbd8eb29d	-0.069676615
59	0x3db6b869	0.08921892
60	0xbe8863af	-0.26638553
61	0xbddf5a68	-0.109059155
62	0xbe7f3bd5	-0.24925168
63	0x3e90b365	0.28261867
64	0xbe863f82	-0.26220328
65	0xbf0bcb90	-0.54607487
66	0x3e15b08d	0.1461813
67	0xbe6b23f3	-0.22962932
68	0xbc038ad2	-0.008028703
69	0x3c1eb490	0.009686604
70	0x3d1a45e9	0.037664328
71	0x3f2cf3c4	0.67559457
72	0x3d4784d0	0.048710644
73	0xbe26f1b1	-0.16303135
74	0x3e52d74d	0.20589943
75	0x3f0f7607	0.5603947
76	0x3d403f8d	0.046935607
77	0xbcf47ca2	-0.029844586
78	0xbe15137b	-0.14558212
79	0x3ed7a362	0.4211684
80	0x3ebe4228	0.37159848
81	0xbe6ba910	-0.23013711
82	0xbe78d20f	-0.24298881
83	0x3dc78ff8	0.09744257
84	0xbec2d62a	-0.3805402
85	0x3ebf0818	0.37310863
86	0x3ef14bf5	0.47128263
87	0x3db9152f	0.090372436
88	0xbe1e81f2	-0.15479258
89	0x3dad8ebd	0.08474491
90	0x3da8a92c	0.08235392
91	0xbd0ca48c	-0.03433661
92	0xbe8e7727	-0.2782528
93	0x3e0c4f75	0.13702185
94	0x3d2b5f35	0.041838843
95	0xbe983b15	-0.29732576
96	0xbc6dcd3b	-0.014514263
97	0x3dbc4928	0.09193641
98	0x3daee5a9	0.08539898
99	0x3d1c1e60	0.038114905
100	0x3da44365	0.08020667
101	0x3f03ffff	0.51562494
102	0x3e3f6749	0.18691744
103	0xbd53ca96	-0.051706873
104	0xbe3d1458	-0.18464792
105	0x3e06dfae	0.13171265
106	0xbe7491f8	-0.23883808
107	0xbd6928b9	-0.0569236
108	0x3d91dc3e	0.07122086
109	0x3d8ff543	0.07029202
110	0x3d4a0687	0.04932263
111	0x3e930275	0.28712812
112	0xbeba27f6	-0.36358613
113	0xbe862a52	-0.26204163
114	0xbe0c1c35	-0.13682635
115	0x3c9c1dbd	0.019057149
116	0xbda032b7	-0.07822173
117	0xbdc31058	-0.09524602
118	0xbdf3e59a	-0.119090274
119	0xbde2f514	-0.11081901
120	0x3bdf4a9d	0.0068143145
121	0xbcb9715a	-0.022637058
122	0xbeab6ccd	-0.33481446
123	0xbe64d5be	-0.22347161
124	0x3b6480f4	0.00348669
125	0x3d4a0c4f	0.049328145
126	0xbe3a3ba7	-0.18186818
127	0xbd247c2a	-0.040157475
128	0xbde3caf1	-0.111226924
129	0x3d3b5230	0.045732677
130	0xbebde2b3	-0.3708702
131	0xbe036b3d	-0.12833877
132	0xbd0b9acd	-0.034083176
133	0xbdc040b5	-0.09387342
134	0x3d79a95e	0.060952537
135	0xbe79f7c4	-0.24410921
136	0xbe61d2aa	-0.22053018
137	0x3d006145	0.031342763
138	0xbdf5f113	-0.12008872
139	0xbe6540ef	-0.22388051
140	0xbeb706d9	-0.35747412
141	0xbdce1a99	-0.10063667
142	0x3d3a5140	0.045487642
143	0x3e3dd466	0.18538055
144	0xbe7ab268	-0.24482119
145	0x3e052dd0	0.13005757
146	0x3ee53bc8	0.44772172
147	0x3ef1f461	0.4725676
148	0xbe54cd21	-0.20781375
149	0xbdda70d5	-0.10666052
150	0x3d3b790b	0.045769732
151	0x3e4d480b	0.20047013
152	0x3d8ee75d	0.06977723
153	0xbd173a55	-0.036920864
154	0x3e1f7d66	0.1557518
155	0x3d67ec6f	0.056621965
156	0xbc27f575	-0.010251393
157	0xbe591f95	-0.21203454
158	0x3e8ec986	0.27888125
159	0xbe6f1f23	-0.23351721
160	0x3dc290b8	0.09500259
161	0x3e122c98	0.14274824
162	0x3de9bfc7	0.11413532
163	0xbe5d722c	-0.21625584
164	0xbefaa0c9	-0.48950794
165	0xbd32627b	-0.04355095
166	0xbe3a378e	-0.18185255
167	0x3dee00e0	0.11621261
168	0xbef67fa0	-0.48144245
169	0xbda64a57	-0.08119648
170	0xbe5d0bbc	-0.21586508
171	0xbe258cd7	-0.16167007
172	0xbe8dbe5b	-0.27684292
173	0xbc932c6e	-0.017965522
174	0xbd78b67f	-0.060720917
175	0xbe966399	-0.29372862
176	0xbe8c3739	-0.27385882
177	0xbd0ba225	-0.03409018
178	0xbe8503d9	-0.25979498
179	0xbe33b6e4	-0.17550236
180	0xbe045077	-0.1292132
181	0xbe9b6841	-0.30352977
182	0xbe949c86	-0.29025668
183	0xbe85ab9a	-0.26107484
184	0xbe31be86	-0.17357835
185	0xbe6ac0a6	-0.22925052
186	0xbec25347	-0.3795416
187	0xbeed5515	-0.46353975
188	0xbe9cd434	-0.30630648
189	0x3c2425d2	0.010018783
190	0xbdf7cc4c	-0.120995134
191	0xbf42ce5b	-0.76096123
192	0xbea5ef34	-0.3240906
193	0xbdc694d7	-0.09696358
194	0xbe7df736	-0.24801335
195	0x3db6f7ea	0.089340046
196	0x3c9c323a	0.019066919
197	0x3dab3647	0.08359962
198	0xbc71092c	-0.014711659
199	0xbdfa6a7e	-0.12227343
200	0xbd4769c9	-0.04868487
201	0xbe7d30c0	-0.24725628
202	0xbe1a0916	-0.15042529
203	0xbec80042	-0.39062697
204	0x3e730e3b	0.23735897
205	0xbea15fbe	-0.31518358
206	0xbd87faa4	-0.06639603
207	0x3d5e427c	0.054262623
208	0xbda4f20e	-0.08053981
209	0xbd6ee9ad	-0.05832832
210	0xbd051abe	-0.032496206
211	0x3cb4cb66	0.022069644
212	0x3e2f79ca	0.17136303
213	0xbe3c4b72	-0.18388155
214	0x3db9a81a	0.09065266
215	0xbd880438	-0.0664143
216	0x3e18bb26	0.14915141
217	0xbe030e36	-0.1279839
218	0x3def06b9	0.11671204
219	0xbec7727b	-0.3895453
220	0xbd915fc3	-0.07098343
221	0xbd9c3eed	-0.0762919
222	0x3d942ad6	0.07234733
223	0x3e8b2a28	0.271806
224	0x3edeeb3b	0.43538842
225	0x3e66ffd4	0.22558528
226	0xbd8f4b71	-0.06996811
227	0x3ee0e67d	0.4392585
228	0x3e96d10d	0.29456368
229	0x3eb96849	0.36212376
230	0xbde6b664	-0.11265257
231	0x3c55c887	0.013048298
232	0x3eccf3b2	0.40029675
233	0x3e27a814	0.1637271
234	0x3e036611	0.12831904
235	0xbee7bd54	-0.45261633
236	0x3ec821d0	0.39088297
237	0x3d919544	0.07108548
238	0x3e8b6d3f	0.27231786
239	0xbe5135b0	-0.20430636
240	0x3e1fb43d	0.15596099
241	0xbd1792ba	-0.037005164
242	0xbe0995d5	-0.13436063
243	0x3df9198a	0.12163074
244	0x3e3e88f4	0.18606931
245	0x3e9ee4b1	0.31033853
246	0xbdc6cf96	-0.097075626
247	0x3e283242	0.16425422
248	0xbb255a51	-0.0025230835
249	0x3d5be560	0.053685546
250	0x3e4c44fb	0.19948189
251	0xbe71e3e1	-0.23622085
252	0x3f413edf	0.7548656
253	0x3eab7c2c	0.33493173
254	0x3e90fe76	0.28319138
255	0x3eba6088	0.36401772

bias f4 [64]
0	0xbe6ae150	-0.22937512
1	0xbe82eaa2	-0.25569636
2	0x3e25d30a	0.16193786
3	0xbe8216a6	-0.25407904
4	0x3e8084e9	0.25101402
5	0x3e3b70d8	0.18304765
6	0xbe0b47bf	-0.13601588
7	0x3f18f573	0.59749526
8	0x3e96b415	0.29434267
9	0x3ec62f2b	0.3870786
10	0xbea8e483	-0.3298684
11	0xbd8ef1af	-0.06979691
12	0x3e8dce92	0.27696663
13	0xbcd58edf	-0.026069103
14	0xbd360249	-0.044435773
15	0xbe99efaa	-0.30065662
16	0xbe868fdb	-0.26281628
17	0xbe9037c0	-0.28167534
18	0x3eefab2c	0.4681028
19	0x3df00de5	0.117214
20	0xbe05e893	-0.13077001
21	0xbf130db7	-0.574428
22	0xbe806d23	-0.25083265
23	0x3c8e1ef7	0.01734875
24	0xbe0cfa03	-0.13767247
25	0xbe41a235	-0.18909533
26	0xbbd82f42	-0.0065974304
27	0xbdf15a30	-0.1178478
28	0x3ebb07f9	0.3652952
29	0x3de0325d	0.10947106
30	0x3e61acc4	0.22038561
31	0x3e4e95f6	0.20174393
32	0xbeb3d669	-0.3512452
33	0x3ec37be3	0.38180456
34	0x3ccbb095	0.024864474
35	0xbe44e735	-0.19228823
36	0xbe1f05be	-0.15529534
37	0x3efcb532	0.4935699
38	0xbddb0515	-0.10694329
39	0x3e5d8c83	0.21635632
40	0xbe7d68eb	-0.24747054
41	0xbebf63c0	-0.3738079
42	0xbe408ccf	-0.18803714
43	0xbee35000	-0.44396973
44	0xbeda107e	-0.42590708
45	0x3e9552a2	0.29164606
46	0xbccb1be9	-0.024793582
47	0xbe92ea59	-0.28694418
48	0x3ecb42ef	0.39699504
49	0xbdb3ec20	-0.08785272
50	0xbe896be0	-0.26840115
51	0x3ea4d7ca	0.32195884
52	0xbec8db92	-0.3923002
53	0x3ec646eb	0.3872598
54	0x3c93ca86	0.018040907
55	0xbf16dff9	-0.58935505
56	0x3e0d5a2e	0.13803932
57	0xbe7e4e18	-0.24834478
58	0xbda99fe5	-0.082824506
59	0x3e388280	0.18018532
60	0xbdc0b078	-0.09408659
61	0xbe27c44a	-0.16383472
62	0xbd977cca	-0.073968485
63	0x3e6d2932	0.23160246

weight f4 [25, 64]
0	0xbe82a004	-0.25512707
1	0x3d90e9a1	0.07075811
2	0x3c351954	0.011053402
3	0x3ecb5052	0.39709717
4	0x3dacd8fe	0.084398255
5	0x3e8487f0	0.25884962
6	0xba83fa00	-0.0010069013
7	0x3e8e500b	0.27795443
8	0x3e3c4a09	0.18387617
9	0x3dee5c0f	0.116386525
10	0xbc46b83b	-0.012128885
11	0xbf1707e1	-0.589964
12	0x3de8b46c	0.11362538
13	0xbe4deace	-0.20109102
14	0xbd265ffe	-0.04061889
15	0xbe28f637	-0.16500174
16	0xbed88ed6	-0.42296475
17	0xbea80cda	-0.32822305
18	0x3eb5f543	0.35538682
19	0xbd89599b	-0.06706544
20	0xbe9f028e	-0.31056637
21	0xbeddef05	-0.4334642
22	0x3e1ab4f1	0.15108086
23	0xbe956863	-0.29181203
24	0xbea36346	-0.31911677
25	0xbe59c493	-0.21266393
26	0x3e77df92	0.24206379
27	0xbe91eeb2	-0.28502423
28	0x3e8f8b47	0.28035948
29	0x3f163683	0.5867693
30	0xbd875aa9	-0.06609089
31	0xbedc4ee3	-0.43028936
32	0xbe30738d	-0.17231579
33	0x3f0b9d0f	0.5453653
34	0xbe85047d	-0.25979987
35	0x3e18823b	0.14893429
36	0xbd8b6cfa	-0.06807895
37	0x3edbda1e	0.42939848
38	0x3ed7fdd6	0.4218585
39	0x3dd50824	0.10401943
40	0xbe5cf064	-0.21576077
41	0xbec1b43c	-0.3783282
42	0x3a75c7d5	0.00093757856
43	0xbee99bfb	-0.45626816
44	0xbee3ae02	-0.44468695
45	0x3ed3dd31	0.41379693
46	0xbeb83f34	-0.3598572
47	0x3e313f71	0.17309357
48	0x3eb8a6de	0.3606481
49	0xbde0bbe6	-0.10973339
50	0xbd3c7b0c	-0.046015784
51	0x3e9b2a27	0.30305597
52	0x3d7e6d2c	0.062115833
53	0x3e956625	0.29179493
54	0x3effe63e	0.49980348
55	0xbe95d0d6	-0.29260892
56	0x3e8540a3	0.26025876
57	0xbe6ba65b	-0.23012678
58	0x3d255432	0.040363498
59	0x3e9bcb40	0.30428505
60	0xbebddf53	-0.37084445
61	0x3e54edb6	0.20793805
62	0x3eb5fe3a	0.35545522
63	0x3ea5ebb7	0.324064
64	0xbe28d37b	-0.16486923
65	0xbd41a41a	-0.04727564
66	0x3ec4cbea	0.38436824
67	0x3e32fa0b	0.17478196
68	0xbdf383d7	-0.11890381
69	0x3a4bba5d	0.0007771606
70	0xbd9a25be	-0.0752673
71	0xbc975925	-0.018475125
72	0xbe57426d	-0.21021433
73	0xbedd0b3f	-0.43172643
74	0xbe85dde7	-0.2614586
75	0x3e1039cc	0.14084548
76	0xbea7931f	-0.32729432
77	0xbe8e9c30	-0.27853537
78	0xbe36469b	-0.17800371
79	0x3e11e0b7	0.14245878
80	0x3eec6b61	0.46175674
81	0xbe998505	-0.29984298
82	0x3d02b13d	0.03190731
83	0xbe0a6ec0	-0.1351881
84	0xbd8be51f	-0.06830811
85	0xbe4a8584	-0.19777495
86	0xbe8acff2	-0.27111775
87	0x3eafd5d4	0.34342825
88	0xbd39b6bb	-0.04534028
89	0x3d310fde	0.043228023
90	0x3edcf36d	0.4315447
91	0x3e65d34d	0.22443886
92	0xbda74dd1	-0.08169139
93	0xbda024ae	-0.07819496
94	0xbeb14e04	-0.34629834
95	0x3e1db89f	0.15402459
96	0x3d995c36	0.07488291
97	0x3e9ce42e	0.30642837
98	0x3e8affbe	0.2714824
99	0x3db00d5a	0.085962966
100	0x3e559d8b	0.20860879
101	0x3e7898de	0.24277064
102	0x3de4e16f	0.111758105
103	0xbe860d37	-0.26181957
104	0xbeabee5c	-0.3358029
105	0x3d1d50ec	0.03840725
106	0xbce984e1	-0.028505744
107	0xbd9f2a37	-0.07771724
108	0xbe99dc1c	-0.30050743
109	0x3ed6714f	0.41883323
110	0x3eaeca9d	0.34138957
111	0xbd527a04	-0.051385894
112	0xbde0f9d9	-0.10985155
113	0xbe3f9de5	-0.18712576
114	0x3e3bfbc4	0.1835776
115	0x3e5591b2	0.2085636
116	0xbe55c589	-0.20876135
117	0x3e1c37d0	0.15255666
118	0xbece57c7	-0.40301344
119	0xbda4ebff	-0.08052825
120	0xbe6924fe	-0.22768018
121	0xbe3f7c4e	-0.18699762
122	0x3e3bb947	0.18332396
123	0x3b165fb1	0.002294522
124	0x3e8544cc	0.2602905
125	0xbd526099	-0.051361654
126	0xbef5fd9e	-0.48045057
127	0xbc8c1afd	-0.017102713
128	0x3a1519da	0.0005687751
129	0xbe91d8d4	-0.2848574
130	0x3ee8a399	0.45437315
131	0xbf0f18f1	-0.5589743
132	0xbe818af3	-0.25301322
133	0xbe61e05d	-0.22058244
134	0x3e3c3903	0.18381123
135	0xbea2ff61	-0.31835464
136	0x3ebc0c50	0.36728144
137	0x3de41e1a	0.11138554
138	0xbd5c105e	-0.053726546
139	0x3d9fbbaa	0.07799466
140	0x3e837815	0.25677553
141	0xbe709602	-0.23494723
142	0xbee10058	-0.43945575
143	0xbdb71710	-0.08939946
144	0x3e8fbfa2	0.28075892
145	0xbc9bf6a3	-0.019038504
146	0xbe1c6820	-0.15274096
147	0xbf1a3a24	-0.60244966
148	0xbe30910a	-0.17242828
149	0xbec78216	-0.38966435
150	0xbdaffe02	-0.0859337
151	0x3e295297	0.16535412
152	0x3c9e0fbd	0.019294614
153	0xbe563ce5	-0.20921667
154	0x3f1353c5	0.575497
155	0xbe601341	-0.21882345
156	0xbea33c65	-0.31882015
157	0x3d7dac73	0.06193204
158	0x3f11ed48	0.5700269
159	0x3dd73ba7	0.10509425
160	0xbf3265bc	-0.69686484
161	0xbedc7d09	-0.43064144
162	0x3e0e500e	0.13897726
163	0x3ebdd10f	0.37073562
164	0xbf172c7c	-0.5905225
165	0xbd0d282d	-0.034462143
166	0x3d3b5c21	0.045742158
167	0x3e211cf6	0.15733704
168	0xbe442230	-0.19153666
169	0xbee695bf	-0.45036122
170	0xbd215347	-0.03938606
171	0x3e2143b4	0.15748483
172	0xbeeacb3b	-0.45858178
173	0xbf0e3fae	-0.5556592
174	0xbd3be69a	-0.045874216
175	0xbd923bc3	-0.07140305
176	0x3ef49a5b	0.47774014
177	0x3dd5165a	0.10404654
178	0xbe84894e	-0.25886005
179	0x3f00dd76	0.5033792
180	0xbe2482d5	-0.16065533
181	0x3e8d34b1	0.27579263
182	0xbe07aa77	-0.13248621
183	0xbe96eea4	-0.29478943
184	0x3d3e42d7	0.046450462
185	0xbe0ab29f	-0.13544701
186	0x3b82b8db	0.0039893216
187	0x3d914f1e	0.070951685
188	0xbd9b777a	-0.07591148
189	0xbcbdb78a	-0.023158807
190	0x3d1441a4	0.036195412
191	0xbddd1e05	-0.107967414
192	0xbe435056	-0.19073614
193	0xbc8cf0d7	-0.017204685
194	0x3d96f459	0.07370824
195	0x3dee2466	0.11628036
196	0x3e69f1f1	0.228462
197	0x3e91ade5	0.28452983
198	0xbf1203e6	-0.570372
199	0xbd6f3ad3	-0.05840571
200	0xbd94d3ef	-0.072669856
201	0x3ee287c8	0.44244218
202	0xbdbfd48b	-0.09366711
203	0xbde1c423	-0.11023738
204	0x3f034885	0.5128253
205	0xbeda3ccf	-0.42624518
206	0xbe504169	-0.20337452
207	0x3e0e9c5f	0.13926838
208	0x3e308b99	0.17240752
209	0x3eee9397	0.46596977
210	0xbda85aaf	-0.082204215
211	0x3ebcfdbc	0.36912334
212	0xbe6b0e9b	-0.2295479
213	0x3e85c83d	0.26129332
214	0x3c5c4a5e	0.013445465
215	0x3eaeed81	0.34165576
216	0xbe88df47	-0.26732847
217	0x3d04eb6c	0.03245108
218	0xbe100e39	-0.14067926
219	0x3e57b2d9	0.21064319
220	0xbec700f8	-0.38867927
221	0xbeb4daf7	-0.35323307
222	0x3f06ac41	0.5260659
223	0x3ee01e49	0.43773106
224	0x3d105f13	0.03524692
225	0x3b687387	0.003546925
226	0x3f03229d	0.5122469
227	0x3e979feb	0.29614195
228	0xbd9ba93e	-0.0760064
229	0x3e20074d	0.15627785
230	0x3e994653	0.29936466
231	0xbde6d559	-0.112711616
232	0xbdd9570e	-0.106123075
233	0xbc263f33	-0.010146904
234	0xbdc4dba3	-0.09612205
235	0x3eb80341	0.35939983
236	0xbec0511b	-0.3756188
237	0x3cb1f2e4	0.021722265
238	0xbf0fdb02	-0.56193554
239	0x3dfec674	0.12440196
240	0xbd0205b9	-0.03174374
241	0x3eace3b0	0.33767462
242	0x3e536a4f	0.20646022
243	0x3e57cd94	0.21074516
244	0x3e7bea96	0.24601206
245	0x3e333807	0.17501841
246	0x3f049ed4	0.5180485
247	0x3e08a3fe	0.13343808
248	0xbe1e0aae	-0.15433761
249	0x3b3fef13	0.0029286786
250	0x3e8abd5b	0.27097592
251	0xbd46bbcf	-0.048518952
252	0xbe76ada9	-0.24089684
253	0xbe851c28	-0.25998044
254	0x3ea5b539	0.32364824
255	0xbe990c23	-0.29892072

bias f4 [25]
0	0x3edc86cd	0.43071595
1	0x3f2adaec	0.667403
2	0x3f0d0823	0.5509054
3	0x3e20179b	0.15634005
4	0xbe5c9137	-0.2153977
5	0xbe6f9077	-0.23394953
6	0x3f02929b	0.5100495
7	0x3e3c7109	0.18402494
8	0x3db571f4	0.088596255
9	0x3dedd219	0.116123386
10	0x3d0d23cf	0.034457978
11	0x3e92b364	0.2865249
12	0x3e9aea89	0.3025706
13	0xbe94cf8c	-0.29064596
14	0xbe069db0	-0.1314609
15	0x3d469da4	0.04849018
16	0x3e720936	0.23636326
17	0xbdaac40a	-0.08338173
18	0x3deae951	0.11470283
19	0xbe509073	-0.20367603
20	0x3f1c61a8	0.6108651
21	0xbe846f32	-0.25866085
22	0x3cee8251	0.029114874
23	0xbf435daa	-0.76314795
24	0xbf744717	-0.95420974
