result/config1_main/preliminary_model9.pt (torch_old, 428387 bytes, 10 tensors)

weight f4 [12, 2, 192]
000000 ec 14 13 be 47 ea c7 bd 9e d1 4d 3d f2 f6 97 bd
       -0.1436345 -0.09761482 0.050248735 -0.07420148
000010 0a 24 de bd 2c d5 18 be 89 b0 7e bd b3 a1 5c 3e
       -0.10846718 -0.14925069 -0.062180076 0.21546058
000020 56 e5 47 3e 35 42 07 3b 40 5b 63 be eb f6 15 be
       0.19521078 0.0020638828 -0.22202778 -0.14644973
000030 79 a4 bc 3c 32 70 58 3e a7 2d 14 3d f2 b6 2a be
       0.023027645 0.21136549 0.03617635 -0.1667135
000040 9d 7b 27 3e 5e 3f b9 3d 2f a1 23 be c9 49 26 be
       0.16355748 0.090452895 -0.15979455 -0.16239084
000050 1f 56 3f 3d 20 b5 5a 3e 65 48 c5 bd e4 0c 56 be
       0.04671299 0.21358156 -0.09632949 -0.20903355
000060 62 c1 07 be 20 d2 1f bc 91 5d 87 3e 56 b9 da 3d
       -0.13257363 -0.009754688 0.26438573 0.10679881
000070 71 00 f3 3d 2a 4b 81 be 42 38 73 be db 2f 23 3e
       0.118653186 -0.25252658 -0.2375193 0.15936224
000080 4a aa 85 ba f4 f8 30 3e 72 9b 28 3e ff 69 09 be
       -0.0010197845 0.17282468 0.16465548 -0.1341934
000090 c7 3e ac bd 7a 41 12 be 87 1d f3 3c 15 89 5b 3e
       -0.08410411 -0.1428279 0.029677166 0.21439011
0000a0 b8 c3 4f 3d b4 ca 1e 3e 81 0b bc 3d 5b 23 ad bd
       0.05072376 0.15507013 0.09181882 -0.08454009
0000b0 ab 91 ca 3d 8f c8 5f 3d a3 66 35 3d 7b 54 5d be
       0.09891065 0.054634627 0.044287335 -0.21614258
0000c0 9e c3 20 3d 72 77 2b bd 8d 99 31 be 4a d8 03 3e
       0.039249055 -0.04186196 -0.17343731 0.12875476
0000d0 3d 8f 5c 3e 8b 01 f1 bc 16 74 95 be dd 7d 22 bd
       0.21539016 -0.029419681 -0.2919013 -0.039670814
0000e0 f0 24 b8 bd 8a 82 98 bd 13 ec 3e bc d8 f1 89 3c
       -0.0899142 -0.07446773 -0.011652964 0.016838953
0000f0 c9 8f 62 be 3b cd 95 be 49 8b 71 bc 92 a8 0c be
       -0.22125162 -0.2925814 -0.014742681 -0.1373618
000100 d1 22 cd 3d 51 10 79 39 f9 59 bb bc 40 38 1e bc
       0.10016406 0.00023752569 -0.02287005 -0.009656966
000110 8f 02 40 3e eb a3 0d 3e 84 c6 3e be 3e 5e 0a bd
       0.18750976 0.13832061 -0.18630415 -0.033781283
000120 0f d6 3a bb ca ee 1c 3e 66 36 f7 bd 18 1d 1d be
       -0.0028508937 0.15325466 -0.120709226 -0.1534313
000130 0b 2c c6 bb ba ba 4d bd 79 11 1c bd c6 e5 19 3d
       -0.006047731 -0.050226904 -0.0381026 0.037572645
000140 91 32 e2 3d 2a 95 2f bd 9d 48 72 be d1 e5 8e be
       0.11044801 -0.042866863 -0.23660512 -0.2790971
000150 09 8b c4 bc 06 75 8a bd 58 bf ea 3c 92 fd e8 3d
       -0.023992078 -0.06760602 0.028655693 0.1137649
000160 6d ab 14 3e f0 2a 81 3e f6 bd 0a be 84 19 bd bd
       0.14518519 0.2522807 -0.13549027 -0.09233382
000170 ee af c0 3c 8e d8 08 3e a7 16 21 3e f3 47 c9 3c
       0.02352139 0.13363859 0.15731297 0.02457044
000180 bb 1c aa bd c6 3c 8d be 57 ee 36 3e fe 66 39 3e
       -0.08306261 -0.2758543 0.17864357 0.18105695
000190 af ae 07 3d 5c e1 c0 3c 78 f4 23 bd 69 b8 e1 bd
       0.033125576 0.02354496 -0.040028065 -0.110215016
0001a0 bf 48 04 be b4 29 83 3e 86 79 3d 3e b0 9d e5 bd
       -0.12918375 0.25617754 0.18503389 -0.11211717
0001b0 1f 4f 24 3d 5a c3 f2 bd 32 6a 28 be 5c 30 66 3e
       0.04011452 -0.118536666 -0.1644676 0.22479385
0001c0 3d 2e 0e 3e db 02 e1 3d a6 9f c0 3c 77 e2 47 3d
       0.13884826 0.10986873 0.023513626 0.048799958
0001d0 a8 22 07 3e e3 86 3a 3e 17 a5 c0 3d 74 d7 8a ba
       0.13196814 0.18215518 0.094064884 -0.0010592774
0001e0 3c 65 40 3e f3 79 89 3c a8 35 b6 3d 4b 2b 84 3e
       0.18788618 0.016781783 0.08896953 0.2581428
0001f0 d9 18 ae 3e 24 3a 75 3d 76 79 0c bd 87 6c 3c be
       0.34003332 0.0598699 -0.03429552 -0.18400775
000200 1a dc 23 3d ca 66 33 3e 99 86 fa 3c b0 49 24 3d
       0.040004827 0.1751968 0.03058176 0.040109336
000210 1e 73 b0 ba f9 34 0f bd 1c f4 31 bd 02 3a 37 3e
       -0.0013462042 -0.034962628 -0.04344569 0.17893222
000220 eb d9 21 3e e4 84 4e 3d 2f bf d6 bb f2 df d7 bd
       0.15805785 0.050419703 -0.0065535526 -0.10540761
000230 d4 5b cd 3d ff 02 7c 3e 54 be be 3d 8c dc e1 b9
       0.100272804 0.24610518 0.09313646 -0.00043079664
000240 fb 9f ad bc 2c aa 9e bd be d7 06 bd dc 16 a4 3d
       -0.021194449 -0.077473015 -0.03292059 0.080121726
000250 41 03 06 3e c5 26 9a bd b3 ac 8c 3d 21 a9 24 3e
       0.13087179 -0.07526926 0.06868877 0.16080143
000260 8b e3 c6 3d bc cf ed 3d 46 f0 f2 3c 34 31 d3 bd
       0.09711369 0.11611888 0.029655587 -0.10312119
000270 bd 6b 19 be 9d ab 01 be ae 49 05 be 70 6c 43 bd
       -0.14982505 -0.12663122 -0.13016388 -0.047710836
000280 ca ca d8 bd c3 07 c7 3d 64 20 d5 3d c2 8a 81 3d
       -0.10585554 0.09718277 0.10406569 0.06325294
000290 40 6c 35 3e 86 d7 a9 bb d2 11 d9 3a 9d 4e 53 3b
       0.17717075 -0.005183163 0.0016561097 0.0032242902
0002a0 75 1a 7a bd bd 47 84 bb e1 d6 ea bd 32 c4 08 bd
       -0.061060388 -0.004036872 -0.11466766 -0.03339023
0002b0 a2 97 2f be 39 77 5f bd b4 e4 26 be b6 f6 32 be
       -0.17147687 -0.05455706 -0.16298181 -0.17476925
0002c0 7e 6b 6c be 16 8b dc bd b6 03 37 3d 26 86 50 be
       -0.2308788 -0.10768716 0.044681273 -0.20363674
0002d0 98 cf 65 bd db 34 e1 3d 03 7e 34 bc 12 52 ae be
       -0.05610618 0.109964095 -0.011016372 -0.3404699
0002e0 6e 2d eb bd 9a 32 4d be e9 2a b5 bd 57 b6 93 bd
       -0.114832744 -0.20038834 -0.08846075 -0.07212513
0002f0 b3 87 cc 3c b6 8a 61 bd 0d 68 82 bd 30 a8 52 be
       0.02496705 -0.055063926 -0.06367502 -0.20571971
000300 31 90 ab bd 37 c8 0b 3d d2 58 89 3c 4b fd a7 3c
       -0.08377112 0.034126487 0.016765986 0.020506522
000310 ef 3f 16 3b 7e 77 01 bd 2d d7 28 be c7 f6 01 3e
       0.002292629 -0.031608097 -0.16488333 0.12691794
000320 c3 54 64 3e 7f be 39 bc 75 40 7b be 5c 02 bf be
       0.22297959 -0.011336922 -0.24536307 -0.37306488
000330 8a 15 7b bd 98 67 4f 3e 50 c1 d4 3d c7 44 94 be
       -0.061299838 0.20254362 0.10388434 -0.28958723
000340 28 35 25 be a8 97 ea 3d 80 81 75 bd 3f 4d db bd
       -0.16133559 0.114547074 -0.059937954 -0.10708093
000350 c0 f6 67 be ff 70 6e 3c 1c 3f 96 bd 8a e2 3b 3d
       -0.22652721 0.014553308 -0.07336256 0.04587034
000360 54 fa e6 3d bb cb 2c 3d 35 fd 11 3d 29 d9 10 be
       0.11278215 0.04218648 0.035641868 -0.1414534
000370 31 a3 8d 3e 61 68 1d 3e ba 3c 42 3e e2 62 69 3e
       0.27663568 0.15371849 0.18968478 0.22791627
000380 48 a8 c2 3d 2d 52 42 3e dd 7f 2e 3e c6 b1 11 3e
       0.09504753 0.1897666 0.17040963 0.14227971
000390 82 80 80 3e 96 28 a0 3e 93 0a b0 3e d1 06 21 3e
       0.25098044 0.31280965 0.34383067 0.15725257
0003a0 cf d3 1c 3d 07 18 49 be eb 2a 97 3c a3 b3 57 3e
       0.038287934 -0.19638072 0.018453082 0.2106462
0003b0 71 31 bc 3e c5 f6 00 3e 9d 38 41 be 0c 16 52 3d
       0.3675647 0.12594135 -0.18869253 0.051290557
0003c0 9f a6 c9 3d 2b e6 08 bc e0 0b de bd 5b f3 56 3e
       0.098462336 -0.008355658 -0.10842109 0.2099127
0003d0 f5 66 14 3d 62 76 51 3c 2e 23 45 3e 3b 24 ac 3e
       0.036231 0.012784572 0.19251701 0.33621392
0003e0 73 8b c2 bd 80 48 45 be eb 23 75 bd 13 40 ba 3e
       -0.09499254 -0.19265938 -0.059848707 0.3637701
0003f0 9f d0 57 3e 65 eb db bd d2 7c c9 bd cb 31 38 be
       0.21075676 -0.10738257 -0.09838261 -0.17987745

bias f4 [12]
000000 ec 05 55 be 09 22 7f be 19 fb 5e be c4 86 b2 be
       -0.2080304 -0.24915327 -0.21775474 -0.34868443
000010 2e d2 57 be 9f e7 5c be 1c 64 2a be 06 87 8d be
       -0.21076271 -0.21572731 -0.16639751 -0.27642077
000020 07 7f a7 be 1d e0 82 be e4 92 2b be 87 92 84 be
       -0.32714102 -0.2556161 -0.16755253 -0.25893041

weight f4 [24, 12, 16]
000000 19 93 a3 bd 18 69 00 3d c8 d7 0c be e6 b3 a3 bd
       -0.07987041 0.031350225 -0.13754189 -0.07993297
000010 af 7a 92 be 4d c7 17 be e7 62 00 3e 3b 32 3f 3d
       -0.28609225 -0.14822121 0.12537728 0.046678763
000020 6f ff 01 be 7d 6c 57 3b 4d 76 1c be c9 13 b5 bd
       -0.12695096 0.003287106 -0.15279503 -0.08841664
000030 50 a7 67 be 6c 77 7c be 74 b2 11 3e 3c 0c 14 be
       -0.22622418 -0.24654931 0.1422823 -0.14457792
000040 12 3b 56 bd 3b f4 b0 3e 79 db f7 3e 6a b1 fc bd
       -0.052302428 0.34561333 0.48409632 -0.123385265
000050 60 64 63 3e a5 01 74 3c f5 9d 59 bc 1a 98 32 3e
       0.22206259 0.01489297 -0.013282289 0.17440835
000060 e9 3b 44 3e 78 f0 0d 3e 6e b3 e8 3d c3 37 83 3e
       0.19163479 0.13861263 0.113623485 0.2562848
000070 8b a3 2f bd cc b7 db 3b 6f 8b 9e bd f8 35 e9 bb
       -0.042880576 0.00670526 -0.077414386 -0.0071170293
000080 d7 72 a5 3d 9e 41 7d bd e4 5e 31 be b0 a2 ce bd
       0.080785446 -0.061830156 -0.17321354 -0.10089624
000090 98 fc 4a be 55 72 a2 3d 48 f1 30 be 79 8f 74 be
       -0.1982292 0.07931963 -0.17279541 -0.23882855
0000a0 55 da 6a be 38 51 af 3d 9a be c8 bd e5 2f aa 3d
       -0.2293485 0.08560413 -0.09801979 0.083099164
0000b0 96 36 93 bd 1d b1 86 3d e1 43 8e bd 29 48 cf 3d
       -0.07188146 0.065767504 -0.069465406 0.10121185
0000c0 8d 99 c2 bd df fc 8e 3d d5 0d 10 3d 7a b6 d3 3d
       -0.09501944 0.06981825 0.03516944 0.10337539
0000d0 74 8b 00 3d ff 8c 31 3d 04 ac 80 3d 36 c6 22 bd
       0.031382993 0.043347355 0.062828094 -0.03973981
0000e0 15 c8 1d 3c 9c 40 00 be 1a 75 6e 3c 43 06 4a 3e
       0.009630223 -0.12524647 0.014554286 0.19728951
0000f0 06 96 e3 3d 42 30 4d 3d c4 f4 8a 3d a1 d4 71 3c
       0.11112599 0.05009485 0.067849666 0.014760167
000100 5f e3 70 3d 89 65 4f 3d d7 99 98 3d 80 85 89 bc
       0.058810588 0.05063394 0.074512176 -0.01678729
000110 f9 55 4d 3d ae 3d 18 3d 4d 11 5a 3d f4 9c c1 3d
       0.050130818 0.037168197 0.053239156 0.094537646
000120 06 a9 07 be 6f 6b 6e 3e 93 aa 8e be 14 1e c2 bd
       -0.13248071 0.2328317 -0.27864513 -0.09478393
000130 08 21 9d be 62 b0 5c bd c0 bd a8 3b b8 b6 4b be
       -0.30689263 -0.05387915 0.005149573 -0.1989392
000140 83 b1 0f 3d 7c 32 1f bb 0c 3c e6 be 36 1a 06 be
       0.035081398 -0.0024291566 -0.44967687 -0.13095936
000150 c9 49 50 be 49 18 4d 3c 69 fe 16 be 8b dc cf bd
       -0.20340647 0.012517997 -0.14745487 -0.10149487
000160 e8 6b 34 be 4d 5d fd bd fc ff 8a be 53 c7 97 3c
       -0.17619288 -0.12371311 -0.27148426 0.018527662
000170 11 c3 7a bd 49 7a 1e be f4 f9 37 be 20 c4 60 bc
       -0.061221186 -0.15476336 -0.17966443 -0.013718635
000180 d2 06 ed bd 04 6c 5f bd 57 37 16 3e af 14 dc 3d
       -0.115735665 -0.05454637 0.14669548 0.107461326
000190 8e 58 58 3e dc 6c d4 3c c7 ff f0 3d e8 25 57 3e
       0.21127531 0.025930814 0.11767536 0.21010554
0001a0 2a d4 7b 3e cc eb 86 bd e0 9d b5 3e 01 9a 2d 3e
       0.24592653 -0.065879434 0.35472012 0.16953279
0001b0 a1 f9 26 3d e7 7f c8 3b 98 ee 53 be 0b 8b ab bb
       0.04076541 0.006118763 -0.20696485 -0.005235081
0001c0 5c 36 97 be 6b 1b 13 3e 7b c1 81 bd d6 91 e4 bd
       -0.2953366 0.14365928 -0.063357316 -0.111606285
0001d0 77 06 5e 3d 20 79 5c 3c 7a 2a 1b 3e 54 1b 4a 3e
       0.054205384 0.013456613 0.15152922 0.19736987
0001e0 78 86 a0 bd 74 84 98 3e cf 62 bf bd 12 a7 59 be
       -0.07838148 0.29788554 -0.09345018 -0.21255139
0001f0 19 1c 9b bd 0d a6 a0 3d 36 c6 9d bc 23 14 d9 3d
       -0.075737186 0.07844172 -0.019259553 0.10599544
000200 f8 aa 57 3e a2 ce c6 3d cb 46 67 3e d3 d6 c1 3e
       0.21061313 0.09707381 0.22585599 0.3785921
000210 84 11 aa 3e d4 ed 73 3d 31 f9 e4 bc 9e 20 ea 3d
       0.33216488 0.059552982 -0.027950855 0.114320025
000220 95 ac 24 3e 29 54 0f 3e ee ae d2 3c 48 ec 16 3e
       0.1608146 0.13996948 0.025718179 0.14738572
000230 33 9a b8 3d 63 a6 c2 bd d5 42 e6 bd 1b 9e c3 bd
       0.09013786 -0.09504392 -0.11243216 -0.095516406
000240 9d a4 13 be a3 32 a9 bd 5d 59 bc bd 4b f7 ae be
       -0.14418264 -0.08261611 -0.09196732 -0.34173045
000250 2f 27 6b bd 13 8e f2 3c fc 58 87 3c 5d 1e 67 3d
       -0.057410415 0.029608762 0.016521923 0.05642544
000260 02 77 38 bd 7c 26 e2 3b 8f 5f c0 bd fe 54 1c be
       -0.04503537 0.0069015604 -0.09393226 -0.15266797
000270 8f 57 c9 3d c4 9e 17 3e d8 54 6c bc 21 75 36 3d
       0.098311536 0.14806658 -0.014424525 0.044545297
000280 07 a9 e7 3a b3 6f 0e be 0c 66 f6 bd 7e cc 5b bd
       0.0017674275 -0.13909797 -0.12031183 -0.053661816
000290 0a bb 8a 3e 2d 3b b2 be 36 e6 4a bd 4e 8c 6a 3d
       0.27095824 -0.34810773 -0.049535953 0.05726271
0002a0 b8 de b0 3d e7 01 11 3e 1f 9c 2c be 9a 6a 80 be
       0.0863623 0.14160882 -0.1685643 -0.2508133
0002b0 4e ee 76 be f2 e8 01 be dd 06 5c be a5 35 71 bd
       -0.24114344 -0.12686518 -0.21486993 -0.05888905
0002c0 46 cd 01 be 3d 6d 05 be 18 bc 81 be b6 bc b8 bd
       -0.12675962 -0.13029952 -0.25338817 -0.09020369
0002d0 6c 1e a2 be b5 cc 3f 3d f8 52 a8 3c 2c 22 82 be
       -0.31663835 0.046826083 0.020547375 -0.25416696
0002e0 df 14 09 be 18 c6 28 3e 01 7e d9 be 81 11 20 3e
       -0.13386868 0.16481817 -0.42478946 0.15631677
0002f0 a8 f1 72 bd 48 b6 fc bd d8 0a 25 be 5a cc ea 3d
       -0.059312493 -0.12339455 -0.16117418 0.11464758
000300 a4 72 57 bc ca 19 5e 3e d9 cf b0 bd bb 68 86 be
       -0.013149891 0.21689525 -0.08633394 -0.26251778
000310 af e4 a6 bd b6 3a 72 3e a9 a7 e6 bd 62 d9 a0 be
       -0.08149087 0.23655209 -0.112624474 -0.3141585
000320 87 8b 27 3e 4e 86 d0 bd 8f b6 49 be dc 69 61 3e
       0.16361819 -0.101818666 -0.19698547 0.22013038
000330 14 c4 fa 3c 6f 10 ad 3d e3 a6 ec bd bb e7 aa 3d
       0.030611075 0.084504 -0.115552686 0.0834498
000340 66 42 7a be f8 08 2b 3e b8 58 51 bd 1c cf 5a 3d
       -0.24439391 0.1670264 -0.05111 0.05342017
000350 cc e8 9a be 99 77 62 3d 7c fa cf 3d 35 8e 05 be
       -0.30255735 0.05528984 0.10155198 -0.13042529
000360 8f 5e 5d bd ae b3 2e bd d1 42 d0 be 19 4b e8 bd
       -0.054045256 -0.042651825 -0.40675977 -0.11342449
000370 85 50 7b 3d a9 51 1f 3d ab d4 35 bb d6 80 0e be
       0.061356086 0.038896237 -0.0027745168 -0.13916335
000380 e8 f3 06 3e d4 0f 28 bd dd bd c3 bd 26 d4 a2 3d
       0.1317898 -0.04103072 -0.09557698 0.0795062
000390 c2 cf 76 b9 f4 ee 7c 3b bf 2c 1b bc a6 3a ab bd
       -0.00023537784 0.0038594576 -0.0094711175 -0.08360796
0003a0 6c 3c 89 3d 2a 0a 67 3e 2c a3 93 bd 2f af 24 be
       0.06700978 0.22562471 -0.07208857 -0.16082452
0003b0 fc 55 79 bc 60 c9 7a bd 68 9c c0 3d 49 77 db 3c
       -0.015218254 -0.061227202 0.09404832 0.026790278
0003c0 01 c0 49 3d 6f d2 4f be d1 bb 1c bd 86 92 5d 3c
       0.049255375 -0.20295118 -0.038265053 0.013523703
0003d0 4d 0d 7e 3d 18 44 05 be 8a 9f a8 bc 9e d8 17 bb
       0.062024403 -0.13014257 -0.020583887 -0.0023169885
0003e0 4c 43 bb be 56 c9 af 3d 15 44 25 be de 0c 48 bd
       -0.3657478 0.08583324 -0.16139252 -0.048840396
0003f0 f0 5c 34 be c6 3a 8c bb e9 83 ac 3d 21 6a 7b be
       -0.17613578 -0.0042794673 0.08423597 -0.24552204

bias f4 [24]
000000 e8 61 ee bd f0 f0 db bd 29 2b dd bd 00 9e 14 3e
       -0.11639768 -0.107393146 -0.10799248 0.14513397
000010 1d b6 39 3c 50 b3 b8 3d 89 3c 1a bd 10 9c 45 be
       0.011334923 0.09018576 -0.037655387 -0.19297814
000020 a0 72 66 be 85 47 5d bc d3 cc 31 be 88 89 1e 3d
       -0.22504663 -0.013505821 -0.1736329 0.03870538
000030 79 f4 96 bd 9f 8a de bc 1a dd 39 bd b9 fe 53 be
       -0.07370848 -0.027165709 -0.045376875 -0.20702638
000040 e3 bc 13 bc 79 6f dc bc e1 5f 6d 3e 87 6c 2a 3e
       -0.009017202 -0.026908623 0.23181106 0.16642962
000050 07 64 80 bd cc bd 17 be 13 7d 2e be 72 ca f3 3b
       -0.06269079 -0.14818496 -0.170399 0.007439905

weight f4 [48, 24, 6]
000000 9e 29 97 bd 12 e4 31 be 96 32 15 be 62 a6 25 be
       -0.07380985 -0.17372158 -0.14570078 -0.16176751
000010 f0 1b b4 bd 6a 94 f0 3d 7b be 18 be 57 53 59 be
       -0.08794391 0.11747058 -0.14916413 -0.21223198
000020 22 ae 36 be 18 5e 9e be 99 da e4 bd 7f b8 98 bd
       -0.17839864 -0.30931163 -0.11174507 -0.07457065
000030 41 0f bf bd 12 8a 06 3b 2e 87 ae be f9 cb 0d be
       -0.09329081 0.0020529074 -0.3408751 -0.1384734
000040 78 6e 16 be f8 30 23 be db f8 79 be c5 77 a7 be
       -0.14690578 -0.15936649 -0.24411337 -0.32708564
000050 60 23 9f be 7f 02 d0 be 33 e4 bd be 2d 5f 88 be
       -0.31081676 -0.40626904 -0.37088165 -0.26635113
000060 e2 7b 91 3e 42 be 15 3e 7a 73 3c bd b5 b8 df 3e
       0.28414828 0.14623359 -0.046008565 0.43695608
000070 5f f5 77 3d a1 03 5e 3e 32 ac d1 3d c4 55 22 bc
       0.06053674 0.21681072 0.10237922 -0.009908143
000080 f8 50 12 3e bf a5 53 3d 3a 84 b4 bc 66 b7 2d 3d
       0.142887 0.05167174 -0.022035707 0.04241123
000090 26 31 8f 3e 11 48 01 3f 00 9a 89 3d b3 d6 8e 3d
       0.27967185 0.5050059 0.06718826 0.069745444
0000a0 e9 fd 90 3e 52 c7 67 3e 27 bc f6 bd cf 17 24 be
       0.28318718 0.22634628 -0.12047606 -0.16024707
0000b0 a1 53 d1 3c c1 ad 23 3d b2 b5 fb bc f6 89 20 be
       0.025552573 0.039960627 -0.030726288 -0.15677628
0000c0 f6 ee 79 bd 2c ce b2 bd 7e a6 47 be 80 74 23 bd
       -0.061018907 -0.087307304 -0.19497105 -0.039906025
0000d0 8d fe f8 bd 50 c0 63 bd be 35 e5 3c 61 70 cf bc
       -0.12157927 -0.055603325 0.027979728 -0.025322141
0000e0 42 bc f0 bd 1d 4c 35 3e 94 94 05 3e 82 84 80 3e
       -0.11754657 0.17704816 0.1304496 0.25101095
0000f0 75 ba 4a 3b f6 55 99 be d9 d1 ec bd 87 c9 52 be
       0.003093389 -0.29948395 -0.11563463 -0.20584689
000100 bb 02 fa bd 32 0a 98 bd 86 4d b7 3d d6 b8 8d bd
       -0.12207552 -0.074238196 0.08950333 -0.0692002
000110 d5 c1 28 bd ec dd d9 3d ed 1f 5b 3d 0a 78 d4 bd
       -0.041200478 0.10638031 0.053497244 -0.10374458
000120 20 21 38 be e6 96 96 be c4 4e 94 bd fb 82 79 ba
       -0.17981386 -0.29412 -0.07241586 -0.0009518114
000130 f2 aa 2a be 8a 2b 78 be bd 04 04 be 4f 7e e3 bd
       -0.16666773 -0.24235359 -0.12892433 -0.11108076
000140 31 ad 74 be ee 19 14 3e c9 ed 2d be 57 8d 4d be
       -0.23894192 0.14463016 -0.16985239 -0.20073448
000150 f9 a3 e4 3d 70 76 c0 bd 7a b4 5c be 95 2b 3a be
       0.11164088 -0.0939759 -0.21553221 -0.18180688
000160 d2 7f 19 be 2b 63 7f be 98 8a f0 3d d2 57 f3 bd
       -0.14990166 -0.24940173 0.11745185 -0.11881985
000170 e5 01 c4 bb 37 38 18 bd 9d 25 ad 3c f4 f6 ee bd
       -0.005981671 -0.037162986 0.0211361 -0.11668196
000180 6f 77 1f 3d 0d 11 ef 3c ac 9c 81 3c fd 9b 4e be
       0.03893226 0.029182935 0.015821777 -0.20176692
000190 f4 87 ba bd 50 b5 f6 bc b3 21 4d be 85 fa 8d be
       -0.09107962 -0.030115753 -0.20032386 -0.27730194
0001a0 75 64 e8 be 15 35 73 be 6c 94 41 be 93 71 97 be
       -0.45389143 -0.23750718 -0.18904275 -0.29578838
0001b0 c4 27 ed bd e1 2a 74 be 11 a0 b8 be eb 41 82 be
       -0.1157985 -0.23844482 -0.3605962 -0.25440916
0001c0 0e 2e bc be 6e b8 cb be 52 18 2f be 62 20 85 be
       -0.36753887 -0.39789146 -0.17099121 -0.2600127
0001d0 b9 f8 a9 be b6 ed f2 be 7d c5 0b bf f8 44 29 be
       -0.33197573 -0.47446984 -0.5459822 -0.16530216
0001e0 64 9c 66 be 90 ec 01 3c 70 5c f3 bd 17 c9 fb bd
       -0.22520596 0.007929936 -0.118828654 -0.12294214
0001f0 5d fe 4a 3d 2b 21 86 be 7f 05 a7 3d b9 ff 57 3d
       0.049558986 -0.2619718 0.08155345 0.05273411
000200 7f 3c 9b be bd c8 69 3b 1a cf 46 be 7c bf a5 bd
       -0.30319592 0.0035672628 -0.1941494 -0.08093163
000210 7a 27 3e be fa 63 2c be bc 9b 60 be f5 c8 b7 be
       -0.18569747 -0.16835013 -0.21934408 -0.35895506
000220 5e 73 8a be 99 13 58 be 0b 2b 9a 3d d0 a7 08 3e
       -0.27041143 -0.21101226 0.07527741 0.13345265
000230 69 57 7a be bb 63 11 be a4 f6 99 bd 52 05 c3 bd
       -0.24447407 -0.141982 -0.07517746 -0.09522499
000240 85 0c 31 3d 09 2e 21 3e 3b cf 77 bc 88 9f 33 3b
       0.04322483 0.15740217 -0.015125091 0.002740832
000250 83 5e 29 3e ce c9 50 3e cf b8 17 be b1 23 47 3e
       0.1653996 0.20389482 -0.14816593 0.19447209
000260 be 9b 19 be 8a e1 63 3e db 26 9b bd 6a 0d 30 bd
       -0.15000817 0.22254005 -0.075757705 -0.042981543
000270 df e9 89 bd 2c 81 28 be ad b3 7d be a2 00 df 3d
       -0.067340605 -0.16455525 -0.24775572 0.108887926
000280 1e f4 04 3c f7 70 de bd 72 2e 89 bd da d2 c4 bd
       0.008114843 -0.1086139 -0.06698312 -0.09610529
000290 f5 ff 6d 3d 2e b5 7c bd 6c 7f ad bd c4 30 c0 3c
       0.058105428 -0.061696224 -0.084715694 0.023460753
0002a0 11 1b d6 3d e4 46 a8 bd ca 0d 98 bd 90 29 d1 3d
       0.10454381 -0.08216646 -0.07424505 0.102130055
0002b0 da b7 ad be 46 e7 10 3e 5f d0 f5 bd 96 bc 4f be
       -0.3392933 0.14150724 -0.12002634 -0.20286784
0002c0 b7 f7 1c bd 25 e2 11 be c5 9e e5 3d ae 54 c6 3b
       -0.038322177 -0.14246424 0.112119235 0.006052575
0002d0 d5 16 af be 70 e8 a6 be 05 ac 05 be 4f 0c 26 be
       -0.34197107 -0.3259921 -0.13053901 -0.16215633
0002e0 23 74 94 bd ee 6e aa be 22 e8 56 bd 23 4b f6 be
       -0.07248714 -0.33287758 -0.052467473 -0.481042
0002f0 0b c2 86 bd 1a ca 76 be b9 21 10 be 47 e4 88 be
       -0.065799795 -0.24100533 -0.14075364 -0.26736662
000300 b3 86 a7 bc d7 7b 29 be 0b ad 46 3d 4f 71 74 be
       -0.020449972 -0.16551147 0.04850487 -0.23871349
000310 3d 85 2a 3e d2 0e bd be d7 40 51 3e cf 25 44 be
       0.16652389 -0.3692537 0.2043489 -0.19155048
000320 32 a3 8b bc be 48 10 b9 e2 e3 a7 3d ac 26 86 be
       -0.017045591 -0.00013760009 0.08197762 -0.2620138
000330 e3 d0 f9 be ee a7 62 be 66 04 2e be ef 64 9b bd
       -0.4879218 -0.22134373 -0.16993865 -0.07587611
000340 27 b2 81 be 51 9b 8b be 93 e0 86 be fe b9 70 bd
       -0.25331232 -0.27266935 -0.26343212 -0.058771126
000350 bd 05 85 3d 95 fc b4 3e 8b 36 23 bd 4e dd ba bd
       0.06495235 0.35348955 -0.039846938 -0.09124242
000360 f1 b1 97 3d a9 86 77 be 2a 97 0d 3e c5 c1 3c bc
       0.074069865 -0.24172463 0.13827196 -0.011520808
000370 ca 37 f4 bc 63 ad 9e 3c a6 5f 5d bd 51 92 79 be
       -0.029811759 0.019369787 -0.054046296 -0.24372222
000380 12 87 77 3e 8a 37 7f 3c 3b 2f 3b 3c 7f be 2b be
       0.24172619 0.015577206 0.011424835 -0.16771887
000390 08 fb bd bd 2c a2 08 be 7b 58 da 3d cd 93 81 be
       -0.09276396 -0.13343114 0.106614076 -0.25308076
0003a0 7b 71 72 bd ca 07 62 bc 67 87 1e 3e 85 3f 94 3e
       -0.059190255 -0.013795802 0.1548134 0.28954712
0003b0 45 05 89 3d 10 f9 fe 3d 78 a2 31 3e 27 20 29 3e
       0.06690458 0.12449849 0.17347133 0.16516171
0003c0 4d 77 70 bd 3e 19 e7 38 86 7d 60 3e b2 7f 21 bd
       -0.058707524 0.0001101964 0.21922883 -0.03942842
0003d0 08 e6 2d 3e eb 7b 0d bd 22 14 6c 3e 83 08 30 bc
       0.16982281 -0.034542006 0.23054555 -0.010744217
0003e0 a1 52 28 be 88 63 04 be b2 44 04 3e 16 ac b9 3e
       -0.1643777 -0.12928593 0.1291683 0.36264104
0003f0 42 83 d6 bc 14 6d 71 3e e3 6f fa bd 89 80 b0 bd
       -0.026185635 0.23576766 -0.12228372 -0.08618266

bias f4 [48]
000000 1b 49 39 3e 6e 3e 05 3d 99 39 14 bc 88 74 18 be
       0.18094294 0.03253024 -0.0090469355 -0.14888203
000010 52 f5 e2 bd a8 8f 83 be eb e0 7e 3e 59 56 08 be
       -0.110819474 -0.2569554 0.24890487 -0.13314189
000020 c1 4b 3d bc 60 78 08 be bf 18 d9 3d 55 46 88 3e
       -0.011553706 -0.1332717 0.10600423 0.2661616
000030 31 5d 1a be c9 25 3d 3e 8f cf 98 3e 50 68 10 3e
       -0.15074612 0.18471445 0.29845855 0.14102292
000040 c5 6f 29 be 9a dd 55 3e 1b a1 fc bd 60 48 96 bd
       -0.16546543 0.20885316 -0.12335416 -0.07338023
000050 a7 98 9d 3d e1 80 e8 bd 77 78 28 3e 58 af 33 be
       0.07695132 -0.11352707 0.16452204 -0.17547357
000060 73 08 8f be 1b 8f 48 3e 84 06 22 3e 0c 60 27 3e
       -0.27936134 0.1958584 0.15822798 0.16345233
000070 b0 17 7c be b3 6c 4d be 4d aa 33 3e 7b a2 ca 3d
       -0.24618411 -0.20060997 0.17545433 0.09894272
000080 33 96 fa bd cb 91 0c 3e 64 d0 30 3e 8e 39 8e 3d
       -0.122356795 0.1372749 0.17266995 0.069445714
000090 df 63 1f be 8e 00 4b bc 27 9e 97 3d 5c 32 4e 3d
       -0.15565442 -0.012390269 0.07403212 0.050340995
0000a0 63 79 8f 3c 6e df 5d be 3b cd 2a 3e bc 8b b4 bd
       0.017513936 -0.21667263 0.16679852 -0.08815715
0000b0 c8 31 31 3e e7 3d 62 3e 82 e2 09 3e fa 46 30 3e
       0.17304146 0.22093926 0.13465312 0.17214575

weight f4 [64, 1344]
000000 52 e3 aa bd 13 87 c2 bc f6 1c d2 bd 7a ef 8b ba
       -0.08344139 -0.023746049 -0.1025943 -0.0010676228
000010 3f 8a 8d 3d f4 58 03 be bb 4b 21 be 1f 29 a3 3c
       0.06911134 -0.12826902 -0.15751545 0.019917069
000020 12 dc 08 bb d1 db bf bd 75 90 9a be 7e cc 87 3d
       -0.0020883125 -0.093680985 -0.30188337 0.06630801
000030 9e 28 d4 3d ec 5f c6 3d 39 bb 13 3b c7 84 f6 39
       0.103593096 0.096862644 0.0022542013 0.00047019703
000040 0b bc 07 3e 42 ac 79 bc 77 8d 9b bd 74 42 9a bd
       0.13255326 -0.015238823 -0.07595342 -0.07532206
000050 ab ef be bd ab 4a 4c 3d 28 88 eb bd 76 33 a3 bb
       -0.09323057 0.049875896 -0.11500579 -0.0049805
000060 24 73 a2 3d 5a 22 21 bd 8b 36 11 3e 99 6b ca bc
       0.079321176 -0.0393394 0.14180963 -0.02470951
000070 4c 31 35 3e 01 d2 c7 3d 6d 64 aa bd 79 92 2b 3e
       0.17694587 0.09756852 -0.08319936 0.16755094
000080 26 26 7f bd 49 6a c4 bb 6c 4a f2 bc ef 13 37 3d
       -0.06229224 -0.0059941155 -0.029576503 0.044696745
000090 e3 d2 8a 3d bf 83 8e 3d 1b 00 fd bc 55 c2 6b bd
       0.06778505 0.06958722 -0.03088384 -0.057558376
0000a0 8e 32 59 bd db 2d 33 3d db 0d 54 be f0 ff 38 bd
       -0.05302673 0.043744903 -0.2070841 -0.045165956
0000b0 fd d0 f3 3c ef ce 34 3d 24 49 8e bd f0 e0 b9 bd
       0.02976274 0.04414266 -0.06947544 -0.090761065
0000c0 4b 48 25 3c fe c9 d6 bd 73 bf 7d be 06 bf 5d 3e
       0.010088037 -0.10487746 -0.24780063 0.21654901
0000d0 c2 9e 59 3e 8f cf b7 bc d8 4f b0 bd d2 d2 a7 3e
       0.21251968 -0.022437839 -0.08608979 0.3277803
0000e0 a1 74 23 bb ff 32 d3 bd 9a f7 05 be ba df a6 bd
       -0.0024941342 -0.10312461 -0.13082734 -0.08148141
0000f0 d7 0c 17 be d9 de 94 bd 17 96 b7 bd 5e 27 58 3c
       -0.14750992 -0.07269067 -0.08964174 0.01319298
000100 4c af 95 bd a9 64 ba be b6 c6 15 3d 10 8f d6 bd
       -0.07308826 -0.36404923 0.03656646 -0.10476506
000110 cc 70 3b 3e f6 45 c6 bb 0d b1 9a 3d 38 1e 88 3e
       0.18304747 -0.0060508205 0.07553301 0.26585555
000120 f7 7c c6 3d e1 b6 44 3e 72 7a 49 3e 37 96 5a 3e
       0.09691804 0.19210388 0.19675615 0.21346365
000130 ee 9c 60 3e d5 d2 b9 bd 9d dc 49 3d a5 96 68 3e
       0.21934864 -0.09073416 0.04928266 0.22713716
000140 c7 9e 68 3e 01 b1 e5 3d 6d 53 22 be e1 93 02 bd
       0.22716819 0.112154014 -0.15852137 -0.03187931
000150 15 95 ed be a1 fd dd 3d 3b ac 8d 3e 43 4c d0 3d
       -0.46402803 0.108393915 0.27670464 0.10170796
000160 18 13 33 be f2 18 8d bd f5 68 ab bd bc e0 39 be
       -0.17487752 -0.068895236 -0.08369628 -0.18152136
000170 1b 24 b7 be c8 4b 16 3b 6c c9 eb 39 a5 63 74 be
       -0.35769734 0.0022933353 0.00044972764 -0.23866136
000180 af de e8 bd a5 c7 89 3d 81 ce af 3d 99 0b cb 3c
       -0.113705985 0.06727532 0.08584309 0.024785804
000190 a1 55 ce bb dc 05 86 3d 10 46 0a 3d 19 25 2d 3e
       -0.006296829 0.06544086 0.033758223 0.16908683
0001a0 af c2 42 3c d2 a8 42 3e 16 8c 7b 3d 3d 03 a1 bd
       0.0118872365 0.19009712 0.061412893 -0.07861946
0001b0 0b 39 c4 bc 49 84 68 bd 9b b8 a5 3d 13 8f 9b 3e
       -0.023952981 -0.056766782 0.08091851 0.30382594
0001c0 dc 98 a6 be 7a 84 b2 bd 90 54 04 be 57 d8 b7 3d
       -0.32538497 -0.08716674 -0.12922883 0.089768104
0001d0 c9 4d 3b 3d 0d 16 a2 3d 26 54 95 bd 2a a0 12 3d
       0.04572848 0.07914362 -0.07291441 0.035797276
0001e0 ad 3b 0a 3d 02 f3 80 bd 39 a0 2b be 06 08 41 bd
       0.033748318 -0.0629635 -0.16760339 -0.047126792
0001f0 66 2e d2 3d 79 bb de 3c db b0 45 3d fb d4 b4 3c
       0.10262756 0.027189003 0.048264366 0.022074213
000200 93 83 14 bd 70 be 79 3d 50 c0 fb bc 40 73 ef 3a
       -0.03625829 0.06097263 -0.03073135 0.00182686
000210 80 c4 c8 bd 4d d0 8a bd 5c 25 0f 3e 3c d6 32 be
       -0.098031044 -0.067780115 0.13979095 -0.17464536
000220 43 77 1d be 74 53 62 be 26 fe 7d be f5 03 4b be
       -0.15377526 -0.22102147 -0.24803981 -0.19825728
000230 36 33 72 be 66 b3 3e be 6f 6c ee bd 1c e9 60 3c
       -0.23652348 -0.18623123 -0.11641776 0.013727453
000240 90 73 2c be 98 4d 00 3d ff 38 38 3e 34 cb 41 3e
       -0.16840959 0.031324 0.17990492 0.18925172
000250 18 bf 33 bd 54 70 06 3d 7a dc cd 3d 69 ed b4 3e
       -0.043883413 0.03282197 0.10051818 0.3533738
000260 d1 90 58 3e c7 fd 3d 3d db 72 b9 3d 4a 40 ba 3d
       0.21148993 0.0463846 0.0905511 0.090942934
000270 66 a3 1e 3e 7c 97 3f bd 41 09 ed 3d 9c 0d d1 bd
       0.15492019 -0.046775326 0.11574031 -0.10207674
000280 66 ea 7a bd 35 30 24 3d a8 28 17 bd 68 34 2a be
       -0.061258696 0.040085036 -0.036904007 -0.16621554
000290 fb 6e 18 be 97 f0 5b be f5 07 05 be ca ae eb bd
       -0.14886086 -0.21478496 -0.12991317 -0.11507948
0002a0 31 3e 99 be f4 b8 2e be bb 14 55 be fc d1 e8 bd
       -0.2993026 -0.17062742 -0.2080869 -0.11368176
0002b0 9f 4b e5 bd ec 04 1f bc 7b 03 a0 be fb 59 8f bd
       -0.11196064 -0.009705763 -0.31252655 -0.06999584
0002c0 89 f1 2e be 5e 3b 75 bb b6 89 74 be e2 4c 17 be
       -0.17084326 -0.0037419419 -0.23880658 -0.14775422
0002d0 60 dd 97 3d 42 d5 61 bc 65 a1 cc bb 27 94 81 be
       0.07415271 -0.013783755 -0.0062448257 -0.25308344
0002e0 3c d5 ba bd e1 a4 35 3d c8 e4 c2 bc 18 98 8e be
       -0.091227025 0.044346694 -0.023790732 -0.27850413
0002f0 07 4d 3d be 47 4c ff bd 1d 87 b0 bd 55 d8 aa be
       -0.18486415 -0.124657206 -0.08619521 -0.33368173
000300 51 47 f4 bd e4 af 95 bd 56 a2 09 be e9 b5 ca bd
       -0.11927665 -0.07308939 -0.13440832 -0.09897978
000310 e0 13 2a be 84 88 aa bb d6 84 2f bd dc 3d af 3d
       -0.16609144 -0.005204262 -0.04285129 0.085567206
000320 8b 7c 9a bd 24 e6 44 be 70 3e 1c 3d 2e fd 0d be
       -0.07543286 -0.19228417 0.038145483 -0.13866112
000330 0f fa 07 3e 26 fa ee bd 64 a3 de bd 99 cb ad 3c
       0.13278984 -0.11668806 -0.10871008 0.021215247
000340 4a db a2 bd 7b 61 6e bc 53 80 6c 3d d8 ff 09 bb
       -0.07951982 -0.014549608 0.057739567 -0.0021057036
000350 9b 79 19 3d 9b 3d 62 3d 4e 29 26 3e 68 52 17 bc
       0.037469488 0.055234533 0.16226694 -0.009235956
000360 3f 6b 8a 3d f6 ae 74 3c af 13 31 3d 4f c8 42 be
       0.06758737 0.014934292 0.043231662 -0.19021724
000370 5f f9 57 be 8a 19 2c 3d 61 37 96 3d 2b 1e 77 3e
       -0.21091221 0.042016543 0.073347814 0.24132602
000380 31 66 5e 3e 52 57 bd bd 3b e7 18 be 4e 4a da 3c
       0.2171867 -0.09245171 -0.14931957 0.02664676
000390 54 48 1d bc ff 9c 48 3e 6a 94 35 bd 90 50 96 bd
       -0.009599764 0.1959114 -0.04433099 -0.07339585
0003a0 ab d6 a1 3d 93 8c 7e 3e 40 d4 2e 3e dc 51 19 be
       0.07902273 0.24858312 0.17073154 -0.14972633
0003b0 49 f8 69 3e dd 2c 30 bd 27 19 97 3d 4f 33 c5 bd
       0.2284862 -0.043011535 0.07377844 -0.09628927
0003c0 c2 af 7f 3e 30 45 dc bd 5b 88 1d 3e 60 c6 5c 3e
       0.2496939 -0.10755384 0.15384047 0.21560049
0003d0 05 f8 b2 3d 9f 65 47 bd 29 04 8d bd 59 eb a6 bc
       0.08738712 -0.048680898 -0.06885559 -0.020375894
0003e0 05 f2 75 3d 63 f5 85 3e 32 93 91 3d 43 e0 9a be
       0.06004526 0.26163778 0.071081534 -0.30249223
0003f0 89 ca d3 3e 4a be 10 3e 2f 33 ee 3d 91 4f 52 3e
       0.4136546 0.1413509 0.11630856 0.20538165

bias f4 [64]
000000 ee 56 de bd d6 b8 ff bd ce 9b 04 3e 6f bc 24 be
       -0.10856424 -0.124864265 0.1295006 -0.16087507
000010 b0 58 c7 3d 49 56 32 3e 78 e1 05 be 49 27 47 3e
       0.09733713 0.17415728 -0.13074291 0.1944858
000020 2a d7 0c 3e 2c 30 76 3e 84 50 8e bc 9d 35 b7 bd
       0.13753954 0.24041814 -0.017372377 -0.08945773
000030 ae e4 86 3e c1 87 6b bc 6a f8 a4 bd 5d 42 0e bd
       0.26346344 -0.014375628 -0.08055194 -0.034731258
000040 40 ff f2 bd e2 30 3b be 6c ea b1 3d 8f 3f d3 bc
       -0.11865091 -0.18280366 0.086872905 -0.025787143
000050 8b 1a 12 be 3a 6e 2b be b1 7d fa bd 2f ac 67 bc
       -0.14267938 -0.16741267 -0.12231005 -0.014140173
000060 42 14 22 be 6f a8 85 3d e2 20 16 bc 1f 95 69 3d
       -0.1582804 0.06526267 -0.009163113 0.05702698
000070 d3 e2 fc 3d 84 21 f5 39 0a 0a 1e 3e 0d d9 25 3e
       0.12347951 0.00046755013 0.15433517 0.1619608
000080 42 ad 05 be 06 dd 1f 3e 15 53 a0 3d a1 ad 03 be
       -0.13054374 0.15611658 0.07828347 -0.12859203
000090 58 5d 47 be 5d 1e 97 3e e3 bc e1 bc bb 35 d6 3d
       -0.19469202 0.29515353 -0.027555889 0.10459467
0000a0 a7 b5 12 bd e4 86 84 bd cb 62 20 be d4 40 2b be
       -0.03581777 -0.06471041 -0.15662687 -0.16723949
0000b0 e4 e6 4e be 8f cb f0 3d 92 11 bf 3a d2 9d 63 be
       -0.20205265 0.11757576 0.001457738 -0.22228172
0000c0 59 b3 5b 3e 05 9c 45 bc f5 da e0 bd db 6a 3a 3e
       0.21455134 -0.012061124 -0.10979263 0.18204825
0000d0 20 d4 a5 bd 8d fe 49 3e 31 48 e9 3c c7 6a ad be
       -0.080971 0.1972601 0.028476806 -0.33870527
0000e0 c5 0e 17 3e 76 e2 fc bd 8f 95 81 3d ee c4 94 3d
       0.14751728 -0.123478815 0.06327354 0.07264124
0000f0 e9 f5 24 bd 8e b8 a1 bd f3 7c fd bc 8d 41 95 3c
       -0.04027358 -0.07896529 -0.03094337 0.018219734

weight f4 [25, 64]
000000 95 07 9a bd 3e 53 0d bd 68 4c ac 3d 5e b8 15 3e
       -0.075209774 -0.034503214 0.08413011 0.14621112
000010 78 7b 04 3d 81 09 73 3e 09 d5 e7 3d 64 e6 b3 3d
       0.03234431 0.23734094 0.1131993 0.08784178
000020 3b 52 2b 3e 55 f2 97 3d 2d 50 04 be 30 96 4b be
       0.16730587 0.07419268 -0.1292121 -0.1988151
000030 fc 75 ba 3d 76 d7 3f be 08 35 c1 bd c8 79 af bd
       0.09104535 -0.18734536 -0.09433943 -0.0856815
000040 3e 1c 9b be 03 15 56 be e9 d1 48 3e 58 99 df bd
       -0.30294985 -0.20906453 0.19611324 -0.1091792
000050 7b 45 36 bd 04 2c be be 10 e7 ae 3d 64 f3 70 be
       -0.044499855 -0.37142956 0.085401654 -0.23530346
000060 35 0a f6 bd 19 1b e2 bd 33 54 4a 3e c6 18 14 be
       -0.120136656 -0.11040325 0.19758682 -0.14462575
000070 d5 70 11 3e b2 5f 9b 3e 3e a0 0c 3e 92 a7 24 be
       0.14203198 0.30346447 0.13733003 -0.16079548
000080 78 c1 43 bd 4a 14 81 3e 75 0b 12 be 5b 47 c6 3d
       -0.047791928 0.25210792 -0.14262183 0.09681579
000090 e2 79 14 be f4 8c 97 3e 82 fa 5c 3e 8d e3 7b 3d
       -0.1449962 0.29599726 0.21579936 0.061496306
0000a0 01 66 3c bd 12 cd 97 be 3f 42 cf 3c 8e cd 9a be
       -0.045995716 -0.29648644 0.025300143 -0.3023495
0000b0 4d f9 a4 be 40 97 04 3e 75 6d 80 be 94 b5 46 3b
       -0.3222145 0.12948322 -0.2508351 0.0030320631
0000c0 03 b1 68 3e de 81 ac bd 9e d8 5a bd 54 e6 83 3e
       0.22723775 -0.08423208 -0.05342924 0.25761664
0000d0 9d e4 08 bd c1 9a 8d 3e 7d 29 b4 3e 4f 3e 4a be
       -0.033421148 0.2765713 0.35187903 -0.19750331
0000e0 7a 4b 21 3e e8 1a 36 be 71 5b 14 3d 43 be 58 3e
       0.15751448 -0.17783701 0.036220018 0.21166329
0000f0 c8 5b e8 bd 2e 72 c5 3d 0c e0 50 3e e4 5f 48 3e
       -0.11345631 0.09640919 0.20397967 0.1956783
000100 ce 27 f4 bd 16 a0 16 3d 08 e4 88 3e a9 91 88 3d
       -0.11921655 0.036773764 0.26736474 0.066684075
000110 4f 73 61 be 56 c4 cc bd e3 72 b0 bd 55 fb d6 bd
       -0.22016643 -0.099983856 -0.08615663 -0.104971565
000120 5f 7a 2f be 76 c2 5f be 4a 8a e2 bd 3a 5d 99 3d
       -0.17136525 -0.21851525 -0.11061533 0.07488485
000130 e7 66 61 be 06 d8 3a be 31 3d 0d be a1 73 d8 3d
       -0.2201191 -0.18246469 -0.13792874 0.105689295
000140 5e 69 78 3e bb 9a 66 be 24 7e 85 bb 81 0c 27 be
       0.24258944 -0.22519962 -0.004073875 -0.16313364
000150 9b 61 3d 3d 11 c3 8a bd ab a4 83 be bb 04 8b 3e
       0.046235662 -0.06775487 -0.2571157 0.27152047
000160 ac 6f 04 be f4 2c 1a bc 7b 57 7d 3e 88 e1 00 3e
       -0.12933224 -0.009410132 0.24740402 0.12586033
000170 31 e2 e6 bd 92 8f 9a bd 7c f8 33 be c5 5f 1a 3d
       -0.11273611 -0.07546915 -0.17575258 0.03768899
000180 8b 8d 38 3d 37 a9 66 3e 6d c9 1e 3e 2c 7c 07 3e
       0.04505686 0.22525488 0.15506525 0.13230962
000190 fb f8 1e 3e 64 b2 42 3e 84 2c 21 3e 22 dd 0e be
       0.15524666 0.19013363 0.15739638 -0.13951543
0001a0 de 04 80 be 9b b3 bb 3d a5 8e c5 3c 56 b5 3f bd
       -0.25003713 0.091651164 0.02411587 -0.046803795
0001b0 e9 78 71 be 4b ca 59 3e 1a 19 8c 3e 3c 96 eb bd
       -0.2358128 0.21268575 0.273629 -0.11503264
0001c0 73 ce 31 bd 36 76 90 bd 94 b5 9d 3d 8e a2 01 3e
       -0.043409776 -0.07053797 0.07700649 0.12659666
0001d0 53 5d 88 bd ce 22 ac 3c 37 16 45 be 16 72 85 bd
       -0.06658425 0.02101269 -0.19246756 -0.06515901
0001e0 c6 d6 3f bd 1e f1 0c be d8 b4 40 3e 3d dd 3d bd
       -0.046835683 -0.13763854 0.18818986 -0.046353567
0001f0 00 ca eb 3d 2a e0 fc bd 32 7d 91 be 79 bd 52 bd
       0.11513138 -0.123474434 -0.2841583 -0.051450226
000200 ed ae 16 bd a9 85 69 be 68 68 a8 3e fa c6 a9 be
       -0.036787916 -0.22804894 0.32892156 -0.3315962
000210 72 24 46 be 05 13 a7 bd 51 ec 94 3d 22 3c 12 be
       -0.1934984 -0.081579246 0.07271636 -0.14280751
000220 72 02 7d 3e 05 2a 31 3e bd da ba 3c ee 38 2d be
       0.24707964 0.17301185 0.02280938 -0.16916248
000230 58 1f 2d 3e 0f 43 26 be 40 00 79 be d8 9c 0e be
       0.16906488 -0.16236518 -0.24316502 -0.13927019
000240 ff b6 ef 3c 9d cf 2c bd 1c 9e 4c be 93 91 3e be
       0.029262064 -0.042190183 -0.19982189 -0.1861022
000250 59 03 0b be 85 40 50 be f5 ce c5 bd 22 a6 ae 3c
       -0.13575496 -0.20337112 -0.096586145 0.021319453
000260 ef 9f f9 bd 70 0b d4 bd 87 49 5f 3e 9c c6 18 3d
       -0.12188708 -0.10353744 0.21805392 0.037298784
000270 12 4d 43 be 61 ef d3 3d a1 c1 91 3e 1f ce 8f 3d
       -0.19072369 0.10348392 0.2846804 0.07021736
000280 de 75 f9 be e0 09 34 be 51 df 9f 3d a2 b8 14 3e
       -0.48722738 -0.17581892 0.07806266 0.14523557
000290 34 9a 92 be 86 1d b0 bb 81 da 98 3d 30 74 27 3b
       -0.28633273 -0.005374613 0.07463551 0.002555143
0002a0 2a 9a 27 be 0a 5d 88 be 1d b7 c2 b9 83 6f b6 3d
       -0.16367403 -0.26633483 -0.00037138994 0.08907988
0002b0 7c b3 78 be 82 ae be be e6 b5 69 be 12 5b 07 be
       -0.24287218 -0.37242514 -0.22823295 -0.13218334
0002c0 73 bc a8 3e 54 17 60 3e 30 1a 1c be 89 26 83 3e
       0.32956275 0.21883899 -0.15244365 0.25615337
0002d0 d3 d8 bc 3d a7 b4 4c 3e 7a f5 00 3e 3f 05 71 be
       0.092210434 0.19990788 0.12593642 -0.23537157
0002e0 cc 51 de 3d fb ce 16 be bb c8 aa bd d3 56 19 3e
       0.10855445 -0.14727394 -0.083390675 0.14974527
0002f0 d7 8a 50 be d9 df 0d be da fc 18 3e ae 04 cf bb
       -0.20365463 -0.13854922 0.14940205 -0.0063176965
000300 f9 97 03 3d e6 98 27 bc d5 ee 95 3d 6d 2a f7 3c
       0.032127354 -0.010229325 0.07320944 0.030171597
000310 c5 6d 0d 3d 0c b5 36 3d af 43 a5 be 2d ff 2a bd
       0.034528513 0.044606254 -0.322782 -0.04174726
000320 42 79 8c bd dd bb 47 3e a7 be 35 bc 87 43 0e bd
       -0.068590656 0.19505258 -0.011092818 -0.034732368
000330 7a cb 4c 3e 28 a7 8b be 76 29 85 bd ef 4b d3 3d
       0.19999495 -0.27275968 -0.06502049 0.103172176
000340 cb 78 25 3e 77 59 52 3e e6 87 22 3c 01 8c 1e 3e
       0.1615936 0.2054194 0.009920096 0.15483095
000350 3e af 4b be 43 94 1e 3e 42 95 71 bc 29 8b 3a 3e
       -0.19891068 0.15486245 -0.0147450585 0.18217148
000360 e1 e5 36 be ac 31 5e bd 53 73 1e 3d 4e fe 49 3d
       -0.1786113 -0.05424659 0.0386842 0.04931479
000370 d8 55 76 be 38 f2 71 be 99 dc 6e 3e 62 d3 13 3e
       -0.24056184 -0.23627555 0.23326339 0.14436105
000380 fc 54 56 bc 00 64 7d bd 3f 7c af 3e 00 ff 12 3e
       -0.013081785 -0.061862946 0.3427448 0.14355087
000390 37 a7 70 bd 3f 28 59 3d 6f b8 d7 3d 7e 1f 87 bc
       -0.05875322 0.053016897 0.10533225 -0.016494509
0003a0 2b 49 e8 bd 9e 17 56 bd a8 bc b6 bc f7 24 bd 3d
       -0.11342081 -0.052268617 -0.022306755 0.09235566
0003b0 80 a0 99 be ab 0b 21 3d 38 30 96 be 70 86 99 3c
       -0.30005264 0.039317768 -0.29333663 0.018740863
0003c0 9f 69 8c 3c 55 a7 e9 3d 23 f8 25 3e 1e 0b 71 3e
       0.017140208 0.11408869 0.16207938 0.23539397
0003d0 f1 23 35 3d 3d 4a d4 3d 99 64 6e 3e 50 9d 4a bd
       0.04422373 0.10365722 0.23280562 -0.04946643
0003e0 e9 4a 14 be cd d8 40 3d e7 0c 1f 3e cb 67 95 3c
       -0.14481701 0.047081757 0.15532266 0.018237969
0003f0 eb 34 96 bd 8f 2a 0e be 4c c8 56 3e 7f 59 5e be
       -0.07334312 -0.13883422 0.20974845 -0.21713828

bias f4 [25]
000000 fb 18 42 3e ae 4e b4 3e bc 2d b3 3e 7c c1 1d 3e
       0.18954842 0.35216278 0.3499583 0.1540584
000010 35 c2 42 be 5b e3 e5 bd 65 59 82 3e 6d 61 72 3e
       -0.19019397 -0.11225005 0.25458828 0.23669977
000020 10 b1 4b 3e 59 3b 14 bd 5b a5 15 3d 36 c1 84 3e
       0.19891763 -0.03618941 0.03653465 0.25928658
000030 05 18 18 3e ec 30 6a be d4 fe a8 bd 1b 13 5f 3e
       0.14852913 -0.22870225 -0.082517296 0.21784632
000040 6d 5b 52 3e 38 fa 45 bd 70 40 c2 3d 33 48 96 bd
       0.20542689 -0.04833433 0.09484947 -0.0733799
000050 ab fe 7c 3e 16 c3 63 bb eb 4e 98 3d 0b d7 bc be
       0.24706523 -0.0034753731 0.074369274 -0.36882815
000060 c0 03 28 bf
       -0.6563072
