result/config1_main/preliminary_model15.pt (torch_old, 428387 bytes, 10 tensors)

weight f4 [12, 2, 192]
000000 0f c4 77 be a8 d3 db bd 51 69 1f 3d 38 ff 65 bd
       -0.24195884 -0.107337296 0.038918797 -0.0561516
000010 d1 a6 af bd 86 2a 24 be b4 b6 17 be 55 d1 0d 3e
       -0.085767396 -0.16031846 -0.1481579 0.13849385
000020 e4 be 86 3e 06 c6 0f bd 66 1d af be 5e f4 64 be
       0.26317513 -0.03510096 -0.34202117 -0.22358844
000030 7d 04 ba bc 77 eb 0d 3e 0e 5b c2 3d 27 65 48 be
       -0.022707218 0.13859354 0.094900236 -0.19569837
000040 f8 6b 49 3e df c1 0c 3d fa 66 6d be 3d 51 37 be
       0.19670093 0.034364577 -0.23183814 -0.17902084
000050 a1 89 77 3d e5 52 5b 3e eb 60 17 be 1f cb 5b be
       0.060433988 0.2141834 -0.14783065 -0.21464203
000060 e4 43 24 be 96 46 c5 3b 9e 7f 98 3e 35 44 fd 3d
       -0.16041523 0.0060203774 0.29784864 0.12366525
000070 51 75 aa 3d 19 33 74 be 1a 39 81 be 61 7e bb 3d
       0.083231576 -0.23847617 -0.25238878 0.09154964
000080 1d c4 46 bc c2 b2 47 3e 9a 46 92 3d 42 25 b4 bd
       -0.012131718 0.19501784 0.071423724 -0.08796169
000090 18 a3 fa bd 64 c4 54 be 60 73 12 3e 02 f1 87 3e
       -0.12238139 -0.20778042 0.14301825 0.26551062
0000a0 90 28 b3 bb 93 5b 0c 3e ad 62 db 3c 08 2a f5 bd
       -0.005467482 0.13706808 0.02678045 -0.119709074
0000b0 9a 96 ac 3d 65 bb f6 3c 29 34 aa 3b 84 6d a4 be
       0.084271625 0.030118654 0.0051942063 -0.32114804
0000c0 af ca 1c 3d bb ce e0 bd 97 4a 2a be e4 ec 17 3d
       0.03827923 -0.10976931 -0.16630016 0.03709115
0000d0 a6 3e 30 3e 7f dd 1e 3c 74 92 c5 be 24 e2 99 bb
       0.17211398 0.0096963635 -0.38588297 -0.0046961475
0000e0 bf 3d c6 bd ca 15 80 bd 38 3a 10 bd 5d d1 c5 3d
       -0.09679746 -0.06254156 -0.03521177 0.096590735
0000f0 f4 42 8a be 54 eb b6 be 6d 75 63 3d 3b 38 3d be
       -0.27004206 -0.35726416 0.055531908 -0.18478481
000100 d3 16 52 3d 35 13 84 bd ae 08 4d 3d 91 4b 64 bb
       0.051291298 -0.06448976 0.050057106 -0.003483508
000110 5c 56 75 3e 3c f3 0f 3e a6 24 60 be 70 3d aa bd
       0.23958725 0.1405763 -0.2188898 -0.083124995
000120 7d 5a 7b 3d 63 65 56 3e a1 2f 17 be f3 45 16 be
       0.061365593 0.20937113 -0.14764263 -0.14675121
000130 c7 eb f1 3c 0b 20 f2 bd 1a be 84 bd c5 f8 33 3d
       0.029531373 -0.11822518 -0.064815715 0.043938417
000140 0c 7f da 3d b6 e6 b1 bc 0f b8 a0 be d7 0a 8e be
       0.106687635 -0.021716457 -0.31390426 -0.27742645
000150 79 3d 05 3d e7 f1 14 3c a4 0a 43 3d 13 22 43 3e
       0.032529328 0.009090877 0.04761757 0.19055967
000160 d7 51 25 3e 3b c4 bf 3e 18 a2 41 bd bc 4d 20 bd
       0.161445 0.374544 -0.047273725 -0.039136633
000170 4f 8b c8 3d 31 22 18 3e ea 51 39 3e 92 b2 bf 3d
       0.09792196 0.14856793 0.18097654 0.093602315
000180 0e 82 29 bd 91 a7 83 be e8 17 f9 3d 8f d5 25 3e
       -0.041383795 -0.2571378 0.12162763 0.16194747
000190 6c aa aa 3c 50 bf fc 3b 25 53 5e 3d 25 e7 d8 bd
       0.020833217 0.007713236 0.05427851 -0.10590962
0001a0 be 03 8c bd ca 6c 8a 3e 4f d5 35 3e 7b 89 bc bd
       -0.06836651 0.27036124 0.17757152 -0.0920591
0001b0 26 56 a1 3c 9b 4c 24 be 9f d6 61 be 96 00 84 3e
       0.0196944 -0.16044848 -0.22054528 0.25781697
0001c0 08 a1 70 3e f8 52 32 3e 86 ac 12 3e 87 39 c1 3d
       0.23498929 0.17414463 0.14323625 0.094348006
0001d0 62 0b 33 3e ba e8 6f 3e 66 47 15 3e 10 e1 9a bc
       0.17484811 0.23428622 0.14578018 -0.018906146
0001e0 9e 04 0f 3e 09 b3 91 3d 16 3b 30 3e d6 7d a1 3e
       0.13966605 0.07114226 0.1721004 0.31541318
0001f0 3b 05 cb 3e 3d 4c 3f bc 83 2d b2 bd 15 c9 85 be
       0.39652428 -0.0116758915 -0.08700087 -0.26129976
000200 d5 8d 81 bd a4 b8 12 3e 2f f9 12 3d 07 a2 d8 3d
       -0.063258804 0.14328247 0.03588217 0.10577779
000210 86 b6 a2 3c 37 e0 08 bb 42 87 c9 3d 4e 00 ad 3e
       0.019862425 -0.0020885596 0.098402515 0.33789295
000220 d9 17 4b 3e d8 a8 95 3d 67 41 51 3d e1 85 f8 3c
       0.19833316 0.07307595 0.051087763 0.030337276
000230 7d ad 3d 3e 47 28 81 3e a3 81 28 3e de 9e e7 3d
       0.18523212 0.25226042 0.16455702 0.113095984
000240 5b 91 33 3d ee b0 9b bd ce 3f 0f be 09 0f d4 3d
       0.043839794 -0.07602106 -0.13989183 0.1035443
000250 c3 1c fa 3d a0 61 37 be 05 99 f3 bb b5 fa 23 3e
       0.12212517 -0.17908335 -0.007434013 0.16013606
000260 f7 8c 5c 3d 58 af 13 3e 5b b2 a2 3d d9 be 29 be
       0.053845372 0.14422357 0.07944175 -0.16576709
000270 9a 90 97 bd 0f 7c d2 bd 93 71 d2 bd 0f 85 14 bd
       -0.074006274 -0.102775685 -0.10275569 -0.036259707
000280 1a 7a c6 bd 35 db 50 3e 04 f3 60 3e 4a 94 e6 3d
       -0.09691258 0.20396121 0.21967703 0.11258753
000290 c9 96 48 3e f3 bb d7 bd 28 99 67 bd ac da 8f 3d
       0.1958877 -0.10533895 -0.056542546 0.0702413
0002a0 17 88 37 bc 2e 8e 87 bb a1 61 07 be ef 9e 05 3d
       -0.01120188 -0.004136822 -0.13220836 0.032622274
0002b0 c1 60 0f be 46 7b 45 bb 7f f4 01 be 9e 6c 67 be
       -0.14001752 -0.003013329 -0.12690924 -0.22600028
0002c0 fd 32 61 be d3 40 c4 bd 1a 00 69 3d ae a1 3d be
       -0.21992107 -0.09582677 0.056884862 -0.18518707
0002d0 ff 97 b0 3d 57 05 4f 3e 6c ef e2 bd 52 24 ef be
       0.08622741 0.2021688 -0.11080822 -0.46707398
0002e0 f5 6f c0 bd 41 15 33 be d7 4c ff bd cf 4e ac bc
       -0.09396354 -0.17488576 -0.12465828 -0.021033673
0002f0 bc 5e 74 3c f1 09 8a bc b2 b0 96 bd 91 78 98 be
       0.014915165 -0.016850444 -0.07357921 -0.29779485
000300 d2 94 12 bc 55 63 20 3e 07 fb 43 bd a5 26 a5 bc
       -0.008946614 0.15662892 -0.04784682 -0.020160029
000310 a8 fb 5e bd e1 b2 3c bd 13 a0 00 be cf cc d1 3d
       -0.054439217 -0.04606903 -0.12561063 0.10244142
000320 77 2d 8a 3e fd 86 22 bd 3c 77 9e be 23 8e d7 be
       0.26987812 -0.039679516 -0.30950344 -0.4210063
000330 76 00 eb 3b 54 1e 8c 3e 21 ba da 3d 60 63 b0 be
       0.007171686 0.2736689 0.106800325 -0.34450817
000340 19 93 17 be 3b 8b 7e 3e 2a e0 ba bd 14 2e ef bd
       -0.14802207 0.248578 -0.09124787 -0.116787106
000350 3e 8c 33 be b1 4e 8c 3d 62 43 16 be 09 56 21 bd
       -0.17533967 0.06850947 -0.14674142 -0.03938869
000360 f9 28 a8 3d b3 50 17 bd 72 5e e4 3d 08 0e b4 bd
       0.0821094 -0.036942195 0.111508265 -0.08791739
000370 51 5c ab 3e 07 f3 51 3e 66 61 7e 3e 39 35 87 3e
       0.3346887 0.20502864 0.24841842 0.26407793
000380 e6 14 1f 3d 53 34 8e 3d 7b cb d0 3d 68 14 83 3e
       0.03883829 0.06943574 0.10195061 0.25601506
000390 59 84 95 3e 75 de 84 3e b3 09 a1 3e 1b 16 1b 3e
       0.29202536 0.2595097 0.31452712 0.15145151
0003a0 97 bf c3 3c ac ad 99 be b7 a7 82 ba 20 4e 64 3e
       0.023895068 -0.30015314 -0.0009968196 0.22295427
0003b0 a0 5e c2 3e 39 87 86 3d ed f8 81 be d0 a7 fb 3d
       0.37962818 0.065687604 -0.25385228 0.12287867
0003c0 fd 4a eb 3d 3b ba 84 bd 60 49 0c bd de ae 8c 3e
       0.11488912 -0.06480833 -0.034249663 0.27477163
0003d0 6c a3 00 3e c7 32 9f 3d c8 10 eb 3d 0e 22 cb 3e
       0.1256234 0.07773357 0.1147781 0.3967442
0003e0 6a 1c bc 3b 8d 42 34 be 80 af da bd 5a b2 0c 3f
       0.005740692 -0.17603512 -0.10678005 0.5495964
0003f0 67 76 79 3e 1e 14 3a bd 67 6f 86 3d ce 85 cf bd
       0.24361573 -0.04542934 0.06564217 -0.10132943

bias f4 [12]
000000 74 39 82 be d5 63 a8 be ce 1d 72 be 81 ad d6 be
       -0.25434458 -0.32888666 -0.23644182 -0.41929248
000010 35 69 6f be 99 94 85 be 89 9b 45 be 20 25 b4 be
       -0.23379977 -0.26089934 -0.19297613 -0.35184574
000020 b7 74 c2 be 3e d0 9c be f4 7f 52 be b0 92 a4 be
       -0.3797967 -0.30627626 -0.20556623 -0.32143164

weight f4 [24, 12, 16]
000000 94 1b 83 bd 26 50 ec 3c 0a 9f f6 bd b2 8e 00 bd
       -0.064017445 0.028846812 -0.12042053 -0.031386085
000010 1b 15 8e be 87 4a 69 be 98 41 23 3e 13 72 1f 3d
       -0.27750477 -0.22782336 0.15942991 0.03892715
000020 44 61 10 be 52 7f a3 bc 21 54 09 be 0f 98 bb bd
       -0.14099604 -0.019958172 -0.13410999 -0.09159862
000030 bf ed 85 be 8c 2e 9b be f0 f1 4b 3e 73 f4 92 bc
       -0.26157948 -0.3030895 0.1991651 -0.017938828
000040 c5 fe 2f bc 29 e6 d0 3e 7d 17 0c 3f cf 43 ef bd
       -0.010741894 0.40800598 0.5472334 -0.11682855
000050 92 c7 85 3e 59 dd 77 3d 6e 10 ab bc 61 b5 79 3e
       0.26128823 0.060513828 -0.020881858 0.24385597
000060 f9 c1 30 3e d2 0b 67 3e 6a 86 ca 3d 49 35 7f 3e
       0.17261495 0.22563103 0.09888919 0.2492267
000070 bd c6 55 be 48 ad 09 3e 06 7e 31 be 96 47 a7 3d
       -0.20876594 0.13445008 -0.1733323 0.08167951
000080 26 5d 7c bd f1 b9 db 3b 48 ac 75 be d5 1e 19 be
       -0.06161227 0.0067055156 -0.23991501 -0.14953168
000090 39 3b 9b be 50 ba f2 3d 28 18 16 be 11 cc 7a be
       -0.3031862 0.118519425 -0.14657652 -0.24491908
0000a0 a8 d2 b9 be 64 1f ad 3d 7d 29 45 be cc 97 c0 3c
       -0.3629353 0.08453253 -0.19254108 0.023509882
0000b0 3e 51 18 3d ab c5 9a bc 96 4d 9f bd 4d 4b f5 3d
       0.037186854 -0.018893084 -0.0777847 0.11977253
0000c0 45 09 ec bd de d2 a3 3d 0b 6a 81 3d 69 4d e9 3d
       -0.115252055 0.07999204 0.06319054 0.11391718
0000d0 7c 71 14 bc 1c fe 94 bd 42 fb 2f 3c 83 d8 39 bc
       -0.00906026 -0.0727503 0.010741057 -0.011343124
0000e0 99 c0 11 3e b9 d7 10 be 68 0a 37 bc 93 cc 50 3e
       0.14233626 -0.14144792 -0.011171915 0.20390539
0000f0 02 e6 c2 3d 67 e1 b3 3d 44 8f 7f 3d 40 59 e7 bd
       0.09516527 0.087832265 0.062392488 -0.1129632
000100 96 3c d1 3b 86 c6 40 3d 67 93 f7 bd 13 cc d4 3c
       0.0063853962 0.047064327 -0.12088662 0.025976216
000110 a8 39 4c 3d ac b0 27 bd 3a 0e fd 3d 3d ec 20 3e
       0.049859673 -0.04093997 0.12356229 0.15715118
000120 4a 91 f2 bd db 14 97 3e 86 f7 96 be ed c2 e6 bd
       -0.11844118 0.295081 -0.2948572 -0.11267648
000130 74 bd 7c be 3b 28 06 be 95 9a e2 bc d7 a8 4b be
       -0.24681646 -0.13101284 -0.027661601 -0.19888626
000140 63 ff c2 3c 48 6b 95 bc 3c 29 e9 be d0 ba 2e be
       0.023803419 -0.018239632 -0.45539272 -0.17063451
000150 51 92 67 be f9 49 02 3d bb 59 75 be 2d 6c 2a be
       -0.22614409 0.031808827 -0.2396001 -0.16642828
000160 94 cb 85 be f2 15 7d be d2 06 c9 be dc 3e 78 3d
       -0.2613188 -0.24715403 -0.39263016 0.060606822
000170 da a8 61 bc 7e 6e 39 be e5 9d 81 be 6c 77 ff bc
       -0.0137731675 -0.18108556 -0.25315776 -0.031184874
000180 07 ea cb bd 65 47 9a bd 6a 0e 33 3e 28 81 68 3d
       -0.099567465 -0.07533149 0.17485967 0.056763798
000190 cc 85 7d 3e 29 24 f4 3d 33 8d 18 3e 75 3c 6a 3e
       0.2475807 0.119209595 0.14897613 0.22874625
0001a0 e9 0d 96 3e 1d a6 34 be 50 c6 e6 3e 5d 7e 34 3e
       0.29307488 -0.17641492 0.45073175 0.17626329
0001b0 15 ae e2 3d a9 1e 77 3d bf d0 6d be a7 92 cc 3c
       0.1106836 0.060331974 -0.23224162 0.024972273
0001c0 43 28 d1 be 34 44 6a 3e f4 f0 57 bd c1 fb 28 be
       -0.4085103 0.2287758 -0.052720025 -0.16502286
0001d0 63 4d 5e 3c 58 5e 22 3d f1 b3 69 3e 29 e7 4d 3e
       0.013568255 0.039640754 0.22822548 0.20107712
0001e0 c2 6b 37 be 4e 74 a7 3e 0f 4c a4 bd f4 70 5a be
       -0.179122 0.3270592 -0.080223195 -0.2133215
0001f0 1d f9 b0 bd 9b 21 8e 3d 34 d3 12 bc 01 b4 93 3d
       -0.086412646 0.069400035 -0.008961488 0.072120674
000200 5d ee 9d 3e 2f d1 19 3e e8 b4 8b 3e be e9 c1 3e
       0.3084592 0.15021203 0.27286458 0.37873644
000210 86 f5 d2 3e 90 e5 e8 3b d7 2f 47 3c ba 5d 85 3b
       0.41202945 0.007107444 0.012157402 0.004070011
000220 0f 71 5c 3e 3b 8e 3f 3e 38 72 15 bd ab 87 e8 3c
       0.21527503 0.187066 -0.03648588 0.028385004
000230 57 15 ba 3d d2 cb 25 bd ec 82 48 be d9 98 50 bd
       0.090861015 -0.04047758 -0.19581193 -0.050927017
000240 8f d7 9e be d8 32 f7 bd f3 fb 4d be a0 3f d2 be
       -0.31023833 -0.120702446 -0.20115642 -0.41064167
000250 87 ff 5a bd 3e 82 eb 3d c2 cb 5c 3d a1 3d 80 3d
       -0.053466346 0.11499451 0.053905256 0.06261755
000260 d0 f9 96 bd 0a 5c 6e 3c 47 a8 d6 bd bb ec 2f be
       -0.07371867 0.014548311 -0.10481315 -0.1718015
000270 4e 8a fd 3c 16 30 12 3e 2b 6d 73 3d 69 07 b6 3d
       0.030949738 0.14276156 0.059430283 0.08888132
000280 45 16 89 bd 7a f0 05 be 28 a4 09 be 13 9b f4 bc
       -0.06693701 -0.13080016 -0.13441527 -0.029859101
000290 20 f4 9f 3e 07 8d 14 bf ef d1 62 bd cc b8 86 3d
       0.3124094 -0.5802769 -0.05537599 0.06578216
0002a0 20 db c1 3d 74 e5 f7 3d 42 2b 69 be 84 00 57 be
       0.09465623 0.121043116 -0.22770408 -0.2099629
0002b0 1d 5d bc be 84 94 14 be af 86 98 be 4e 6c e3 bd
       -0.3678979 -0.14509779 -0.29790255 -0.11104642
0002c0 88 49 3f be ef 4e f7 bd e0 de a0 be 32 2c a9 bd
       -0.18680394 -0.12075602 -0.3142004 -0.08260383
0002d0 ba dc 94 be 4c 40 82 3d 3d 7d a2 3d 73 8b 5b be
       -0.2907465 0.0635992 0.079340436 -0.21439914
0002e0 5e dc b5 bd d6 7c 4d 3e a5 bc cd be a3 1b 96 3e
       -0.08879922 0.20067152 -0.40182987 0.2931796
0002f0 fb ea e5 bb 29 28 13 be bb e5 60 be d2 35 d7 3d
       -0.0070165372 -0.14370789 -0.21962635 0.10508312
000300 34 12 9c bd e9 ad 28 3e 13 5e ca 3c e4 54 7e be
       -0.076206595 0.16472591 0.024703061 -0.2483707
000310 fc 55 fa bd 95 de a1 3e 92 70 54 bd c8 0e db be
       -0.122234315 0.3161513 -0.051865168 -0.42784715
000320 c5 a6 2c 3e 84 7e 8a bd 16 4b 9e be 6f 05 71 3e
       0.16860493 -0.06762412 -0.3091666 0.23537229
000330 f6 23 02 bc 56 3a c1 bc 31 fa 1c be 06 cc 8d 3d
       -0.007943144 -0.023587387 -0.15329815 0.0692368
000340 6b 5a ca be 00 66 3b 3e 75 29 40 bc 5d 38 da 3d
       -0.39522108 0.18300629 -0.011728634 0.10655282
000350 45 98 c7 be 88 14 cc 3c e4 27 47 3e ee a1 94 bd
       -0.3898336 0.024912134 0.19448811 -0.07257448
000360 1b a8 07 be 22 63 3c 3c 94 f8 c8 be 08 9f fb bd
       -0.13247721 0.0114982445 -0.3925215 -0.12286192
000370 ad 2e 81 3d bc ea 4a 3d 96 e6 01 bc db f4 f7 3c
       0.06307731 0.049540266 -0.007928511 0.030268123
000380 fb 34 b0 3d bf 35 2d 3c c7 2a 3a be 34 3e de bc
       0.08603855 0.010571896 -0.18180381 -0.02712927
000390 e7 25 94 bd d3 ce b5 bd 86 fb 78 bc a8 55 31 be
       -0.07233792 -0.08877339 -0.015196687 -0.17317832
0003a0 8b 8a a4 bc 09 7b 41 3e d7 43 47 bd 8b ad ac be
       -0.020085594 0.1889459 -0.04864868 -0.33726153
0003b0 df 54 ea bd c5 51 2b be bc 87 3a 3e 7c 5b bb bd
       -0.11441969 -0.16730411 0.18215841 -0.09148309
0003c0 ad c1 cf 3d a7 15 22 be 52 47 97 bd f4 48 58 bd
       0.101443626 -0.15828572 -0.0738665 -0.05280395
0003d0 af 14 fb 3d 5d 92 04 bd 2b b0 dd 3c a2 61 39 3c
       0.122598045 -0.032366145 0.027061542 0.011314781
0003e0 b7 f5 a0 be e4 12 0d 3e 20 48 aa bd 88 70 80 bd
       -0.31437466 0.13776737 -0.08314538 -0.06271464
0003f0 d8 36 f1 bd cc 07 76 3c ca fd 9e bc b6 44 94 be
       -0.11778039 0.015016507 -0.019408125 -0.28958672

bias f4 [24]
000000 62 d4 bb bd fe a5 67 be cd 13 16 be 57 a8 26 3e
       -0.09171368 -0.22621915 -0.14655991 0.16275154
000010 b2 7e e4 3c 01 d8 e4 3d be 19 9d bc 39 2b 3e be
       0.027892444 0.11174012 -0.019177314 -0.18571176
000020 05 11 a0 be f6 14 c3 3d c5 56 81 be 15 fb bf 3c
       -0.31262985 0.09525482 -0.25261512 0.023435155
000030 1c f2 1f be 67 66 bd bc 63 d9 19 bc af ab 82 be
       -0.15619701 -0.023120118 -0.009390208 -0.2552161
000040 ee a4 b7 bc 47 e8 3a 3c fc 7c 9c 3e e6 99 55 3e
       -0.022417512 0.011407918 0.30564106 0.20859489
000050 f3 14 ae bd c0 8e 10 be 9b 41 49 be aa 9e a3 3d
       -0.085000895 -0.14116955 -0.19653933 0.07989247

weight f4 [48, 24, 6]
000000 ee b2 df bd b7 83 e2 bd 89 40 c1 3c 05 8f 43 bc
       -0.109228 -0.11060279 0.023590343 -0.011935954
000010 e7 88 cd bd ee 16 1a 3e 6d 95 19 be 63 ba a8 bd
       -0.10035878 0.1504781 -0.14998408 -0.082386754
000020 1c ab e0 bd 66 21 76 be 2c 54 d8 bd 7c bc 8f 3d
       -0.109701365 -0.24036178 -0.105629295 0.070183724
000030 af df 2e be de 3b 15 3d b9 0e ed be bf c2 50 be
       -0.17077516 0.036434047 -0.46300295 -0.2038679
000040 3a 16 0a be 0b 9e 0b be 46 4d 79 be 50 9d d8 be
       -0.13485041 -0.13634507 -0.24345884 -0.4230752
000050 dc 71 da be 94 37 04 bf d9 ba 09 bf 80 85 34 be
       -0.42664993 -0.51647305 -0.5380073 -0.17629051
000060 92 ef cf 3e 36 13 5c 3e ab ef 19 bd 1b 02 dc 3e
       0.40612465 0.21491703 -0.03758208 0.42970356
000070 8f 20 06 3e 63 93 65 3e 00 38 a4 3d aa 2d 3d 3e
       0.13098358 0.22419505 0.08018494 0.1847445
000080 63 e6 9c 3e 76 ef e8 3c 32 6d 74 bd a8 64 2c bd
       0.3064452 0.028434496 -0.05967445 -0.04208818
000090 78 55 ac 3e cc e0 0c 3f f9 6c 2c 3e bb cb 7c 3d
       0.33658957 0.5503051 0.16838445 0.06171773
0000a0 70 cd 69 3e c1 38 58 3e 75 21 9f be c6 ec b3 be
       0.22832274 0.211154 -0.31080213 -0.3514158
0000b0 7e f6 25 3e 45 f9 8c 3d 10 7e ac 3d e9 19 14 be
       0.1620731 0.06883482 0.08422482 -0.14463009
0000c0 26 7e 93 bd c7 94 70 bd b6 ac 52 bd db 1a 63 be
       -0.07201795 -0.058735635 -0.05143424 -0.22178213
0000d0 56 72 4e be f2 7d f0 3d 50 91 10 3c 66 f7 ad 3c
       -0.20160803 0.11742772 0.008823708 0.021236133
0000e0 c5 83 a0 bd 37 40 80 bd d0 c7 59 3d d5 1b 3a 3e
       -0.07837633 -0.06262248 0.05316907 0.1817468
0000f0 a6 ec 59 bc 3b 5a 88 be 85 7c af bb 20 5a 14 be
       -0.01330105 -0.2663134 -0.00535542 -0.14487505
000100 6e 9a 60 be 3e d6 d0 bd 26 62 16 3e 99 70 29 bd
       -0.2193391 -0.101971135 0.14685878 -0.041367147
000110 2c 9d e9 3b 6d aa 85 bc ae 8b 26 bd 12 42 ac bd
       0.007129332 -0.016316617 -0.040660553 -0.084110394
000120 7c ba 9b be 59 8b 8e be c9 49 9a bd 98 74 fe 3c
       -0.30415714 -0.2784069 -0.07533605 0.031061456
000130 4d 1d 88 be d8 ef 95 be ef 88 2f bd 84 e2 52 be
       -0.26584855 -0.2928455 -0.0428552 -0.20594221
000140 db 76 33 3d c7 e4 79 3e 66 a4 45 be b3 0f 7c be
       0.04381452 0.24403678 -0.19300994 -0.24615364
000150 cf fb 04 3e 86 18 6f be 13 cf 77 be 0d c5 1c bd
       0.12986682 -0.23349199 -0.24200086 -0.03827386
000160 33 b0 e1 3c 68 e8 e7 bd e5 dd 8a 3e a8 38 19 be
       0.027549839 -0.11323625 0.27122417 -0.14963019
000170 03 5d b4 3d 45 b1 17 3d 62 dd 2f 3d 5f b2 72 be
       0.08806803 0.03703429 0.042935736 -0.23700856
000180 90 50 60 3e fd b7 ee 3d 04 11 39 3d bc 1d 90 be
       0.21905732 0.11656187 0.045182243 -0.28147686
000190 a1 8f 66 be a4 ca 9f 3d 38 29 c6 bd 9b 04 a2 be
       -0.22515728 0.078023225 -0.096758306 -0.3164414
0001a0 4d b0 3c bf c9 9f de be 18 32 08 be 2e 71 77 be
       -0.73706514 -0.4348128 -0.13300359 -0.24164268
0001b0 ab 98 18 be 25 d7 80 be 0f 7b 06 bf a5 d0 96 be
       -0.14901988 -0.25164142 -0.5253152 -0.29456058
0001c0 45 a3 25 bf ec 8f 4e be c1 a2 1c be cd 7b 93 be
       -0.64702255 -0.2017209 -0.1529646 -0.2880539
0001d0 9c 23 30 be 3a e3 22 bf 3c 7c 36 bf 01 89 05 3e
       -0.17201084 -0.6362797 -0.71283317 0.13040544
0001e0 22 68 81 be 6b dc 17 3c 5d 62 38 be 50 5d d4 bd
       -0.2527476 0.00926886 -0.18006273 -0.103693604
0001f0 c5 e0 c6 3d 20 d7 91 be 1a 56 b7 3d 7a c8 99 3d
       0.0971084 -0.2848444 0.089519694 0.07508941
000200 dc fc c5 be 34 23 86 3d d7 49 98 be 1d 43 36 bd
       -0.3866948 0.06549683 -0.29743835 -0.044497598
000210 5f 3d ec bd 53 cf 09 be d8 3c 9a be 93 0b fb be
       -0.11535143 -0.13457994 -0.30124545 -0.49032268
000220 d2 e8 cb bd 5d 1a ba be ff d6 2f 3e be 0b 23 3e
       -0.09956516 -0.3634824 0.17171858 0.15922448
000230 32 d0 42 be e7 d8 1c be 57 b0 55 be a6 dc c3 bd
       -0.19024733 -0.15317117 -0.2086805 -0.0956357
000240 8c c9 89 3d 6e 1b 0f 3e 47 1c ea bc 5c e9 cc 3c
       0.06727895 0.13975307 -0.028577937 0.025013618
000250 60 f9 19 3e de bc 5d 3e bd bf d3 3b 66 cc 65 3e
       0.15036535 0.21654078 0.006462066 0.22441253
000260 c5 10 05 be 6e ec c2 3e f9 e3 25 be 26 61 ef bc
       -0.12994678 0.38071007 -0.16200246 -0.029221129
000270 5e 67 d1 bd 7b 50 8e be c2 27 ba be 13 49 1f 3e
       -0.10224794 -0.27795777 -0.36358458 0.1555522
000280 e5 47 bf 3d 33 da 79 bd d3 04 a4 be ea 86 98 3b
       0.09339885 -0.060999107 -0.3203493 0.004654755
000290 b7 61 42 3e 18 1f 3a 3c 7e 71 b6 be a6 5d 3c 3d
       0.18982588 0.011359952 -0.35633463 0.045987748
0002a0 34 17 77 3e 0a 5e ba bd 5c 22 3a 3d b9 7d 06 3c
       0.24129945 -0.09099968 0.045442924 0.008208686
0002b0 14 d1 b7 be d9 28 05 3e ba c0 29 be d9 27 ad be
       -0.359017 0.13003863 -0.16577426 -0.33819464
0002c0 95 ca a0 bb 04 6e 26 be eb 15 09 3e e6 f2 5e be
       -0.004906962 -0.16252905 0.13387267 -0.21772346
0002d0 55 fa 47 be e9 44 b4 be 90 4a b3 be 4e 97 89 be
       -0.19529088 -0.35208824 -0.35017824 -0.2687325
0002e0 aa e0 02 be 06 73 96 be 72 54 0b be c7 ba fe be
       -0.12781015 -0.2938463 -0.13606432 -0.49751875
0002f0 e2 47 c3 bd 30 5a d5 be a0 f8 10 be 49 4b 8e be
       -0.09535195 -0.4167037 -0.14157343 -0.27791813
000300 03 c0 3c be 96 66 00 be 79 02 3b bc 12 19 c3 be
       -0.18432622 -0.12539133 -0.011414164 -0.38105065
000310 a1 46 0c bd ad 7c 72 be 2e eb 85 3e 40 56 40 be
       -0.034247044 -0.23680373 0.2615599 -0.18782902
000320 5e a0 e0 bc 2f 7d 17 3e a4 81 53 3d e3 eb ca be
       -0.027420219 0.14793848 0.051637307 -0.39633092
000330 b2 c8 ff be f2 02 80 be 98 43 96 be a5 d6 ce bc
       -0.49957806 -0.25002247 -0.29348445 -0.025248835
000340 dd fa e0 be 94 da b7 be 21 34 b3 be fe 8c 7c bd
       -0.43941393 -0.3590895 -0.3500071 -0.061657898
000350 b1 80 63 3e 92 20 79 3e 8c 45 48 3d cb e9 17 bd
       0.2221706 0.24328831 0.04889445 -0.037088197
000360 9f d4 10 3e 2f f3 42 be 21 44 06 3e 71 64 24 be
       0.14143609 -0.1903808 0.13111927 -0.1605394
000370 11 8f d0 ba 34 58 7c 3d cc 86 ff 3d 36 01 b6 be
       -0.0015911778 0.061607555 0.12476882 -0.355478
000380 8c dd 3d 3e 76 4d 00 bc c6 b3 63 ba 75 49 96 bd
       0.18541545 -0.007830968 -0.0008686151 -0.073382296
000390 cc 51 e7 3d 64 42 83 be 70 31 6f bd 9f 2c 65 be
       0.112948984 -0.2563659 -0.058396757 -0.22380303
0003a0 b5 a8 c9 bb 44 40 2d bd e0 19 b5 3d db 35 c4 3e
       -0.0061541446 -0.042297617 0.08842826 0.38322338
0003b0 71 89 a9 3d 2f a6 e7 3b 5a a6 e8 3d ba 78 e9 3d
       0.08278168 0.007069371 0.11359854 0.1139998
0003c0 d7 ad ed bd f1 07 2e bd f8 05 81 3e 24 a5 57 be
       -0.11605423 -0.042488042 0.25199866 -0.2105909
0003d0 b5 f9 1b 3e ea 04 5b bd c9 73 bf bb 47 f9 86 bd
       0.15231974 -0.053471483 -0.00584266 -0.06590515
0003e0 71 45 10 be db 24 32 be dc ba 31 3e 48 37 0c 3f
       -0.1408899 -0.17396872 0.17356437 0.5477185
0003f0 b3 4b 8a bd 58 f1 7f 3e 92 26 53 be 04 41 be bd
       -0.0675272 0.24994409 -0.20620182 -0.092897445

bias f4 [48]
000000 93 fc 7b 3e ea f9 d9 3c cf 94 37 bd af 51 1b be
       0.24608068 0.026608426 -0.04481965 -0.15167879
000010 24 0a 55 be da b5 ca be eb 38 89 3e bd e1 2b be
       -0.2080465 -0.39591867 0.26801237 -0.16785331
000020 9c 47 27 bd 3f 87 52 be 64 61 b9 3d 5c 0d a8 3e
       -0.040839776 -0.20559405 0.09051779 0.32822692
000030 ee 2d 19 be f9 82 43 3e 9c 7e cd 3e a7 95 27 3e
       -0.14958927 0.19092931 0.40135658 0.16365682
000040 f6 cc 8a be f2 25 94 3e 17 d1 3d be 96 8a fb bd
       -0.27109498 0.289352 -0.18536793 -0.122822925
000050 a9 85 db 3d 96 44 32 be 93 05 27 3e 60 4a 6a be
       0.10718853 -0.17408976 0.1631072 -0.22879934
000060 3e 69 cf be af fc 3c 3e 1e 4e 3c 3e 8f 79 1e 3e
       -0.4050998 0.18455766 0.18389174 0.15476058
000070 e3 a0 84 be 1e e3 25 be bf 0d 52 3e 03 da c5 3d
       -0.25903997 -0.1619992 0.20513056 0.09660723
000080 6f d6 3a be 30 f7 f9 3d dd 25 58 3e 66 bb 99 3d
       -0.18245862 0.122053504 0.21108194 0.075064465
000090 b0 af 47 be c5 ba a2 3d 62 d5 90 bb 0e c4 8b 3d
       -0.19500613 0.0794578 -0.0044199685 0.06824504
0000a0 3c 6a 08 bd a7 4d 61 be 29 c3 4e 3e 07 e5 ca bd
       -0.033304438 -0.22002278 0.20191635 -0.09906965
0000b0 9e 26 5d 3e 00 17 8c 3e 33 1d 80 3d cf 0c 77 3e
       0.21596763 0.27361298 0.06255569 0.2412598

weight f4 [64, 1344]
000000 79 49 f6 bd da 0b 38 bd 36 51 67 be e2 2b 15 bc
       -0.120257325 -0.044933178 -0.22589573 -0.009104701
000010 80 14 61 3e 18 06 0e be 27 9a a6 be 9b 4f 5d be
       0.21980476 -0.13869512 -0.32539484 -0.21612398
000020 17 29 1a be 25 b1 38 be 6a c9 8c be b0 24 cf bd
       -0.15054737 -0.18036325 -0.27497417 -0.101144195
000030 ce ac 62 bd a9 bb 8e 3d d1 65 28 bd e3 a0 13 3e
       -0.05534058 0.06969387 -0.041112725 0.14416842
000040 4e 31 fd bc fa 99 96 be 96 8f 2b be 5d 36 e7 bc
       -0.0309073 -0.2941435 -0.16753992 -0.028224165
000050 42 09 8c bd b8 7f 79 3d 7e e9 e7 bd 21 83 22 3e
       -0.06837703 0.060912818 -0.11323832 0.15870334
000060 4d 12 f8 3d 0e f4 d3 bc a4 e1 23 3e a5 61 7c bd
       0.121128656 -0.02587321 0.16004044 -0.06161656
000070 88 5d 90 3e 5e e3 2f 3e 41 4e 26 bd 34 35 6d 3e
       0.2819636 0.17176577 -0.040601972 0.23164827
000080 cd a3 be bc 86 28 f1 bd 92 2a 62 bd d0 6f a5 3d
       -0.023271466 -0.11775307 -0.05521638 0.08077967
000090 64 50 39 3d ad 14 70 bd e8 c7 9a 3d f6 11 2d bd
       0.045242682 -0.058613468 0.0755766 -0.042253457
0000a0 38 40 9d bd 32 b9 14 3d 02 3a 89 be de c6 26 bd
       -0.076782644 0.03630943 -0.2680207 -0.040717
0000b0 dd f9 e7 3c 5c cc c3 3d 5d 3e 19 be b5 b1 2f bd
       0.028317386 0.09560463 -0.14965196 -0.042894084
0000c0 89 2c 17 bd b9 4a 0e 3c cf 4d ae be 5b 7b a2 3e
       -0.036907706 0.008684807 -0.34043738 0.31734738
0000d0 ad 01 34 3e 5e 7e 90 bd 84 c3 05 bc 85 98 ab 3e
       0.17578764 -0.07055353 -0.00816429 0.335148
0000e0 f6 c3 18 bd ce e5 2c bc 07 5c f4 bd 74 a2 10 be
       -0.037296258 -0.010552837 -0.11931615 -0.14124471
0000f0 3d 08 33 be a1 0b 80 bd 3e 9c 35 be 78 8a 59 3d
       -0.17483611 -0.06252218 -0.17735383 0.05311057
000100 db 88 b9 bb de bd 09 bf 45 8b d9 3d 9e 27 19 be
       -0.0056620664 -0.5380534 0.10622267 -0.14956519
000110 51 40 df 3d 35 a0 ef bd 37 3e 52 3e 15 89 cf 3e
       0.10900939 -0.11700479 0.20531546 0.40534273
000120 d5 bd 91 3c 37 80 39 3e ac 40 b9 3d 2b 0b 59 3e
       0.017790714 0.18115316 0.09045538 0.21195666
000130 c3 e1 1b 3e f3 0b 89 bd 06 8d d1 bc c3 41 2e 3e
       0.1522284 -0.06691732 -0.02557994 0.17017274
000140 3d d1 a6 3e 98 9f c6 bd b9 d8 b6 bd c1 59 e1 3c
       0.3258151 -0.09698409 -0.08928055 0.027508618
000150 a5 25 06 bf 6e 47 72 3e 7a 73 aa 3e 45 a1 57 3e
       -0.5240119 0.23660061 0.33291227 0.21057613
000160 26 eb fc bd fc 46 1f bd f0 66 8b bd 15 70 40 be
       -0.123495385 -0.038886055 -0.06806743 -0.18792756
000170 b6 d9 e4 be aa c8 9a bc 9a 64 1d bd 00 12 2d be
       -0.4469735 -0.018894512 -0.03842602 -0.16901398
000180 5a 02 82 be 88 4b 09 3e 4a 98 6a 3e c6 cf 84 3d
       -0.2539242 0.13407719 0.22909656 0.06484942
000190 a0 37 ab 3c 47 a7 a3 3e be 1f 8e 3d bd e5 08 3e
       0.020900548 0.3196356 0.06939648 0.13368888
0001a0 09 73 4b 3d 43 d3 61 3e 84 37 08 be 03 d4 ed bd
       0.049670253 0.22053246 -0.13302428 -0.11612704
0001b0 a4 bc c6 3d 5a 05 f7 3d 7e 1c 10 3e cf 77 be 3e
       0.09703949 0.120615676 0.14073369 0.37200782
0001c0 f5 c6 98 be b7 ad 7d be b2 91 93 be 4a 21 d8 3d
       -0.29839292 -0.24773298 -0.28822094 0.105532244
0001d0 6e 1f 21 3e f9 0e ce 3b dc de 34 be fb 96 78 bd
       0.15734646 0.006288406 -0.17663139 -0.06069086
0001e0 29 dd 82 bc 9c 30 9b bd 02 97 1e be cc b8 c4 bd
       -0.015974598 -0.07577631 -0.15487292 -0.0960556
0001f0 15 46 9c 3d 7e 6f f5 3c f8 26 b8 bc 77 ca 05 be
       0.076305546 0.02996039 -0.02247952 -0.13065515
000200 b5 b2 ea bd 1f dd 6e bd bc fb 05 bd 18 73 75 3d
       -0.11459867 -0.058316346 -0.032710776 0.059924215
000210 38 02 77 be a5 66 2d be 86 f9 fc 3d 1d 91 8c be
       -0.2412194 -0.16933687 0.1235228 -0.27454463
000220 07 df 19 be 97 ab 52 be a0 c6 9f be 25 56 92 be
       -0.15026484 -0.20573269 -0.31206226 -0.28581348
000230 3a c2 8d be 56 28 19 be fb ae 0c be ff 09 49 3d
       -0.27687246 -0.14956793 -0.13738625 0.0490818
000240 2a e4 0a be bd 8c a5 3d 35 03 2e 3e 06 9a 90 3e
       -0.135636 0.08083484 0.16993411 0.2824251
000250 24 0d c0 bd 6b 09 01 bd cc 6e 57 3e aa 2a 90 3e
       -0.093775064 -0.031503122 0.2103836 0.2815755
000260 83 d4 57 3e 09 98 31 bd 29 04 82 3e ca 16 3b bd
       0.2107716 -0.043357883 0.253938 -0.04567603
000270 4d cf fd 3d da 44 59 be 86 cc ba 3d 6f 6c fd bd
       0.12393055 -0.21217671 0.09121041 -0.12374198
000280 f1 8c f3 3c 08 d4 ba 3d f6 91 12 3e e5 3f 89 be
       0.029730292 0.09122473 0.14313492 -0.2680656
000290 ef 2d 4d be 3d 08 3f be 7d b2 85 bd 97 58 7d 3c
       -0.20037054 -0.18655486 -0.065281846 0.015463016
0002a0 7b 89 9e be 2d 51 a4 bd 35 f2 25 be f8 f1 4b be
       -0.30964264 -0.080232956 -0.16205676 -0.19916523
0002b0 a1 80 33 be 48 2e b1 bd e8 30 97 be dd 6e cf bd
       -0.17529537 -0.086514056 -0.295295 -0.10128567
0002c0 c9 e6 9d be 7b e7 ee bd 19 cf 9b be cd df 8c be
       -0.30840138 -0.11665245 -0.3043144 -0.27514496
0002d0 87 ec d0 bd 55 89 87 be db ac 2f be 23 e0 a4 be
       -0.10201364 -0.26471964 -0.17155783 -0.32202253
0002e0 9a 6f 5d be 68 b9 86 bd 93 e3 5b be e5 81 b4 be
       -0.21624604 -0.06578332 -0.21473531 -0.35255352
0002f0 e3 12 7d be 47 15 02 bb c7 ee 28 be a4 52 e3 be
       -0.24714236 -0.0019849108 -0.16497336 -0.44398987
000300 27 ca 14 be 9c 49 51 bd 20 d4 a7 bd de 97 8c 3b
       -0.1453024 -0.05109559 -0.081947565 0.004290565
000310 2d b7 d6 bd 43 86 ff bc 82 d2 95 3c 9a 44 e6 3d
       -0.10484157 -0.03119195 0.018288855 0.112435535
000320 c0 dd f8 bd 51 b0 8b be f9 e6 85 bd aa df 6a be
       -0.121516705 -0.27282956 -0.06538195 -0.22936884
000330 68 ca 12 3e 25 bd 83 be a5 f0 06 be 32 90 75 bd
       0.14335024 -0.25730243 -0.13177736 -0.05995197
000340 75 36 f5 3b 17 7f 19 bd cd fe bd bd bc 66 2c 3b
       0.0074832984 -0.037474718 -0.09277115 0.0026306352
000350 dc d5 b5 3d ca 37 dc bb 56 f6 bb 3d 82 5c a9 bd
       0.08878681 -0.0067205178 0.09177844 -0.082695976
000360 cd 47 02 3e cf 35 22 bd 68 0d 26 bd 51 96 a5 be
       0.12722702 -0.039602097 -0.04054013 -0.32341245
000370 a1 d4 5e be 03 1f 32 3d f1 5e d2 bc 9e bb 61 3e
       -0.21760799 0.043486606 -0.025680037 0.22044227
000380 a6 23 72 3e cc cf af 3c 88 aa 4d be ae 90 8d 3e
       0.23646411 0.02146139 -0.20084584 0.27649444
000390 74 a6 f8 3d b8 f8 4d 3e 27 61 0b 3c 6a b7 24 bc
       0.121411234 0.2011441 0.00850705 -0.010053495
0003a0 2b 64 24 bc da bf 55 3e 89 68 6e 3e 93 0a 6d be
       -0.0100336475 0.20873967 0.23282064 -0.23148565
0003b0 8e 8c 83 3e 1d b1 8f bd f9 30 76 3d 66 3f d4 bd
       0.25693172 -0.070162036 0.060105298 -0.10363655
0003c0 96 3c 96 3e 1b 8e a3 bd 5b 98 7a 3d 88 93 12 3e
       0.29343098 -0.07986089 0.061180454 0.14314091
0003d0 85 2b 21 3e ef 33 22 bd cb 2f aa bd 29 3f b6 3d
       0.15739258 -0.03960031 -0.08309897 0.088987656
0003e0 77 2c fb 3d 43 90 8e 3d 8f 46 74 3e 99 46 89 be
       0.1226434 0.069611095 0.23855041 -0.26811674
0003f0 1c 3b 23 3f e1 c0 23 3e f1 a1 c9 3d 6a 6c 8c 3e
       0.6376207 0.15991546 0.09845341 0.27426463

bias f4 [64]
000000 47 fd 0d be 4f c5 2e be b0 ee 18 3e 84 fe 37 be
       -0.13866149 -0.17067455 0.14934802 -0.17968184
000010 c0 a2 01 3e 1b 92 10 3e e6 46 13 be 3f e2 a4 3e
       0.1265974 0.14118235 -0.14382514 0.32203862
000020 fd cd 35 3e 0a e5 9b 3e 84 44 b4 bd 5a e8 da bc
       0.1775436 0.3044818 -0.08802131 -0.026722122
000030 c2 22 90 3e bd 6d 83 bc 11 74 b0 bd 24 d8 93 bd
       0.28151518 -0.016043538 -0.08615888 -0.0721896
000040 6c a9 26 be 0c 9f 4d be 8c c2 35 3e 63 d3 76 3c
       -0.16275567 -0.20080203 0.17749995 0.015065047
000050 89 2d 0d be 43 17 99 be 64 86 5c be 21 55 0f bb
       -0.13786902 -0.2990056 -0.21535641 -0.002187081
000060 97 0b 37 be ae 6f 1e bd f3 2c ea bc f7 00 ad 3c
       -0.17875515 -0.038680725 -0.028585887 0.021118624
000070 ef ad 35 3e fa 4e c8 3c f8 d9 45 3e 65 1a 41 3e
       0.17742132 0.024451721 0.1932143 0.18857725
000080 61 27 5a be be 13 6b 3e 66 f4 a4 3d 67 59 11 be
       -0.21304084 0.2295675 0.08054428 -0.1419426
000090 39 b3 2e be 1c a2 bf 3e 72 8d 88 bb 94 7e 0b 3e
       -0.17060556 0.37428367 -0.004167252 0.13622504
0000a0 91 07 d4 bd 6b 12 46 be e7 3b 13 be 32 e1 68 be
       -0.10353006 -0.19342963 -0.1437832 -0.22742155
0000b0 74 ac 90 be 0a 72 1c 3e 19 86 06 bd 96 09 5a be
       -0.2825657 0.15277877 -0.03284273 -0.21292719
0000c0 c4 70 9a 3e 09 64 3a bd e7 a3 10 be e3 81 63 3e
       0.30164158 -0.045505557 -0.14125024 0.22217517
0000d0 ce ac 32 be a1 31 79 3e 8b aa 1d 3d 61 a0 d1 be
       -0.17448732 0.24335338 0.03849272 -0.40942672
0000e0 4b 4b 03 3e 51 3f 3f be a2 0b 02 3c 7c 40 ed 3d
       0.1282169 -0.18676497 0.007937344 0.11584565
0000f0 e0 69 a2 bd 36 62 0a be da 5d 6f bd f2 00 43 3d
       -0.0793035 -0.13514027 -0.058439113 0.047608323

weight f4 [25, 64]
000000 af 52 3b be 4e bd 03 3c 28 4a 7e 3d 9c 0d 5b 3e
       -0.1829326 0.008040739 0.06208244 0.2139191
000010 b4 1d 8c 3d 8c af 83 3e f5 39 f6 3c 37 aa 18 3e
       0.06841603 0.2571987 0.030056933 0.14908682
000020 a9 94 39 3e 33 ca 15 3c c7 42 b5 bd a7 f0 87 be
       0.18123116 0.009142446 -0.088506274 -0.2655079
000030 b4 1f 28 3d 40 42 55 be 59 7f 3c be 6b fd bc bd
       0.04104586 -0.20826054 -0.18407954 -0.09228023
000040 7d 5b a4 be f2 ee 9a be 8d 66 87 3e 1c 91 f8 bd
       -0.3210105 -0.30260426 0.26445428 -0.121370524
000050 d6 e9 15 be 05 f9 d3 be fe af 8c 3d db 90 80 be
       -0.14639983 -0.41400924 0.06869505 -0.25110516
000060 2a 35 09 be c4 1e 77 be 21 f5 90 3e 45 38 88 be
       -0.13399187 -0.2413283 0.2831202 -0.2660543
000070 b9 53 4e 3e 3a 3b cf 3e fb af d1 3c 07 ba 87 be
       0.20149125 0.40474874 0.02559661 -0.26509115
000080 b5 87 1c be c3 b0 b2 3e a2 8a 2f be bd 12 fd 3d
       -0.15286143 0.34900483 -0.17142728 0.1235709
000090 63 4c 42 be 54 67 cf 3e ed 55 86 3e a6 3a 59 3d
       -0.18974452 0.4050852 0.2623743 0.053034447
0000a0 eb d7 3a be 28 bb b0 be ce 95 96 3d d7 0a b0 be
       -0.18246429 -0.3451779 0.07352792 -0.3438327
0000b0 e6 d9 bb be 56 89 94 3e 05 59 6c be 31 a3 dd 3d
       -0.3668968 0.2901103 -0.23080833 0.10822142
0000c0 72 8c 79 3e bb 90 05 be 2e 6c 57 bd 05 d6 8c 3e
       0.24369982 -0.13043492 -0.052593403 0.27507034
0000d0 69 ff c3 bd 26 e4 82 3e ce 4d c4 3e 76 70 7b be
       -0.095702 0.25564688 0.3834061 -0.24554619
0000e0 05 ad 40 3e f4 c5 6b be 91 d3 9d 3d 17 40 86 3e
       0.18816002 -0.23024732 0.07706369 0.26220772
0000f0 dd 02 53 be f4 a8 07 3e c4 41 4b 3e b0 a1 83 3e
       -0.20606561 0.13248044 0.19849306 0.25709295
000100 2d c9 e7 bd 08 0b 41 bb 77 a9 9c 3e 50 e3 5c 3d
       -0.11317668 -0.0029456038 0.3059804 0.05392772
000110 07 ad 55 be e6 d5 a7 bd d0 85 76 bd 22 66 a5 bd
       -0.20866786 -0.08195095 -0.060186207 -0.08076121
000120 6e 4a 2b be 4f c6 98 be f2 ae 33 be 9a 1b 03 3e
       -0.16727611 -0.29838797 -0.17547205 0.12803498
000130 d6 9c 7b be 68 7e 57 be 3d 6d 81 bd 47 37 ff 3d
       -0.24571547 -0.21044314 -0.06319664 0.12461715
000140 5c c5 98 3e c9 26 86 be 09 e3 8e bc c3 ac 17 be
       0.29838073 -0.26201466 -0.017442243 -0.14811997
000150 be 50 65 bc 9d 41 c7 bd fa bf 89 be 8e be 90 3e
       -0.013996301 -0.097293116 -0.2690428 0.28270382
000160 be cf 9b bd 8d f3 63 bb a7 0f 94 3e b8 66 f2 3d
       -0.07607983 -0.0034782619 0.28918192 0.11835998
000170 ea 79 97 bd 5a 5d 66 bd ef 10 83 be 47 f6 59 3d
       -0.073963 -0.05624137 -0.25598857 0.053213384
000180 fd 12 6f bc 96 cb 86 3e 2b 1a 63 3e 2a 01 e6 3d
       -0.0145919295 0.263272 0.22177951 0.11230691
000190 59 95 5a 3e aa da 38 3e 5f e1 e3 3d 90 4f 53 be
       0.21346034 0.18052164 0.111269705 -0.2063582
0001a0 12 e0 8d be 05 2d 3e 3c 3a 80 9e 3d 34 47 49 bd
       -0.27710015 0.011607413 0.07739301 -0.04914017
0001b0 91 aa 7d be de ea 7e 3e 88 5f 9f 3e 26 1f 0d be
       -0.24772097 0.24894282 0.31127572 -0.13781413
0001c0 a9 8f 89 3c b5 bb 89 bd ba 8a 02 3e 00 1a 07 3e
       0.016792135 -0.067252554 0.12748232 0.13193512
0001d0 ec b7 fa bd 1a 95 97 bc 36 10 8b be 44 43 f9 bd
       -0.122421116 -0.018503714 -0.27160805 -0.12171033
0001e0 dd 07 8c bd e6 53 09 be 0b 01 1a 3e 39 90 7d bd
       -0.06837437 -0.13410911 0.1503946 -0.06190512
0001f0 b3 71 27 3e 02 c7 b2 bd c5 92 ab be 11 b7 79 bd
       0.16351967 -0.08729364 -0.33510414 -0.0609656
000200 33 8e 69 bd c3 54 8c be 75 a9 cc 3e 20 29 cf be
       -0.057020377 -0.27408418 0.39973035 -0.40461063
000210 84 e8 2c be 19 9f ab bd f9 98 d9 3d 0c 4b 0e be
       -0.16885573 -0.08379955 0.1062488 -0.13895816
000220 9c f8 90 3e 3a 60 25 3e e4 21 0a bd bb 28 1b be
       0.28314674 0.16149989 -0.033723727 -0.15152256
000230 ac 9d 72 3e c8 50 f2 bd 5b ca a0 be a7 4f 0e be
       0.2369296 -0.11831814 -0.31404385 -0.13897572
000240 72 63 5f 3d b5 4b bb bd b5 32 5d be cb 12 be be
       0.054538198 -0.09145299 -0.21601374 -0.37123713
000250 06 4f 14 be 16 bc 95 be dc 21 c2 bd 18 f6 70 3d
       -0.1448327 -0.2924506 -0.094791144 0.058828443
000260 f6 36 1e be 68 25 07 be 1b ef 95 3e be 12 6c bc
       -0.15450653 -0.13197863 0.29283985 -0.014408765
000270 ca 2a 3d be e4 5e fe 3d b9 d3 89 3e 57 3e 0b 3e
       -0.18473354 0.12420443 0.26919344 0.13598
000280 86 70 29 bf 02 92 53 be b7 51 f8 3d 33 a9 39 3e
       -0.6618732 -0.20661166 0.12124961 0.1813095
000290 79 07 d5 be 16 8d 31 3d d6 15 82 3d fe 7c 5e 3d
       -0.41607264 0.04334744 0.06351821 0.05431842
0002a0 0f 40 85 be e5 e3 85 be ee 1c 22 bd 61 de dd 3d
       -0.26025435 -0.26150432 -0.03957837 0.10833431
0002b0 0a ab 99 be 71 1a b6 be ba 00 23 be 05 91 15 be
       -0.30013305 -0.35567048 -0.15918246 -0.14606102
0002c0 26 55 ba 3e 19 37 5b 3e 35 dd 47 be c7 85 96 3e
       0.36393088 0.21407737 -0.19517978 0.2939894
0002d0 d7 e0 1f 3c 27 72 84 3e 3a e9 a5 bd 0e 32 97 be
       0.009758196 0.2586834 -0.08101125 -0.29530376
0002e0 49 df 08 3e 67 c5 33 be e9 35 4a 3c b0 a2 2b 3e
       0.13366427 -0.17555772 0.012341955 0.16761279
0002f0 fa a4 d3 bd 7c 3d 36 be 41 08 56 3c 39 4b 9e 3b
       -0.10334201 -0.17796892 0.013063491 0.0048307446
000300 f8 9c 38 bd c0 3b e2 3c 51 d3 9d 3d c0 9c 6a 3d
       -0.045071572 0.027616382 0.07706321 0.057278395
000310 2f fd 2b 3e 50 dd 31 3e 7c c4 f0 be 57 d0 e5 bd
       0.167958 0.1736958 -0.47024906 -0.11221378
000320 de 8f 89 bd d3 4c 99 3e 13 56 92 bd 9a dd c3 bd
       -0.067168936 0.29941425 -0.071453236 -0.095637515
000330 e0 f8 b3 3e 90 3e ad be d3 54 ac bd 18 15 d9 3d
       0.35150814 -0.33836794 -0.084146164 0.105997264
000340 d8 47 28 3e d3 b1 a7 3e 2c 05 d5 bc 96 12 7f 3e
       0.16433656 0.32752857 -0.026003443 0.24909434
000350 2f 6f 66 be 90 34 7f 3e c7 7e 17 3a 17 8f 86 3e
       -0.2250335 0.24922395 0.0005779084 0.26281044
000360 b0 99 20 be ca 14 81 3c 1e bf e9 bb 01 37 38 3e
       -0.15683627 0.015756983 -0.0071333786 0.17989732
000370 1d bf 9e be 1e 72 a4 be d9 f8 c9 3e b7 9c 8d 3e
       -0.31005183 -0.32118315 0.39447668 0.27658626
000380 77 06 be 3d a5 ae 3c bd 20 e9 e0 3e f2 8a 12 3e
       0.09278577 -0.04606499 0.4392786 0.14310816
000390 9d 15 dc bb 56 bc ab 3d a8 ea 3a 3e b2 3b 9b bd
       -0.0067164437 0.083855316 0.18253577 -0.07579745
0003a0 b1 a0 e7 bd aa 71 43 bd 24 70 44 bd 89 da 34 3e
       -0.11309946 -0.04771582 -0.047958508 0.1766149
0003b0 7c a7 9c be 9d 77 c1 3b aa 6f d6 be 9e 4f 24 3d
       -0.3059653 0.0059041516 -0.41882068 0.04011499
0003c0 e7 b7 c3 bb fd 9f 3d 3e ea e4 21 3e 93 5c 88 3e
       -0.0059728506 0.18518062 0.1580998 0.2663313
0003d0 e0 92 58 3d 78 4e 0f 3e 1d 87 cc 3e 9f 0f f7 bc
       0.052874446 0.13994777 0.39946833 -0.030158816
0003e0 09 89 1b be f3 3c f8 3c c0 02 4a 3e 8c 68 8a bc
       -0.15188994 0.0303025 0.19727612 -0.016895555
0003f0 a9 2a 29 be 83 5c 22 be 5f 04 8c 3e 1d 93 6c be
       -0.1652018 -0.15855603 0.27347085 -0.23102994

bias f4 [25]
000000 ea cb 6a 3e 6c 58 e6 3e ca 45 e1 3e 27 c9 4f 3e
       0.2292935 0.44989336 0.43998557 0.20291577
000010 56 e4 31 be 2c 01 2e be dc 8a b6 3e 2e 7d 82 3e
       -0.1737226 -0.16992635 0.35652816 0.2548613
000020 32 87 55 3e 3c 3d 13 bd 69 3c d8 3c 2b 73 8d 3e
       0.20852354 -0.03594707 0.026395993 0.2762693
000030 61 54 13 3e f2 e0 69 be 01 ef 04 be 05 85 29 3e
       0.14387657 -0.22839716 -0.12981798 0.16554649
000040 62 61 6d 3e b7 c8 71 bd e9 63 c1 3d cf 6c dc bd
       0.2318168 -0.059029307 0.094428845 -0.10762941
000050 10 27 cc 3e b9 dd cf bd 6d 45 bb 3b 73 88 f7 be
       0.39873552 -0.10149712 0.0057150633 -0.4834629
000060 e3 0d 46 bf
       -0.7736494
