result/config1_main/preliminary_model4.pt (torch_old, 428387 bytes, 10 tensors)

weight f4 [12, 2, 192]
-0.08275577 0.03225258 0.09633948 -0.0024640993 -0.05574435 -0.062460195 -0.01637777 0.12000806
0.1370641 -0.039231706 -0.18386632 -0.13914366 -0.0023822691 0.15494713 0.030416554 -0.101016134
0.09226071 0.085018635 -0.07111442 -0.049990304 0.065148816 0.20337498 -0.021509286 -0.16793974
-0.06504868 -0.092887595 0.1369569 0.104810715 0.0685106 -0.15341279 -0.20530231 -0.039130628
-0.06319731 0.11283731 0.13173954 -0.1077062 -0.0048056697 -0.007862616 0.112557024 0.14340925
0.06315363 0.098615356 0.0193453 -0.03853617 0.031355545 0.0636695 -0.0016029677 -0.109449476
-0.00044627907 -0.16041537 -0.09828848 0.089733385 0.14024499 0.02762735 -0.20736057 -0.039354153
-0.06581412 -0.07505691 0.024663942 0.060435075 -0.15866676 -0.18810372 0.025758665 -0.1318349
0.109514154 0.024414418 -0.042763524 -0.0067460625 0.12475666 0.09634299 -0.20641014 -0.083667725
-0.05994719 0.13394473 -0.006673047 -0.16018991 0.007078711 -0.021212064 -0.09953007 0.02681682
0.092792906 -0.0045528375 -0.1083389 -0.16764252 0.06566395 0.05991673 0.036857035 0.05316139
0.11639439 0.1989208 -0.02832243 -0.06838792 -0.0051627923 0.037155848 0.09741136 0.023402598
-0.067732714 -0.15554929 0.13563603 0.10311016 -0.01069058 -0.015849585 -0.05757157 -0.12503804
-0.09872834 0.13098931 0.015197219 -0.117300905 -0.060516376 -0.09812922 -0.14220425 0.15564406
0.101420246 0.07038291 0.013498516 0.06337582 0.083787985 0.21889932 0.1870909 0.06879581
0.21502836 -6.362982e-05 0.11461879 0.21381888 0.34223998 0.1436551 0.0250371 -0.14411138
0.057714686 0.1577312 0.07364804 0.008647795 0.058776233 -0.040614046 -0.15482448 0.11820734
0.15432003 0.056352902 -0.030174443 -0.03444269 0.14186683 0.22946775 -0.011315083 -0.009020704
0.020127883 -0.08583446 -0.006534723 0.024568258 0.03771846 -0.09706063 -0.0526882 0.045575354
0.093272895 0.0930871 -0.005272428 -0.045926113 -0.08457301 -0.03464562 -0.051285326 0.032257665
0.019029235 0.12664491 0.1429928 0.074453086 0.12921579 -0.02266093 -6.7596986e-05 -0.029790975
-0.06707273 0.037947446 -0.06306569 -0.043721143 -0.1007898 -0.0095499065 -0.08903027 -0.11658621
-0.130888 -0.06858572 0.027225202 -0.08078659 -0.012318112 0.07295651 -0.022877323 -0.1901255
-0.0640258 -0.05504113 -0.04618802 -0.07985601 0.042493343 -0.0748464 -0.033676233 -0.15598218
-0.009330597 -0.021223601 -0.05252401 -0.0743372 -0.012914748 -0.10215394 -0.12678109 -0.0054216557
0.103204906 -0.116612814 -0.17190613 -0.22416146 -0.049721736 0.19995762 0.11815973 -0.13338983
-0.16479647 0.093808584 -0.07147963 -0.035587836 -0.10739029 0.07227482 0.008055452 0.025075724
0.09906954 0.040826052 0.10835791 -0.02710837 0.17312516 0.117112145 0.11672688 0.113483764
0.018450987 0.08307585 0.051154 0.021638969 0.18394892 0.28290373 0.27760345 0.15180387
0.12234713 -0.11991175 0.01617941 0.16467339 0.24801518 0.033585805 -0.21395661 0.027913079
0.16269527 -0.022532903 -0.060948726 0.1960262 0.029871145 0.042784445 0.1198497 0.18745928
-0.07009671 -0.12235242 -0.05797466 0.19072714 0.16247684 -0.01751936 -0.05664352 -0.17851931
00000000: db7b a9bd 481b 043d a24d c53d ba7c 21bb
00000010: 3054 64bd 43d6 7fbd ac2a 86bc c9c6 f53d
00000020: 885a 0c3e 6db1 20bd 7447 3cbe ad7b 0ebe
00000030: d81f 1cbb 76aa 1e3e 232c f93c 8ce1 cebd
00000040: 2ff3 bc3d 401e ae3d 70a4 91bd a2c2 4cbd
00000050: be6c 853d 8841 503e 3e34 b0bc 65f8 2bbe
00000060: 3e38 85bd da3b bebd 6e3e 0c3e 00a7 d63d
00000070: 494f 8c3d 3e18 1dbe c53a 52be 7047 20bd
00000080: 976d 81bd 3f17 e73d bbe6 063e 1195 dcbd
00000090: e178 9dbb 34d2 00bc 4c84 e63d e0d9 123e
000000a0: b156 813d d9f6 c93d 097a 9e3c 1ad8 1dbd
000000b0: ac6e 003d 2865 823d ac1a d2ba 0c27 e0bd
000000c0: 90fa e9b9 ed43 24be 784b c9bd 23c6 b73d
000000d0: 629c 0f3e c152 e23c 5456 54be d231 21bd
000000e0: 8ec9 86bd 70b7 99bd 090c ca3c c58a 773d
000000f0: 8a79 22be 439e 40be d603 d33c baff 06be
00000100: f548 e03d bf00 c83c ce28 2fbd 130e ddbb
00000110: 6b80 ff3d 794f c53d 2e5d 53be fc59 abbd
00000120: 2f8b 75bd cf28 093e 93a9 dabb d308 24be
00000130: 88f4 e73b ecc4 adbc 6cd6 cbbd f3ae db3c
00000140: 350a be3d f82f 95bb c9e0 ddbd 7baa 2bbe
00000150: d27a 863d 3f6b 753d 67f7 163d c2bf 593d
00000160: 2f60 ee3d e5b1 4b3e 7104 e8bc f70e 8cbd
00000170: a42c a9bb bb30 183d 9b7f c73d ceb6 bf3c
00000180: 73b7 8abd 5048 1fbe 2ce4 0a3e 6b2b d33d
00000190: 8b27 2fbc fdd6 81bc 2bd0 6bbd f909 00be
000001a0: 1532 cabd 1022 063e c2fd 783c 753b f0bd
000001b0: 05e0 77bd f9f7 c8bd fe9d 11be 2861 1f3e
000001c0: 6bb5 cf3d ea24 903d e128 5d3c 2fcb 813d
000001d0: 0999 ab3d 2527 603e c294 3f3e d1e4 8c3d
000001e0: 6530 5c3e 0071 85b8 42bd ea3d 56f3 5a3e
000001f0: 143a af3e 531a 133e 9b1a cd3c ef91 13be
00000200: 3c66 6c3d 4a84 213e c9d4 963d 7baf 0d3c
00000210: 59bf 703d ea5a 26bd 4f8a 1ebe b116 f23d
00000220: 1206 1e3e 4dd2 663d 6530 f7bc c713 0dbd
00000230: 8a45 113e 98f9 6a3e e662 39bc 93cb 13bc
00000240: 3be3 a43c fac9 afbd 3b21 d6bb 5f43 c93c
00000250: ac7e 1a3d b9c7 c6bd 95cf 57bd 39ad 3a3d
00000260: dc05 bf3d 73a4 be3d 55c4 acbb 051d 3cbd
00000270: 9d34 adbd 91e8 0dbd 9010 52bd 9d20 043d
00000280: 33e3 9b3c 34af 013e b46c 123e dc7a 983d
00000290: 2551 043e 6aa3 b9bc dbc2 8db8 340c f4bc
000002a0: 6d5d 89bd c86e 1b3d 9628 81bd f114 33bd
000002b0: e26a cebd 3677 1cbc 8155 b6bd c0c4 eebd
000002c0: 8107 06be ac76 8cbd 6307 df3c 7173 a5bd
000002d0: e8d1 49bc 396a 953d 3969 bbbc 42b0 42be
000002e0: f51f 83bd cf72 61bd a62f 3dbd 8c8b a3bd
000002f0: 800d 2e3d 1249 99bd 17f0 09bd cbb9 1fbe
00000300: 5cdf 18bc 1edd adbc 6b23 57bd 1a3e 98bd
00000310: 6198 53bc 1636 d1bd e7d2 01be 25a8 b1bb
00000320: 185d d33d b3d2 eebd 2908 30be 958a 65be
00000330: 05a9 4bbd b1c1 4c3e bbfd f13d 5897 08be
00000340: 68c0 28be b71e c03d ea63 92bd 8dc4 11bd
00000350: 71ef dbbd d204 943d 04fb 033c 9b6b cd3c
00000360: f9e4 ca3d 3839 273d c0ea dd3d 5f12 debc
00000370: b947 313e 7ed8 ef3d 810e ef3d 2d6a e83d
00000380: 8626 973c ac23 aa3d db86 513d 3544 b13c
00000390: 1b5d 3c3e c2d8 903e 0a22 8e3e 7972 1b3e
000003a0: 2291 fa3d 4b94 f5bd af8a 843c 24a0 283e
000003b0: b1f7 7d3e 4591 093d 7117 5bbe f8a9 e43c
000003c0: 9799 263e ec96 b8bc 5fa5 79bd 18bb 483e
000003d0: 55b4 f43c be3e 2f3d c273 f53d 53f5 3f3e
000003e0: dd8e 8fbd e893 fabd d676 6dbd fa4d 433e
000003f0: 5460 263e c384 8fbc 0903 68bd c4cd 36be

bias f4 [12]
-0.1374682 -0.192218 -0.16440322 -0.27052587 -0.12532343 -0.21618779 -0.13547526 -0.20430276
-0.23144081 -0.18450326 -0.10436573 -0.16789335
00000000: 77c4 0cbe ccd4 44be 5159 28be 5e82 8abe
00000010: c954 00be 5560 5dbe 07ba 0abe be34 51be
00000020: d2fe 6cbe 6cee 3cbe b3bd d5bd 3cec 2bbe

weight f4 [24, 12, 16]
-0.08651055 0.012935158 -0.045398634 -0.040808454 -0.17159456 -0.025418133 0.12628706 0.095339805
-0.103057094 0.07229889 -0.18081774 -0.041814227 -0.14241953 -0.13947724 0.099439636 -0.1483493
0.05689162 0.31657034 0.24380422 0.025409978 0.09488116 -0.026831757 0.020237202 0.18113308
0.17977896 0.24027993 0.087332055 0.24292852 -0.115284 0.011346181 -0.037226874 0.0837855
-0.0017049997 -0.060544174 -0.1107267 -0.018257523 -0.097160414 0.016536277 -0.20404145 -0.13085385
-0.21962695 0.12267534 0.021600433 -0.007332582 -0.017151086 -0.002714889 -0.1158501 0.05134275
-0.03509341 0.1805754 0.13668077 0.045995843 0.06414069 0.055666782 0.045324035 0.019954775
-0.046433255 -0.0156946 0.025251238 0.040170286 0.10635846 -0.012145301 -0.038927745 -0.043539062
-0.08922219 0.034070343 0.1417796 -0.023515007 0.07153864 -0.017399954 0.09474568 0.17918178
-0.058712017 0.22290805 -0.21138507 0.0039658635 -0.25098106 -0.047094155 -0.024509974 -0.16533148
-0.09553214 -0.017008912 -0.20140928 -0.06991376 -0.07958409 0.041005507 -0.016350042 0.0847514
-0.16367501 -0.06132733 -0.15695268 -0.024511127 -0.009190071 -0.16293228 -0.12145576 -0.10290955
-0.10709086 -0.040616643 0.06982112 0.026927987 0.23286393 0.05846999 0.06056344 0.1565542
0.12395573 -0.053430066 0.23368372 0.24832848 0.051564157 0.031775884 -0.0619561 0.098227486
-0.16999713 0.14987564 -0.06703753 -0.12780158 0.005439091 0.07643121 0.1485965 0.16307354
-0.10690193 0.22380197 -0.094504155 -0.122680284 -0.15037034 0.08876687 -0.010901666 0.026231183
0.16473973 0.1305053 0.17269439 0.26579735 0.1569994 0.006605024 0.1477739 0.095010325
0.15632534 0.19153602 -0.09991339 0.06456833 0.036318637 -0.064805366 -0.05411464 -0.016908657
-0.06389218 -0.042177144 -0.08105159 -0.21943133 0.008729951 0.034253962 0.023899274 0.038616233
-0.06975684 -0.06760178 -0.06352555 -0.21519902 0.01528582 0.078438915 -0.02995313 0.008597482
-0.053769223 -0.05315028 0.01741392 -0.026754636 0.13323338 -0.2404566 -0.027940853 -0.056802694
0.056876566 0.12315347 -0.10435022 -0.10768891 -0.14700672 -0.11066832 -0.12090377 -0.20919031
-0.120171934 -0.055171218 -0.1887535 -0.016794896 -0.2397933 -0.023118397 -0.015856817 -0.1661326
-0.13794129 0.112383224 -0.37488493 0.17436604 -0.11221481 -0.0649451 -0.15995899 0.06334668
0.023226786 0.099950664 -0.12215208 -0.15789492 -0.0693156 0.15111308 -0.24164237 -0.12833034
0.103713155 -0.19962685 -0.2093216 0.18040223 -0.08864535 0.13558763 -0.15725918 -0.018188318
-0.11759555 0.079577744 -0.12540299 -0.025475478 -0.20069171 0.024689192 0.05171801 -0.059320394
-0.027737267 -0.024299426 -0.12085179 -0.102677815 0.13823979 -0.036832273 -0.12735714 -0.1155471
0.1157263 0.041733924 -0.018394854 0.022778234 0.07947298 0.015605394 -0.025351936 -0.09892868
0.029860286 0.17002599 -0.109808974 0.0016728523 -0.09737607 -0.16468883 -0.020434305 0.05910824
-0.036135685 -0.12427102 -0.12210535 0.046848293 0.095446125 -0.14248644 -0.022992996 0.009704131
-0.17910908 0.047605522 -0.1867499 -0.025566168 -0.33278093 0.0025376482 0.014295882 -0.059662826
00000000: 712c b1bd fced 533c ebf3 39bd c426 27bd
00000010: 7cb6 2fbe b039 d0bc 6551 013e 8441 c33d
00000020: 990f d3bd 7111 943d 4928 39be 6545 2bbd
00000030: 6dd6 11be 1fd3 0ebe 02a7 cb3d e1e8 17be
00000040: 3007 693d 8215 a23e d0a7 793e 9628 d03c
00000050: 0e51 c23d 46ce dbbc 7dc8 a53c f37a 393e
00000060: fa17 383e f10b 763e 26db b23d 41c2 783e
00000070: 051a ecbd 55e5 393c 357b 18bd bb97 ab3d
00000080: 4c7a dfba 2bfd 77bd aec4 e2bd cd90 95bc
00000090: 0afc c6bd 1677 873c 3ef0 50be 8dfe 05be
000000a0: e3e5 60be 353d fb3d 64f3 b03c 2846 f0bb
000000b0: 6f80 8cbc 47ec 31bb d142 edbd c74c 523d
000000c0: 1cbe 0fbd c2e8 383e 0bf6 0b3e 2366 3c3d
000000d0: 325c 833d da02 643d b2a5 393d 3278 a33c
000000e0: cc30 3ebd f691 80bc afdb ce3c 9989 243d
000000f0: 77d2 d93d 16fd 46bc b372 1fbd 0456 32bd
00000100: 20ba b6bd 588d 0b3d ac2e 113e 8ba2 c0bc
00000110: da82 923d 598a 8ebc 060a c23d 6e7b 373e
00000120: 037c 70bd 0242 643e 5475 58be 13f4 813b
00000130: 9780 80be cde5 40bd 24c9 c8bc a84c 29be
00000140: 5ba6 c3bd 4656 8bbc 3c3e 4ebe f22e 8fbd
00000150: fcfc a2bd 64f5 273d 86f0 85bc 2492 ad3d
00000160: 6c9a 27be 5e32 7bbd 34b8 20be 8fcb c8bc
00000170: f491 16bc b8d7 26be ccbd f8bd 3ec2 d2bd
00000180: 7452 dbbd a35d 26bd 60fe 8e3d 1598 dc3c
00000190: e273 6e3e 3a7e 6f3d 5f11 783d bf4f 203e
000001a0: 80dc fd3d 7cd9 5abd c94a 6f3e d249 7e3e
000001b0: f034 533d 6e27 023d aec5 7dbd 7e2b c93d
000001c0: ba13 2ebe 0079 193e f94a 89bd 6bde 02be
000001d0: 673a b23b f787 9c3d ae29 183e c0fc 263e
000001e0: 66ef dabd 582c 653e 658b c1bd cd3f fbbd
000001f0: affa 19be 68cb b53d e79c 32bc c7e2 d63c
00000200: 88b1 283e 2ea3 053e ccd6 303e 9716 883e
00000210: 73c4 203e f56e d83b 0b52 173e c694 c23d
00000220: c013 203e 0522 443e 649f ccbd 673c 843d
00000230: dac2 143d adb8 84bd 50a7 5dbd 0684 8abc
00000240: e7d9 82bd f1c1 2cbd 60fe a5bd 9bb2 60be
00000250: 1208 0f3c e24d 0c3d 69c8 c33c 0e2c 1e3d
00000260: addc 8ebd cd72 8abd af19 82bd 225d 5cbe
00000270: 6071 7a3c 95a4 a03d 4460 f5bc 74dc 0c3c
00000280: 1e3d 5cbd 1cb4 59bd a3a7 8e3c 8a2c dbbc
00000290: 556e 083e 413a 76be 37e4 e4bc f1a9 68bd
000002a0: 67f7 683d e337 fc3d 91b5 d5bd 018c dcbd
000002b0: ee88 16be 12a6 e2bd 659c f7bd fc35 56be
000002c0: b41c f6bd 37fb 61bd 9948 41be 7395 89bc
000002d0: 608c 75be cb62 bdbc 28e6 81bc aa1e 2abe
000002e0: 7b40 0dbe 2d29 e63d ebf0 bfbe 038d 323e
000002f0: e1d0 e5bd f001 85bd 4acc 23be e7bb 813d
00000300: 1a46 be3c efb2 cc3d df2a fabd 35af 21be
00000310: 56f5 8dbd 63bd 1a3e 1971 77be 0769 03be
00000320: 9067 d43d fb6a 4cbe 6758 56be 5dbb 383e
00000330: b18b b5bd 7cd7 0a3e 8d08 21be abff 94bc
00000340: f0d5 f0bd a8f9 a23d a469 00be f3b1 d0bc
00000350: 2182 4dbe fd40 ca3c 44d6 533d f1f9 72bd
00000360: 4439 e3bc 970f c7bc 2581 f7bd bf48 d2bd
00000370: bb8e 0d3e 70dd 16bd e969 02be f5a3 ecbd
00000380: e901 ed3d 31f1 2a3d ceb0 96bc 6b99 ba3c
00000390: bbc2 a23d c4ad 7f3c ddae cfbc 1f9b cabd
000003a0: 8f9d f43c 4b1b 2e3e 87e3 e0bd 9c43 db3a
000003b0: 1b6d c7bd 30a4 28be d865 a7bc 7b1b 723d
000003c0: 0303 14bd ce81 febd 5f12 fabd ffe3 3f3d
000003d0: 4279 c33d f7e7 11be cf5b bcbc 13fe 1e3c
000003e0: 5f68 37be 02fe 423d 5e3b 3fbe 2470 d1bc
000003f0: 4362 aabe ac4e 263b 4639 6a3c 0261 74bd

bias f4 [24]
-0.15625873 -0.09784692 -0.10282306 0.19376129 0.0022046021 0.07919784 0.016595164 -0.19877103
-0.15945637 -0.033832815 -0.062296975 -0.0013176401 -0.06411917 7.037757e-05 0.0038263598 -0.13405909
-0.013281837 -0.0038234584 0.16257602 0.11760288 -0.06050266 -0.12841263 -0.11952122 0.058431927
00000000: 4a02 20be f763 c8bd e594 d2bd 5c69 463e
00000010: 167b 103b 7a32 a23d 95f2 873c a28a 4bbe
00000020: 8848 23be 4794 0abd 1d2b 7fbd aab4 acba
00000030: e950 83bd ac97 9338 aac3 7a3b c946 09be
00000040: 109c 59bc fd92 7abb 547a 263e c7d9 f03d
00000050: a3d1 77bd 9a7e 03be 8bc7 f4bd 5156 6f3d

weight f4 [48, 24, 6]
-0.13017303 -0.19478445 -0.0037644794 -0.13234001 -0.07877631 0.017600223 -0.20522954 -0.1485796
-0.05632038 -0.15851638 -0.13339977 -0.058558546 -0.14376396 -0.10068163 -0.29031163 -0.13534221
-0.14167646 -0.21134728 -0.21858762 -0.2621133 -0.21027282 -0.24704914 -0.19483566 -0.2088049
0.3520152 0.24522282 0.08165694 0.29413056 0.031005945 0.23421569 0.1374488 -8.941721e-06
0.107941724 0.16028586 0.030009896 0.08966874 0.1958652 0.3379243 0.118226014 0.17788376
0.1915001 0.24785946 -0.06473323 -0.06977662 0.034073472 0.039357197 -0.003937441 -0.14334467
-0.14463687 -0.06665255 -0.08167467 -0.0009138546 0.024975749 -0.022337308 -0.020728571 0.05559149
0.09136715 0.22375797 0.22771388 0.28121945 -0.13415402 -0.109567486 -0.089766644 -0.2486094
-0.123214796 -0.07929047 -0.12425881 -0.03299596 0.0366213 0.13577762 0.068742625 -0.05128017
-0.16106576 -0.107127026 -0.027494181 0.050643746 -0.04540004 -0.10893257 -0.09843044 -0.05071944
-0.21482167 -0.00141111 -0.193341 -0.16087216 0.087736115 0.0034256764 -0.017416755 0.029463554
0.0785899 -0.09480699 0.024405599 -0.05778446 -0.096775346 0.005753809 0.009741733 -0.08208787
-0.052631706 -0.08027064 -0.07211972 -0.092177875 0.025839787 0.1455865 0.012381497 -0.14172816
-0.1042154 -0.13898592 -0.03904519 -0.012835428 -0.03339595 -0.15389022 -0.1844577 -0.061706934
-0.1259342 -0.24218777 -0.16365421 -0.19296484 -0.15805507 -0.35831112 -0.33154005 -0.24679644
-0.103187546 -0.03519541 -0.04626455 -0.13518766 -0.13283826 -0.11777391 -0.011304524 -0.021701613
-0.14459322 -0.02472068 -0.06286095 -0.13822442 -0.042027816 -0.16619538 -0.119152576 -0.21524578
-0.21441399 -0.0604221 0.03155033 0.09319958 -0.033969916 -0.06361941 0.12789369 -0.07537491
0.13424204 0.20880613 0.017900895 -0.093837716 0.08629422 0.113790765 -0.085014686 -0.071965896
-0.15577736 -0.033075668 -0.07419369 -0.10170404 -0.08197982 -0.04741943 -0.14029987 -0.025954476
0.07309865 -0.0719421 0.03691488 0.09162717 -0.010671448 -0.028498322 0.10300585 0.10353086
-0.032394946 -0.17485192 -0.17499414 0.14158551 -0.15001631 0.06955591 -0.07286572 -0.2018503
0.05586642 -0.007103126 0.099225394 0.025448626 -0.19133478 -0.2711722 -0.02955772 -0.109784216
-0.038756877 -0.23764518 0.048749793 -0.45360634 -0.12166777 -0.19531381 -0.047359228 -0.20766713
0.07813467 -0.09224289 -0.042895436 -0.3513397 0.23981684 -0.2775502 -0.0013600484 -0.014088794
0.06168391 -0.08735048 -0.13014345 -0.20306712 -0.39095953 -0.11375737 -0.09385665 -0.110240005
-0.13251744 -0.078709066 -0.21930134 -0.03756143 0.096050404 0.20680375 0.00856993 0.07588323
0.08693014 -0.06871024 0.08146513 0.010691831 -0.040152274 -0.06671684 -0.0028576402 -0.09366091
0.020267827 -0.004129163 -0.008143297 -0.11741817 -0.2828356 0.033686876 0.017834593 -0.12973295
0.009572873 -0.01548767 0.10436455 0.118171774 0.059639975 0.13660966 0.039384168 0.10337458
0.20733161 0.05700635 0.081995636 0.1351136 0.14952436 -0.007686126 0.0008312573 0.07185098
-0.10547744 -0.13645172 0.047821768 0.06579517 0.10667924 0.22630104 -0.019366398 0.07515451
00000000: 144c 05be 9375 47be 7cb5 76bb 2484 07be
00000010: 7955 a1bd 582e 903c b127 52be 4025 18be
00000020: 33b0 66bd 1e52 22be f399 08be 16db 6fbd
00000030: dc36 13be 2c32 cebd baa3 94be 2697 0abe
00000040: a213 11be 6c6b 58be 6fd5 5fbe b733 86be
00000050: c251 57be 73fa 7cbe 0083 47be f4d0 55be
00000060: 563b b43e b11b 7b3e c13b a73d 4898 963e
00000070: 2e00 fe3c 3dd6 6f3e 61bf 0c3e 6604 16b7
00000080: 8d10 dd3d fa21 243e 50d7 f53c 3fa4 b73d
00000090: e390 483e 6a04 ad3e 7b20 f23d 2927 363e
000000a0: 9a18 443e dfce 7d3e db92 84bd 0be7 8ebd
000000b0: a090 0b3d 0335 213d a605 81bb f2c8 12be
000000c0: b01b 14be 2281 88bd 0d45 a7bd be8f 6fba
000000d0: f199 cc3c bbfc b6bc f7ce a9bc e7b3 633d
000000e0: b31e bb3d cf20 653e d42d 693e fffb 8f3e
000000f0: ac5f 09be eb64 e0bd 93d7 b7bd 7693 7ebe
00000100: 0a58 fcbd 0b63 a2bd 677b febd c626 07bd
00000110: 3700 163d 4a09 0b3e efc8 8c3d 280b 52bd
00000120: 6cee 24be 6a65 dbbd 7a3b e1bc d16f 4f3d
00000130: 64f5 39bd 0a18 dfbd e695 c9bd 30bf 4fbd
00000140: 36fa 5bbe fff4 b8ba 2ffb 45be acbb 24be
00000150: feae b33d 5081 603b 95ad 8ebc 8d5d f13c
00000160: bef3 a03d 2b2a c2bd 40ee c73c 66af 6cbd
00000170: 2732 c6bd 738a bc3b ca9b 1f3c af1d a8bd
00000180: 5894 57bd ef64 a4bd 81b3 93bd c1c7 bcbd
00000190: f6ad d33c a114 153e c3db 4a3c 3021 11be
000001a0: e26e d5bd 5352 0ebe d9ed 1fbd b04b 52bc
000001b0: 31ca 08bd 6695 1dbe 7be2 3cbe 69c0 7cbd
000001c0: e5f4 00be 1200 78be f894 27be 9398 45be
000001d0: 30d9 21be 8e74 b7be 9ebf a9be 35b8 7cbe
000001e0: fe53 d3bd 1029 10bd e67f 3dbd a26e 0abe
000001f0: c106 08be 7333 f1bd 9c36 39bc 95c7 b1bc
00000200: 3f10 14be 0683 cabc 3ebd 80bd b48a 0dbe
00000210: 5c25 2cbd 1f2f 2abe 4406 f4bd 6469 5cbe
00000220: 578f 5bbe 2a7d 77bd eb3a 013d 6cdf be3d
00000230: 0a24 0bbd e54a 82bd 90f6 023e 295e 9abd
00000240: bf76 093e 46d1 553e e6a4 923c fd2d c0bd
00000250: 06bb b03d 220b e93d 2e1c aebd db62 93bd
00000260: 1a84 1fbe 5a7a 07bd ddf2 97bd 354a d0bd
00000270: 09e5 a7bd e03a 42bd c5aa 0fbe 7b9e d4bc
00000280: bfb4 953d 6156 93bd 0f34 173d 07a7 bb3d
00000290: 4cd7 2ebc 5075 e9bc bbf4 d23d fd07 d43d
000002a0: 90b0 04bd 620c 33be aa31 33be cbfb 103e
000002b0: e09d 19be 5473 8e3d 9f3a 95bd d8b1 4ebe
000002c0: 30d4 643d 57c1 e8bb af36 cb3d a379 d03c
000002d0: 44ed 43be 15d7 8abe 0823 f2bc 8cd6 e0bd
000002e0: 88bf 1ebd 4259 73be ddad 473d 173f e8be
000002f0: f42c f9bd 5800 48be c0fb 41bd b1a6 54be
00000300: 1205 a03d d7e9 bcbd 20b3 2fbd cce2 b3be
00000310: 8c92 753e 0f1b 8ebe a743 b2ba afd4 66bc
00000320: 45a8 7c3d cfe4 b2bd 5344 05be d4f0 4fbe
00000330: d92b c8be a0f9 e8bd ea37 c0bd 83c5 e1bd
00000340: a7b2 07be 3832 a1bd 8890 60be 04da 19bd
00000350: 13b6 c43d 5dc4 533e e468 0c3c ab68 9b3d
00000360: 6e08 b23d f4b7 8cbd 31d7 a63d ca2c 2f3c
00000370: b676 24bd d7a2 88bd 3f47 3bbb 4bd1 bfbd
00000380: b708 a63c ee4d 87bb 776b 05bc f078 f0bd
00000390: d4cf 90be 40fb 093d da19 923c b7d8 04be
000003a0: 8ad7 1c3c ffbf 7dbc 15bd d53d 0b04 f23d
000003b0: 0c49 743d 67e3 0b3e 4b51 213d 0db6 d33d
000003c0: bd4e 543e 7e7f 693d 54ed a73d 385b 0a3e
000003d0: ea1c 193e e6db fbbb bce8 593a 9b26 933d
000003e0: 8e04 d8bd 00ba 0bbe c2e0 433d 9ebf 863d
000003f0: a57a da3d 76bb 673e 48a6 9ebc 9cea 993d

bias f4 [48]
0.16297473 0.06815443 -0.039392307 -0.10822357 -0.06594881 -0.123883255 0.19392869 -0.08150058
-0.1105513 -0.05913732 0.06465044 0.18276745 -0.19015795 0.16039322 0.2109363 0.090226546
-0.087443665 0.16427916 -0.08127586 -0.04092904 0.03943539 -0.09921893 0.12338772 -0.1393222
-0.17741145 0.1636323 0.086981945 0.13510928 -0.20420527 -0.1361391 0.09563453 0.09090335
-0.10660605 0.12425902 0.18982328 0.05119354 -0.13566948 -0.021178745 0.110006645 0.00279563
0.022717958 -0.1963342 0.12628414 -0.07610145 0.0688322 0.16961516 0.14126168 0.1498507
00000000: d9e2 263e 8d94 8b3d d459 21bd 52a4 ddbd
00000010: 2b10 87bd 81b6 fdbd 3e95 463e c7e9 a6bd
00000020: b868 e2bd f939 72bd 7367 843d 6427 3b3e
00000030: c4b8 42be 1f3e 243e afff 573e b2c8 b83d
00000040: aa15 b3bd cc38 283e f573 a6bd 36a5 27bd
00000050: 0187 213d 4b33 cbbd b3b2 fc3d 7baa 0ebe
00000060: 59ab 35be 3a8f 273e 9723 b23d 165a 0a3e
00000070: 301b 51be 0c68 0bbe 09dc c33d 892b ba3d
00000080: 4654 dabd 837b fe3d 0961 423e 51b0 513d
00000090: f1ec 0abe 0c7f adbc 2a4b e13d e336 373b
000000a0: 031b ba3c d50b 49be a150 013e 14db 9bbd
000000b0: e5f7 8c3d 99af 2d3e e7a6 103e 7672 193e

weight f4 [64, 1344]
-0.07969649 -0.06868425 -0.05375729 -0.04820694 -0.0060617337 -0.12541068 -0.09439035 -0.0499379
-0.02256776 -0.013440316 -0.089054994 0.021346183 0.043568607 0.02790483 0.0045064194 -0.05120722
-0.012537855 0.0029637006 -0.004620365 -0.026428467 -0.058887377 0.035777144 0.0028163553 0.068351716
-0.016370006 0.030039173 -0.047069907 -0.025278822 0.14002953 0.05718667 0.020954983 -0.021917742
0.10393877 0.011707328 0.02614163 0.02452123 -0.041585986 0.057288975 -0.03200885 -0.13806252
-0.061347052 0.0023504077 -0.1575393 -0.10082802 -0.014793997 0.014817195 0.0015745206 -0.10907391
-0.08048154 -0.050288316 -0.0832176 0.15779245 0.09813221 0.008214726 -0.060566753 0.19833593
-0.02681958 0.06428113 -0.06830236 0.019020597 -0.08268931 -0.102663726 -0.06455913 -0.12579808
-0.08884232 -0.24028277 -0.0146933105 -0.13014238 0.07805898 -0.025890674 0.029118404 0.14654462
0.058503963 0.12297906 0.07409298 0.14919165 0.090246454 -0.08255409 -0.040543005 0.119875446
0.07154808 -0.01186182 -0.072026394 -0.09945561 -0.22249705 0.025871545 0.15436256 -0.019761
-0.091343805 -0.03641006 -0.085044496 -0.19697648 -0.24583654 0.0411113 -0.0068118605 -0.26784444
-0.055027664 -0.0731403 0.073786564 -0.07671095 0.045191247 -0.0029663416 -0.0054259524 -0.025374202
0.013640018 0.050781894 -0.09936688 -0.18528765 -0.1531464 -0.016027093 0.027980637 0.054363135
-0.2941223 -0.1161172 -0.112472914 -0.08972643 0.022224415 -0.20504117 -0.12698661 -0.0058939965
0.022489363 -0.13557972 -0.02186466 -0.02635662 0.07336983 0.043773435 0.018382816 0.10048284
-0.08370317 0.14519468 -0.06988816 0.021904735 -0.055494048 -0.043718062 0.021578357 -0.122827545
-0.077074766 -0.15823111 -0.2030191 -0.10503353 -0.08338705 -0.090376474 -0.14369312 0.023920175
-0.13035621 -0.14177997 0.042361997 0.16790779 -0.03311858 0.032481194 0.12636681 0.2899185
0.22137311 0.07467008 0.010785158 0.11525469 0.098006904 -0.016070932 0.047568094 0.05326026
-0.067248926 0.07164736 -0.022728145 -0.052112292 -0.18630768 -0.18021907 -0.06723173 -0.0007405163
-0.13551599 -0.11594578 -0.15054247 -0.11285584 -0.07135688 -0.040731378 -0.23007123 -0.09217059
-0.030798865 0.041306462 -0.11393164 -0.069382176 -0.023180801 0.024388293 -0.034249976 -0.14112188
-0.087161966 -0.0065086335 -0.028208494 -0.09648445 -0.09221043 -0.025816482 -0.01986999 -0.12295976
-0.04965454 -0.067783125 -0.11422051 -0.05358897 -0.09715702 -0.05968147 -0.05145422 -0.025531642
-0.056776296 -0.25328583 -0.024736544 -0.118593454 0.12820864 -0.07733614 -0.117657766 -0.015861237
0.022769036 -0.024026422 0.005415263 -0.122637056 0.12061078 -0.0057147886 0.10194796 -0.042982813
0.028255979 -0.021437563 0.023932612 -0.019794615 -0.082639076 -0.030850258 0.0602778 0.119053744
0.07013073 -0.08379291 -0.05651242 0.021321855 0.020077098 -0.054254286 -0.060889706 -0.027230097
0.03152288 -0.050239038 0.003122603 -0.008694143 0.07659073 0.15684572 0.06643639 -0.061575267
0.16689858 0.03391766 0.088472255 0.10063251 0.0011318332 0.007562349 -0.027904842 0.057382572
0.080893636 0.14390656 0.06657627 -0.0622681 0.26497227 0.1303987 0.14887011 0.23198602
00000000: ea37 a3bd 54aa 8cbd 9b30 5cbd a474 45bd
00000010: 82a1 c6bb a86b 00be ba4f c1bd af8b 4cbd
00000020: 06e0 b8bc c534 5cbc 7762 b6bd 31de ae3c
00000030: ff74 323d ac98 e43c 96aa 933b a9be 51bd
00000040: 936b 4dbc a53a 423b 6e66 97bb 8380 d8bc
00000050: e433 71bd 0e8b 123d 9a92 383b fcfb 8b3d
00000060: 641a 86bc b614 f63c 60cc 40bd 8815 cfbc
00000070: e763 0f3e 923c 6a3d c9a9 ab3c d68c b3bc
00000080: dadd d43d 18d0 3f3c f926 d63c bfe0 c83c
00000090: 1156 2abd d8a7 6a3d b61b 03bd 4360 0dbe
000000a0: 0c47 7bbd 4c09 1a3b fb51 21be ec7e cebd
000000b0: 8562 72bc d2c3 723c 2560 ce3a 2462 dfbd
000000c0: 81d3 a4bd 1ffb 4dbd fd6d aabd 5894 213e
000000d0: 8af9 c83d 0f97 063c d814 78bd 9318 4b3e
000000e0: bcb4 dbbc d3a5 833d 1ce2 8bbd 15d1 9b3c
000000f0: 0359 a9bd 5c41 d2bd 9437 84bd 36d1 00be
00000100: f6f2 b5bd b00c 76be 36bc 70bc 0b44 05be
00000110: 63dd 9f3d ae18 d4bc b889 ee3c cb0f 163e
00000120: daa1 6f3d 72dc fb3d 0fbe 973d b2c5 183e
00000130: 22d3 b83d 1e12 a9bd 6c10 26bd 4281 f53d
00000140: cd87 923d 1458 42bc 9382 93bd 62af cbbd
00000150: 44d6 63be 90f0 d33c 3811 1e3e d2e1 a1bc
00000160: 7612 bbbd b722 15bd cf2b aebd 34b4 49be
00000170: 93bc 7bbe 5364 283d 0736 dfbb e822 89be
00000180: b064 61bd 95ca 95bd 691d 973d a11a 9dbd
00000190: 751a 393d f466 42bb 30cc b1bb 8fdd cfbc
000001a0: 627a 5f3c ad00 503d dd80 cbbd 0cbc 3dbe
000001b0: 69d2 1cbe 404b 83bc a637 e53c e1ab 5e3d
000001c0: 3397 96be dbce edbd 3358 e6bd 7ec2 b7bd
000001d0: fa0f b63c 50f6 51be c708 02be 6d22 c1bb
000001e0: 9d3b b83c 69d5 0abe 841d b3bc d7e9 d7bc
000001f0: ec42 963d c64b 333d 8f97 963c f2c9 cd3d
00000200: 916c abbd eaad 143e 8621 8fbd 8f71 b33c
00000210: ba4d 63bd b611 33bd 18c5 b03c 028d fbbd
00000220: 60d9 9dbd 5607 22be 3de4 4fbe d21b d7bd
00000230: d4c6 aabd 4d17 b9bd 4a24 13be 3ef4 c33c
00000240: 197c 05be c52e 11be c683 2d3d 05f0 2b3e
00000250: 59a7 07bd 000b 053d 4d66 013e 3370 943e
00000260: a2af 623e a0ec 983d 3bb4 303c a70a ec3d
00000270: d8b7 c83d 30a7 83bc c3d6 423d 6e27 5a3d
00000280: ceb9 89bd dabb 923d 6030 babc b373 55bd
00000290: 71c7 3ebe 598b 38be cab0 89bd 351f 42ba
000002a0: b4c4 0abe fb74 edbd ce27 1abe f620 e7bd
000002b0: 8e23 92bd f2d5 26bd cb97 6bbe efc3 bcbd
000002c0: e74d fcbc f730 293d fe54 e9bd 3e18 8ebd
000002d0: aae5 bdbc f5c9 c73c b449 0cbd 4182 10be
000002e0: f981 b2bd 6046 d5bb 8015 e7bc a499 c5bd
000002f0: d2d8 bcbd 167d d3bc 64c6 a2bc 54d2 fbbd
00000300: 8f62 4bbd e1d1 8abd 71ec e9bd 1c80 5bbd
00000310: 42fa c6bd 8f74 74bd a9c1 52bd bc27 d1bc
00000320: 438e 68bd aeae 81be 4ba4 cabc 20e1 f2bd
00000330: 2049 033e 6962 9ebd 8ef6 f0bd 6def 81bc
00000340: 2186 ba3c 0fd3 c4bc 8572 b13b 2329 fbbd
00000350: c902 f73d 1f43 bbbb 18ca d03d bf0e 30bd
00000360: 1579 e73c d49d afbc 530e c43c 5128 a2bc
00000370: ad3e a9bd aeb9 fcbc dbe5 763d 73d2 f33d
00000380: b3a0 8f3d 9e9b abbd 9179 67bd 2cab ae3c
00000390: ba78 a43c be39 5ebd 7c67 79bd a711 dfbc
000003a0: 231e 013d 73c7 4dbd 96a4 4c3b e171 0ebc
000003b0: 9adb 9c3d 2a9c 203e cd0f 883d 5936 7cbd
000003c0: 76e7 2a3e 3fed 0a3d f130 b53d 6b18 ce3d
000003d0: 055a 943a 95cd f73b b298 e4bc fd09 6b3d
000003e0: 90ab a53d 3e5c 133e 2459 883d d60c 7fbd
000003f0: 72aa 873e 3d87 053e 6871 183e be8d 6d3e

bias f4 [64]
-0.08711797 -0.07558748 0.07363297 -0.09219699 0.007046808 0.043743163 -0.08474407 0.056671236
0.050994568 0.15389277 0.06276074 -0.10348848 0.12932499 -0.038145326 -0.07574739 -0.0117911035
-0.0018515252 -0.10339812 0.04354615 -0.04137489 -0.10961238 -0.07336701 -0.052342657 0.008195822
-0.12288557 0.06881436 -0.016318614 0.060694624 0.0020678944 -0.014836975 0.041868106 0.06620222
-0.03584036 0.023408372 0.049589217 -0.027819151 -0.15022542 0.14391652 -0.0013880089 0.083196305
-0.0056327498 0.0064857434 -0.16889988 -0.09270016 -0.13351904 0.056640804 -0.0103062745 -0.10161615
0.08688146 0.028194606 -0.09217446 0.1236511 0.018413542 0.14177747 0.041682214 -0.16214669
0.093715884 -0.109816685 0.055980224 0.03764999 -0.10148763 -0.054392945 0.0029673942 -0.03049573
00000000: e86a b2bd 9ccd 9abd e2cc 963d c7d1 bcbd
00000010: e9e8 e63b 082c 333d 4d8e adbd 1920 683d
00000020: aedf 503d 1196 1d3e b488 803d c5f1 d3bd
00000030: c56d 043e 463e 1cbd 7321 9bbd 792f 41bc
00000040: e0ae f2ba 65c2 d3bd 735d 323d b778 29bd
00000050: 757c e0bd 7141 96bd 4165 56bd c547 063c
00000060: 6eab fbbd 8bee 8c3d 9dae 85bc ed9a 783d
00000070: 8385 073b c916 73bc e47d 2b3d 0895 873d
00000080: 57cd 12bd eac2 bf3c 101e 4b3d fde4 e3bc
00000090: b1d4 19be da5e 133e daed b5ba d362 aa3d
000000a0: ee92 b8bb 5c86 d43b 17f4 2cbe 95d9 bdbd
000000b0: 37b9 08be 3000 683d a6db 28bc 211c d0bd
000000c0: e8ee b13d 60f8 e63c f7c5 bcbd ca3c fd3d
000000d0: ffd7 963c 1d2e 113e f8ba 2a3d c809 26be
000000e0: 1dee bf3d 92e7 e0bd 854b 653d e036 1a3d
000000f0: bfd8 cfbd 23cb 5ebd 9d78 423b 2ed2 f9bc

weight f4 [25, 64]
0.0061362456 -0.0032068337 -0.041550353 0.1261303 0.05040943 0.18549863 0.10441628 0.077641815
0.2173489 0.060950607 -0.0015457427 -0.16649494 0.07835266 -0.06064562 -0.034960795 -0.08974888
-0.22291869 -0.0801436 0.12280718 -0.020525498 -0.075844094 -0.26347125 0.12771466 -0.24564084
-0.010150398 -0.07039406 0.05060475 -0.085918024 0.110734165 0.23670681 0.11026164 -0.15068254
-0.137124 0.0275833 -0.11995149 -0.06351957 -0.15984769 0.18971992 -0.019856652 0.06260859
0.019309742 -0.13289085 0.009888768 -0.17649812 -0.14663114 0.021913404 -0.2287214 0.03039717
0.09493296 0.023521306 -0.066906966 0.17383005 0.020645596 0.24525693 0.22530253 -0.06066748
0.117031425 -0.079053186 -0.08927061 0.1710481 -0.113367274 0.07271993 0.1388931 0.043123458
-0.051494274 0.08641856 0.1635513 0.12438195 -0.18340595 -0.081283994 -0.079435825 -0.079472706
-0.16220735 -0.16120338 -0.04621964 0.088744424 -0.1717094 -0.09911007 -0.07294404 0.05213149
0.1942734 -0.13143146 0.031327557 -0.09352615 0.059933387 0.022194725 -0.19641224 0.22065829
-0.06528632 -0.08343965 0.17396872 0.096764825 -0.0859953 -0.07325762 -0.1434602 -0.031927634
0.049190704 0.089574166 0.08977216 0.10612564 0.13981353 0.07116384 0.119834095 -0.053038172
-0.1979062 0.09379798 0.01756762 0.016754953 -0.14395168 0.13582774 0.17574401 -0.017890442
-0.049498785 -0.05098114 0.053713534 0.098191686 -0.04251965 0.021466512 -0.14019386 0.044236224
-0.11247779 -0.11313659 0.14481537 -0.05629096 0.05141941 -0.07253382 -0.1648402 -0.02818448
0.021662587 -0.16481318 0.19960505 -0.2153237 -0.11488598 0.01290313 0.121961236 -0.031400032
0.21479467 0.11728471 -0.026397983 -0.10683382 0.14083853 -0.08392328 -0.14604805 -0.13751994
-0.050990697 -0.021945462 -0.0784268 -0.066794485 -0.05571051 -0.19844475 -0.024093056 -0.015956756
-0.029550461 -0.09364698 0.11110123 0.011861918 -0.10132993 0.1281487 0.19849908 0.010356901
-0.30958438 -0.12688942 -0.017346054 0.09240225 -0.21495098 -0.07927053 -0.033705425 -0.031301044
-0.04823246 -0.21068706 0.05166514 0.022616021 -0.11556288 -0.22621238 -0.12057614 -0.12751731
0.22516137 0.17173563 -0.102748565 0.16471434 0.07418529 0.14542337 0.078112185 -0.16687182
0.10352875 -0.048543364 -0.12142657 0.094541326 -0.08205082 -0.074898355 0.109397456 0.06557698
0.06209499 0.022974012 0.05209918 0.08798337 -5.2559946e-05 0.010213507 -0.2124544 -0.029218934
-0.10798387 0.075009316 0.029309563 0.00854693 0.113750935 -0.20222937 -0.08252503 0.062827766
0.15914802 0.10592578 0.0541064 0.07728201 -0.13820685 0.12797186 -0.0059159407 0.14291388
-0.15151842 -0.0783285 0.010930377 0.032260224 -0.19266905 -0.16939798 -0.016824866 -0.012293427
0.0245537 -0.09760378 0.23050901 0.15513062 -0.03191311 -0.018014649 0.13862294 -0.01948081
-0.100364596 0.11102113 -0.018229453 0.094687685 -0.22894536 0.096126534 -0.13000348 0.029868508
-0.07139362 0.04590031 0.13457483 0.1876127 0.01039044 0.08699142 0.017852886 0.041414734
-0.109087944 0.012509903 0.15315495 0.009354896 -0.0038535662 -0.11163841 0.111998715 -0.17076182
00000000: 8f12 c93b be29 52bb b430 2abd 4d28 013e
00000010: 1e7a 4e3d 5af3 3d3e 34d8 d53d ac02 9f3d
00000020: b690 5e3e 58a7 793d 859a caba a67d 2abe
00000030: 5c77 a03d 8b67 78bd 0d33 0fbd 43ce b7bd
00000040: cc44 64be 5422 a4bd 5582 fb3d 1725 a8bc
00000050: 2654 9bbd b4e5 86be a2c7 023e 4689 7bbe
00000060: db4d 26bc c32a 90bd ed46 4f3d caf5 afbd
00000070: 98c8 e23d 4563 723e dbd0 e13d 864c 1abe
00000080: 3c6a 0cbe 5ff6 e13c 20a9 f5bd 8c16 82bd
00000090: 1daf 23be f045 423e 6baa a2bc ef38 803d
000000a0: 772f 9e3c 8a14 08be 8004 223c ecbb 34be
000000b0: 7926 16be bd83 b33c f135 6abe 7c03 f93c
000000c0: 366c c23d c1af c03c 8506 89bd 8100 323e
000000d0: f420 a93c a224 7b3e b5b5 663e 777e 78bd
000000e0: 2cae ef3d a3e6 a1bd 82d3 b6bd 3c27 2f3e
000000f0: 1a2d e8bd 30ee 943d fe39 0e3e 39a2 303d
00000100: a9eb 52bd 37fc b03d fe79 273e f7bb fe3d
00000110: c5ce 3bbe 3978 a6bd 40af a2bd 96c2 a2bd
00000120: af19 26be 8012 25be ce50 3dbd a3bf b53d
00000130: 97d4 2fbe 38fa cabd af63 95bd d487 553d
00000140: 9bef 463e f895 06be 5351 003d a38a bfbd
00000150: b67c 753d b6d1 b53c 4a20 49be 3ff4 613e
00000160: d6b4 85bd 68e2 aabd db24 323e a32c c63d
00000170: 4e1e b0bd 1708 96bd 3be7 12be 8dc6 02bd
00000180: 317c 493d a972 b73d 77da b73d 6658 d93d
00000190: 472b 0f3e 59be 913d 946b f53d 8e3e 59bd
000001a0: eca7 4abe 2819 c03d f8e9 8f3c af41 893c
000001b0: 1268 13be 6d16 0b3e 3df6 333e fa8e 92bc
000001c0: 3dbf 4abd 9ad1 50bd b902 5c3d b918 c93d
000001d0: 1629 2ebd 8ada af3c fb8e 0fbe 0b31 353d
000001e0: c15a e6bd 28b4 e7bd 7b4a 143e 5a91 66bd
000001f0: 299d 523d 9d8c 94bd dfcb 28be 23e3 e6bc
00000200: bd75 b13c c9c4 28be 4465 4c3e d17d 5cbe
00000210: 5749 ebbd a667 533c d0c6 f93d 529d 00bd
00000220: 22f3 5b3e f732 f03d 9540 d8bc b1cb dabd
00000230: fa37 103e f8df abbd 9f8d 15be 07d2 0cbe
00000240: 9fdb 50bd f8c6 b3bc 3b9e a0bd 8ccb 88bd
00000250: b430 64bd 1a35 4bbe cd5e c5bc beb7 82bc
00000260: cf13 f2bc fdc9 bfbd 0b89 e33d 7d58 423c
00000270: 1186 cfbd 6a39 033e 5843 4b3e feaf 293c
00000280: d881 9ebe 4def 01be 5019 8ebc 643d bd3d
00000290: 1c1c 5cbe 9658 a2bd b30e 0abd 8635 00bd
000002a0: 668f 45bd 59be 57be d39e 533d 3c45 b93c
000002b0: 3bac ecbd 38a4 67be a0f0 f6bd e693 02be
000002c0: b490 663e 77db 2f3e d76d d2bd e0aa 283e
000002d0: 75ee 973d dde9 143e 48f9 9f3d 72e0 2abe
000002e0: e206 d43d 68d5 46bd 7eae f8bd e29e c13d
000002f0: 430a a8bd 4f64 99bd c60b e03d 394d 863d
00000300: 5157 7e3d ff33 bc3c f365 553d a030 b43d
00000310: d073 5cb8 8e56 273c a58d 59be 8c5c efbc
00000320: a626 ddbd 7c9e 993d 9c1a f03c 6c08 0c3c
00000330: 40f6 e83d 3715 4fbe e202 a9bd d8ab 803d
00000340: b3f7 223e 9eef d83d ac9e 5d3d 0846 9e3d
00000350: 1986 0dbe 0e0b 033e 82da c1bb 0458 123e
00000360: a527 1bbe b16a a0bd 5315 333c 4c23 043d
00000370: 094b 45be aa76 2dbe 4dd4 89bc 5f6a 49bc
00000380: d724 c93c 7ee4 c7bd 8e0a 6c3e 90da 1e3e
00000390: 52b7 02bd 7593 93bc 2cf3 0d3e 3896 9fbc
000003a0: f48b cdbd 0c5f e33d ef55 95bc 9eeb c13d
000003b0: a770 6abe fddd c43d a21f 05be cdae f43c
000003c0: d136 92bd f701 3c3d fccd 093e 8b1d 403e
000003d0: aa3c 2a3c 8f28 b23d 3740 923c 7fa2 293d
000003e0: 8069 dfbd 56f6 4c3c a7d4 1c3e 4745 193c
000003f0: 1d8c 7cbb aea2 e4bd 955f e53d 30dc 2ebe

bias f4 [25]
0.11315057 0.18293287 0.20838279 0.04085068 -0.11594347 0.07998791 0.13535205 0.2041578
0.18324508 -0.102498144 -0.019516122 0.14335513 0.10034201 -0.117533565 -0.029917868 0.14759026
0.20014603 -0.03927668 0.07607464 -0.07687741 0.17849486 0.114983365 0.077281326 -0.22369516
-0.5224274
00000000: 7cbb e73d c152 3b3e 4c62 553e 0b53 273d
00000010: c573 edbd b4d0 a33d ba99 0a3e be0e 513e
00000020: 99a4 3b3e 8cea d1bd 46e0 9fbc b0cb 123e
00000030: 1d80 cd3d 70b5 f0bd 5116 f5bc e721 173e
00000040: 15f3 4c3e 96e0 20bd 05cd 9b3d e771 9dbd
00000050: 5bc7 363e 667c eb3d ac45 9e3d 5810 65be
00000060: cdbd 05bf
