result/config1_main/preliminary_model20.pt (torch_old, 428387 bytes, 10 tensors)

weight f4 [12, 2, 192]
-0.2848309 -0.13214009 -0.010804444 -0.12735605 -0.13375263 -0.118559144 -0.05490157 0.24527606
0.34494358 0.027949397 -0.3132893 -0.24035417 0.05128034 0.16625234 0.09193674 -0.24652663
0.27705988 0.05636181 -0.22698228 -0.29349905 0.08923271 0.23114808 -0.2889512 -0.14994052
-0.20317598 0.00688693 0.29836142 0.18893546 0.13889141 -0.29638523 -0.3461466 0.06619561
-0.042713605 0.20780231 0.09588288 -0.10841549 -0.11970371 -0.1962957 0.14266923 0.27268788
-0.0281373 0.16028309 0.09541442 -0.05559805 0.13068256 0.034938242 -0.004653837 -0.41196278
0.07664076 -0.1000347 -0.16695556 0.06657925 0.18074918 -0.009960254 -0.40440774 -0.013054936
-0.13443449 -0.039746117 0.10197163 0.15998724 -0.31347343 -0.32126278 0.109085836 -0.11317621
-0.020206038 -0.14386436 0.08009135 -0.06451567 0.2757996 0.25926104 -0.2645884 -0.12908572
0.05719965 0.23192948 -0.0685909 -0.112298205 0.104648106 -0.061184455 -0.10906516 0.08252253
0.2239714 0.024872364 -0.3193712 -0.29583955 0.068061344 -0.005176207 0.03762173 0.22541125
0.11046119 0.3427895 -0.03391869 -0.028772494 0.009296768 0.12959212 0.21480942 0.05193561
-0.08785383 -0.3513006 0.17365283 0.26561755 0.018292334 0.08247032 0.1278003 -0.08294919
-0.12682346 0.28553897 0.22957614 -0.13641764 0.024774851 -0.11071868 -0.24820867 0.24338782
0.3080744 0.13202624 0.084108844 0.07233585 0.21117568 0.22710428 0.17281255 0.026663762
0.11709776 0.03393786 0.11532741 0.3439724 0.46856877 0.021670738 -0.07151757 -0.18739724
0.027664611 0.16912302 0.08639077 0.110962324 -0.052886657 -0.056446325 0.08190961 0.38622734
0.27768785 0.10490359 0.05301321 0.047199856 0.20757076 0.2675827 0.23447925 0.17168151
0.040488727 -0.036495037 -0.09090989 0.14160706 0.13180505 -0.1540071 -0.06452814 0.1251255
0.046906274 0.13555628 0.10364053 -0.21161737 -0.08678476 -0.15906717 -0.15003301 0.022973733
-0.09372375 0.23277603 0.22885579 0.13085057 0.22524492 -0.11536803 -0.04949721 0.14786592
0.059912797 -0.049767997 -0.12718463 0.089410804 -0.14021304 0.034600016 -0.122894645 -0.30473053
-0.25776595 -0.1491811 0.067372106 -0.15468815 0.08747998 0.25197393 -0.09305657 -0.49289507
-0.10943734 -0.16440286 -0.10888946 -0.055696394 0.0697284 -0.0929637 -0.12635696 -0.25671718
-0.023160797 0.16821364 -0.17354846 -0.013356777 -0.079066955 -0.02926523 -0.16880858 0.1503749
0.26499662 -0.009339736 -0.20277321 -0.45441124 -0.01993827 0.3107943 0.1444809 -0.32138696
-0.059194434 0.20831566 -0.12278864 -0.0755513 -0.08259838 0.08256984 -0.17535806 -0.034438726
0.11514855 -0.042212795 0.12178105 -0.09446348 0.28730413 0.26138705 0.33011505 0.39106983
0.08840975 0.08502459 0.0835486 0.2756941 0.35547358 0.3350525 0.35227042 0.14389269
0.035684258 -0.24889717 -0.0137896575 0.14637475 0.43450582 0.05711721 -0.27512458 0.11834019
0.091962636 -0.099455476 -0.0061346744 0.28792867 0.08369385 0.03282044 0.122035176 0.473179
0.0033217627 -0.19117129 -0.11065255 0.5877775 0.24073485 0.035618044 0.017380513 -0.20863388
00000000: 5bd5 91be bb4f 07be 1f05 31bc a069 02be
00000010: 73f6 08be 23cf f2bd 78e0 60bd a629 7b3e
00000020: 729c b03e 22f6 e43c 7567 a0be 671f 76be
00000030: 550b 523d 0e3e 2a3e 5449 bc3d 7a71 7cbe
00000040: cbda 8d3e a4db 663d 0b6e 68be 8245 96be
00000050: a4bf b63d 15b2 6c3e 69f1 93be 028a 19be
00000060: 5d0d 50be c2ab e13b d4c2 983e 4c78 413e
00000070: 8d39 0e3e cebf 97be 213a b1be 9091 873d
00000080: 76f4 2ebd 21ca 543e 3e5e c43d f108 debd
00000090: 3827 f5bd bd01 49be e217 123e bf9d 8b3e
000000a0: 3280 e6bc 4021 243e a368 c33d c8ba 63bd
000000b0: a6d1 053e 671b 0f3d 377f 98bb c9ec d2be
000000c0: d5f5 9c3d fede ccbd 66f6 2abe b45a 883d
000000d0: 5016 393e 5530 23bc 880e cfbe 5fe4 55bc
000000e0: 32a9 09be d3cc 22bd 80d6 d03d b2d3 233e
000000f0: 977f a0be 8e7c a4be 6568 df3d eec8 e7bd
00000100: 2287 a5bc 2e51 13be ef06 a43d cb20 84bd
00000110: 9b35 8d3e ddbd 843e 2178 87be 0c2f 04be
00000120: 2e4a 6a3d ec7e 6d3e 6379 8cbd 9afc e5bd
00000130: bf51 d63d 8d9c 7abd 8e5d dfbd 9201 a93d
00000140: c258 653e 21c1 cb3c 9f84 a3be 4878 97be
00000150: bf63 8b3d 2c9d a9bb 3e19 1a3d 35d2 663e
00000160: 7a39 e23d 1b82 af3e 53ee 0abd 4bb4 ebbc
00000170: 7951 183c ccb3 043e 00f7 5b3e 6fba 543d
00000180: b5ec b3bd acdd b3be 0cd2 313e 06ff 873e
00000190: ced9 953c 33e6 a83d 15de 023e 44e1 a9bd
000001a0: 02de 01be 2a32 923e 0216 6b3e 11b1 0bbe
000001b0: a1f4 ca3c 7ac0 e2bd 6a2a 7ebe a83a 793e
000001c0: eebb 9d3e e331 073e 4241 ac3d d124 943d
000001d0: 703e 583e 068e 683e c6f5 303e f66d da3c
000001e0: f3d0 ef3d 6d02 0b3d c730 ec3d 271d b03e
000001f0: 3fe8 ef3e d586 b13c ce77 92bd 10e5 3fbe
00000200: e5a0 e23c 962e 2d3e a5ed b03d 3740 e33d
00000210: ae9f 58bd 4334 67bd 3ac0 a73d 97bf c53e
00000220: 1a2d 8e3e b2d7 d63d 6124 593d a354 413d
00000230: 6e8d 543e 9a00 893e 541b 703e 47cd 2f3e
00000240: 82d7 253d d27b 15bd f72e babd 7101 113e
00000250: e7f7 063e 0ab4 1dbe 5427 84bd e620 003e
00000260: cb20 403d 44cf 0a3e 7c41 d43d 39b2 58be
00000270: 35bc b1bd 81e2 22be 41a2 19be 6933 bc3c
00000280: 3df2 bfbd d75c 6e3e 2c59 6a3e b1fd 053e
00000290: 9ba6 663e 1346 ecbd 96bd 4abd 2a6a 173e
000002a0: 1f67 753d 87d9 4bbd b03c 02be 031d b73d
000002b0: 0294 0fbe bfb8 0d3d 30b0 fbbd a405 9cbe
000002c0: e6f9 83be eec2 18be 63fa 893d 9266 1ebe
000002d0: b428 b33d ba02 813e 7194 bebd be5c fcbe
000002e0: af20 e0bd 3959 28be 7001 dfbd e721 64bd
000002f0: c3cd 8e3d c163 bebd b863 01be 6f70 83be
00000300: b6bb bdbc 3240 2c3e b0b6 31be 62d6 5abc
00000310: dbed a1bd a3bd efbc 28dc 2cbe e1fb 193e
00000320: a3ad 873e b105 19bc c8a3 4fbe 97a8 e8be
00000330: 9555 a3bc 6e20 9f3e cdf2 133e d58c a4be
00000340: dd75 72bd b350 553e 9c78 fbbd a4ba 9abd
00000350: 5729 a9bd 601a a93d 1091 33be 9f0f 0dbd
00000360: 01d3 eb3d 53e7 2cbd 5868 f93d 1276 c1bd
00000370: 8719 933e 86d4 853e d704 a93e 4e3a c83e
00000380: 2c10 b53d 5f21 ae3d 871b ab3d c727 8d3e
00000390: a200 b63e 008c ab3e ca5c b43e 9b58 133e
000003a0: a829 123d e6de 7ebe 04ee 61bc 43e3 153e
000003b0: 8c77 de3e bcf3 693d 21dd 8cbe 575c f23d
000003c0: e856 bc3d 50af cbbd 6105 c9bb 636b 933e
000003d0: ae67 ab3d ba6e 063d 94ed f93d 8544 f23e
000003e0: eeb1 593b 68c2 43be ce9d e2bd 9678 163f
000003f0: 3283 763e 3ae4 113d 9461 8e3c 1fa4 55be

bias f4 [12]
-0.28731444 -0.37759197 -0.27045023 -0.47289023 -0.23206604 -0.30793396 -0.23106997 -0.39667678
-0.4216083 -0.3222119 -0.23176087 -0.37126246
00000000: e11a 93be bc53 c1be 7478 8abe ab1e f2be
00000010: b8a2 6dbe 85a9 9dbe 9b9d 6cbe 3819 cbbe
00000020: 0bdd d7be f5f8 a4be b952 6dbe 1d16 bebe

weight f4 [24, 12, 16]
-0.09193117 0.007225221 -0.12281452 0.003461647 -0.27933827 -0.30295244 0.1691272 -0.028807092
-0.18808617 -0.067288235 -0.20484945 -0.12634549 -0.29072246 -0.3208852 0.28406534 -0.07521796
-0.049002737 0.4376371 0.58523005 -0.10626414 0.28694063 0.04925659 -0.038048774 0.3044273
0.20492542 0.26478666 0.07207588 0.27777827 -0.25296807 0.020387633 -0.18355934 -0.020503225
-0.10441911 0.045317397 -0.20513329 -0.21662913 -0.27779463 0.13104719 -0.059996895 -0.28777424
-0.4503236 0.12883118 -0.18176013 0.029724186 0.0687491 -0.041973826 -0.077780254 0.11145927
-0.11275354 0.06187338 0.16324231 0.08602961 0.0135586895 -0.08500338 0.044718217 -0.009597538
0.19106923 -0.17316808 -0.010919821 0.27931046 0.17016292 0.11413973 0.07962657 -0.14723445
0.038433712 0.1187511 -0.047491625 0.029451715 0.077683665 -0.03504104 0.114866994 0.22082
-0.1473774 0.21170843 -0.20894614 -0.22159302 -0.26494732 -0.13120107 -0.01178514 -0.24764235
0.037947297 -0.06446553 -0.4271572 -0.1885878 -0.27889472 0.008864778 -0.25770745 -0.20854205
-0.2652405 -0.29044127 -0.48156935 0.03285909 0.025745781 -0.15563367 -0.2306035 -0.082285106
-0.12742168 -0.14178757 0.10078386 0.084228545 0.32017955 0.14462242 0.12113693 0.17604153
0.36163342 -0.16211212 0.44938824 0.1882959 0.10949844 0.07774186 -0.28098673 0.039788958
-0.3795861 0.19246514 -0.058878098 -0.21950892 0.038235866 0.057875697 0.24444357 0.22286591
-0.27030414 0.29723388 -0.04037495 -0.2417508 -0.08085538 0.058797847 -0.017980428 0.052265637
0.33343264 0.124640256 0.30368826 0.40188304 0.45207277 0.011979442 0.12671219 -0.001545138
0.224676 0.26353684 0.033016995 0.07471646 0.09904139 -0.04952631 -0.19217145 -0.15825954
-0.4272734 -0.15729295 -0.4055377 -0.37038112 0.036557965 0.119339325 -0.02327033 0.060838286
0.0041589336 -0.024997272 -0.19363984 -0.12486095 0.045731273 0.15723005 0.020431723 0.07565849
-0.095026895 -0.15188272 -0.2809704 -0.019720396 0.46468338 -0.70188904 -0.13991778 0.08095508
0.12811853 0.06882729 -0.2520693 -0.23938492 -0.35696277 -0.10553935 -0.31979576 -0.11247746
-0.2180438 -0.07123896 -0.3093289 -0.12044514 -0.25702497 0.12130605 0.05274646 -0.16694279
-0.25902915 0.2700964 -0.37677306 0.31542757 0.0017558278 -0.23471737 -0.2793468 0.16625796
-0.034421995 0.1922699 0.049426805 -0.2094529 -0.19560485 0.3685525 -0.08866268 -0.5173968
0.26490128 -0.110652216 -0.41655055 0.25660577 0.006626802 -0.016823292 -0.20058075 0.14416121
-0.3093858 0.2273529 -0.004091175 0.15348278 -0.38577265 0.0701331 0.16103335 -0.040185414
-0.0368718 -0.02080286 -0.43884167 -0.16934109 0.017291397 0.0027171264 0.07585755 -0.055680756
0.06367855 -0.037527397 -0.3044113 -0.022168469 -0.06328378 -0.101408474 -0.10315357 -0.17354731
-0.05135139 0.2144857 0.004100148 -0.3301479 -0.10003395 -0.18085696 0.19273162 -0.1578864
0.1569795 -0.28297403 -0.09653097 -0.0860943 0.1782303 0.04437093 0.0911518 0.04318546
-0.32860115 0.13774869 -0.058957107 -0.09165741 -0.17427883 0.09382738 0.006314027 -0.29604283
00000000: 6946 bcbd 8cc1 ec3b 2e86 fbbd cddc 623b
00000010: 6d05 8fbe 951c 9bbe ae2f 2d3e dafc ebbc
00000020: a999 40be 6ace 89bd 0ec4 51be b660 01be
00000030: 93d9 94be 114b a4be 0371 913e e00b 9abd
00000040: 18b7 48bd f811 e03e a3d1 153f 03a1 d9bd
00000050: e2e9 923e 47c1 493d 08d9 1bbd e5dd 9b3e
00000060: f8d7 513e 1e92 873e 859c 933d f438 8e3e
00000070: 0885 81be f703 a73c fbf6 3bbe 61f6 a7bc
00000080: b0d9 d5bd bc9e 393d 760e 52be 07d4 5dbe
00000090: 193b 8ebe 3c31 063e 4ebf 75bd 2557 93be
000000a0: d190 e6be 52ec 033e 541f 3abe 2380 f33c
000000b0: 54cc 8c3d bfec 2bbd 414b 9fbd c244 e43d
000000c0: 54eb e6bd f16e 7d3d fe28 273e 4b30 b03d
000000d0: 4425 5e3c 4116 aebd 732a 373d fe3e 1dbc
000000e0: a7a7 433e f952 31be 0de9 32bc c801 8f3e
000000f0: 303f 2e3e 17c2 e93d 4113 a33d a1c4 16be
00000100: ab6c 1d3d c733 f33d 9486 42bd b944 f13c
00000110: 9d18 9f3d 3287 0fbd 633f eb3d a31e 623e
00000120: 1aea 16be 18ca 583e faf5 55be 48e9 62be
00000130: 2da7 87be 9359 06be 7616 41bc f595 7dbe
00000140: a06e 1b3d 8106 84bd 59b4 dabe 291d 41be
00000150: 4acb 8ebe 933d 113c 3bf2 83be 0c8c 55be
00000160: 9acd 87be b8b4 94be 4290 f6be 4197 063d
00000170: d1e8 d23c 6f5e 1fbe 5323 6cbe 1885 a8bd
00000180: d47a 02be c330 11be c567 ce3d 0480 ac3d
00000190: 93ee a33e e617 143e a416 f83d 3b44 343e
000001a0: 0428 b93e b800 26be 3716 e63e a4d0 403e
000001b0: b840 e03d 2037 9f3d 7edd 8fbe bff9 223d
000001c0: 1c59 c2be 9515 453e 292a 71bd f2c6 60be
000001d0: 369d 1c3d 110f 6d3d 6a4f 7a3e f636 643e
000001e0: 4e65 8abe 0a2f 983e 3460 25bd 868d 77be
000001f0: 8197 a5bd 03d6 703d b14b 93bc 7e14 563d
00000200: afb7 aa3e 6443 ff3d 077d 9b3e 9dc3 cd3e
00000210: 1576 e73e 6c45 443c d7c0 013e 3a86 caba
00000220: 7711 663e 4dee 863e d43c 073d f204 993d
00000230: 36d6 ca3d 1adc 4abd 98c8 44be ca0e 22be
00000240: 94c3 dabe 6711 21be a3a2 cfbe 98a2 bdbe
00000250: cebd 153d 2d68 f43d 6ba1 bebc 9131 793d
00000260: aa47 883b 14c7 ccbc 8649 46be 19b7 ffbd
00000270: b750 3b3d ea00 213e 6e60 a73c d7f2 9a3d
00000280: 769d c2bd 2587 1bbe 5adb 8fbe ab8c a1bc
00000290: fbea ed3e 00af 33bf 9b46 0fbe c7cb a53d
000002a0: 8131 033e 52f5 8c3d 3a0f 81be 5221 75be
000002b0: d3c3 b6be 0425 d8bd 45bc a3be 955a e6bd
000002c0: e046 5fbe bbe5 91bd 5c60 9ebe f1ab f6bd
000002d0: c798 83be 4e6f f83d ac0c 583d 0df3 2abe
000002e0: 789f 84be 134a 8a3e 66e8 c0be b97f a13e
000002f0: ce23 e63a c059 70be 8b06 8fbe 873f 2a3e
00000300: 14fe 0cbd 67e2 443e c373 4a3d d27a 56be
00000310: a34c 48be eab2 bc3e c794 b5bd 1e74 04bf
00000320: 24a1 873e a19d e2bd 1d46 d5be d561 833e
00000330: a525 d93b 00d1 89bc 0a65 4dbe ff9e 133e
00000340: d167 9ebe 33cf 683e 430f 86bb 972a 1d3e
00000350: fe83 c5be f1a1 8f3d ede5 243e 7699 24bd
00000360: e206 17bd c26a aabc dbaf e0be c067 2dbe
00000370: b0a6 8d3c d111 323b 345b 9b3d 8111 64bd
00000380: e669 823d 54b6 19bd ccdb 9bbe a69a b5bc
00000390: ed9a 81bd 3faf cfbd 2e42 d3bd 63b6 31be
000003a0: d655 52bd 24a2 5b3e 895a 863b 2509 a9be
000003b0: 99de ccbd 9132 39be 705b 453e f9ac 21be
000003c0: 3cbf 203e f9e1 90be 07b2 c5bd 3552 b0bd
000003d0: 0182 363e 4bbe 353d cbad ba3d 3de3 303d
000003e0: 693e a8be fe0d 0d3e 027d 71bd e1b6 bbbd
000003f0: 2676 32be 9228 c03d e6e5 ce3b ed92 97be

bias f4 [24]
-0.06717263 -0.2750099 -0.16773751 0.18065496 0.051427756 0.108316794 -0.030595297 -0.2409286
-0.3241644 0.05602374 -0.28968233 -0.0027322609 -0.25929856 -0.013152649 -0.04806189 -0.28426576
-0.08737453 -0.022155147 0.36552647 0.25486824 -0.07293986 -0.1398584 -0.23783961 0.08129763
00000000: ce91 89bd 19ce 8cbe 62c3 2bbe 9dfd 383e
00000010: e9a5 523d 32d5 dd3d fda2 fabc fdb5 76be
00000020: e0f8 a5be 2679 653d 3e51 94be bb0f 33bb
00000030: c8c2 84be 357e 57bc 8bdc 44bd 488b 91be
00000040: 6bf1 b2bd b67e b5bc 4926 bb3e 177e 823e
00000050: 7e61 95bd 0a37 0fbe 3a8c 73be 5f7f a63d

weight f4 [48, 24, 6]
-0.20452961 -0.109753616 -0.02222084 -0.12258419 -0.13102275 0.10077455 -0.25008324 -0.06811273
-0.11149762 -0.20293893 -0.00024176124 0.0069730477 -0.18747677 0.049211603 -0.36358154 -0.14176607
-0.14514789 -0.14929295 -0.20002328 -0.45863986 -0.5681874 -0.54821575 -0.50304705 -0.107100196
0.4774027 0.30288228 -0.0916468 0.4587565 0.098742425 0.32732472 0.23949018 0.16041218
0.38757706 0.14593042 0.005394661 -0.04909994 0.44338197 0.6396989 0.089557804 -0.030713556
0.33885476 0.24579766 -0.4520421 -0.2798258 0.06658917 0.037745904 0.030578472 -0.13110217
0.013890415 0.023222547 -0.08373948 -0.47631687 -0.228994 0.06759558 -0.0355269 -0.044525906
-0.14331329 -0.14879769 -0.00962093 0.16359752 0.0688461 -0.2853023 0.011292366 -0.26996082
-0.1120011 -0.115057014 0.13107218 -0.094877206 0.024584366 -0.012177812 -0.024199052 0.005820551
-0.3191547 -0.28491944 -0.018055798 -0.015191006 -0.1705139 -0.22222288 -0.15511762 -0.19962293
0.019167887 0.36904505 -0.22286667 -0.15130438 0.15385056 -0.30400574 -0.24825817 -0.090496
0.013430499 -0.13405243 0.38175648 -0.13308753 0.12750925 0.112268746 0.11980847 -0.32043046
0.3101426 0.06577316 0.07822525 -0.14845452 -0.28912985 0.008300648 0.03956448 -0.32921854
-0.89253765 -0.4982411 -0.20800532 -0.32373938 -0.09335284 -0.25660262 -0.5487769 -0.26089284
-0.6842011 -0.06674748 -0.19573058 -0.5160818 -0.25936773 -0.84835905 -0.56683725 0.22411351
-0.21055578 -0.004463045 -0.1620618 -0.10814411 0.17025514 -0.30822626 0.12042505 0.055716064
-0.5241735 -0.007599528 -0.19569188 -0.18765329 -0.1693087 -0.03183776 -0.46422964 -0.4786855
-0.018975882 -0.36804903 0.12168563 0.2271367 -0.26550978 -0.19353475 -0.27833933 -0.066002645
0.12603734 0.1598883 -0.10450933 0.00060568587 0.2224057 0.26359078 0.016866835 0.31156147
-0.25275525 0.4009407 -0.104623444 -0.04486194 -0.12764283 -0.3563236 -0.33545974 0.094446324
0.104727305 -0.094163716 -0.42684332 -0.018339416 0.15522732 0.07373135 -0.38483614 -0.006778497
0.2290019 0.013241177 0.2525757 0.03019762 -0.5629842 0.2392985 -0.19260885 -0.2420534
-0.017790467 0.036193285 0.30670905 -0.21192642 -0.120650515 -0.5376824 -0.26990512 -0.3007471
-0.15107806 -0.37577885 -0.07070931 -0.46277753 -0.017250953 -0.43177685 -0.17983572 -0.12719177
-0.110322654 -0.18127364 -0.32310623 -0.4971551 -0.044329643 -0.15065558 0.36390653 -0.13152808
0.015767334 0.14132313 -0.075166166 -0.38603243 -0.4664273 -0.08394637 -0.34829742 -0.074426696
-0.31469256 -0.37881905 -0.38121486 0.042813938 0.2233838 0.19400099 0.01926265 0.022987755
0.14654657 -0.22787477 0.08139258 -0.19285855 0.013107215 0.0596587 0.19533165 -0.29104564
0.2971409 -0.046196423 0.06772039 -0.2346139 0.14771178 -0.33665875 -0.0543947 -0.22357939
0.25761122 0.05833371 0.20185047 0.3837485 0.022495886 -0.061045468 0.12988779 0.2041914
-0.15946521 -0.1215607 0.24591385 -0.16435146 0.22050142 -0.05521295 -0.033796877 0.0012004058
-0.10418577 -0.16435601 0.23954466 0.7093755 -0.04698274 0.24048725 -0.15054378 -0.1483391
00000000: 3670 51be 81c6 e0bd 7b08 b6bc 6b0d fbbd
00000010: d42a 06be e362 ce3d e90a 80be b07e 8bbd
00000020: dd58 e4bd 39cf 4fbe 4a81 7db9 2a7e e43b
00000030: e9f9 3fbe 1b92 493d 5c27 babe 202b 11be
00000040: a6a1 14be 40e0 18be e7d2 4cbe d8d2 eabe
00000050: bb74 11bf de57 0cbf b1c7 00bf 5957 dbbd
00000060: 206e f43e 6313 9b3e 51b1 bbbd 22e2 ea3e
00000070: 7839 ca3d 1b97 a73e ea3c 753e 1743 243e
00000080: 8070 c63e c96e 153e b2c5 b03b 051d 49bd
00000090: f602 e33e 4fc3 233f 156a b73d ff9a fbbc
000000a0: 5f7e ad3e 62b2 7b3e 1072 e7be 5445 8fbe
000000b0: e75f 883d 739b 1a3d b47f fa3c a63f 06be
000000c0: a094 633c 363d be3c 9b7f abbd cedf f3be
000000d0: 677d 6abe 8d6f 8a3d a884 11bd cc60 36bd
000000e0: b8c0 12be 6c5e 18be 1ba1 1dbc 1c86 273e
000000f0: 2fff 8c3d 2513 92be 9e03 393c 4e38 8abe
00000100: d560 e5bd 03a3 ebbd c937 063e fb4e c2bd
00000110: 2765 c93c 7285 47bc 173d c6bc 52ba be3b
00000120: 3f68 a3be f6e0 91be c1e9 93bc b2e3 78bc
00000130: 329b 2ebe 658e 63be 27d7 1ebe f469 4cbe
00000140: f905 9d3c 79f3 bc3e 2937 64be 89ef 1abe
00000150: 008b 1d3e a4a6 9bbe 6437 7ebe f855 b9bd
00000160: 980b 5c3c 0a45 09be 9675 c33e 1948 08be
00000170: c991 023e 28ed e53d 255e f53d 760f a4be
00000180: 03cb 9e3e 14b4 863d 8f34 a03d 7604 18be
00000190: d408 94be 71ff 073c 5d0e 223d 558f a8be
000001a0: 597d 64bf 7519 ffbe 59ff 54be 2bc1 a5be
000001b0: c62f bfbd 6b61 83be a57c 0cbf bf93 85be
000001c0: ce27 2fbf e7b2 88bd 996d 48be f01d 04bf
000001d0: d9cb 84be 0f2e 59bf 3f1c 11bf 037e 653e
000001e0: ef9b 57be bc3e 92bb 87f3 25be a97a ddbd
000001f0: 5d57 2e3e d5cf 9dbe 69a1 f63d 8736 643d
00000200: 3c30 06bf 7605 f9bb 7463 48be 2f28 40be
00000210: 435f 2dbe 5068 02bd 82af edbe 4416 f5be
00000220: 4f73 9bbc ec70 bcbe 5136 f93d 8696 683e
00000230: e6f0 87be f92d 46be 7e82 8ebe 652c 87bd
00000240: ef0f 013e c2b9 233e fd08 d6bd e4c6 1e3a
00000250: 52be 633e 5ff5 863e 512c 8a3c fc84 9f3e
00000260: 2369 81be 1948 cd3e d144 d6bd 27c1 37bd
00000270: cdb4 02be 0c70 b6be 61c1 abbe 136d c13d
00000280: 457b d63d e8d8 c0bd 358b dabe 8b3c 96bc
00000290: e9f3 1e3e 7600 973d 3e09 c5be 271e debb
000002a0: 797f 6a3e 86f1 583c 9a51 813e 0061 f73c
000002b0: bc1f 10bf aa0a 753e 413b 45be d9dc 77be
000002c0: 50bd 91bc 693f 143d f808 9d3e 3d03 59be
000002d0: 9e17 f7bd 8ea5 09bf 0131 8abe 86fb 99be
000002e0: 35b4 1abe 1666 c0be 0bd0 90bd 2df1 ecbe
000002f0: df51 8dbc db11 ddbe db26 38be 8f3e 02be
00000300: d8f0 e1bd cc9f 39be 2e6e a5be 1d8b febe
00000310: 0093 35bd 7545 1abe f551 ba3e 4caf 06be
00000320: 7f2a 813c 03b7 103e b8f0 99bd 0ba6 c5be
00000330: 8fcf eebe 13ec abbd 0a54 b2be 066d 98bd
00000340: 621f a1be 92f4 c1be 982e c3be ab5d 2f3d
00000350: b9be 643e 32a8 463e b4cc 9d3c d150 bc3c
00000360: 4e10 163e 0158 69be 27b1 a63d b67c 45be
00000370: a5bf 563c ae5c 743d 0505 483e ef03 95be
00000380: da22 983e 7638 3dbd fdb0 8a3d a03e 70be
00000390: c241 173e 895e acbe facc 5ebd fff1 64be
000003a0: 9ee5 833e 54ef 6e3d e4b1 4e3e af7a c43e
000003b0: 4b49 b83c d00a 7abd 4e01 053e 8d17 513e
000003c0: d94a 23be d1f4 f8bd d7d0 7b3e c04b 28be
000003d0: 20cb 613e f926 62bd 986e 0abd ef56 9d3a
000003e0: 595f d5bd f14c 28be 324b 753e a299 353f
000003f0: f970 40bd 4a42 763e 2628 1abe 34e6 17be

bias f4 [48]
0.30186462 0.014382605 0.018466089 -0.19589734 -0.29093644 -0.47482425 0.28431362 -0.20695622
-0.09503691 -0.23103125 0.09376921 0.42303926 -0.21969819 0.20627807 0.44973546 0.18977265
-0.3488802 0.35095453 -0.21876135 -0.14914097 0.084551856 -0.27463555 0.2082132 -0.27991754
-0.48245192 0.17400096 0.1932393 0.14587344 -0.3044352 -0.23921321 0.25894207 0.10140114
-0.22506388 0.104114324 0.18439686 0.08028848 -0.2542944 0.028847786 -0.039770972 0.08756481
-0.04729303 -0.26958278 0.20829321 -0.18479572 0.24429648 0.26741397 0.046569243 0.22003838
00000000: 008e 9a3e 05a5 6b3c 3246 973c 5099 48be
00000010: 9ff5 94be 2a1c f3be 8e91 913e 55ec 53be
00000020: b6a2 c2bd 7593 6cbe 120a c03d 9a98 d83e
00000030: 90f8 60be 8f3a 533e ba43 e63e c353 423e
00000040: 6da0 b2be 50b0 b33e fa02 60be 69b8 18be
00000050: 8629 ad3d 089d 8cbe d735 553e 5a51 8fbe
00000060: f003 f7be 4f2d 323e 86e0 453e d95f 153e
00000070: eede 9bbe 4ff4 74be 0e94 843e 67ab cf3d
00000080: 2577 66be e439 d53d 88d2 3c3e 496e a43d
00000090: e032 82be 3152 ec3c e3e6 22bd 2e55 b33d
000000a0: 56b6 41bd c106 8abe d14a 553e 173b 3dbe
000000b0: db28 7a3e 7cea 883e 64bf 3e3d be51 613e

weight f4 [64, 1344]
-0.08333663 -0.13186298 -0.31012538 0.08078673 0.23899952 -0.14595349 -0.15963168 -0.1839457
-0.21222098 -0.23040749 -0.07896588 -0.07379916 -0.1926625 -0.030654917 0.0040620603 0.15005204
0.10776392 -0.32000822 -0.16545402 -0.08601794 -0.1798957 0.061453424 -0.12599263 0.1892423
0.16958211 -0.2479274 0.11078723 0.114967875 0.20587946 0.18672378 0.09625073 0.24916059
0.09983967 -0.10094458 -0.07144489 0.19923083 0.117580935 0.018244656 0.19435908 0.01447649
-0.014098132 0.12059891 -0.2198356 0.10819182 0.01237476 0.14428638 -0.08794823 0.024715342
-0.13643289 -0.13809232 -0.36478642 0.34797117 0.071330376 -0.11026172 0.026984114 0.37932175
-0.02549274 0.03677196 -0.075000234 -0.029006053 -0.2947494 -0.019011486 -0.16520897 0.18180177
-0.12510419 -0.49604177 0.14317365 -0.19936012 -0.020418786 -0.07301823 0.22330178 0.4905661
0.102538146 0.042575154 0.24189809 0.31020185 0.16143975 0.0014932934 0.05055129 0.34559453
0.35544568 -0.19319196 -0.17453483 0.035820108 -0.48758063 0.20036474 0.2856233 0.24516991
-0.091907896 -0.0043800636 -0.0357777 -0.023914335 -0.38194394 -0.030315291 0.029035427 -0.35875726
-0.169349 0.16519979 0.22490278 0.062151022 0.03438464 0.4194829 0.18406677 0.08217755
-0.03480788 0.2953473 -0.12692787 -0.04652188 0.0025052945 0.13309133 0.11759187 0.28569585
-0.32027072 -0.16738582 -0.18944661 0.06160755 -0.02233835 0.045291208 -0.26782888 -0.03872364
-0.009305384 -0.046680707 -0.28240046 -0.14552827 0.09354122 0.015587635 -0.11250046 -0.13677558
-0.19438253 -0.087840274 -0.13962503 -0.12555538 -0.086419076 -0.09248622 0.08678091 -0.24173394
-0.1528607 -0.14872713 -0.24918012 -0.30599606 -0.28379178 -0.15386175 -0.09146025 0.18335749
-0.28130314 0.025931338 0.18186316 0.3354777 -0.18185088 -0.15237153 0.15120952 0.31096727
0.16708939 0.0064578955 0.23638384 -0.03146526 0.095837176 -0.18551095 0.23529148 -0.20807871
0.027828297 0.02915291 0.019873537 -0.24893384 -0.28801605 -0.034598872 -0.06909471 0.07405462
-0.36601412 -0.04485488 -0.21883324 -0.15810393 -0.20195767 0.025074238 -0.09586803 -0.1160743
-0.3826916 -0.08335246 -0.31684068 -0.317157 -0.094399616 -0.31989077 -0.17050073 -0.3420124
-0.324759 -0.13230325 -0.13473617 -0.33145547 -0.3664219 -0.08145236 -0.19403741 -0.68423206
-0.11646586 0.061489973 -0.12459163 -0.0140446415 -0.088478856 0.010217705 0.01833112 0.004400284
-0.013425578 -0.3172264 0.009874053 -0.25189477 0.24156849 -0.22126693 -0.18335445 0.028819617
0.017878994 -0.1306518 -0.19301805 0.011938002 0.1312929 -0.06379002 0.11008026 -0.026569793
0.085410394 -0.05694579 0.0003152084 -0.29730493 -0.16553909 0.05516468 0.014804898 0.23316573
0.24256693 0.1365211 -0.12044059 0.27667528 0.14840402 0.30138427 -0.0681133 -0.10968067
0.11825548 0.2099878 0.31767133 -0.34370992 0.33321303 0.0098521225 0.18214129 -0.17804383
0.30025992 -0.05646155 -0.0069469586 0.084091105 0.22272496 0.058413204 -0.052039407 0.14876178
0.08559804 0.10424144 0.17996506 -0.27807477 0.6232296 0.21735497 0.13143848 0.24214435
00000000: 65ac aabd 1707 07be c1c8 9ebe 8373 a53d
00000010: 4abc 743e d574 15be 7d76 23be 435c 3cbe
00000020: 7550 59be f1ef 6bbe ddb8 a1bd 0424 97bd
00000030: 5249 45be 0520 fbbc 081b 853b 3ea7 193e
00000040: 55b3 dc3d 1ed8 a3be c76c 29be 2c2a b0bd
00000050: 9436 38be 96b6 7b3d 3604 01be bcc8 413e
00000060: efa6 2d3e aee0 7dbe 6ae4 e23d 4774 eb3d
00000070: 11d2 523e 8534 3f3e 1a1f c53d f423 7f3e
00000080: be78 cc3d 08bc cebd b351 92bd 2b03 4c3e
00000090: 46ce f03d d175 953c 1106 473e cd2e 6d3c
000000a0: dafb 66bc 90fc f63d 951c 61be ac93 dd3d
000000b0: 81bf 4a3c cfbf 133e 341e b4bd d477 ca3c
000000c0: 10b5 0bbe 1368 0dbe 49c5 babe 4729 b23e
000000d0: a915 923d e6d0 e1bd ca0d dd3c 7636 c23e
000000e0: 27d6 d0bc 329e 163d b999 99bd 1a9e edbc
000000f0: 65e9 96be fabd 9bbc 8a2c 29be 3e2a 3a3e
00000100: 501b 00be 30f9 fdbe 1d9c 123e 0f25 4cbe
00000110: 4c45 a7bc 958a 95bd 39a9 643e 7b2b fb3e
00000120: 85ff d13d 4963 2e3d 22b4 773e c7d2 9e3e
00000130: 7650 253e 9dba c33a df0e 4f3d c4f1 b03e
00000140: fafc b53e 1dd4 45be 42b9 32be 1bb8 123d
00000150: 2ba4 f9be 6a2c 4d3e 383d 923e d20d 7b3e
00000160: 353a bcbd a386 8fbb a38b 12bd ffe7 c3bc
00000170: 288e c3be c657 f8bc b4db ed3c 08af b7be
00000180: d369 2dbe 222a 293e ea4c 663e 1292 7e3d
00000190: e9d6 0c3d 76c6 d63e 007c 3c3e b44c a83d
000001a0: b592 0ebd c337 973e 61f9 01be ba8d 3ebd
000001b0: de2f 243b 1849 083e 02d4 f03d ba46 923e
000001c0: 86fa a3be 3067 2bbe 4bfe 41be 3358 7c3d
000001d0: eafe b6bc 4683 393d de20 89be ae9c 1ebd
000001e0: 9c75 18bc 4534 3fbd cb96 90be 5d05 15be
000001f0: 8a92 bf3d 4863 7f3c a466 e6bd e60e 0cbe
00000200: 370c 47be 9ae5 b3bd ddf9 0ebe 9791 00be
00000210: 7cfc b0bd 6a69 bdbd 31ba b13d 1a89 77be
00000220: 8487 1cbe ed4b 18be 1329 7fbe 84ab 9cbe
00000230: 284d 91be ef8d 1dbe 834f bbbd 11c2 3b3e
00000240: f706 90be f56d d43c 563a 3a3e bcc3 ab3e
00000250: 1e37 3abe 4807 1cbe abd6 1a3e 1a37 9f3e
00000260: 7b19 2b3e c19c d33b 9b0e 723e b7e1 00bd
00000270: 4846 c43d 95f6 3dbe 40f0 703e 9612 55be
00000280: 2bf8 e33c 15d2 ee3c d4cd a23c 83e8 7ebe
00000290: d776 93be 8cb7 0dbd 8781 8dbd f3a9 973d
000002a0: 3466 bbbe c0b9 37bd d215 60be ffe5 21be
000002b0: fecd 4ebe 7d68 cd3c 7556 c4bd 5db8 edbd
000002c0: 27f0 c3be b2b4 aabd f138 a2be 6762 a2be
000002d0: 9654 c1bd b9c8 a3be be97 2ebe 401c afbe
000002e0: d046 a6be 817a 07be 47f8 09be 88b4 a9be
000002f0: a79b bbbe 7fd0 a6bd beb1 46be d529 2fbf
00000300: a785 eebd e9dc 7b3d e629 ffbd 7f1b 66bc
00000310: 6734 b5bd 2968 273c 252b 963c 4230 903b
00000320: f5f6 5bbc 806b a2be c8c6 213c 5af8 80be
00000330: bb5d 773e cc93 62be 45c1 3bbe 1e17 ec3c
00000340: f876 923c 96c9 05be 86a6 45be 9c97 433c
00000350: a571 063e 58a4 82bd c271 e13d e5a8 d9bc
00000360: a5eb ae3d fd3f 69bd 8e42 a539 5a38 98be
00000370: 1483 29be 5cf4 613d 3e90 723c ffc2 6e3e
00000380: 7763 783e 30cc 0b3e 8ea9 f6bd 62a8 8d3e
00000390: 39f7 173e 0a4f 9a3e fc7e 8bbd 42a0 e0bd
000003a0: ee2f f23d 0b07 573e d1a5 a23e bffa afbe
000003b0: e69a aa3e cc6a 213c 3f83 3a3e 1f51 36be
000003c0: abbb 993e 3a44 67bd 50a3 e3bb f537 ac3d
000003d0: 0312 643e af42 6f3d 4627 55bd 0255 183e
000003e0: 064e af3d 897c d53d c348 383e d15f 8ebe
000003f0: fa8b 1f3f 4d92 5e3e cf97 063e b0f4 773e

bias f4 [64]
-0.15924932 -0.2013225 0.16418488 -0.20958908 0.1637257 0.16243789 -0.14807056 0.40524474
0.23690657 0.33892795 -0.20039643 -0.05326649 0.25826618 -0.018864105 -0.05136684 -0.13628706
-0.21096553 -0.14544867 0.23080894 0.07023221 -0.14710575 -0.3922843 -0.2097756 0.009103226
-0.18205333 -0.09248199 -0.03513597 -0.052130766 0.19410168 0.026824497 0.25057885 0.24001478
-0.27541852 0.27676022 0.07086229 -0.20424731 -0.16862568 0.418464 -0.056413442 0.15080145
-0.1800994 -0.22963049 -0.13999256 -0.29805595 -0.34883007 0.19448009 -0.0720635 -0.23974077
0.2653175 -0.049345944 -0.16520494 0.2370057 -0.23054878 0.2744811 0.05260095 -0.4247103
0.07993745 -0.16706826 -0.062568 0.15085804 -0.07629065 -0.16553652 -0.10648467 0.07228144
00000000: 4112 23be 7c27 4ebe 1520 283e 859e 56be
00000010: b6a7 273e 1e56 263e cf9f 17be 3d7c cf3e
00000020: a397 723e f787 ad3e b934 4dbe f72d 5abd
00000030: 773b 843e e588 9abc 0966 52bd d68e 0bbe
00000040: 5907 58be 7ff0 14be 2e59 6c3e e8d5 8f3d
00000050: e4a2 16be 7dd9 c8be 6acf 56be b225 153c
00000060: 306c 3abe 3367 bdbd bcea 0fbd 1287 55bd
00000070: 97c2 463e 0cbf db3c df4b 803e 6fc6 753e
00000080: a803 8dbe 84b3 8d3e 4020 913d 3526 51be
00000090: 36ac 2cbe ea40 d63e c811 67bd b26b 1a3e
000000a0: fa6b 38be 4124 6bbe 365a 0fbe ca9a 98be
000000b0: db99 b2be ca25 473e 0796 93bd 9b7e 75be
000000c0: b2d7 873e f91e 4abd 7c2b 29be 9fb1 723e
000000d0: fb14 6cbe c988 8c3e 1874 573d a173 d9be
000000e0: 3fb6 a33d f113 2bbe a723 80bd 887a 1a3e
000000f0: 463e 9cbd 6882 29be a214 dabd 4b08 943d

weight f4 [25, 64]
-0.20678346 0.04057014 0.010050089 0.3015614 0.07027805 0.2868349 0.006237666 0.1942503
0.19991471 0.061802156 -0.08362547 -0.41770133 0.09758861 -0.18427329 -0.15368438 -0.13419037
-0.39211142 -0.284081 0.30638933 -0.05989718 -0.19560494 -0.4266604 0.13214251 -0.2917518
-0.18944223 -0.21258585 0.22358765 -0.32518005 0.1926388 0.48753998 -0.012394711 -0.30997127
-0.17783986 0.40253302 -0.18886802 0.17362651 -0.15364808 0.42447367 0.3524648 0.077527516
-0.22341214 -0.35702536 0.054167118 -0.3563967 -0.34755564 0.36451676 -0.2893287 0.15248941
0.23530772 -0.11616009 -0.04821414 0.27731374 -0.061754394 0.27808923 0.46167415 -0.24748942
0.21256787 -0.22296634 0.055975027 0.22684419 -0.26624072 0.14087617 0.28000376 0.2984247
-0.15416579 -0.016319977 0.35171077 0.077175125 -0.1711244 -0.07053331 -0.10018775 -0.06857669
-0.15607776 -0.35605618 -0.19623624 0.10125142 -0.25537926 -0.21285683 -0.2100214 0.095471725
0.38353163 -0.2767138 -0.010369048 -0.15593337 -0.020730488 -0.14354435 -0.27474302 0.32730773
-0.102796115 -0.013090157 0.36946034 0.17214116 -0.10855489 -0.074684456 -0.254941 0.15048248
0.011490748 0.2630947 0.2702298 0.16725384 0.1839454 0.20387584 0.10959539 -0.21209621
-0.31624928 0.023167638 0.036793433 -0.024214752 -0.29073027 0.27732572 0.33188656 -0.0915106
-0.011158314 -0.05186658 0.099568866 0.20643768 -0.17849009 0.07372596 -0.27565303 -0.12437218
-0.113961816 -0.17029917 0.16080345 -0.04944589 0.18570362 -0.12662432 -0.41137406 -0.04780712
-0.02938663 -0.26416767 0.41565803 -0.45419315 -0.19853845 -0.13644049 0.13005249 -0.21606599
0.28832242 0.11116014 -0.08935723 -0.062109213 0.15400158 -0.21272992 -0.30823722 -0.17069218
0.13882412 -0.054254204 -0.21885854 -0.46323863 -0.16148445 -0.38267073 -0.10762883 0.123797975
-0.0023604783 -0.22449383 0.42666978 -0.12022403 -0.20591752 0.102225944 0.37868324 0.04514304
-0.76180124 -0.31216356 0.15520084 0.20513226 -0.44086677 0.007139884 0.0162824 0.038906474
-0.27850074 -0.40443194 -0.014291658 0.07716005 -0.33053443 -0.45701978 -0.1430872 -0.09500438
0.3738746 0.1964125 -0.24194072 0.3790001 -0.06726393 0.25511238 -0.11127733 -0.24826694
0.09443083 -0.18175998 -0.0818195 0.15691596 -0.13237172 -0.09467783 0.010513565 -0.031502597
-0.08302913 0.046894588 0.14817423 0.14751026 0.1982021 0.23501326 -0.47890496 -0.11957006
-0.079424456 0.3395695 -0.124983445 -0.16444045 0.40445995 -0.3856289 -0.058847886 0.1228881
0.1997454 0.40703115 -0.04907378 0.22624521 -0.22252744 0.25640303 0.044523623 0.29584455
-0.23284675 0.033218876 -0.04956339 0.17264716 -0.34136724 -0.35119185 0.42264527 0.28556532
0.065005 -0.007221386 0.4407142 0.19135863 -0.031525988 0.12351375 0.2544008 -0.12423799
-0.13613255 0.034470387 -0.09292236 0.22048749 -0.35394406 0.05042571 -0.50977606 0.0959518
-0.038632948 0.23230009 0.16096345 0.2556655 0.13979101 0.15654378 0.41515124 0.05722418
-0.16175719 0.03646202 0.27235758 0.013913536 -0.172272 -0.19571194 0.26999477 -0.24861006
00000000: 0bbf 53be e02c 263d 21a9 243c 4166 9a3e
00000010: f0ed 8f3d 06dc 923e 5665 cc3b 8de9 463e
00000020: 71b6 4c3e 4224 7d3d d543 abbd f3dc d5be
00000030: 8adc c73d 23b2 3cbe 705f 1dbe 3369 09be
00000040: d4c2 c8be 1173 91be 10df 9c3e bf56 75bd
00000050: a94c 48be 3b73 dabe 5e50 073e 7e60 95be
00000060: 25fd 41be 1bb0 59be 29f4 643e 007e a6be
00000070: 1b43 453e d79e f93e 3013 4bbc 8eb4 9ebe
00000080: a71b 36be cf18 ce3e 9e66 41be 26cb 313e
00000090: ec55 1dbe 9d54 d93e 4476 b43e bfc6 9e3d
000000a0: 27c6 64be 07cc b6be 57de 5d3d a179 b6be
000000b0: d0f2 b1be f1a1 ba3e e422 94be 2f26 1c3e
000000c0: 82f4 703e 57e5 edbd 317c 45bd 11fc 8d3e
000000d0: 2df2 7cbd b661 8e3e 8e60 ec3e de6d 7dbe
000000e0: 64ab 593e 4a51 64be 1246 653d d849 683e
000000f0: b450 88be d841 103e a75c 8f3e 1fcb 983e
00000100: a3dd 1dbe 79b1 85bc 6f13 b43e fe0d 9e3d
00000110: 3c3b 2fbe c573 90bd 3c2f cdbd f071 8cbd
00000120: d9d2 1fbe ff4c b6be 27f2 48be e85c cf3d
00000130: 12c1 82be 24f7 59be da0f 57be ae86 c33d
00000140: 425e c43e 6ead 8dbe f1e2 29bc ffac 1fbe
00000150: fcd2 a9bc 4afd 12be 1eab 8cbe e194 a73e
00000160: c586 d2bd 1978 56bc e829 bd3e c645 303e
00000170: 0752 debd 2af4 98bd a087 82be 1418 1a3e
00000180: b143 3c3c 59b4 863e 8f5b 8a3e 9744 2b3e
00000190: 2f5c 3c3e d4c4 503e 8c73 e03d c02f 59be
000001a0: 6deb a1be 0fca bd3c b6b4 163d 045e c6bc
000001b0: 99da 94be a3fd 8d3e 09ed a93e e969 bbbd
000001c0: 5cd1 36bc 0d72 54bd c3ea cb3d 6664 533e
000001d0: 1bc6 36be a3fd 963d 6522 8dbe d7b6 febd
000001e0: d064 e9bd e862 2ebe a9a9 243e c687 4abd
000001f0: 1729 3e3e cea9 01be 9f9f d2be 66d1 43bd
00000200: 3bbc f0bc fc40 87be 21d1 d43e 018c e8be
00000210: aa4d 4bbe 0eb7 0bbe 7b2c 053e 6740 5dbe
00000220: ff9e 933e eda7 e33d ec00 b7bd 3b66 7ebd
00000230: 97b2 1d3e dfd5 59be 45d1 9dbe eec9 2ebe
00000240: e927 0e3e a839 5ebd 741c 60be 9d2d edbe
00000250: 2e5c 25be 6bed c3be 816c dcbd cb89 fd3d
00000260: 41b2 1abb b6e1 65be 7674 da3e 0438 f6bd
00000270: 0bdc 52be d65b d13d c5e2 c13e e9e7 383d
00000280: 6805 43bf e7d3 9fbe f8ec 1e3e 310e 523e
00000290: 4ab9 e1be b0f5 e93b ab62 853c 655c 1f3d
000002a0: a697 8ebe b411 cfbe 8f27 6abc 1706 9e3d
000002b0: cf3b a9be 7ffe e9be 7385 12be a891 c2bd
000002c0: 7e6c bf3e 5c20 493e 4fbf 77be 4d0c c23e
000002d0: acc1 89bd 179e 823e 5ee5 e3bd b039 7ebe
000002e0: f364 c13d 4a1f 3abe fb90 a7bd 94ae 203e
000002f0: 748c 07be 73e6 c1bd 1641 2c3c de08 01bd
00000300: 2d0b aabd 8a14 403d fcba 173e ee0c 173e
00000310: 7ef5 4a3e 51a7 703e 0833 f5be 26e1 f4bd
00000320: 4aa9 a2bd 0edc ad3e 52f7 ffbd 1463 28be
00000330: 6015 cf3e 2771 c5be 7b0a 71bd c2ac fb3d
00000340: 0f8a 4c3e 6366 d03e 9701 49bd d3ac 673e
00000350: 3cde 63be 4247 833e 675e 363d f078 973e
00000360: 616f 6ebe 8410 083d fb02 4bbd 6bca 303e
00000370: b0c7 aebe 6bcf b3be f664 d83e 9e35 923e
00000380: 5721 853d 60a1 ecbb 4ba5 e13e 84f3 433e
00000390: 6521 01bd c7f4 fc3d d240 823e 7d70 febd
000003a0: 5566 0bbe d230 0d3d 144e bebd 79c7 613e
000003b0: 2838 b5be 308b 4e3d af80 02bf 6182 c43d
000003c0: 953d 1ebd 13e0 6d3e 9ad3 243e 97e6 823e
000003d0: 6025 0f3e 034d 203e b48e d43e e763 6a3d
000003e0: ada3 25be 3359 153d 7472 8b3e 9af5 633c
000003f0: 1268 30be b668 48be c13c 8a3e a393 7ebe

bias f4 [25]
0.26071548 0.5239093 0.46370015 0.22974634 -0.09605394 -0.19665489 0.43365988 0.2148339
0.10573756 0.030321516 0.015022338 0.2433581 0.1977437 -0.22322471 -0.1603968 0.11903063
0.2571609 -0.058233965 0.12585862 -0.15179624 0.42520532 -0.11499354 0.008247521 -0.5980307
-0.8428262
00000000: 807c 853e eb1e 063f 1b6a ed3e a042 6b3e
00000010: eeb7 c4bd e65f 49be ab08 de3e 6bfd 5b3e
00000020: ef8c d83d d464 f83c 4120 763c de32 793e
00000030: 537d 4a3e 0595 64be 0f3f 24be 55c6 f33d
00000040: 98aa 833e bd86 6ebd 15e1 003e 7970 1bbe
00000050: 83b4 d93e bc81 ebbd 9c20 073c 8a18 19bf
00000060: 75c3 57bf
