result/config1_main/preliminary_model0.pt (torch_old, 428387 bytes, 10 tensors)

weight f4 [12, 2, 192]
000000 d0 f3 d0 bc d8 a5 90 3d 82 c5 a7 3d b1 0d 9a 3d
       -0.025506884 0.07062882 0.081919685 0.07522143
000010 c7 1f a0 3d 0d 9c 32 bd e7 46 e3 3c 91 3b c4 3d
       0.07818561 -0.043605853 0.02774377 0.09581674
000020 38 73 96 3d 54 40 02 bc 0b 46 96 3a ef 50 6e 3d
       0.07346195 -0.007949907 0.0011464966 0.058182653
000030 37 59 de 3d ce 1f 79 3d bb 2f 97 3d 45 24 41 3d
       0.1085686 0.060821347 0.07382151 0.04715373
000040 a7 dc 83 3d 95 6b 22 3d b0 81 17 bd 89 9c a8 ba
       0.064385705 0.03965338 -0.036988914 -0.0012864034
000050 a7 85 65 3d e1 ac ac 3d 06 01 33 bd 31 a8 bd bd
       0.056035664 0.084314115 -0.043702148 -0.092605956
000060 91 bb 6b 3b cb 2f 12 bb ff d5 70 3d f7 73 27 3d
       0.0035969953 -0.002230632 0.058797833 0.040882077
000070 8b 1c d2 3c a4 03 54 bd 3b b2 8f bd 67 ec 19 3d
       0.025648376 -0.051761284 -0.07016417 0.037578966
000080 4f 63 5e 3b c8 b0 aa 3d 2d 14 05 3e 31 24 07 3c
       0.0033933704 0.083344996 0.12995978 0.008248375
000090 50 c9 40 3d a1 77 d2 bc ea e3 7c 3d 41 01 a6 3d
       0.047066987 -0.02569181 0.061740793 0.08105708
0000a0 33 f5 81 3d bf 7a 53 3c e9 52 28 3d 12 4c 28 3d
       0.06345596 0.012907683 0.041094694 0.04108817
0000b0 b9 c2 37 3d 31 c5 14 3c 05 1e 98 3c bf e0 a7 3c
       0.044863436 0.009080217 0.018569002 0.02049291
0000c0 21 0b 73 3d de 24 9d bd df 38 97 bd 50 e8 94 bd
       0.059336785 -0.076730475 -0.07383894 -0.072708726
0000d0 ba f6 a6 3c 92 c7 de 3c f0 fc 07 bd 76 6f bc 3a
       0.02038132 0.027194772 -0.033200204 0.001437648
0000e0 f4 53 ac bd 05 02 50 be 43 8e c3 bd de b9 36 bc
       -0.0841445 -0.2031327 -0.09548619 -0.011152713
0000f0 b3 e3 e6 bd f0 23 3a bd f4 dd 81 bd 39 64 00 be
       -0.11273899 -0.04544443 -0.06341162 -0.12538232
000100 6e c1 2b bd 99 7d a1 bd 94 5a 80 bd 55 7c 39 3c
       -0.041932516 -0.07885284 -0.062672764 0.011321147
000110 c9 3b 79 3c 1e e3 d7 bb 3d cf cf bd 13 3c c8 bc
       0.015212008 -0.006588354 -0.101469494 -0.024442708
000120 53 8a f7 bc 8f 89 ad 3d 12 35 53 bc bd 82 eb bd
       -0.030217325 0.08473503 -0.012891071 -0.11499546
000130 fa ad 8c bd 51 ca 1a bd 10 58 46 3d 39 0e d8 3b
       -0.06869121 -0.0377906 0.048423827 0.0065934923
000140 73 31 75 3d 43 32 8b 3c 92 1a 3c bd 9a c7 ab bd
       0.05986161 0.01699174 -0.045923777 -0.0838768
000150 12 62 11 3d e8 a4 51 3d a2 78 12 bb 6e b5 8e bd
       0.035493918 0.051182657 -0.0022349735 -0.06968199
000160 1e 20 eb bc f6 af a0 3d 08 9b 05 3d b0 93 ac bd
       -0.028701838 0.07846062 0.032618552 -0.08426607
000170 b0 90 92 bd fb cb 0d 3d da b5 a1 3d 55 38 b9 bc
       -0.07156503 0.03461836 0.078960136 -0.022609869
000180 14 4a 47 bd 49 86 d7 bd d8 e6 25 3d 1b ad 9f 3b
       -0.04865463 -0.1052366 0.040503353 0.0048729307
000190 b0 dc b7 bd 36 21 dd bd 4c 71 76 bd b2 22 e6 3c
       -0.0897764 -0.1079735 -0.060166642 0.028092716
0001a0 73 e2 36 3d a0 b6 e6 3d 14 b0 4c bc d8 14 d5 ba
       0.044649553 0.11265302 -0.012493152 -0.0016256822
0001b0 4b db 7c bb 28 10 49 bd ea 91 8e 3d a8 02 2c 3e
       -0.0038582857 -0.049087673 0.06961425 0.16797888
0001c0 9a 0d 4b 3d ec 33 5a 3c f6 99 5f 3b 35 34 11 3d
       0.04957352 0.013318043 0.0034118867 0.03545018
0001d0 ad 9f 4b 3d ae 32 f8 3d 46 28 9c 3d e5 ba 8e 3d
       0.049712826 0.121190414 0.07624869 0.06969241
0001e0 3e 72 bb 3d 38 5c 36 bd f5 e9 a5 3c 8f c8 25 3d
       0.09152649 -0.04452154 0.020253161 0.04047447
0001f0 85 e5 1d 3e bd 91 3b 3d db 4a 21 3d d6 47 7b bc
       0.15419586 0.045793284 0.03937803 -0.015336951
000200 64 27 7a 3d e1 43 76 3d d7 ba 8a 3d 02 69 5e bd
       0.061072722 0.060123328 0.06773918 -0.054299362
000210 41 7f b5 3c 97 3f 3b bc 1e a3 ba bd 35 35 84 3d
       0.022155406 -0.011428735 -0.091131434 0.06455461
000220 0a a7 88 3d be a7 35 bb f9 89 16 3d 4c 0b 0e bd
       0.06672485 -0.002771839 0.036752675 -0.034678742
000230 ff e7 80 3d 0d 3c 85 3d 94 e2 cb bc 6d a5 27 bb
       0.0629425 0.065055944 -0.024888314 -0.002558078
000240 ef 73 6b bc e9 57 87 bd 54 73 ad bc fb eb b4 3b
       -0.014370902 -0.066085644 -0.021173157 0.005521295
000250 01 b6 01 bd 16 89 92 3b 5b 98 54 bd 2a db 04 3d
       -0.031667713 0.0044719083 -0.05190311 0.032435574
000260 fc 96 76 3d 70 90 b0 3d d3 01 d3 3c 98 04 b2 bb
       0.060202584 0.08621299 0.025757706 -0.0054326765
000270 38 b5 ef 3a 86 50 e7 3c a3 ff 87 bd 99 f1 fb 3a
       0.001828826 0.028236639 -0.06640556 0.0019221782
000280 cf a8 07 3c ec 74 0d 3d 0e 1e 81 3d 40 81 7a bb
       0.008279993 0.034535334 0.063045606 -0.0038224012
000290 32 74 3f 3d 2e be 75 bc 67 90 6a bd 97 21 41 bd
       0.04674167 -0.014998956 -0.05726662 -0.047151174
0002a0 07 04 16 bd e5 59 3a 3c b6 2d 84 bd 34 53 bd bd
       -0.036624935 0.011373972 -0.06454031 -0.09244385
0002b0 db c2 2c 3d 97 85 29 3d 58 3d d9 bc b5 19 85 bd
       0.042178016 0.041387167 -0.026518509 -0.06499044
0002c0 6c 5e 0b be de 67 d6 bd 95 85 8e bb 0a ac 27 bd
       -0.13610238 -0.1046903 -0.0043494203 -0.040935554
0002d0 15 4a 80 bd 4d 8b d4 3c aa 44 a2 3b 21 f1 e7 bd
       -0.0626413 0.02594533 0.004952033 -0.113252886
0002e0 09 4a 22 bd e3 f4 5f bd 17 b3 2d 39 68 1a fb bc
       -0.039621387 -0.0546769 0.00016565282 -0.03065224
0002f0 fa bd 9f 3c 47 a6 c5 ba e6 14 f0 bc ee f3 52 bc
       0.019499768 -0.0015079462 -0.02930684 -0.01287554
000300 ed d5 88 3d 7f 34 99 bc dc 76 ef bc e4 fe 1f bd
       0.06681428 -0.01870179 -0.029231481 -0.039061442
000310 8f a7 15 bd df a2 45 bd 34 7d 63 bd 1d ae 7c bd
       -0.03653675 -0.04825103 -0.055539325 -0.061689485
000320 d1 2f dd bc 9e 1d d9 bd 4f ec c5 bd fb ea 3d bd
       -0.02700034 -0.10601352 -0.09664213 -0.046366673
000330 07 46 31 3d 3d bd e3 38 8c fd 70 bc f0 81 4f bd
       0.043279674 0.00010859452 -0.014708888 -0.050661027
000340 32 1a 12 be fa 25 74 3d 01 54 ef 3d c2 58 86 3d
       -0.14267805 0.05960653 0.11685944 0.06559898
000350 cd bf 2c bd 69 d7 ea 3d 78 ba 0f 3c 3a 8d 8b bc
       -0.042175103 0.114668675 0.008772485 -0.017035116
000360 2b e1 88 3c 93 a1 65 3d 9e 75 97 3d 4c 14 81 3d
       0.016708931 0.056062292 0.073954806 0.063026994
000370 43 70 ba 3d d6 2c 9c bc 08 95 95 3c 06 1b 35 bb
       0.091034435 -0.019064348 0.01825954 -0.0027634515
000380 f8 46 e2 3d 76 4d 3c 3d ee 74 46 3d ee 8b 8e 3d
       0.110486925 0.04597231 0.048451357 0.06960283
000390 d6 2b 9d 3d b0 fe db 3d 64 c0 d9 3d b2 ff 47 3d
       0.07674377 0.10741937 0.10632399 0.048827834
0003a0 13 58 cc 3d 40 fb 88 bd 74 5a bf 3c 6a 43 b1 3d
       0.09977736 -0.06688547 0.023358561 0.08655436
0003b0 c6 24 24 3e cb 0e f6 3d 5d 00 d3 bd bc ba d5 3c
       0.16029653 0.1201454 -0.10302804 0.026090018
0003c0 a2 03 e2 3c 5b c4 7a bd b1 16 8a bd 08 cc c1 3d
       0.027589623 -0.061222415 -0.06742609 0.09462744
0003d0 2d b3 50 3d 31 fb 32 3d 7e 9f cd 3d d9 84 be 3d
       0.050952125 0.043696586 0.10040186 0.093026824
0003e0 22 cf 37 bd 7c e4 ee bd bb 6d a0 3b c0 57 04 3e
       -0.04487527 -0.11664674 0.0048958934 0.12924099
0003f0 a8 35 fb 3c 7d ca b4 bb 51 7d 8d bd 94 e6 73 be
       0.030665234 -0.0055173025 -0.06908668 -0.23818427

bias f4 [12]
000000 3f cc 6e bd 87 61 a2 bd 8c 49 c9 bd e6 cf fb bd
       -0.058300253 -0.07928758 -0.09828481 -0.12295513
000010 da 5a 5d bd 56 79 b6 bd bc 27 2b bd f5 17 ae bd
       -0.05404172 -0.08909862 -0.04178594 -0.08500663
000020 f8 2b de bd 25 ff d6 bd fc ac 93 bc 44 82 2c bd
       -0.1084823 -0.10497884 -0.018026821 -0.04211642

weight f4 [24, 12, 16]
000000 3d 85 df bd c0 10 80 bd a6 bd a7 3c eb bd 69 3c
       -0.10914085 -0.06253195 0.020476174 0.014266471
000010 5e 31 bf bd a2 5a 8d bd e6 ed 64 3d 8e 49 dc 3d
       -0.09335588 -0.069020525 0.05589094 0.10756217
000020 5c c8 ce bd 02 0b 9f 3d 90 64 a7 bd 66 32 f8 3c
       -0.10096809 0.077657714 -0.08173478 0.03029747
000030 9f 91 8f bd 4f 05 bc bd bc 79 ab 3d 82 3f 9d bd
       -0.07010197 -0.091807 0.08372828 -0.07678129
000040 f4 8d c0 3b 1e 83 b3 3d c8 f8 ab 3d 57 26 a6 3b
       0.005876297 0.08765243 0.08397061 0.0050704884
000050 fb e9 2f 3d 90 5c 6a bd 37 94 09 bc 92 32 13 3e
       0.04294775 -0.05721718 -0.008397154 0.1437476
000060 f8 66 49 3d c1 6f 09 3e d1 45 6e 3c eb 3d cc 3d
       0.049170464 0.13421537 0.014543013 0.099727474
000070 ac cc c1 bd ed 38 d0 bc 87 d6 fb bc 59 a7 09 3d
       -0.09462866 -0.02541777 -0.030741943 0.03360686
000080 2f d4 a3 bb a6 6f 55 bc cc b8 80 bc d7 e9 32 3d
       -0.0049996595 -0.013027107 -0.015713118 0.04368004
000090 5c 96 36 3d f6 d8 0d 3d 4a 1d b2 bd da f5 7d bd
       0.044576988 0.03463074 -0.08696993 -0.06200204
0000a0 e5 c8 a4 bc f6 fb 94 3d 5f e4 85 3c d2 7c 21 3d
       -0.020115325 0.0727462 0.016344247 0.03942568
0000b0 a7 9c 3a bd 71 50 d9 3b ed 8d fe bc 35 67 4f bd
       -0.04555955 0.006631904 -0.031073535 -0.050635535
0000c0 5f da cd bc d9 9f ec 3c 54 75 9d 3c 85 bc 24 bd
       -0.025128542 0.028884815 0.019220985 -0.04021885
0000d0 e2 58 6c ba c1 5c cc 3c cb 64 10 be ab 42 96 bd
       -0.000901593 0.024946572 -0.1410095 -0.07336935
0000e0 b6 46 a6 3b 42 b4 a4 bd b4 89 4f bd 8f b8 19 bd
       0.0050743474 -0.08042194 -0.050668433 -0.037529524
0000f0 f1 33 d4 3d d0 01 0a bd 20 23 af bd 3a c0 2c bd
       0.103614695 -0.033693135 -0.085516214 -0.04217551
000100 cb 60 83 bd 52 58 fc bd d6 42 96 3d 7b ab 8f bc
       -0.06414946 -0.12321533 0.07336967 -0.017537823
000110 8e 25 6d 3d a0 2b 8e 3d 17 14 4d bc ff 1f ee 3d
       0.057897143 0.069419146 -0.012516997 0.116271965
000120 11 3b 10 bd 33 ab 11 3e 1a 96 a6 bd 17 85 a8 3d
       -0.03521258 0.14225464 -0.08134098 0.0822851
000130 02 60 b5 bd cf 93 79 bd b2 36 1a bd 41 17 ac bd
       -0.08856203 -0.060931977 -0.037649818 -0.08402873
000140 d0 86 a4 bc 2a d1 ad bd 16 3b e0 bd 37 46 89 bd
       -0.020083815 -0.084871605 -0.1094877 -0.067028455
000150 65 01 fe bc 06 ba d6 ba c9 f6 7f bb 54 ef 59 3d
       -0.031006524 -0.0016382344 -0.0039057008 0.053206757
000160 2f cc 9f bd 29 34 03 bd 4d 75 96 bd c8 42 f2 3d
       -0.07802617 -0.032032166 -0.07346592 0.11829144
000170 f6 26 17 3c 29 79 b0 bd d1 65 28 bd a3 62 2c bc
       0.009225598 -0.086168595 -0.041112725 -0.010521564
000180 10 76 8f bd 42 b2 1c 3c 8a 27 45 bd 55 e3 5c bd
       -0.070049405 0.009563984 -0.04813341 -0.05392774
000190 4c 24 05 3e 0a c4 af 3d 23 04 52 3d a7 75 ac 3d
       0.13002127 0.08582313 0.051273476 0.08420878
0001a0 a2 80 81 3d bb 92 14 3d 15 a7 62 3d 19 bf 06 3e
       0.06323363 0.036272746 0.055335123 0.13158835
0001b0 6c 07 c3 3c 69 95 a3 3d 13 23 b4 bd 83 d7 65 bd
       0.02380725 0.07987482 -0.087957524 -0.05611373
0001c0 82 7f f0 bd 07 d0 80 3c d6 8d 21 3c 50 c8 97 bd
       -0.1174307 0.015724195 0.0098604765 -0.074112535
0001d0 8d 20 d1 bb 83 ec fa 3c e3 17 8b 3c cc bc f6 3d
       -0.006382054 0.030630356 0.016979164 0.12047729
0001e0 ee f8 6c bd b7 af 14 3e 92 af 78 bd ca e8 30 3c
       -0.057854585 0.14520155 -0.060714312 0.010797689
0001f0 33 c0 70 bc 53 3d 42 bd 36 20 16 3d 16 38 0b be
       -0.014694261 -0.047421765 0.036651812 -0.13595614
000200 55 e2 b6 3c 01 0b 50 bd 05 6a b6 3d 33 dc 35 3d
       0.02232472 -0.050791744 0.0890694 0.04439945
000210 c7 b5 8c 3d 12 3b 99 3d 8c c6 2e bc 28 9f cd bc
       0.06870609 0.0748197 -0.010667454 -0.025100306
000220 44 fc 22 bd 2c c0 9c ba 68 38 fa bc 0b e3 e2 3b
       -0.03979136 -0.0011959127 -0.030544475 0.0069240383
000230 62 53 8d 3d cb a5 b5 bd 19 78 07 be 1b 98 cc 3c
       0.0690067 -0.08869513 -0.13229407 0.024974873
000240 79 00 01 bc fd 95 f2 bd 19 84 8b bd d6 90 00 bd
       -0.007873648 -0.11845014 -0.06812305 -0.031388126
000250 2f 90 20 bd 48 8b c5 bd e7 d6 6b 3d 6d ce bc 3d
       -0.039200004 -0.096457064 0.057577994 0.0921906
000260 4a df 4b bd b3 0d c9 bc e1 0a 91 bd 69 48 83 bd
       -0.049773492 -0.024542665 -0.07082153 -0.064102955
000270 ac e4 81 bd bc 66 91 bd b2 7c a3 bd 83 fc dd bb
       -0.06342444 -0.07099673 -0.07982768 -0.0067744865
000280 f0 ef 8d bd 50 e5 1b bd 43 00 9c 3c 3a 84 5a 3c
       -0.0693053 -0.038060486 0.019043094 0.013337189
000290 1d 93 12 3d 15 da ef bd b1 0d a5 bc 4f 88 3a bd
       0.03578483 -0.11711518 -0.02014813 -0.04554015
0002a0 c8 fa 58 bc ee 81 ea 3d a8 8f 7d bd 63 ae b8 bc
       -0.013243385 0.11450563 -0.06190458 -0.022544092
0002b0 b5 db 92 bd b5 ee 47 bd 2e f8 84 3c b2 a4 35 bd
       -0.07170812 -0.048811633 0.016231623 -0.04434652
0002c0 bd 26 b5 bd c0 aa d0 bc a8 2f 71 bd 5c a3 06 3a
       -0.08845279 -0.025472045 -0.05888334 0.0005136037
0002d0 f0 01 90 bd f2 c0 98 bd 6b b0 eb bb 29 69 4f bd
       -0.070316195 -0.074586764 -0.0071926615 -0.050637398
0002e0 e4 25 d3 bd f2 f6 82 3d c8 15 69 be 26 1a 15 3e
       -0.103099614 0.06394757 -0.22762215 0.14560756
0002f0 32 19 b0 bd 7f 31 92 bd 19 56 95 bd 4f 08 4c bc
       -0.085985556 -0.07138347 -0.072918124 -0.012453153
000300 1d c5 54 bd ca 77 df 3c db ab a2 bd e9 6f 9c bd
       -0.051945794 0.0272788 -0.07942935 -0.07638533
000310 2d 1d c6 3c ae cd c4 3d b6 98 e2 bd 8a 83 86 bd
       0.024183834 0.09609543 -0.110642835 -0.06568058
000320 94 8d 1f 3d b3 5e 95 3c c0 27 a6 bd e5 28 d9 3d
       0.03895338 0.018233633 -0.081130505 0.10603503
000330 fa cc 62 3d 73 1d df 3d 84 7d 99 bc 69 c7 4e bd
       0.055371262 0.10894289 -0.018736608 -0.05048314
000340 ec 13 af bc cd 4e 4b 3d d2 c5 21 bd 50 74 28 3d
       -0.021371804 0.049635697 -0.039495297 0.04112655
000350 ef f6 e5 bd 7d 00 5d 3c 41 19 3a bd bd 94 0a 3d
       -0.112287395 0.013488886 -0.04543424 0.033833254
000360 f4 67 91 bd 4f 0d fe 3c b3 0c 1e bd b6 f7 92 bd
       -0.070999056 0.031012205 -0.03858633 -0.07176153
000370 60 06 47 3d 67 e8 ce bb 10 f4 5e bc 80 9a c5 bc
       0.048590064 -0.0063143256 -0.013607994 -0.024121523
000380 06 5c 63 bc 11 77 b9 bc c8 22 73 3d 78 e3 53 bc
       -0.013876921 -0.022639783 0.05935934 -0.012932651
000390 0b e7 54 3d 28 91 2f bc 44 f1 86 3a 7c e8 c8 bc
       0.051978152 -0.01071576 0.0010295291 -0.02452492
0003a0 2f d3 ee bd ae 47 3b 3d b9 97 f8 bd 33 60 57 3c
       -0.11661374 0.045722656 -0.12138314 0.013145494
0003b0 d8 3c 8b bd 02 b9 50 bd 7b b2 3f bd ff 76 07 3d
       -0.067987144 -0.050957687 -0.04680107 0.033072468
0003c0 bc bc 66 bd e5 09 5b bc a3 83 ba bc 77 70 21 bd
       -0.056332335 -0.013369058 -0.022767847 -0.039413895
0003d0 17 e0 60 3d 6c 2f e6 bc 3c ec 34 3c d8 c0 c4 3c
       0.05490121 -0.028098784 0.011042651 0.024017736
0003e0 8c 9c 97 bc 84 2a 46 3d 9f 5a ec bd 13 7f d8 3c
       -0.018507265 0.04838039 -0.11540722 0.026427781
0003f0 04 07 8e bd 0a 64 56 bd 11 7e 9f bb 9f a2 80 bd
       -0.06934932 -0.0523415 -0.004867323 -0.062810175

bias f4 [24]
000000 11 af e6 bd 5c 97 43 bd 02 98 a8 bc 54 b7 eb 3d
       -0.1126386 -0.04775177 -0.020580295 0.115095764
000010 11 db 94 bb 8a 57 81 3d 45 6b 00 3d f7 53 94 bd
       -0.0045427163 0.06315525 0.0313523 -0.072425775
000020 23 c5 da bd 22 64 55 bc 89 c0 14 3d d3 bb 35 bd
       -0.10682132 -0.013024362 0.03631643 -0.044368576
000030 1b 09 33 bd a2 7f f4 3c fb 05 5d 3c a0 4e b7 bd
       -0.043709856 0.029846016 0.013490195 -0.089505434
000040 c1 99 08 bd 85 70 c4 3d 72 20 b2 3d c3 e5 c2 3d
       -0.033349756 0.09591774 0.08697595 0.0951648
000050 34 b4 3b bd f9 b8 cb bd 22 2b 86 bc aa 97 47 3d
       -0.045826152 -0.0994739 -0.01637799 0.048728622

weight f4 [48, 24, 6]
000000 33 79 e5 bc 54 06 a6 bd 8a 80 3b bd 9c 61 d3 bd
       -0.028011894 -0.08106676 -0.04577688 -0.10321352
000010 ae 1c 8c bd 94 b2 77 bc 0e df 0a be 1c 5e 4d bd
       -0.06841408 -0.01511826 -0.13561651 -0.050138578
000020 69 45 e7 bd de d8 0a be 6a 9e b3 bd 44 d2 28 bd
       -0.11292536 -0.13559291 -0.087704495 -0.04121615
000030 9a 31 08 bd 62 35 41 bd d9 e6 22 be c5 e8 04 be
       -0.03325043 -0.04717005 -0.15908374 -0.1297942
000040 1e 4a 0a be dc c8 22 be eb 38 ef bd 2c bf 12 be
       -0.13504836 -0.15896934 -0.11680778 -0.14330739
000050 f5 30 85 bd ea fc dd bd 78 fa e1 bd 10 4b 89 bd
       -0.065034784 -0.10839255 -0.11034101 -0.0670377
000060 60 0b 02 3e 42 ed df 3d 2a 25 6d 3c 1c 3c 25 3e
       0.12699652 0.10933925 0.014474193 0.16136211
000070 48 6e 5e 3c a2 13 5f 3d 8b d8 94 3d 8e 65 aa bc
       0.013576098 0.054462083 0.07267865 -0.020800378
000080 fa 0d cd 3d f1 dd 04 3e bd 4d a7 ba fb da 70 3d
       0.100124314 0.12975289 -0.0012764257 0.058802586
000090 a7 03 cd bb c1 68 b2 3d c1 70 8a 3d e4 28 4f 3b
       -0.006256539 0.087113865 0.06759787 0.0031610066
0000a0 3f a3 47 3d 69 c6 b1 3c 7c c5 d1 bd bc 39 cd bd
       0.048739668 0.021701055 -0.10242745 -0.100207776
0000b0 1e ab ea bb af f4 9d bc 5f 73 78 bd 14 4f 00 be
       -0.007161512 -0.019281713 -0.0606569 -0.12530166
0000c0 ca 23 58 be 21 25 84 bd 6d 4b 1d be a3 23 16 bc
       -0.21107402 -0.06452394 -0.15360804 -0.00916377
0000d0 9b e4 d0 bd 97 a3 26 be 33 64 80 3c 7c 54 b2 3d
       -0.10199853 -0.16273342 0.015672779 0.0870752
0000e0 46 85 d5 3d c6 f1 3d 3e 08 e3 b8 3d d2 74 d9 3d
       0.104258105 0.1854926 0.09027678 0.10617985
0000f0 ed 3c a1 bd 0e 14 4b bd c7 c4 bd 3c cb 6e 32 bd
       -0.07872949 -0.049579673 0.02316512 -0.04356269
000100 23 b9 58 3c ff 86 ec 3c f8 c9 0d 3d 7a 10 8d 3d
       0.013227734 0.028872965 0.03461644 0.06887908
000110 af 06 50 3d e6 01 2f 3d 2c ff 2a 3d 33 8f 2f bd
       0.050787624 0.04272642 0.041747257 -0.042861175
000120 1a 68 1b be a0 32 ad bd 82 6b 44 bd 37 88 81 bd
       -0.1517643 -0.084569216 -0.04795409 -0.06324809
000130 d0 6d f8 bd ce 77 f9 bd 39 3e e5 3c fe 5b e8 bb
       -0.1213032 -0.12181054 0.027983772 -0.0070910444
000140 94 91 24 bd e8 9c 0a 3d 37 10 40 bc bd 22 98 bc
       -0.040177897 0.033841044 -0.011722616 -0.018571252
000150 9f 7e 85 3d ee 2d 1f 3d 7b 93 9e 3d ae 4b 1f 3d
       0.06518292 0.03886216 0.077429734 0.038890533
000160 7b 23 00 3e 3a 91 4b bc ad 86 f8 3c 4b c4 07 bc
       0.12513535 -0.012424761 0.030337656 -0.008286546
000170 cd f4 e7 bd 59 66 ad bd b2 62 c2 bd 10 f1 ff bd
       -0.11325989 -0.08466787 -0.09491481 -0.12497151
000180 2f 72 76 bd af 3a 45 bd 16 8e 49 bd 46 1a 38 bd
       -0.060167488 -0.04815167 -0.04920777 -0.04494693
000190 00 11 63 bc 1f 42 98 3d 1b ff 21 3c 13 34 01 be
       -0.013859034 0.074344866 0.009887482 -0.12617521
0001a0 aa e0 0c be 00 1b fd bd 24 29 c5 bd ee 94 ac bd
       -0.13757578 -0.123586655 -0.096269876 -0.084268436
0001b0 97 bb 21 3c fe 65 85 bd 4e a3 3e bd 69 07 58 3d
       0.009871385 -0.06513594 -0.04654246 0.052741442
0001c0 c0 be 9e 3c c9 da c5 bc 4d f7 c6 bd 24 b8 1d be
       0.019378066 -0.024152176 -0.09715138 -0.15402275
0001d0 da d0 8f bd f3 f7 47 be 94 4a 43 be a0 af 26 be
       -0.07022257 -0.19528179 -0.19071418 -0.16277933
0001e0 75 6b 17 be cd 08 0f be 92 d3 aa bd ad 83 03 be
       -0.14787085 -0.13968201 -0.08341135 -0.12843199
0001f0 55 b5 a5 bd 68 25 ba bc d4 90 da 3b 91 b3 00 bd
       -0.08091227 -0.022722915 0.006670097 -0.031421248
000200 e0 25 da bd 1c 69 96 3c 61 5e 27 3d 65 1d c7 bd
       -0.10651755 0.018360667 0.04086149 -0.097224034
000210 2e 44 76 3d ef 3a 87 bd 15 2d 42 3d 6e 31 04 3c
       0.060123615 -0.066030376 0.047406275 0.008068426
000220 00 88 ca bc b1 bf bc 3b ea 1b eb 3c df 0f 3f 3d
       -0.024723053 0.005760156 0.028699834 0.046645995
000230 8f 90 25 bd 05 98 c2 bd 25 92 19 3d 91 b7 b7 bd
       -0.040421065 -0.09501652 0.03749289 -0.089705594
000240 f1 47 f2 3c f8 e6 8d 3d cc e4 78 3c 9b ca 84 bd
       0.02957532 0.069288194 0.015191268 -0.064839564
000250 6b 65 db bc 5c c0 b0 bc 65 f6 7b 3d 32 93 72 bd
       -0.026781758 -0.0215761 0.061514277 -0.059222408
000260 24 e8 92 3d a4 4e 30 bd 1e 87 22 3d 57 c3 9d 3d
       0.071731836 -0.043043748 0.03967964 0.07703274
000270 e6 39 60 3c ed 75 61 bc 13 cb e6 3c 6b aa df 3c
       0.013685679 -0.013761026 0.028173005 0.027302941
000280 d6 c9 07 3d 20 54 c1 bb 66 72 66 3d 93 81 30 3d
       0.03315147 -0.005899921 0.056261443 0.04309232
000290 a5 01 7e bd 75 5a 63 bd ad 4a 69 3d 7e 94 0c 3d
       -0.062013287 -0.05550619 0.056955982 0.0343213
0002a0 d8 22 87 3d c3 57 fe 3c 02 e2 02 3d 8b 24 16 bc
       0.06598443 0.031047707 0.03195382 -0.009163986
0002b0 e0 eb 89 bd ea e7 98 bc 11 90 d2 bd e1 88 cf bd
       -0.06734443 -0.018665273 -0.10281385 -0.101335295
0002c0 d7 0e ca bb a8 ad cb bd 66 31 de bb 55 4c 8c bc
       -0.00616632 -0.09945232 -0.006780791 -0.017126242
0002d0 78 51 88 bd 81 52 c7 bd ed cc 88 3c d0 66 a0 3b
       -0.06656164 -0.09732533 0.016699279 0.0048950687
0002e0 67 1a fa bb 27 6c ca bc a4 6b 06 3d 63 b5 f1 bd
       -0.007632542 -0.024709774 0.032817498 -0.11802175
0002f0 22 ac 3e 3b 38 00 09 be 3d 47 aa 3c 9a e4 a5 bd
       0.0029094298 -0.1337899 0.020785922 -0.08100243
000300 fc 05 a5 bc b9 24 50 bd 57 c3 89 bd 13 a9 8f bd
       -0.020144455 -0.05081627 -0.06726711 -0.0701467
000310 00 f9 05 3d 1a 7d e9 bd b6 8d 60 3d 0e 4d 22 bd
       0.032708168 -0.11400814 0.054822646 -0.039624266
000320 7a 65 63 bc 47 de 94 3d 7b 0d a6 bd 5b 4e 89 bc
       -0.013879174 0.072689585 -0.0810804 -0.016760996
000330 7b 7d b4 bd bf 7b 8f bd 79 f0 95 bc ae c2 91 3c
       -0.08812996 -0.070060246 -0.018303143 0.017793026
000340 c6 93 72 3b 12 1f 5a bd ba 14 02 bd 2d 5d b4 bc
       0.003701435 -0.053252287 -0.031758048 -0.022017086
000350 a8 5d ff ba 0f 44 3e 3d e4 b2 a9 bd 97 73 08 3d
       -0.0019482868 0.046451624 -0.08286074 0.03331336
000360 81 a6 0a bd 96 4a af bd 00 3a 44 3c a1 1a 44 bd
       -0.033850197 -0.08559148 0.011976719 -0.047876958
000370 7a 19 ce 3c 8c 86 44 3c 5d 78 13 bc e3 50 23 3d
       0.025158633 0.011994969 -0.009000865 0.03987206
000380 08 76 ec 3c 46 75 34 bc 63 00 b3 bd 11 3c 06 3d
       0.028864875 -0.011014288 -0.08740308 0.032772128
000390 46 b4 f3 bd 8d bb 88 3d a1 f9 d4 39 53 9b 59 3b
       -0.11899619 0.066763975 0.0004062178 0.0033204153
0003a0 b8 cc 3c 3d 85 e4 50 bd b4 05 cf bc 77 d9 d9 3b
       0.046093673 -0.050999183 -0.025271274 0.0066482383
0003b0 0f b7 83 bd e2 ee 0b 3d 90 c5 d1 bd 4a f2 83 bc
       -0.064314 0.034163363 -0.1024276 -0.016106743
0003c0 89 b8 5d 3d 89 f9 1c 3d 57 4c dd bc 50 3b 7d 3d
       0.054131065 0.038323913 -0.02701394 0.061824143
0003d0 85 7b 8c bd c4 60 8b bd e7 17 84 ba be 30 49 bd
       -0.06859497 -0.06805566 -0.0010077924 -0.04911875
0003e0 10 3b 82 bd ce de 9f bb d4 f1 37 3d be e9 56 3c
       -0.063589215 -0.0048788553 0.04490836 0.013117252
0003f0 73 50 81 bc 88 98 26 3d 4d 37 5e bd 60 c3 17 bd
       -0.015785431 0.04067281 -0.054251958 -0.03705156

bias f4 [48]
000000 e0 bf e2 3d de 6d 12 3d c2 8a 9b bd cf 6c b7 bd
       0.110717535 0.03574931 -0.07594825 -0.089563005
000010 35 99 24 ba 32 ea b3 bd 05 2e fd 3d df a6 98 bd
       -0.0006278933 -0.087849036 0.12362293 -0.07453703
000020 40 32 0b bd 01 c9 af bc cd d3 8e 3d b6 28 24 3d
       -0.03398347 -0.02145815 0.069739915 0.040077887
000030 86 dd c5 bd 4c 8f c3 3d 9b a1 a1 3d 52 88 80 3d
       -0.09661393 0.09548816 0.07892152 0.06276001
000040 35 3a 2a bd 51 47 d6 3d 7a ac c6 bd 2f 87 9c 3c
       -0.041559417 0.10462821 -0.09700866 0.01910743
000050 cf 35 3a bd bd 9f 90 bd d6 ba 72 3d 19 4f 4d bd
       -0.045461472 -0.07061718 0.059260212 -0.05012426
000060 03 60 ce bd 08 98 e6 3c b6 ff c7 bd c3 fc 9f 3d
       -0.100769065 0.028148666 -0.0976557 0.07811882
000070 72 b8 e7 bd 84 d2 ae bd a1 ba 86 3d 71 ef e9 3d
       -0.11314477 -0.085362464 0.065785654 0.11422623
000080 b0 aa a0 bd 74 a2 df 3d 94 f9 01 3e 1f 60 36 bd
       -0.07845056 0.10919657 0.12692863 -0.044525262
000090 29 4b b4 bd 61 ea 2f bd f3 f8 e8 3d b1 f0 36 3d
       -0.08803398 -0.04294813 0.11375608 0.044663135
0000a0 d1 47 7e 3c 11 d3 fa bd f6 36 4d 3d 95 42 62 bd
       0.015520052 -0.12247289 0.050101243 -0.05523928
0000b0 06 47 74 3d ad a8 99 3d df 56 04 3e e6 85 52 bb
       0.059638046 0.075028755 0.12923764 -0.0032123267

weight f4 [64, 1344]
000000 de 7c 69 bd 50 d7 db bc e7 9e 53 bd 66 a3 e5 bb
       -0.05700385 -0.026836067 -0.051665213 -0.007008004
000010 a6 3a cf bc 7b 16 1d bd 44 e4 a2 bc e6 2d a3 3b
       -0.02529652 -0.038351517 -0.019884236 0.0049798368
000020 0d c2 b3 bb 49 e6 19 3c 90 2c 16 bc f6 d9 69 3a
       -0.005485779 0.009393283 -0.009165898 0.00089207233
000030 ad f6 3b bc 47 a5 83 bc 67 65 02 bc d4 35 55 bc
       -0.011472386 -0.016070021 -0.0079587465 -0.013013322
000040 17 d8 f0 3b 6c e5 bb 3c 06 ae 40 3c 4c 0d b8 bc
       0.0073499787 0.022936545 0.01176024 -0.022467278
000050 90 61 b7 bc 00 d9 f7 3c e1 a0 d7 bb 22 f6 15 3d
       -0.022385389 0.03025484 -0.0065804576 0.036611684
000060 36 25 c8 3c 02 e1 00 3d df bd 23 3c c6 da 34 bc
       0.024431806 0.031464584 0.009993999 -0.011038488
000070 ea 08 2b bc cd 20 8a 3c 9f 78 1b bc 02 eb 65 bc
       -0.010439137 0.016861344 -0.0094892075 -0.014033081
000080 c1 91 20 3c 8b 9e bc 3c 56 f9 29 3c 58 2c bd ba
       0.009800375 0.023024818 0.010374388 -0.0014432771
000090 2d b0 21 3c 2f a1 1a 3d 40 7f d6 bc 82 b2 7a 3c
       0.009868664 0.037751373 -0.026183724 0.015301349
0000a0 57 e3 01 bc 3e ec ad ba b2 62 a5 3b cd a8 19 3d
       -0.007927737 -0.0013269258 0.005047166 0.037514497
0000b0 83 9e 1d 3c a4 9f 35 3d be 91 32 bc 7b 42 08 3b
       0.009620312 0.0443417 -0.010899005 0.0020791579
0000c0 3c 3d 4c 3c 2d 95 0f 3c 8f c7 57 bc f5 6b bb 3c
       0.012465771 0.008763594 -0.013170137 0.022878626
0000d0 16 9f 80 bc 10 65 b8 3b d0 25 14 3c f8 03 c3 3c
       -0.015700858 0.005627282 0.009042218 0.023805603
0000e0 65 44 ac 3c c1 21 00 bd 00 89 4a bd 84 a7 c2 bc
       0.021028707 -0.03128219 -0.04944706 -0.023761518
0000f0 e7 76 3f bd f6 fa 0e bd 49 b4 34 3c b1 08 6f bb
       -0.046744253 -0.034907304 0.011029311 -0.0036473686
000100 fb b9 0d bc f6 7b 4e bc 29 a4 85 bc ba 44 fa 38
       -0.008650298 -0.012602797 -0.01631363 0.0001193373
000110 8f e2 ac bc 53 af 99 bc 12 61 12 bd 53 1b d8 bc
       -0.021104125 -0.018760359 -0.035737105 -0.026380217
000120 5e 06 ee bc 89 55 2d 3c 36 de 93 bc eb 03 6b bc
       -0.02905577 0.010579475 -0.018050294 -0.014344196
000130 b9 87 df 3a 8c ce 3a 3c eb 50 fe 3b 6d 17 83 bc
       0.0017053998 0.011401784 0.007761111 -0.016002381
000140 6f 8a 8c bd f8 5e e9 3c ea 44 eb bc 12 f5 93 3c
       -0.068623416 0.028487667 -0.028719384 0.018061195
000150 d6 2c 93 bc 88 5e 1a bc b8 6c 14 3d 34 7a 0a 3d
       -0.017965715 -0.009421952 0.036236495 0.03380795
000160 df 84 2c bd 97 16 66 3d 94 0d 96 bc 84 96 72 bc
       -0.042118903 0.056173887 -0.018317021 -0.0148063935
000170 97 94 fd bc 7b 27 81 3b 99 b8 9c 3c ec 83 1b bd
       -0.030954642 0.003941474 0.019130992 -0.037967607
000180 d1 5e 04 bb 76 a6 00 bd 42 db 4c 3c 9b d9 65 bd
       -0.0020198117 -0.03140875 0.012503447 -0.056115728
000190 66 a7 51 3d 8b ff 00 bc 14 ff fb 3c 05 94 49 bd
       0.051185034 -0.007873426 0.03076128 -0.049213428
0001a0 ec 22 8f ba 17 21 3a 3d 5b 61 19 3d 27 93 8a bd
       -0.0010920442 0.045441713 0.03744636 -0.06766348
0001b0 3b 6d 2c bd 15 bf 0b 3b fb 74 c9 bd 1f ce e0 3c
       -0.042096358 0.002132361 -0.098367654 0.027442036
0001c0 a9 67 6a bc 41 8e 50 bc 39 1a a5 3c f2 01 19 3d
       -0.014306941 -0.0127292285 0.020154105 0.03735537
0001d0 05 fc 87 bc 5b b1 85 bd e9 bc 4d bd 63 7d 78 3c
       -0.016599664 -0.065279685 -0.050228987 0.015166613
0001e0 98 95 53 bd ed 8c 14 bd f2 58 df bc 61 6b 64 bc
       -0.051656336 -0.03626721 -0.027264092 -0.013941617
0001f0 3c a6 41 3c 1b d3 20 ba 17 fc 1e bd 74 3d 3a 3c
       0.0118194185 -0.0006134973 -0.03881463 0.011367191
000200 4a b0 fe bc cb ba 6e 3c 1d 20 1d bc c0 c7 96 3c
       -0.03108992 0.014570902 -0.009590176 0.018405795
000210 4a 5c b7 bc 75 af 0e 3c 32 21 e1 3c 2c 07 df bb
       -0.022382874 0.008708824 0.02748165 -0.006806275
000220 d7 b0 83 bb 94 6e 86 bc aa b6 87 bd cc e5 59 bc
       -0.0040188837 -0.01641015 -0.06626637 -0.013299417
000230 c8 ea 8a bc 5d c2 cf bc c8 79 84 bc 24 24 49 bb
       -0.016957656 -0.025361234 -0.016171351 -0.0030691708
000240 ec a0 13 bd 96 61 40 3c 61 5b b5 3b 34 89 21 bc
       -0.03604214 0.011742016 0.005534575 -0.009859372
000250 75 31 cb bb 5d 2e 9d 3c af e8 c1 bb ef 4e 1d 3c
       -0.006200964 0.019187147 -0.0059176306 0.009601339
000260 b7 2c e5 3c 38 85 3f 3d 7d 9c 1a 3c 6c 04 cc 3b
       0.027975423 0.046757907 0.009436724 0.006226113
000270 0b 52 c3 3c 1d 78 bd 3c f4 b2 c6 bb ee d2 b8 bc
       0.023842832 0.023128564 -0.0060638133 -0.022561517
000280 1f db 2e bc fb ed 02 3d 62 08 17 3d 68 59 01 3b
       -0.01067236 0.031965237 0.03687323 0.0019737128
000290 e5 9d 58 bd 91 e3 3b bd df 1f 11 bd e2 25 ce 3c
       -0.052884955 -0.04587132 -0.035430785 0.025164548
0002a0 fc ed 8b bc ec 9b 23 bd d5 74 f6 bc 03 d6 36 bd
       -0.017081253 -0.03994362 -0.030085007 -0.04463769
0002b0 c1 06 b4 bc 08 a0 19 3c a4 49 a8 bc 38 05 60 3b
       -0.021975877 0.009376533 -0.020542927 0.0034182798
0002c0 eb ff 9b 3c 9e 7f 86 3c 3e 2f 03 3d 2a e0 0d 3d
       0.01904293 0.016418274 0.032027476 0.034637608
0002d0 3e d8 aa bc 4f e0 c6 3c 88 06 bd 3c a1 a7 99 3b
       -0.020855065 0.02427688 0.023074403 0.0046891724
0002e0 1e 2d 84 bc f8 1c c1 3c d3 10 18 3d d5 43 0c 39
       -0.016134795 0.023573384 0.03712542 0.0001337671
0002f0 2a 74 ea bb 57 6f 05 3d a7 a6 21 3d ad 3a f4 3b
       -0.007154961 0.032576885 0.039465573 0.0074532838
000300 49 66 2e 3c 5a 39 ad 3c 18 5e 97 3c 47 ab bb 3c
       0.010644504 0.021145511 0.018477485 0.02290882
000310 c6 ac 9b bc 15 d7 09 3d 6f ea 85 bc b4 41 15 bd
       -0.019003283 0.033652384 -0.016347138 -0.036439613
000320 68 70 be 3b 03 fe e0 bc 25 b1 09 3c 87 fb 9c 3b
       0.0058117397 -0.027464872 0.008404051 0.0047907266
000330 74 6b a7 3c cf 74 fe bc b3 5b 9c bc 26 41 51 3c
       0.02043698 -0.031061558 -0.019086694 0.01277188
000340 d3 18 7a 3b 39 cc 90 bb b2 5c 97 bc 14 25 92 3c
       0.003816177 -0.0044188765 -0.018476818 0.017839946
000350 d0 e7 d5 3c 77 18 8b 3c 0f 59 02 3b 3a 65 dd 3b
       0.026111513 0.01697944 0.001988951 0.006756452
000360 05 2d cc bb 3c 5e 02 bd 3a d9 dd 3a fe 10 40 3b
       -0.0062309527 -0.03182815 0.00169257 0.0029307003
000370 c8 8f a6 3c 75 7d f0 bc 6b 57 a0 bc 12 fe 9d 3c
       0.020332232 -0.029356698 -0.019572934 0.01928619
000380 3c 6b 5d 3d 28 a0 01 bc a4 dc 41 3d 4d 1a 61 3d
       0.054057345 -0.007911719 0.04732956 0.054956723
000390 9d 4e b7 3c dd ed ee 3c a9 0e 84 3c b7 d0 77 3d
       0.022376353 0.029166156 0.016120272 0.06050178
0003a0 3b 28 3a 3d 03 7d e2 bb 7f 22 06 3c 19 7c 0d 3d
       0.045448523 -0.006911875 0.008186935 0.034542177
0003b0 1b 4c 60 3d 28 07 8b 3d de 56 33 3d 3f c1 69 3d
       0.05476008 0.06788474 0.043784015 0.05706906
0003c0 59 5e 1d 3d c8 90 e8 3c 01 38 94 3d fc b4 69 3d
       0.038420055 0.02838935 0.072372444 0.057057366
0003d0 9e 33 0b 3b 83 5c bb 3c 21 27 93 3d d8 7c 82 3d
       0.0021240483 0.022871261 0.071851976 0.06371468
0003e0 5e 35 7e 3d c3 51 18 3d f1 8e a5 3d db e5 b8 3d
       0.062062614 0.03718735 0.080839045 0.090282165
0003f0 78 6e ed 3d fa c2 4b 3d ca 2a 2a 3d a9 1d ae 3d
       0.11593336 0.04974649 0.041544713 0.08501751

bias f4 [64]
000000 a6 f4 40 bc ed 85 e8 bc ef 21 9a 3c 27 be 08 bd
       -0.011777079 -0.028384173 0.018815009 -0.03338447
000010 86 73 db bc 41 e1 3a bc 97 7c 57 bc cd 74 13 bc
       -0.026788484 -0.011406244 -0.013152263 -0.009000015
000020 e1 43 52 3d 81 fa c8 3d 60 d7 ba 3d 5f 04 33 bd
       0.051334266 0.09813405 0.09123111 -0.04370534
000030 11 0e c1 3d 5c e7 63 bc ee 46 42 bd 09 8c 5d 3c
       0.09426511 -0.013910141 -0.047430925 0.0135221565
000040 a2 53 52 3d 76 73 12 bc b9 ec c7 3b b2 89 f4 3a
       0.05134929 -0.008938661 0.0061012176 0.0018656759
000050 4d a3 54 bd 2f 58 e2 3b e3 da a3 3b 0c d6 33 bd
       -0.05191355 0.006907485 0.0050004586 -0.043905303
000060 bf 3e a1 bd 03 c9 6b 3d 96 0e 8e bd aa 21 4a 3d
       -0.07873296 0.057564747 -0.06936376 0.04934851
000070 7e 08 a8 bc c2 18 6a bd 01 9c 51 3c d3 8c 00 3c
       -0.020511862 -0.057152517 0.012793542 0.007846075
000080 c1 7d 8a bc ce 1e 10 bd 67 51 46 3c 84 32 1b 3c
       -0.016905667 -0.035185628 0.012104369 0.009472493
000090 85 25 d0 bd 60 f5 b5 3b c9 a7 6a 3a 19 d9 60 3d
       -0.10163406 0.0055529326 0.00089513935 0.05489454
0000a0 f0 4b 8a 3d 42 a8 26 3d 38 af 01 be b1 ff 8b bc
       0.06752765 0.040687807 -0.12664497 -0.017089697
0000b0 e9 f6 7c bd 0b 6c ca bc 05 c9 9c bc 1a 49 8d bc
       -0.06175891 -0.024709722 -0.019138822 -0.017246772
0000c0 cc 6f 82 3d 55 ec 06 3d 98 9d 5b bd 61 a1 8e 3d
       0.0636898 0.032940228 -0.05361709 0.06964374
0000d0 fc 50 45 3d 9c ed a1 3d 52 f7 de 3c 1d e4 92 bd
       0.048172936 0.079066485 0.02721754 -0.071724154
0000e0 eb 07 1e 3d 14 f5 9e bd b9 1d 92 bc 47 18 0e 3c
       0.03858177 -0.07761589 -0.017836438 0.00867278
0000f0 e6 6b 74 bd 37 96 b0 bc 0c e0 35 3d 52 10 4e bd
       -0.059673212 -0.021556003 0.04440312 -0.050308533

weight f4 [25, 64]
000000 68 7c fd bd fa 94 ad 3c 20 90 e0 bb 14 6e c1 3c
       -0.12377244 0.021189202 -0.0068531185 0.02361206
000010 26 90 b3 3d 82 46 e6 3d 36 62 33 3d ae e0 a5 bb
       0.087677285 0.11243917 0.043794833 -0.0050621843
000020 78 49 1e 3e b3 2f 52 bc c0 d5 15 bd 7c 5e 0e be
       0.15457714 -0.012828755 -0.0365808 -0.1390323
000030 28 c7 7e 3c 6b e8 77 bc 6d 6b d7 3c 1e 02 7d bc
       0.015550412 -0.015131096 0.026296342 -0.015442399
000040 29 27 3a be a7 23 ce bd ca cc 45 3d a7 5e 85 bd
       -0.18179001 -0.10065394 0.048291005 -0.06512194
000050 08 87 4c 3d 5c 95 3f be d5 30 c8 3d fa ad 30 be
       0.049933463 -0.1870932 0.09774939 -0.17253867
000060 37 06 97 bc e0 32 8d bd ac 3f a1 3d 8b d3 09 3c
       -0.01843558 -0.06894469 0.078734726 0.008412252
000070 08 33 3a 3e 76 b5 42 3e 94 8f f1 3c 79 7c b2 bd
       0.1818353 0.19014534 0.029487409 -0.087151475
000080 fb d0 19 bd c8 d5 d9 3d 40 8e 83 bd c4 61 9e bd
       -0.037552815 0.10636479 -0.064236164 -0.07733491
000090 3d f6 c1 bd b4 3f e6 3d 98 92 10 be 05 24 2c bd
       -0.09470794 0.11242619 -0.14118421 -0.04202654
0000a0 ea 0a 0b bd 05 91 0f be 45 7e 9d 3d ee ff 28 be
       -0.033945955 -0.14020164 0.076900996 -0.1650388
0000b0 5d 89 49 3b 19 c1 24 bc 7f 64 e2 bd bd e8 0a bc
       0.003075204 -0.010055804 -0.11054324 -0.008478341
0000c0 e1 78 76 3d 52 b2 51 3d e6 65 38 bc 2f dd 28 3d
       0.060173873 0.05119545 -0.011254763 0.041226562
0000d0 bd 0d a0 3d 68 10 1a 3e ca 72 2e 3e a5 bf de bd
       0.0781512 0.15045321 0.17035976 -0.10876397
0000e0 15 32 1a 3e 37 7e 91 bc 3a d0 25 bd 2c 9c 30 3d
       0.15058167 -0.01776038 -0.040481783 0.043117687
0000f0 54 17 49 bd 98 54 33 3d 12 59 98 3d 8b e4 83 3d
       -0.049094513 0.043781847 0.07438864 0.064400755
000100 b1 da e1 3c 93 ff 10 3d b9 f6 18 3e cc ff f3 3d
       0.0275701 0.035399985 0.14937867 0.11914024
000110 03 c8 17 be 39 68 80 bd 64 a0 f9 3c 70 da a5 bd
       -0.14822392 -0.06269879 0.030471988 -0.08098304
000120 8e e9 00 be f4 56 3d be 4a c7 c6 bd f4 bf d7 3d
       -0.12589094 -0.18490201 -0.0970598 0.10534659
000130 da fa 26 be 0c 5d 9f bd 2c 86 9f bc 26 9a 46 3d
       -0.1630663 -0.07781419 -0.019473158 0.04848685
000140 ab e8 29 3e 34 1f 51 bd fd 19 9f 3b fd 4d 9d bd
       0.16592662 -0.05105515 0.004855393 -0.07680891
000150 5f ff d0 3c 3c 90 a0 3d e8 f4 bc bd 5f 33 1a 3e
       0.025512395 0.078400105 -0.092264 0.15058659
000160 a6 c3 ea bc 5f cd c9 bb c2 c7 25 3e d8 dc aa 3c
       -0.028657746 -0.0061585153 0.16189483 0.02085726
000170 48 7c 8d bd 41 58 14 3c 1d c6 00 be 9c 61 62 bc
       -0.069084704 0.0090542445 -0.12575574 -0.013817217
000180 e8 30 db 3c 7e e2 bc 3c eb 8f e2 3c f0 fd c7 3d
       0.026756719 0.023057219 0.027656516 0.097652316
000190 95 a5 e3 3d c9 51 cb bb 59 90 9e 3d f4 e8 cb bd
       0.11115567 -0.006204818 0.07742376 -0.09956542
0001a0 e8 94 2c be 77 fc 2f 3d 18 bd 9f 3d 0e f4 ce 3d
       -0.16853678 0.04296538 0.07799739 0.101051435
0001b0 f8 94 a8 bd 6d 95 c5 3d 2c 77 04 3e 23 0a bb 3b
       -0.082315385 0.09647641 0.12936085 0.0057079955
0001c0 23 cd 8d bd 1b 96 0f bd 3c e7 cc 3d ab 44 82 3b
       -0.06923892 -0.03505526 0.10005042 0.003975471
0001d0 09 7d b2 bc 2d 73 0a bd 05 b6 e0 bd 21 81 b2 3d
       -0.021788137 -0.033801246 -0.109722175 0.08716036
0001e0 f9 c8 6a bd ca c3 2a 3d 68 96 a6 3d dc 3f 87 bd
       -0.05732057 0.041690625 0.081341565 -0.06603977
0001f0 0e 46 ee 3d c6 a9 8c 3c 36 23 35 be 83 3a c7 3b
       0.116344556 0.017170798 -0.17689213 0.006079973
000200 32 53 67 3d d4 d9 ea bd 7b 79 a7 3d 7a 24 21 be
       0.056475826 -0.11467329 0.081774674 -0.15736571
000210 f1 58 82 bd 66 2f 04 3d 8e d1 c7 3d 4e 27 eb bc
       -0.063646205 0.032271765 0.09756766 -0.028705265
000220 19 07 d1 3d a5 fe 42 3d ee 34 6a bc 4b 40 6a bc
       0.10206432 0.04760613 -0.014294846 -0.014297555
000230 98 4f dc 3d 72 f9 ef bc db 1f 76 bd d1 e1 03 bd
       0.10757369 -0.02929375 -0.060088973 -0.032197777
000240 a8 3b ad bd af b0 4d bb 90 b4 b4 bd 20 e8 dc bd
       -0.08458644 -0.003138583 -0.08823502 -0.10786462
000250 90 be a0 bd c3 2f a4 bd a5 96 03 3c 8b 3a 28 bd
       -0.07848847 -0.08016922 0.008031522 -0.041071456
000260 b1 e2 e0 3c 5a 0f 4d bd 04 26 99 3d fb a9 5f 3d
       0.027451845 -0.05006347 0.07477954 0.054605465
000270 fa ce 96 bd 20 f7 c7 3d 22 c2 c9 3d 87 46 33 bd
       -0.073636964 0.09763932 0.09851481 -0.043768432
000280 e8 ed 5a bd e8 3d 99 bd ce 45 b8 bb 86 ff 92 3d
       -0.05344954 -0.07482511 -0.0056235557 0.071776435
000290 b6 b8 20 be 0a 0e 37 bd c3 0a 63 3c e7 27 84 bd
       -0.15695462 -0.044691123 0.013857546 -0.06452923
0002a0 98 53 53 3d 30 d3 0b be b4 4c b5 3d 2d 1d 3e bd
       0.051593393 -0.1365478 0.088525206 -0.046414543
0002b0 34 16 11 3b ac 26 eb bd e6 ed a0 3d 1f db 13 be
       0.0022138478 -0.114819854 0.078578755 -0.14439057
0002c0 a7 0c 1f 3e b9 46 08 3d dc 82 4b 3b 85 cd e3 3d
       0.1553217 0.03327057 0.003105334 0.11123184
0002d0 0c 92 c5 3d f2 c5 a3 3d 24 fb 3c bc be ad 9d bd
       0.09646997 0.079967394 -0.011534486 -0.07699154
0002e0 70 1f 5d 3d d8 74 35 3c ff 9f 87 bd 13 b5 19 bd
       0.05398506 0.011075221 -0.06622314 -0.0375262
0002f0 7c 48 0a bd e7 a0 a1 3d ef be 9a 3d 1b 68 82 3d
       -0.033760533 0.07892018 0.07555949 0.06367513
000300 5e 33 16 3d 0c 26 89 3d 9d 5c b2 3c f0 68 c8 3d
       0.03667008 0.0669671 0.021772677 0.0978564
000310 53 41 89 3d f0 af c0 3d 5b 1a da bd dd 8a 1b bb
       0.06701913 0.094085574 -0.10649558 -0.0023733892
000320 4f bb 0c be 44 e6 ae bd b4 32 eb bd 2f 0d d3 3d
       -0.13743328 -0.085400134 -0.1148428 0.10305249
000330 a7 67 c5 3c dc 3e e4 bd 84 12 85 3c b1 bf a7 3c
       0.024097277 -0.11144802 0.01624418 0.020477148
000340 1a 1b c3 3d 6e 7b 04 3e d8 af 80 3d 5e 73 da 3c
       0.095266536 0.1293771 0.062835395 0.02666634
000350 f0 c2 54 bc 3e 65 85 3c 11 6c c8 bb 1e ee e4 3d
       -0.01298593 0.016283628 -0.006116398 0.1117823
000360 5a a8 64 bd 63 2f 68 bd 5a e7 09 3e 0d 84 b9 bc
       -0.055824615 -0.056685816 0.1346716 -0.022645975
000370 80 ba 08 be e2 aa e6 bd 62 9b 49 3d 41 70 3e bd
       -0.13352394 -0.11263062 0.04922045 -0.046493772
000380 30 49 af 39 4d c5 1a 3d c5 cf a5 3d 45 5d bd 3c
       0.0003343313 0.037785817 0.080962695 0.023115763
000390 82 87 13 3e a3 2c 97 3d 15 6c 05 3e 1d 7a f1 bd
       0.14407161 0.07381561 0.13029511 -0.117908694
0003a0 df 0c cb bd 18 2d 0c 3d 71 0c 08 3e 60 1a f2 3b
       -0.09914564 0.034222692 0.13285996 0.007388398
0003b0 53 47 06 be e5 e7 f9 3d 01 5b 88 bd cf 6b 15 bc
       -0.13113146 0.122024335 -0.066579826 -0.009119942
0003c0 5d 29 07 be 8f 74 de bc 2f 00 02 3e 05 44 ab 3d
       -0.13199373 -0.027155189 0.12695383 0.08362583
0003d0 07 23 f2 bc 66 86 1e bd ad 8a 14 3d a0 2d 09 3e
       -0.029557718 -0.03870239 0.036265064 0.13396311
0003e0 bb b3 b6 bd de fc dc 3d 26 21 92 3d 5d c2 ca 3b
       -0.089209996 0.10790418 0.07135229 0.0061877207
0003f0 9a ee 00 3e 69 f8 70 bd 3a e5 9f bc 08 2c 8e bd
       0.1259102 -0.058830652 -0.019518483 -0.06941992

bias f4 [25]
000000 61 b1 75 bd 05 88 c2 3b 82 07 14 3e ff ab da bd
       -0.059983615 0.005936625 0.14455989 -0.10677337
000010 df c1 7f bd a6 fb 7c 3d 71 24 9a 3d 25 95 fa 3d
       -0.06244075 0.06176343 0.07526482 0.12235478
000020 f8 e3 28 3e 3f 50 0b be 15 6f 7d bc a7 1b c5 3d
       0.16493213 -0.1360483 -0.015468379 0.09624415
000030 d3 72 0e 3e 2e 06 d3 bd 93 94 94 3c 3e 3f 3a 3d
       0.1391099 -0.10303913 0.018137252 0.04547047
000040 03 af c8 3d a4 43 d3 bd 4c c3 bb 3d 50 df b3 bc
       0.09799006 -0.10315636 0.09168109 -0.02195707
000050 09 d7 c4 3d f5 69 15 3e 44 86 32 3d 2b 27 15 bd
       0.09611327 0.145912 0.043585077 -0.036414307
000060 cc d8 a7 be
       -0.3278259
