result/config1_main/preliminary_model21.pt (torch_old, 428387 bytes, 10 tensors)

weight f4 [12, 2, 192]
00000000: 57a5 8fbe fa4a afbd c734 83bc d437 02be
00000010: 3647 0bbe 2841 38be 297e f2bd 6a02 483e
00000020: 59e6 9d3e d744 873c 0f26 a4be 2b02 6fbe
00000030: 87e1 943d d664 6e3e b7f7 083e 9517 82be
00000040: 1657 9a3e b082 953d 3a6a 4ebe 8c8d 87be
00000050: 078e fa3d f6b8 703e d251 96be 8d81 27be
00000060: eb9d 54be 8337 143d f130 a23e 4ecf 673e
00000070: b4ba 403e 01a2 81be a70d 90be ca2d 653d
00000080: 6489 a7bd fae3 563e 0afd b73d f2a4 ccbd
00000090: f704 d8bd 2157 29be d45d 363e e062 9b3e
000000a0: 22d5 f3bb c99d 333e 2a59 b93d 7a8c 68bd
000000b0: ac4d 0e3e 554a 353d 8357 9a3c 5188 c7be
000000c0: 8516 f13d d025 5ebd 1614 0cbe fea4 fe3d
000000d0: e0ba 6c3e 57d8 f63c e5d5 b9be cb6d b63a
000000e0: 42b7 17be 7ae9 5dbd 0564 c13d 2932 2b3e
000000f0: 1923 b2be f0aa bbbe c4e1 0a3e 5be9 84bd
00000100: 4464 cb3b fd4b 1ebe bf10 043e 94fd 17bd
00000110: 4644 883e 4f5f 6f3e 2e9a 8abe b74f efbd
00000120: 8855 8a3d 050b 823e 39bd 3fbd 6093 debd
00000130: 4863 7c3d af70 83bd 8289 04be d063 803d
00000140: d025 743e 2f76 233d 4a37 abbe 6fc1 9dbe
00000150: 322b b83d 59a3 2fbb 5108 413c 6821 633e
00000160: 0812 d53d 07b9 a23e 0c45 3ebd ceef 393a
00000170: b50c 8b3d 985a 203e 7206 623e 37c6 893d
00000180: 1b01 8dbd 0887 aebe 2ad1 3c3e 4376 853e
00000190: 9fa8 8a3c 5880 e03d f7a0 223e 0dac e7bd
000001a0: 7fab 31be 6057 933e 0f54 723e 3daa 25be
000001b0: 8b8b 8e3b ab18 01be 35b0 8bbe 2177 4c3e
000001c0: 79f8 913e a3de 103e 281b b83d 0cef c43d
000001d0: 8e16 723e 758e 573e 5c29 3a3e 4935 193d
000001e0: 5bbc e73d 992c ac3d d41a 153e e9b9 ab3e
000001f0: 0221 e93e a57e 043c 32f5 9ebd 764e 47be
00000200: f588 afbb 3a4c 303e 4c8d b43d f2a9 f23d
00000210: 9d6f 05bd 0f5f 24bd 2801 913d 19e2 bd3e
00000220: 789b 893e 8b9c c03d 789b 3d3d f5fe 3a3d
00000230: e2f6 773e bfa3 973e 998f 873e 840c 453e
00000240: 51f3 893d 825d 83bc c8a3 97bd beec 063e
00000250: cd87 0d3e e5bf fbbd 4ab4 07bd a05d 1f3e
00000260: d0c1 933d 177d 3b3e 376d 3d3e f7a1 3cbe
00000270: 0cb1 7cbd bcfb 06be bbe0 11be b9c5 0d3d
00000280: a462 e8bd d1cd 8f3e 4fd0 8a3e ddc7 073e
00000290: 5ae4 4c3e f504 cfbd da74 34bd fce3 223e
000002a0: 384a c63d 3352 b6bd 40f6 36be 2eee 243d
000002b0: 75f6 4cbe dd5f e7bb 16a6 1bbe 0f87 babe
000002c0: 0c8a a5be a4ca 39be 69bc 3e3d 4c96 40be
000002d0: 5ed3 a73d cd54 7b3e c388 02be c31e 06bf
000002e0: 5ddc 19be 6dc4 45be c3b2 10be c63e 84bd
000002f0: 54db 703d 66e0 0bbe e230 29be 0231 90be
00000300: 392d b6bc 9e20 153e 50c5 31be 542c e83c
00000310: 9937 1abd 9a4f 8bbd b49a 6fbe ed5b eb3d
00000320: b2a1 7f3e c85c 68bd f09a 75be bd4a e3be
00000330: 3bd1 38bd f924 753e c0f3 a83d b803 aebe
00000340: 5dd9 2bbd df8a 5f3e 8869 d7bd c617 cebd
00000350: c605 fbbd 79cd 4c3d 3b7a 17be b876 aebb
00000360: 47d3 e53d 1534 ccbc c633 403e a400 0dbd
00000370: 00fa ab3e 14c2 a33e d4d5 c73e 4b03 ef3e
00000380: 156a 093e b9ee c73d 2670 b33d befd 9f3e
00000390: c425 bf3e 02fd b73e 4919 c13e bfbd 3c3e
000003a0: c28b a23d 1d04 86be 8dbd 7bbd 7cd7 043e
000003b0: fabe e83e d17b 9e3d 5027 7bbe beb4 913d
000003c0: 2f7f 2e3d a12e b9bd f751 14bd 83f2 933e
000003d0: a1d6 c23d b492 683d 4de8 283e 78b2 fb3e
000003e0: 0283 62bc eafc 5cbe 8cec c3bd 798b 1b3f
000003f0: b04f 853e c3b7 7e3d 095a 833c 8428 19be
-0.28055832 -0.085592225 -0.016016377 -0.12716609 -0.13601384 -0.17993605 -0.118404694 0.19532171
0.30839804 0.016512318 -0.32060286 -0.23340671 0.072695784 0.23280653 0.13375746 -0.25408617
0.30144566 0.07300317 -0.2015771 -0.2647518 0.12234121 0.23508057 -0.293593 -0.16358013
-0.20763366 0.036185753 0.31677964 0.22637674 0.18821222 -0.25318912 -0.28135416 0.05595187
-0.08180502 0.20985404 0.0898381 -0.09992398 -0.10547822 -0.16537143 0.1780923 0.30348873
-0.007441179 0.17540659 0.0905021 -0.056774594 0.13896817 0.04426034 0.018840557 -0.3897119
0.117718734 -0.05423528 -0.13679537 0.124338135 0.23118162 0.030132456 -0.36296 0.0013918219
-0.14816001 -0.05417774 0.09442905 0.16718353 -0.34792402 -0.36653852 0.13562685 -0.064898215
0.006207021 -0.15458675 0.12897013 -0.037107065 0.26614588 0.23376201 -0.27070755 -0.11685126
0.06754595 0.25399032 -0.046811316 -0.10867953 0.06161812 -0.06417977 -0.1294308 0.06269038
0.2384255 0.03990763 -0.3344062 -0.3081164 0.08992614 -0.0026800244 0.011781768 0.22180712
0.1040383 0.3178179 -0.046452567 0.00070929236 0.06789533 0.15659559 0.22072771 0.067272596
-0.068849765 -0.34087396 0.18439165 0.2606679 0.016926108 0.1096198 0.15881716 -0.11312113
-0.17350577 0.287776 0.23664878 -0.16178222 0.004350131 -0.12607066 -0.27282873 0.19967319
0.28509882 0.14147429 0.08989555 0.09615907 0.23641416 0.21050437 0.1817984 0.037404332
0.11315223 0.08406944 0.14561015 0.33540276 0.45532995 0.008086835 -0.07761611 -0.19463524
-0.0053569027 0.17216578 0.08816013 0.11848821 -0.032577146 -0.040129717 0.07080299 0.3708656
0.26876426 0.09404858 0.046290845 0.045653302 0.24215272 0.29617116 0.26476744 0.19243056
0.06735862 -0.016035799 -0.07404286 0.13176247 0.13821335 -0.1229246 -0.03313092 0.15563059
0.07214701 0.18309437 0.18498693 -0.1842116 -0.061692283 -0.13181967 -0.14245884 0.03461239
-0.11346939 0.28086713 0.27112052 0.13259836 0.20008984 -0.10108367 -0.04405675 0.15907282
0.09682125 -0.08902397 -0.17867374 0.04026621 -0.20015891 -0.0070609883 -0.15200076 -0.36431167
-0.32331884 -0.18143708 0.0465664 -0.18807334 0.08194612 0.24544068 -0.12747483 -0.5239069
-0.15025468 -0.19313212 -0.14130692 -0.064572856 0.058802918 -0.1365982 -0.16522554 -0.2816239
-0.02223836 0.14563224 -0.17360425 0.02834145 -0.03765068 -0.06802292 -0.23398858 0.11492143
0.24964026 -0.056729108 -0.23984885 -0.44392958 -0.045121413 0.23939885 0.082496166 -0.33987212
-0.04195534 0.21830319 -0.10518175 -0.10063128 -0.122569606 0.05000064 -0.14792721 -0.005324211
0.112219386 -0.024927178 0.1876975 -0.03442444 0.33589172 0.31984007 0.39030325 0.466822
0.13419373 0.097623296 0.08761625 0.31248277 0.373335 0.35935217 0.37714604 0.18431757
0.07936813 -0.26175013 -0.061460067 0.12972826 0.45458204 0.0773846 -0.24526715 0.07114552
0.04260176 -0.09042097 -0.03621098 0.2889596 0.095135935 0.056780532 0.16494866 0.49159598
-0.01382518 -0.21580854 -0.09566602 0.60759693 0.2603736 0.062186968 0.016034143 -0.14956862

bias f4 [12]
00000000: 98cc 8dbe 3cce c8be bb8b 84be 3c22 f7be
00000010: 7a60 7cbe 78c6 93be d419 75be 5ad6 c1be
00000020: 8884 d9be 286d a5be 3fbb 84be 318d b1be
-0.27695155 -0.39219844 -0.25887856 -0.48268306 -0.24646178 -0.28862357 -0.23935634 -0.3785885
-0.42483926 -0.32309842 -0.25924107 -0.34678033

weight f4 [24, 12, 16]
00000000: 3938 adbd 0d23 a23c 0930 a4bd d828 fe3a
00000010: a6b9 a0be 478f a2be 7294 343e b719 b0bc
00000020: ffe9 3abe 6b11 7ebd ae95 33be c1b8 ecbd
00000030: 909f 82be e23b b6be 427c a23e 124c 0dbd
00000040: 543e 3abd a1d3 de3e 87ff 133f dfbc d1bd
00000050: e6db 8a3e f194 8a3d dc42 c4bc 282b 903e
00000060: 67be 5a3e a3e0 963e 35fd ec3d c985 9e3e
00000070: 0a9a 8cbe 2c81 a33d b6db 38be eb2d 503b
00000080: 02dc 7abd 739a 953c 9719 39be 233c 4fbe
00000090: c13e 8ebe 6920 db3d 65f7 e1bd 8b39 9cbe
000000a0: c9bb e7be 5a4e 013e afff 80be db6b a03c
000000b0: 3681 8c3d 2e06 2cbd ee2a 79bd 37a8 913d
000000c0: 88ea 0cbe f087 e43d 5551 223e e4d0 c03d
000000d0: c3d6 d73a 43c0 f0bd 065c 993d 0419 66bd
000000e0: 15bf 2d3e e792 3bbe 829e 14bc 03f3 823e
000000f0: d691 103e deb7 373d 1187 c13d bb95 2ebe
00000100: 86e7 9f3c 37b9 c53d 7443 87bd cd01 bd3c
00000110: 1f7a 1f3d ad94 30bd 80a5 813d a85c 333e
00000120: b477 0dbe 75cb 633e 6afc 6ebe 31d5 8cbe
00000130: 806c 9cbe 411a 44be 965b 6d3c 85b2 5ebe
00000140: a9bb 9e3d 4010 87bd 27fa edbe 1699 2bbe
00000150: a5b4 8fbe aae9 02bd 5a8a 80be 80e9 3abe
00000160: de95 87be 5296 90be 59d2 06bf 9526 0e3c
00000170: 538c 813c 56d5 28be e696 6fbe 9f64 9abd
00000180: e6ef 18be 2642 21be 9e98 1c3e 3708 b53d
00000190: 3402 a63e e9b6 053e b992 d73d 5219 593e
000001a0: 60de b03e abb6 4fbe c391 f03e 6fdc 513e
000001b0: 02d1 023e 6cd7 eb3d dd15 9bbe ca3c ab3c
000001c0: bdb0 c2be db23 523e 55f9 80bd 4873 6ebe
000001d0: 3ef2 873c ce02 2f3d bd0d 803e e6ca 723e
000001e0: 336e a1be 0c9d 9d3e e451 4dbc 2846 60be
000001f0: 87af c7bd c348 583d 79e3 b63c dfce 623d
00000200: f9c9 973e 990b f03d fb7e a03e 0dd1 da3e
00000210: c0df d13e 8589 aa3c 4aa9 823d b9b1 43bc
00000220: 5272 793e f225 903e 1d94 9f3d 4e23 8d3d
00000230: 0876 ad3d 809d a2bd 58fd 2abe 2c84 33be
00000240: 2fec dbbe 5a7b 0bbe 4e0f cebe 3c0f cfbe
00000250: 75b9 f83c d4f7 e73d 01a2 7abd 62da a83d
00000260: 785d 853c 218d 3bbd 80c1 1cbe 94c7 19be
00000270: c744 863d 621c 203e bea1 d53b 343e d33d
00000280: 8842 eebd c686 1bbe 7001 78be 30c6 433c
00000290: 6f28 ef3e aed8 33bf 587b e7bd c12e af3d
000002a0: 260c 0b3e a58e 5f3d 1fae 8dbe 4561 84be
000002b0: debc bebe b97c 9bbd 250b 96be f007 babd
000002c0: e764 65be 9721 d1bd 6568 90be 671f 03be
000002d0: dfe4 88be 204d fd3d 477f 203d 607c 58be
000002e0: 5a94 65be 0c00 813e 6b15 e7be 8113 913e
000002f0: 43ab 283b 5cde 81be 9091 78be c4fb 043e
00000300: 10f9 58bd 3918 133e 98cf 273d af70 39be
00000310: 9b8e 29be 8039 c53e acd9 eabd 9a55 04bf
00000320: 46e9 813e 7f52 1cbe 4f08 debe d82c 813e
00000330: 3da6 203d 2199 f4bc f227 45be 729e 023e
00000340: dcf2 afbe e6a4 5b3e 89d2 eaba 36ec 2e3e
00000350: 730e d5be 48d8 f73d d70a 353e e915 32bd
00000360: 4fa2 82bd d6eb 28bc 4d19 cebe d496 20be
00000370: 2434 c73a febb 813c 52fd 7b3d 155d b1bb
00000380: 2ddf 973d dce3 81bd f2a6 9dbe e38a 17bd
00000390: ec42 b7bd 647f 68bd f9bc 87bd f3e3 24be
000003a0: c13d e8bc ff0f 703e a00b 6c3d ba69 87be
000003b0: 57e9 8dbd 8ef0 1cbe e0c4 2f3e 70c2 2cbe
000003c0: 7c0c f73d 3199 57be eab8 5ebd 99ef 38bd
000003d0: e5d4 443e eab6 4c3d e73f 923d 442a 283d
000003e0: 0fe3 b3be 5aa2 223e f398 8dbd ef4f b8bd
000003f0: a6ce 63be 8013 f83d 936c c3bb 0bd2 85be
-0.08457989 0.019792104 -0.080169745 0.0019390834 -0.3139164 -0.31749937 0.17634752 -0.021496637
-0.18253325 -0.06202833 -0.17537567 -0.115586765 -0.25512362 -0.35592562 0.31735426 -0.034496374
-0.045469597 0.43520835 0.5781178 -0.102411024 0.27120894 0.067666896 -0.023957662 0.28157926
0.21361695 0.2946826 0.11571733 0.30961445 -0.27461272 0.07983622 -0.18052563 0.003176565
-0.061244972 0.018262124 -0.18076168 -0.20237784 -0.27782252 0.10699541 -0.11033515 -0.30512652
-0.45260456 0.12627545 -0.2519507 0.01958268 0.068605825 -0.04199808 -0.060831957 0.071121626
-0.13761342 0.111587405 0.15851338 0.09414843 0.0016467202 -0.11755421 0.07488255 -0.0561762
0.16967423 -0.18317758 -0.009070994 0.25576028 0.14118132 0.044853084 0.0944959 -0.17049305
0.019519579 0.096544676 -0.066046625 0.023072148 0.038934823 -0.04311054 0.06330395 0.17515814
-0.13815194 0.22245581 -0.23338476 -0.27506402 -0.3055153 -0.1915064 0.014487168 -0.21747787
0.07750637 -0.06594896 -0.46479914 -0.16757616 -0.28067508 -0.03196112 -0.25105554 -0.18253136
-0.26481527 -0.28239685 -0.52664715 0.008676191 0.015813982 -0.16487631 -0.23397407 -0.07538723
-0.14935264 -0.1574789 0.15292594 0.088394575 0.32423556 0.13058056 0.10526032 0.21201065
0.3454466 -0.20284526 0.46986207 0.20494245 0.12775043 0.11515698 -0.30290118 0.02090301
-0.38025466 0.2052149 -0.06297556 -0.23286164 0.016595002 0.042727284 0.2501048 0.23710212
-0.31529388 0.3078388 -0.012531731 -0.21901762 -0.09750276 0.052803766 0.022325264 0.05537307
0.2964628 0.11720962 0.31346878 0.42737618 0.4099102 0.020817528 0.063799456 -0.011944228
0.24360016 0.2815395 0.07791922 0.068914995 0.08469778 -0.07940197 -0.16698205 -0.17530888
-0.4295363 -0.13621274 -0.40246052 -0.4044131 0.03036187 0.11326566 -0.061189655 0.08244778
0.016279921 -0.045788888 -0.1530819 -0.1501754 0.06556087 0.15635827 0.0065195253 0.10314599
-0.116337836 -0.1518813 -0.24219298 0.011949107 0.46710536 -0.702525 -0.11302823 0.085538395
0.13578853 0.054579396 -0.27671906 -0.2585546 -0.3725347 -0.07592148 -0.29305378 -0.09083545
-0.22401772 -0.10211485 -0.28204647 -0.12804948 -0.26737115 0.12368226 0.03918388 -0.21141195
-0.22419873 0.25195348 -0.45133528 0.28335193 0.0025736846 -0.2536496 -0.24274278 0.12986666
-0.0529719 0.14364709 0.04096946 -0.18109392 -0.16558306 0.38520432 -0.11467299 -0.5169312
0.25373286 -0.15265845 -0.43365714 0.25229526 0.039221037 -0.029858174 -0.19253519 0.12755755
-0.34364974 0.21449623 -0.0017915528 0.17082295 -0.41612586 0.12101799 0.17679916 -0.043477926
-0.06378614 -0.010310134 -0.40253678 -0.15682536 0.0015198034 0.015836712 0.061520882 -0.0054127076
0.07415614 -0.06342289 -0.30791432 -0.036997687 -0.08948311 -0.056762114 -0.066278405 -0.1610258
-0.028349759 0.23443602 0.057628274 -0.2644785 -0.06929272 -0.1532614 0.17164946 -0.16871047
0.12062928 -0.21054532 -0.054375567 -0.045150373 0.19221838 0.049979128 0.07141095 0.041055933
-0.3513417 0.15882245 -0.069139384 -0.08999621 -0.22246799 0.12113094 -0.005963871 -0.26136813

bias f4 [24]
00000000: fea1 95bd e5c2 a3be 6010 39be ed0e 373e
00000010: 81ce 6f3d 3884 dc3d e648 25bd 3b56 74be
00000020: ee73 bebe 8352 923d 787e 9bbe 27fe 9a3c
00000030: 72f3 89be e2fd 32bc e82b 58bd 7f93 95be
00000040: 280d 67bd 7574 b6bc 8ff1 bf3e 1733 823e
00000050: 7298 c9bd e296 1fbe 1945 65be 265f 9f3d
-0.07306288 -0.3198463 -0.18072653 0.17876787 0.058546547 0.10767406 -0.040352724 -0.2386102
-0.37197822 0.07144644 -0.30369925 0.018920017 -0.26943547 -0.010924788 -0.052776247 -0.29214093
-0.05640903 -0.022272328 0.37488982 0.25429603 -0.0984353 -0.15584901 -0.2238964 0.0778182

weight f4 [48, 24, 6]
00000000: f3f4 4cbe 5254 abbd e1be 15bc b7f8 00be
00000010: cd59 16be 4b82 3d3e 2645 47be e221 0ebd
00000020: 46b8 b3bd c9f8 47be 5af3 09bd c487 773d
00000030: 0c87 6bbe a3d7 f23c 7393 bfbe e983 dbbd
00000040: b516 20be 3504 38be 0f1e 85be a7b8 d1be
00000050: 2862 1ebf feee 13bf 1c97 09bf 428b 90bd
00000060: a81c 0a3f 7bbe 963e 1607 7ebd 7a5e e73e
00000070: 3ce1 9e3d c540 c13e 514c 463e 0560 2c3e
00000080: 7c23 c83e c40a 213e a2bd aebb 96a4 7ebd
00000090: 0adf cb3e b86b 253f 1afd 5b3d aa7d 31bd
000000a0: 2a6c a93e 4846 583e 2496 c8be a657 8bbe
000000b0: 623f 0c3e a84c 8c3d 1d75 8a3d e3f8 3cbc
000000c0: cf84 433d 121c 433d ab1b 13be 5b8f f7be
000000d0: b326 58be 9f11 343d a8bd da39 51ec 66bd
000000e0: bf50 0fbe b001 3cbe f5de 6b3c 10ba 433e
000000f0: aa4f d83c 59f5 7cbe 7641 bf3b 3c8e 82be
00000100: d47d b5bd 41ea 46bd 1946 293e 9e18 03be
00000110: 7bd0 233d 89ce 143d 87cb 03bc 8688 103d
00000120: 9e0c 91be f147 9ebe 4a40 4a3d b97d 31bd
00000130: c244 45be 924b 11be 3871 2dbe d81a 40be
00000140: 8ef2 cf3d d8b3 cc3e 0561 63be 2f8f 24be
00000150: 4017 263e 6d67 bdbe 2d98 97be e10d abbd
00000160: 83be a03d 2b29 a2bd 0356 c13e c103 05be
00000170: 99d3 223e d9ec f73d 7d45 903d 20d6 aabe
00000180: 37c1 b03e 12c8 103e 0a2d 163e 4f99 37be
00000190: 9bf8 89be 1459 f53c efe1 7bbb c89c 9bbe
000001a0: 65c3 6bbf 794d f2be f76d 50be 7446 9ebe
000001b0: 115a 9ebd a058 22be 6c05 f3be e2d5 97be
000001c0: 5fe5 33bf ce9d bdbd 32c9 86be 070c 05bf
000001d0: 186e 7ebe 17f9 64bf a081 11bf 833c 653e
000001e0: 1c4a 19be 42af 2d3d 1543 fcbd aa9f 13be
000001f0: 90f6 5e3e bb66 afbe 2160 043e 4b52 6c3d
00000200: c5bd 08bf 63bb 2ebc 3f30 2fbe 978e 63be
00000210: c961 36be 4285 53bd 0e20 01bf 49c0 ecbe
00000220: ffea f63b fc19 c4be af60 1e3e 3074 6e3e
00000230: 410b 84be 0f7b 50be 1302 81be 815d 24bd
00000240: bce5 113e 04f7 263e 8f2f 95bd 1ae9 b4bc
00000250: f74a 6d3e dd9d 9a3e 76b2 413d 8645 9d3e
00000260: c852 70be e6c6 ba3e a2e9 05be e63d 73bd
00000270: f914 1abe 1301 c0be 5fa4 c3be c98a d33d
00000280: 3bf9 863d d076 6dbd 0620 fdbe 53a8 ae3c
00000290: 4e35 e63d 6304 b73d 0124 b7be 226e 193d
000002a0: 7390 813e c986 0b3d 55ce aa3e 181e c7bb
000002b0: 7b2c 11bf 4d35 283e ecc7 46be e0c4 63be
000002c0: efe3 bdbc 4df6 933d 88b0 933e 2e0d 59be
000002d0: 949b 0dbe 07ad 0abf 84a5 94be 5623 99be
000002e0: bb9c d9bd ff0d b0be e495 6cbd cd98 07bf
000002f0: a3c5 b93b c283 eebe 5aac 27be 1b7e 39be
00000300: 400e c9bd bb97 45be 071e 9ebe 1b6d 0ebf
00000310: a4d3 70bd cb93 0bbe ad33 b73e 0aad 1abe
00000320: d714 b93a 38be c93d a599 d9bd 64ff b2be
00000330: fcfa 0cbf ce56 fdbd 110e b6be 6703 45bd
00000340: 08ed a2be e86f bdbe efa4 d6be 12e3 babb
00000350: 8baa 8f3e 027f 3f3e 0364 8b3d d890 c4bc
00000360: 85ba 1d3e a384 53be b25d 953d 96f1 26be
00000370: e7a8 9b3c 73b1 8d3d 6ebb 393e ac20 9fbe
00000380: 7d9e 973e 2853 b8bc 608c 583d cd0d 7dbe
00000390: 00ee db3d 623e b6be 98f9 07bd 6f16 38be
000003a0: 2acd 8f3e 0c3b 353d c04c 523e f573 be3e
000003b0: 392e 673c ee3c afbd 33c8 0a3e 2960 773e
000003c0: 1be2 5ebe de9a 2abe 69b0 743e 7361 2cbe
000003d0: 46f0 e63d cfc3 a43c acc0 3ebc a555 2bbc
000003e0: 6892 e9bd 1702 16be 1688 873e bf0d 343f
000003f0: b2d9 2ebd fced 863e e1e2 13be e352 46be
-0.20015316 -0.08365692 -0.009139747 -0.12594877 -0.14682694 0.18506734 -0.19459972 -0.034700282
-0.08775382 -0.19528498 -0.033679344 0.06043221 -0.23000735 0.02964384 -0.37417182 -0.10718519
-0.15633662 -0.17970355 -0.25999495 -0.4096119 -0.61868525 -0.5778655 -0.537462 -0.07057811
0.53949976 0.294422 -0.062018476 0.45189267 0.07757804 0.37744728 0.1936505 0.16833504
0.39089572 0.15726763 -0.0053326646 -0.06216868 0.39818603 0.6461749 0.053708173 -0.043332733
0.33090335 0.2112056 -0.39177048 -0.27215308 0.13696054 0.068505585 0.06760619 -0.011533949
0.047734078 0.04763419 -0.14366023 -0.4835156 -0.21108513 0.043962117 0.00041721505 -0.056377713
-0.13995646 -0.18360019 0.014396419 0.19113946 0.026405174 -0.24702968 0.005836661 -0.2549914
-0.088618904 -0.048563246 0.16530646 -0.1280236 0.039993744 0.03632978 -0.00804413 0.03528645
-0.2832994 -0.30914262 0.049377717 -0.04333279 -0.1926451 -0.14188984 -0.16937721 -0.1876024
0.101536855 0.3998096 -0.22204979 -0.16070245 0.16219807 -0.3699297 -0.29608288 -0.083522566
0.07848837 -0.079180084 0.37760934 -0.12989713 0.1590103 0.12105722 0.07044504 -0.3336649
0.3452241 0.14138821 0.14665619 -0.17929576 -0.26947483 0.029949702 -0.0038434227 -0.30393052
-0.92095023 -0.47324732 -0.20354448 -0.30913126 -0.077320226 -0.1585412 -0.47465074 -0.29655367
-0.7027187 -0.092586145 -0.26325375 -0.5197148 -0.24846685 -0.8944258 -0.5683842 0.22386365
-0.14969677 0.042403467 -0.123174824 -0.14416376 0.21773744 -0.34258065 0.12927295 0.05769567
-0.53414565 -0.010664794 -0.17108248 -0.22222362 -0.1781074 -0.051640756 -0.50439537 -0.46240452
0.007535338 -0.38301075 0.1546657 0.2328651 -0.25789836 -0.20359443 -0.25196895 -0.040128235
0.14247793 0.16305166 -0.07284462 -0.022083808 0.23173128 0.30198565 0.047289334 0.30717105
-0.23469079 0.36479872 -0.13077405 -0.059385203 -0.15047063 -0.3750082 -0.38211343 0.103292055
0.06590506 -0.057974637 -0.49438494 0.021320498 0.11240636 0.089363836 -0.35769656 0.037458546
0.25305519 0.034064088 0.33360544 -0.0060765855 -0.56708497 0.16426583 -0.19412202 -0.2224307
-0.023179976 0.072247125 0.2884562 -0.21196434 -0.1382888 -0.5417027 -0.29032528 -0.29909772
-0.10625597 -0.34385678 -0.057760134 -0.5296753 0.005669312 -0.46584898 -0.1637434 -0.18114512
-0.09817171 -0.19296162 -0.30882284 -0.5563523 -0.058795586 -0.13630597 0.35781613 -0.15105072
0.0014120591 0.098507345 -0.106250085 -0.34960473 -0.5507047 -0.12370072 -0.35557607 -0.048098948
-0.31821465 -0.3699944 -0.4192271 -0.0057033384 0.280598 0.18700793 0.06806185 -0.023994848
0.15403183 -0.20656066 0.072932616 -0.16303095 0.019001437 0.069186114 0.18137905 -0.31079614
0.29613104 -0.02250059 0.052868247 -0.24712296 0.10738754 -0.3559447 -0.033197016 -0.17977308
0.28086215 0.044245765 0.2053709 0.37197843 0.014110141 -0.08556543 0.13552932 0.24157776
-0.2176594 -0.1666064 0.2389542 -0.16834049 0.11276297 0.0201129 -0.011642616 -0.010457431
-0.11404878 -0.14649235 0.26471013 0.70333475 -0.04268808 0.26353443 -0.14442016 -0.19367556

bias f4 [48]
00000000: 669f aa3e e993 1bbc 80ff 48bb ca4d 4abe
00000010: 95ac a4be cbf3 fabe 704d 923e 904f 71be
00000020: b5cb e5bd eb4b 81be f2b4 f43d b398 d23e
00000030: 7e6f 55be 3994 673e 1d9a e43e 0d1b 553e
00000040: a7b1 bebe 6e3a bd3e e034 57be bfd5 f9bd
00000050: b23d b63d 281f 96be e21c 713e 2744 8cbe
00000060: e843 febe d6c4 1a3e 5a97 413e 1263 093e
00000070: e007 88be 120f 6bbe c6ae 8b3e 2db2 c33d
00000080: 5a34 70be c8c7 d53d 150f 4d3e bf2e cd3d
00000090: 93da 82be 9c04 363c 60fb 2bbd da68 fa3d
000000a0: 3965 0dbd 295d 7bbe bddf 4a3e deec 04be
000000b0: 1067 7f3e 700a 8a3e 8550 383d 9920 6d3e
0.33324736 -0.009495714 -0.0030669868 -0.19756237 -0.3216292 -0.49014124 0.28574705 -0.23565507
-0.11220495 -0.25253233 0.11948575 0.41132125 -0.20843312 0.22615136 0.4464883 0.208111
-0.37244913 0.3695864 -0.21016264 -0.12198972 0.08898486 -0.29320645 0.23546174 -0.27395746
-0.49661183 0.1511415 0.18905392 0.13416699 -0.26568508 -0.22954968 0.2728178 0.09555469
-0.2345747 0.10438496 0.20025285 0.10018682 -0.25557384 0.011109497 -0.041987777 0.1222703
-0.03452036 -0.24547257 0.19811912 -0.12980983 0.24941659 0.26961088 0.044998664 0.23156966

weight f4 [64, 1344]
00000000: 2d3a 4fbd e3ed 4dbe 9d1d b2be e508 013e
00000010: fe57 903e 13e1 2abe 4999 64be 2de9 1fbe
00000020: eec4 5abe f22e 71be 77d6 f7bc 3bf4 a5bd
00000030: fad8 2bbe ec2e 80bc 8ea3 8d3d 9aa7 3a3e
00000040: 5e04 023e fd0e afbe 0e77 2dbe 059b f7bd
00000050: a226 2cbe 628d 813c 043d 3dbe a80b 683e
00000060: cd9d 3e3e 2ba0 9cbe caf3 6f3d e41e 873d
00000070: e0ff 803e b5ff 1a3e c68b a03d a55d 883e
00000080: 2593 ec3d 5bbe d9bd 1897 0dbe b6ac 383e
00000090: 086d b83d b9bd a73c eb95 293e 1aea 733d
000000a0: 4546 b6bb 43ab 073e 5e77 37be 9194 d13d
000000b0: 7373 82bc e2c2 ec3d 11e6 ddbd c768 903a
000000c0: a516 dfbd 32d3 35be ab9c a1be 6f5d c53e
000000d0: aa7c 083e a5bb b5bd 3d15 503a 0c7c c13e
000000e0: 376b 2cbc 7ecc 23bc 5da0 02bd c0a7 463c
000000f0: 9d5c 94be 0d26 56bd b214 30be 6ae9 2b3e
00000100: fd1a 9ebd 5f9a e8be a20b d13d d552 2cbe
00000110: 9031 58bd 3d75 3dbd 0048 533e 272a 0c3f
00000120: e78c 793d 91ff 74bc c9db 403e 9306 ad3e
00000130: c795 323e af6e 02bd 6ae4 113d 39ce a13e
00000140: 9af2 d23e 0806 58be 0d8a 32be e5f5 533d
00000150: 0700 f2be 76ed a23e 52e7 a63e 3d7d 2a3e
00000160: 35fb 6abd 6df2 05bc 9518 87bd 27cd 8fbd
00000170: f2af c8be 93e8 d4bd 8703 e83a 9ee5 babe
00000180: f431 55be 21ff e23d 2d4d 2f3e 6d81 9d3d
00000190: fe28 823d 2d82 e73e 50d8 293e 9494 8b3d
000001a0: e159 bdbc 10b4 a13e 350a 09be 9fc9 1fbd
000001b0: 0c5c c33b 0b84 2a3c 1ad9 3c3e a51d 9c3e
000001c0: 905d 9cbe 82c3 1abe 36e9 55be 84a4 c13b
000001d0: b995 17bb cf9c 5d3d 2a40 6bbe 9477 bfbb
000001e0: c380 a23b 9511 13bd fc22 6dbe 746b 1bbe
000001f0: bd51 ae3d 2794 90bb aefc e1bd 6032 10be
00000200: 63a8 54be faf3 35bd f4c5 69be aa9a 54be
00000210: 3a61 0fbe fa52 a4bd 09f6 fd3d f514 79be
00000220: ce27 c6bd 9fe1 18be dcc7 59be 717a 76be
00000230: 3b3a 8bbe 9768 3fbe 502e 31bd 23cb 2b3e
00000240: 838c 8fbe d896 d13c dc2d 883e 4e15 be3e
00000250: d5e6 37be 9a27 21be c841 153e bc8a a13e
00000260: 65c6 153e 9db8 2f3c a13a 5d3e f574 6ebb
00000270: 8a80 bf3d 688c 87be af22 6a3e ccb4 68be
00000280: f4e2 84bc 0919 533c a543 823c 1df1 85be
00000290: 2b0a 81be af3e a6bd 96ae b8bd e865 033e
000002a0: 11df babe 2251 9abd 6fd6 6ebe bceb 6ebe
000002b0: 9eb5 73be ef0c cdbb 78bc f9bd dce9 f3bd
000002c0: a759 d2be f783 51bd 0a97 92be 64e6 82be
000002d0: cec1 23bd 156a 8ebe 8fd9 00be 7163 a2be
000002e0: f44f a1be f529 d1bd 219a 31be bb5b c1be
000002f0: d6ff babe 8c33 c1bd c659 61be e650 3dbf
00000300: 65ef 27be da73 dd3c a15c 0cbe 7bfd 92bd
00000310: 45ce d4bd 3c8e d7bc d0f5 723c ad8f 6a3d
00000320: 68ee 953a 5681 babe fbff 19bd a7f9 8abe
00000330: 82ef 753e adb2 7dbe 4bff 24be 8121 8b3b
00000340: 36a3 193c 10c2 18be 7052 24be f37b 863b
00000350: 9e6f ee3d d8e3 08be 8fda f73d 7005 f9bd
00000360: 4ece 8a3d 4d57 ecbd 46cc 2b3b d886 abbe
00000370: 0fb8 1dbe 17e2 2c3c d5a1 9bbc 1123 4a3e
00000380: 61cf 923e 2c62 5a3e 491a afbd 1a8b a93e
00000390: b435 293e baa6 983e e7ba 99bd ecf7 c2bd
000003a0: f586 063e 1fd7 733e bb19 a03e 33cf b8be
000003b0: 81c3 9e3e 0b19 533d 971b 353e 931f 52be
000003c0: ec74 833e d2c5 8bbd 5031 53bc 48fd f83d
000003d0: 6aa4 883e 41b1 823d f191 55bd 2063 053e
000003e0: a48f 213e 2f94 133e 634d 293e a687 82be
000003f0: ead9 233f 02d6 603e a58e 123e 3520 8b3e
-0.05059259 -0.20110278 -0.34788218 0.12601049 0.28192133 -0.16687422 -0.22324099 -0.15616293
-0.21364185 -0.23553064 -0.030253632 -0.08103224 -0.16781989 -0.015647374 0.06915961 0.18227997
0.12696978 -0.34191123 -0.16939947 -0.120901145 -0.16811612 0.015814487 -0.18480307 0.22660697
0.18614884 -0.30590948 0.058582105 0.06597689 0.25195217 0.15136607 0.0783916 0.26633945
0.11551503 -0.106320105 -0.13827169 0.18034634 0.09005171 0.020476209 0.16561095 0.05954943
-0.005562576 0.13248925 -0.17916629 0.10233415 -0.015924191 0.115606084 -0.10834897 0.0011017554
-0.10892991 -0.17756346 -0.3156484 0.38547847 0.13328806 -0.08873681 0.0007937735 0.37789953
-0.010523609 -0.009997485 -0.031891216 0.012124956 -0.28976908 -0.05228238 -0.17195395 0.16788259
-0.07719991 -0.45430276 0.10207297 -0.16828473 -0.05278164 -0.046254385 0.20632935 0.5475182
0.06092539 -0.01495351 0.18833841 0.33794078 0.17439948 -0.031843837 0.035618223 0.31602648
0.41200715 -0.2109605 -0.17435475 0.051748175 -0.47265646 0.31821793 0.32598358 0.16649337
-0.057368476 -0.008175475 -0.065964855 -0.070215516 -0.39196736 -0.103959225 0.0017701247 -0.3650331
-0.20819837 0.11083818 0.17119284 0.07690702 0.06355475 0.45216504 0.16586423 0.068154484
-0.023114147 0.3158269 -0.133828 -0.03901064 0.0059619006 0.010407458 0.18442193 0.30491367
-0.30540133 -0.15113643 -0.20889744 0.0059095044 -0.0023130013 0.054104622 -0.22973695 -0.0058431122
0.0049591972 -0.03590544 -0.23157877 -0.15177709 0.08511684 -0.0044121924 -0.11034523 -0.14081717
-0.2076736 -0.044422127 -0.2282942 -0.20762125 -0.14001933 -0.08023639 0.12400443 -0.243244
-0.09675561 -0.14929818 -0.21267647 -0.24070145 -0.27192864 -0.18692242 -0.043257058 0.1677671
-0.2803689 0.025584623 0.26597488 0.3712563 -0.17959149 -0.15737763 0.14575875 0.31551158
0.14626463 0.010725168 0.21604396 -0.003638563 0.09350689 -0.2647431 0.22864793 -0.22725219
-0.016221501 0.012884387 0.015901396 -0.26160517 -0.2520307 -0.08117425 -0.090176746 0.12831843
-0.3649831 -0.07535006 -0.23323987 -0.23332113 -0.2379975 -0.0062576453 -0.12194151 -0.119098395
-0.41084024 -0.051151242 -0.2863086 -0.255664 -0.03997975 -0.2781531 -0.12582992 -0.31716493
-0.31506312 -0.10213081 -0.17343952 -0.37765297 -0.36523312 -0.0943366 -0.22006902 -0.73951566
-0.16399916 0.027032781 -0.1370721 -0.07177254 -0.10390905 -0.02631294 0.014829114 0.057265926
0.0011438848 -0.364268 -0.037597638 -0.27143595 0.24017146 -0.2477519 -0.16113012 0.0042459373
0.009377291 -0.14917779 -0.16047072 0.0041041314 0.11642383 -0.13368165 0.121022336 -0.1215924
0.06777631 -0.11540089 0.0026214286 -0.33501315 -0.15402244 0.010551951 -0.018998066 0.1973994
0.28673843 0.21326512 -0.08549935 0.3311394 0.16524392 0.29814702 -0.07506352 -0.095199436
0.1313742 0.23812531 0.3126963 -0.3609558 0.31008533 0.051537555 0.17686306 -0.20519857
0.25675142 -0.068248406 -0.012890175 0.121576846 0.26687938 0.06381465 -0.052141134 0.13026094
0.15777451 0.14411996 0.16533427 -0.25494117 0.64004385 0.21956638 0.14312227 0.2717301

bias f4 [64]
00000000: a2c5 2dbe ce9e 4ebe b9df 3b3e 8797 48be
00000010: 13ad 2e3e 3c5a 1f3e 424b 0ebe bc53 d03e
00000020: 5dc2 5b3e 82bd ac3e e242 5cbe d003 62bd
00000030: cd26 813e 577d 18bd c79d 2cbd e338 19be
00000040: 4ec6 47be 2452 1bbe ce11 863e 75ec 6e3d
00000050: 55e2 0bbe a80b d3be 72e0 59be 4da8 ed3c
00000060: 7bc9 2fbe ae08 d3bd 7418 18bd 100c 27bd
00000070: 0d2b 513e ceb9 d43c 6d11 7f3e 4a1a 583e
00000080: 279f 91be 4c68 9b3e 0090 483d 09e6 42be
00000090: 4c68 1fbe 454d db3e 7c6b 38bd ad53 0e3e
000000a0: b901 42be 6c8a 70be 85bd 1fbe db41 9cbe
000000b0: a690 b9be 84f5 4f3e 57bb a1bd e0ac 66be
000000c0: dad8 8e3e 14a1 84bd 785f 44be 9e93 7d3e
000000d0: 2c3d 67be b746 953e a0a4 493d eec2 d8be
000000e0: cd3f a93d 8f23 42be 0eca 3ebd 5376 173e
000000f0: c2b8 b7bd cbde 1ebe d8de d4bd 9a95 b03d
-0.16969922 -0.20177767 0.18347062 -0.19589053 0.1705821 0.15561765 -0.13895896 0.40688884
0.21460862 0.33738333 -0.21509889 -0.055179417 0.25224915 -0.03722891 -0.042142656 -0.14963107
-0.19509241 -0.15168053 0.2618546 0.05833097 -0.13660558 -0.4121983 -0.21277025 0.029010916
-0.17166702 -0.1030439 -0.037132695 -0.040782988 0.20426579 0.025967505 0.24908991 0.21103778
-0.28441736 0.3035301 0.048965454 -0.19033064 -0.1556713 0.4283239 -0.04502438 0.13899107
-0.1894597 -0.23490304 -0.1559964 -0.30518994 -0.3624317 0.203085 -0.0789706 -0.22526884
0.2789982 -0.06476036 -0.19177043 0.24763343 -0.22581929 0.29155514 0.049229264 -0.4233622
0.08264122 -0.18958877 -0.046579413 0.14791231 -0.08970787 -0.15514676 -0.103940666 0.08622284

weight f4 [25, 64]
00000000: 3626 62be 8dc7 533c 5085 4d3d d8aa 9b3e
00000010: 5c4b 363d 49af 903e 3062 0a3d b15c 563e
00000020: 41d1 383e f265 963d ad58 c0bd cd61 f4be
00000030: d975 bf3d ad0d 67be b011 1fbe db81 0abe
00000040: c496 c8be c282 a1be e4be a63e 5114 7dbd
00000050: d4bb 23be 5170 dbbe 1c78 f83d d200 93be
00000060: fea2 88be 9b60 53be 6be1 6a3e ced5 a4be
00000070: 4843 5d3e 7f99 013f d0f5 34bd e46e 9fbe
00000080: 2e2a 37be f4a1 e73e 1c0a 6fbe 334c 643e
00000090: 8106 08be 9f30 da3e 4eb4 b93e 9242 6e3d
000000a0: 348d 6bbe 1a37 adbe e8ff 113d 3da2 b8be
000000b0: 624b cabe 119b c03e 19f8 8ebe 773e e23d
000000c0: 82bf 8c3e 30ff b2bd 9121 28bd 4f3c 833e
000000d0: bcee 5fbc c5a4 8b3e a95f de3e e354 92be
000000e0: 3d45 893e 5b3d 71be 9eb3 013e 5b14 653e
000000f0: 42a3 76be f03a ce3d ce38 9b3e 1d80 a03e
00000100: 4f70 11be 6ee5 cabc 7dac b23e a915 983d
00000110: 2896 31be fb7d 54bd 6761 b6bd 2349 93bd
00000120: 454f 16be 50d6 b9be a5f4 49be 3eac ec3d
00000130: 0c96 87be e06a 5cbe edbf 47be db27 1b3e
00000140: a7f4 bc3e efed 88be 6edb bbbd 8d51 16be
00000150: 45f8 4ebd 0ac7 0dbe bc51 8bbe 2591 a23e
00000160: 947f d3bd 8cf7 193c 9297 c63e 09a3 303e
00000170: 056b ebbd 2f14 8fbd e084 6cbe 0471 443e
00000180: 5910 ab3c 1045 8d3e 3702 a43e bec6 143e
00000190: a4f4 4e3e 1710 4d3e f09e a43d 12fd 51be
000001a0: 87ed 9dbe 17dd 84bc 7a49 993d 80f2 05bd
000001b0: aa14 92be 6510 8c3e 66ed a93e 72f0 adbd
000001c0: a1c8 cebc 802d 91bd 1d34 1c3e d31e 4c3e
000001d0: b590 25be 8ea0 7e3d d1e9 8bbe 10b1 00be
000001e0: a5b1 29be 9f3b 25be 4433 033e d7af 3dbd
000001f0: f14d 433e 6827 d6bd 99f8 d6be 2229 85bd
00000200: 0419 ddbc d1d6 89be 1267 dc3e bbc0 fabe
00000210: 184f 38be 43a8 2bbe 0ac6 2d3e 1043 5cbe
00000220: 08a5 a83e 27d6 093e 2112 debd 3842 25bd
00000230: 595c 4a3e 1edd 1dbe 0b44 94be e638 1ebe
00000240: abeb f63d da95 56bd 2a71 6abe 97d3 00bf
00000250: d665 06be 82d7 c3be a9a9 e1bd 416c d73d
00000260: 2cba 09bd 8872 47be 5375 d23e b3b6 dabd
00000270: 54b4 3bbe f4de e03d c3e4 d63e 235f b43d
00000280: c6f9 3abf 0c8b 90be 920c bc3d 8b8b 453e
00000290: e5c9 e2be af73 34bc 9428 ea3b bf6e 2b3d
000002a0: 2d04 70be 6657 dcbe 8215 cbbc e539 573d
000002b0: b343 aabe d56d f5be 0617 dabd c911 f8bd
000002c0: 393f e23e ba8b 2d3e 94d5 73be 5d77 bf3e
000002d0: 9b94 78bd 9643 7f3e 5e6a 0abe a78f 8bbe
000002e0: 7c60 eb3d 96da 31be 61d3 cfbd 7ca7 fd3d
000002f0: 932f c4bd 2f6d 9dbd e3c4 b7bb e8fd 94bb
00000300: 97ce e1bd cd3a fc3c 82fe f93d 0f94 e53d
00000310: d690 773e 6889 8e3e e243 fdbe 5912 c6bd
00000320: 10c9 58bd 91df b03e 84cf 2cbe 8d2b 27be
00000330: 7a42 cd3e 3b30 c3be 2706 6fbd 1fb3 9e3d
00000340: bbec 393e 60a0 e03e 4722 2dbd 08a0 913e
00000350: d6a4 55be b73d 523e b7b0 8b3d 7704 a03e
00000360: 2881 39be 3b80 763c 7b0d bebc 91c4 143e
00000370: c321 a9be d134 adbe 6465 f33e d8bb 9e3e
00000380: d0e5 103d 1a18 4bbc cb06 e63e 29df 343e
00000390: f235 b4bc eb02 dd3d 4f12 653e 07c6 15be
000003a0: 7863 17be 58ee 17bd 4413 82bd a578 5b3e
000003b0: 0e2c b0be 5406 d73c 01fa 06bf 3316 cd3d
000003c0: 4e53 26bd 641c 8f3e bbcb ee3d 00da 853e
000003d0: ef26 fe3d dc54 1c3e 4d84 e93e fe84 883d
000003e0: 270b 26be 849e ae3c 11cc 5d3e 825f 4cbc
000003f0: ffb8 61be 436d 2fbe aa9e 893e 0424 69be
-0.22084889 0.012925995 0.050175965 0.3040378 0.044505462 0.28258732 0.033785045 0.20933796
0.18048574 0.07343663 -0.093919136 -0.47730866 0.093486495 -0.2256381 -0.15534091 -0.13526098
-0.39177525 -0.31545073 0.32567513 -0.061786953 -0.1598962 -0.42859128 0.12132284 -0.28711563
-0.26686853 -0.20642321 0.22937553 -0.3219437 0.21607697 0.5062484 -0.044179738 -0.3113929
-0.17887184 0.45240748 -0.233437 0.22294693 -0.13283731 0.4261522 0.36270374 0.058168955
-0.23003083 -0.33831102 0.03564444 -0.36061278 -0.39510638 0.37618306 -0.27923658 0.110470705
0.2748986 -0.087400794 -0.041047636 0.2563195 -0.013667759 0.27274147 0.43432358 -0.28580388
0.26810637 -0.23558562 0.12666175 0.22371046 -0.24085715 0.10069835 0.30316776 0.31347743
-0.14202999 -0.024767604 0.34897223 0.07426006 -0.17342436 -0.051877957 -0.08905297 -0.07191684
-0.14678676 -0.3629632 -0.1972223 0.1155629 -0.26481664 -0.21525145 -0.19506808 0.15151922
0.36905405 -0.2674403 -0.09172712 -0.14679547 -0.050529737 -0.13845459 -0.27210796 0.3175136
-0.10327068 0.009397399 0.38787514 0.17249693 -0.11495022 -0.069862716 -0.23097563 0.19183737
0.020881819 0.27591753 0.3203294 0.14528939 0.2021051 0.20025669 0.080381274 -0.20506695
-0.3084528 -0.016218705 0.07484718 -0.03270197 -0.2853139 0.27356258 0.33188933 -0.08493127
-0.025242152 -0.070887566 0.15254255 0.19933634 -0.16168483 0.062164836 -0.27326825 -0.12567544
-0.16571672 -0.16136025 0.12812525 -0.046310272 0.19072701 -0.10456735 -0.4198654 -0.06501986
-0.026989467 -0.26921704 0.43047386 -0.48975167 -0.17998922 -0.16763406 0.16970077 -0.21509957
0.3293841 0.13460599 -0.108433016 -0.040346354 0.1976179 -0.15416381 -0.28958163 -0.15451393
0.12056669 -0.052389003 -0.22894731 -0.5032286 -0.13124785 -0.38250357 -0.11018688 0.10518695
-0.033624813 -0.19477284 0.41105136 -0.10679378 -0.18330508 0.10980025 0.41971406 0.088072084
-0.73037374 -0.28231084 0.09182085 0.19291513 -0.44294658 -0.011013909 0.0071459506 0.041853663
-0.23439093 -0.4303543 -0.02479053 0.052545447 -0.33254775 -0.47935358 -0.106489226 -0.12112767
0.4418886 0.16947833 -0.23811942 0.37395754 -0.060688596 0.24928126 -0.13517138 -0.27258036
0.11493012 -0.1736854 -0.10147739 0.12385461 -0.095793866 -0.07686841 -0.0056081875 -0.0045468695
-0.11025732 0.030789757 0.12206747 0.112098806 0.24176344 0.27839208 -0.49465853 -0.09671468
-0.052926123 0.34545568 -0.16876036 -0.16325207 0.4008978 -0.38122734 -0.058355477 0.077490084
0.18156712 0.43872356 -0.042269018 0.28442407 -0.20863661 0.20531355 0.06820815 0.31253406
-0.18115675 0.015045221 -0.023199787 0.14528109 -0.3303357 -0.33829358 0.47538292 0.31002688
0.035375416 -0.012395883 0.44927058 0.17663254 -0.02199838 0.10791572 0.22370265 -0.14626323
-0.14784038 -0.037092537 -0.06351331 0.21432741 -0.3440861 0.026248135 -0.52725226 0.10014
-0.04060679 0.27951348 0.11659952 0.26142883 0.1240977 0.15266746 0.4560875 0.06665991
-0.16215192 0.02131582 0.21659876 -0.012473943 -0.22043227 -0.17131524 0.26878864 -0.22767645

bias f4 [25]
00000000: 8888 913e 87df 083f 9608 f43e e735 6e3e
00000010: d127 04be 798e 36be e7d7 e43e bbb8 4a3e
00000020: d2d4 d23d 38c1 e63c 991e c03c f56d 733e
00000030: c0cb 473e 5865 66be c149 1ebe ffe6 ea3d
00000040: 83d5 813e 44ce 26bd 6bb2 d03d 2157 0ebe
00000050: 6cbe e43e 1730 1fbe e486 963c b393 16bf
00000060: e94d 65bf
0.28424478 0.53466076 0.476628 0.2326275 -0.12905814 -0.17827787 0.4469597 0.19797032
0.102944985 0.028168306 0.02345209 0.23772414 0.19511318 -0.22499597 -0.15457822 0.1146984
0.2535821 -0.040724054 0.101902805 -0.13900425 0.4467653 -0.15545689 0.018374868 -0.5881912
-0.89572006
