result/config1_main/preliminary_model11.pt (torch_old, 428387 bytes, 10 tensors)

weight f4 [12, 2, 192]
000000 6c dd 40 be 79 2c 0c be 3a 47 fa 3c d5 ba b0 bd
       -0.18834466 -0.1368884 0.030551542 -0.086293854
000010 88 66 2e be 9d c9 3a be b8 8d 08 be 3f 79 50 3e
       -0.170313 -0.18240972 -0.13335311 0.20358752
000020 ce b7 81 3e 22 31 de ba c8 7d 5c be ef 9c db bd
       0.25335544 -0.0016951899 -0.21532357 -0.10723292
000030 27 ed 4f 3d 55 af 50 3e c2 c9 75 3d 58 9f 42 be
       0.050763275 0.20379384 0.060006864 -0.19006097
000040 53 15 30 3e 58 c1 96 3d 01 03 3f be 4d 40 4b be
       0.17195635 0.07361096 -0.1865349 -0.19848748
000050 e4 0d 49 3d 92 90 82 3e e2 72 04 be 56 56 7f be
       0.049085513 0.25500923 -0.1293445 -0.24935278
000060 de 6d 1a be 1c cb dd bc 69 aa 71 3e b4 df f5 3d
       -0.15080974 -0.02707439 0.23600163 0.120055586
000070 25 c8 ef 3d e2 8e 8b be 42 aa 8f be b5 94 f1 3d
       0.117080964 -0.27257448 -0.28059584 0.11795942
000080 8e f3 8f bc a3 16 37 3e a5 53 0b 3e f7 ca f8 bd
       -0.01757219 0.17879729 0.13606127 -0.121480875
000090 eb ed ba bd ad 82 29 be 3a 76 72 3d 00 6f 70 3e
       -0.091274105 -0.16553755 0.05919478 0.23479843
0000a0 de a5 91 3d 16 88 4e 3e e6 03 9e 3d 94 76 a5 bd
       0.07111715 0.201691 0.07715587 -0.080792576
0000b0 54 50 f4 3d 88 8f 9a 3d 7a 20 85 3d 74 fc 72 be
       0.11929384 0.07546908 0.06500335 -0.23729116
0000c0 6a 1e d8 3d ec 0f 0c bd 08 26 11 be ed 9b 04 3e
       0.10552676 -0.03419487 -0.14174664 0.12950106
0000d0 c5 04 71 3e d0 36 cf 3c 00 fe a2 be 8a 9c 92 bd
       0.23536976 0.025294691 -0.31834412 -0.07158764
0000e0 0d 32 fc bd e2 4d 94 bd c3 c7 ce 3b 5a e2 b2 3d
       -0.12314234 -0.072414175 0.0063104345 0.087345794
0000f0 88 f7 4e be 85 c0 75 be 7b f6 2d 3d fd ea 20 be
       -0.20211613 -0.23999222 0.04247139 -0.15714641
000100 bc 82 82 3d fd 82 12 bd da 09 ad 3c d8 5b 25 3b
       0.06372592 -0.03576945 0.021122862 0.0025231745
000110 5c cc 42 3e 91 ac c8 3d 48 e2 69 be 22 cc 54 bd
       0.1902327 0.097985394 -0.22840226 -0.05195249
000120 9f 85 02 3d 36 f7 3a 3e b7 ee cf bd 53 a2 d9 bd
       0.031865712 0.18258366 -0.10152953 -0.10626664
000130 24 37 0b 3c cd 0d 53 bd 6f fb 96 bd 16 42 9e bb
       0.008497033 -0.051526833 -0.07372176 -0.0048296554
000140 ed f7 0f 3e b9 6e 03 3d 64 18 58 be b4 00 77 be
       0.1405942 0.032088015 -0.21103054 -0.24121362
000150 2c 64 0a 3b ea f4 13 bd cd 45 3b 3d 5a 79 08 3e
       0.0021116836 -0.03612224 0.045720864 0.13327542
000160 33 55 03 3e 94 b6 8b 3e d2 92 00 be 8f 13 0e be
       0.1282547 0.27287734 -0.12556008 -0.13874649
000170 08 d7 f5 bc 5b 5e 59 3d 60 11 1c 3e 17 25 1f 3d
       -0.030009761 0.0530685 0.15241003 0.03885373
000180 6e e3 c5 bd 9d c9 99 be 07 62 47 3e c3 25 52 3e
       -0.096625194 -0.3003663 0.19470988 0.20522217
000190 4c f7 6e 3d 4c 73 88 3d 87 cf ae ba 4e 9c c3 bd
       0.05834131 0.06662616 -0.0013336994 -0.09551297
0001a0 05 28 02 be 4f be 70 3e 46 12 e4 3d cc c7 12 be
       -0.12710579 0.23510097 0.11136298 -0.14334029
0001b0 c2 04 9b 3c fe 39 1f be 64 14 3b be 0b 6d 72 3e
       0.018923167 -0.15549466 -0.18269497 0.23674409
0001c0 68 ba 41 3e 35 04 1e 3e 57 15 49 3d 9d 56 1a 3d
       0.18918765 0.15431292 0.049092617 0.037680257
0001d0 dd 28 18 3e 06 5e 81 3e d7 f9 27 3e 46 2f a9 3a
       0.14859338 0.25267047 0.164039 0.0012907765
0001e0 fc 9b 0d 3e 0a 45 41 3d 25 ac ee 3d 09 40 7d 3e
       0.13829035 0.04718498 0.11653928 0.24731459
0001f0 b4 c9 a9 3e 1e 7c 25 bc a2 ce 89 bd c5 9c 86 be
       0.331617 -0.010100393 -0.06728865 -0.2629148
000200 81 ba 06 bd 2e ab 2f 3e 4c 46 b4 3b d9 a4 65 3d
       -0.032892708 0.17155144 0.005501544 0.056065414
000210 db f7 13 3d c1 d2 95 bc 1a 23 08 3c 0b 54 85 3e
       0.036125045 -0.018288972 0.00830915 0.26040682
000220 77 c1 55 3e b8 ce 7f 3d b2 c2 2e 3d c6 32 b3 bd
       0.20874582 0.062453 0.042666145 -0.08749919
000230 f7 07 c5 3d ad 1f 79 3e 4a cc f9 3d fa 56 dd 3c
       0.0962066 0.2432849 0.12197168 0.027019013
000240 33 0a 55 bd 50 64 a7 bd eb b0 9b bd 04 8d 87 3d
       -0.05201168 -0.0817343 -0.07602104 0.066186935
000250 57 f1 ba 3d 27 fe f6 bd 76 5c 49 3d d8 f2 32 3e
       0.09128063 -0.120601945 0.049160443 0.1747545
000260 9a 0a ae 3d fb 99 26 3e d5 c5 35 3d 65 3d 1c be
       0.08498116 0.16269676 0.04437812 -0.15257795
000270 0c 5c 06 be 21 48 a9 bd 93 68 a1 bd 32 0d 35 bd
       -0.1312105 -0.082657106 -0.07881274 -0.044202037
000280 8a 80 5d bd d1 98 34 3e d3 44 2a 3e ce bc 95 3d
       -0.054077663 0.1763642 0.16627817 0.07311402
000290 90 8a 6b 3e 76 b2 17 bd e6 f3 64 bd f6 ef 09 3d
       0.23002076 -0.037035428 -0.055896662 0.03367611
0002a0 60 6d e0 bc d2 74 38 bc 83 8c e5 bd a9 9d 91 3c
       -0.027395904 -0.011258321 -0.11208441 0.017775374
0002b0 34 01 14 be f0 3c 1a 3b 87 11 ab bd 0a bc 08 be
       -0.14453584 0.0023534857 -0.083529525 -0.13352981
0002c0 0c 77 4c be c8 e4 76 bd 77 81 4a 3d 94 4d 43 be
       -0.19967288 -0.060276777 0.049439874 -0.19072562
0002d0 4b 73 5b 3c a2 c9 21 3e c2 a6 02 bd d7 22 be be
       0.013394187 0.15799573 -0.031897314 -0.37135956
0002e0 a2 9f 9f bd 85 ff 34 be 0f 53 08 be f0 b4 73 bd
       -0.077941194 -0.17675598 -0.13312934 -0.059498727
0002f0 ce d7 d0 bc a3 95 c4 bd 9e d9 8a bd 82 a8 8c be
       -0.025493529 -0.095988534 -0.067797884 -0.2747231
000300 ec 16 ad ba 4b b0 98 3d 9d ea bd bc ba 03 11 bb
       -0.0013205684 0.074555 -0.023183161 -0.0022127465
000310 6c 8e d2 bc da f3 3d bd fd fc 32 be dc c6 1d 3e
       -0.025702678 -0.046375133 -0.1747932 0.1540789
000320 b6 b9 65 3e 0f 26 66 bd fb bd 76 be ea cb b5 be
       0.22434124 -0.05618864 -0.2409591 -0.35507137
000330 d7 ac f4 bc 10 1e 5b 3e f0 58 cd 3d 2a 55 a7 be
       -0.029867573 0.21398187 0.10026729 -0.32682163
000340 df ab 14 be 90 ee 15 3e 47 6b 29 bd 9a fb fb bd
       -0.14518689 0.14641786 -0.041362073 -0.123038486
000350 4c 19 48 be b3 1b c6 3d 36 1b 89 bd 7e b9 ec 3c
       -0.195409 0.09673252 -0.06694643 0.028897043
000360 2a 4b a8 3d 0a a7 4c bd 26 e4 3e ba 02 0d fe bd
       0.082174614 -0.04996399 -0.00072819216 -0.12404825
000370 71 84 92 3e 95 a9 53 3e f5 4c 87 3e 28 27 85 3e
       0.2861667 0.20670159 0.264259 0.26006436
000380 a4 69 ae 3d c6 e3 3a 3e e0 bc 1b 3e 36 7c 54 3e
       0.08516243 0.18250951 0.15208769 0.20750508
000390 9e cb 9e 3e 11 eb 9e 3e 7a 01 9d 3e 9e 5b 2c 3e
       0.31014723 0.31038716 0.3066519 0.16831824
0003a0 93 d9 53 3d 96 79 8f be a7 2c 1c bd 4b 47 5e 3e
       0.051721167 -0.2802245 -0.03812852 0.21706884
0003b0 9c 77 c6 3e 48 4e 0e 3e 44 11 25 be 26 96 26 3d
       0.3876313 0.1389705 -0.16119868 0.040670536
0003c0 c5 92 fe 3d e1 96 63 3c ab aa b8 bc 27 d2 97 3e
       0.12430338 0.013890953 -0.022542318 0.2965252
0003d0 0c 67 b5 3d e0 6e 58 3c 41 be 2a 3e 7b 92 a2 3e
       0.08857545 0.013210028 0.16674139 0.3175238
0003e0 58 7b c3 bd 48 ee 37 be 36 99 8f bd 04 bd e0 3e
       -0.0954501 -0.17961991 -0.070116445 0.43894207
0003f0 11 6a 4f 3e f0 fd 8f bd cb bd b7 bc 4a b1 10 be
       0.20255305 -0.070308566 -0.022429368 -0.1413013

bias f4 [12]
000000 88 1c 66 be 1e 31 95 be f7 f8 63 be cf 7b c4 be
       -0.22471821 -0.29139036 -0.22262941 -0.38375708
000010 c8 19 63 be f2 57 6c be e8 b8 3f be 4d 0f 96 be
       -0.22177804 -0.23080423 -0.1872288 -0.2930855
000020 4b 71 b0 be a9 6e 8d be 1b c1 47 be ac e2 8d be
       -0.34461436 -0.2762349 -0.19507258 -0.27712

weight f4 [24, 12, 16]
000000 9b 79 22 bd 68 37 17 3c 35 d9 0a be 3c ef 56 bd
       -0.039666753 0.0092295185 -0.1355942 -0.052474245
000010 9c a2 9a be 11 12 2f be b3 d8 01 3e 6f 67 c9 3c
       -0.30202186 -0.17096736 0.1268032 0.024585454
000020 d7 19 29 be ff b7 6d bd 90 d0 5c be 1c 7f ac bd
       -0.16513763 -0.0580368 -0.21563935 -0.08422682
000030 29 dd 4d be f6 d9 8c be 84 56 59 3e 1a 76 b2 bd
       -0.20103897 -0.2751004 0.2122441 -0.08713932
000040 97 6a 92 bd 35 54 a2 3e 1f 19 00 3f 8d a9 1a be
       -0.07149237 0.3170487 0.5003833 -0.15103741
000050 1c f8 76 3e d1 20 e0 3d bb e8 17 3d 6c 7c 6a 3e
       0.24118084 0.10943759 0.037087183 0.22899026
000060 94 c4 31 3e 5e 95 19 3e fe e2 e3 3d a7 b7 4c 3e
       0.17360145 0.14998385 0.1112728 0.19991933
000070 64 6b 10 be 0a 21 81 3d 39 2f ec bd ee 7f 9d bb
       -0.14103466 0.0630513 -0.115324445 -0.00480651
000080 c1 a2 da 3d ec 05 95 bc 83 10 24 be 28 4c db bd
       0.10675574 -0.0181913 -0.16021924 -0.10707885
000090 b1 13 84 be c7 8d bf 3d ef de 31 be 20 a1 75 be
       -0.25796273 0.09353214 -0.17370199 -0.23987246
0000a0 2e 58 a8 be 2b 79 23 3e 34 65 12 be 8d bd 41 3d
       -0.32879776 0.1596419 -0.14296418 0.04729991
0000b0 49 96 6e 3c c0 a3 09 3d a8 fe b2 bc e6 2e 7a 3d
       0.014562198 0.03360343 -0.021849945 0.061079882
0000c0 3d 24 b5 bd 1d 9c 73 3d b3 0a ed 3d 76 3f c2 3d
       -0.088448025 0.059475053 0.11574306 0.094847605
0000d0 3d 19 86 bc bb 5d 2c ba 35 37 84 3d ed 36 66 bc
       -0.016369456 -0.0006575246 0.064558424 -0.014051181
0000e0 13 08 a4 3d 67 17 0f be 80 d9 03 3d 2f d6 3c 3e
       0.080093525 -0.13973771 0.032189846 0.1844108
0000f0 e3 85 21 3e f1 4b a0 3d b1 48 dc 3d 49 c0 bc 3b
       0.1577373 0.07826985 0.10756052 0.005760227
000100 3d b2 90 3d 56 08 85 3d a3 3f fc 3c 34 c6 cf 3c
       0.07065246 0.064957306 0.030792063 0.025363065
000110 83 ea 1c 3b 40 22 37 bd bd 8a 07 3e dd 8b d8 3d
       0.002394349 -0.044710398 0.13236518 0.10573552
000120 5a 81 24 be 27 6c 67 3e 4a dd 9d be f9 d3 12 be
       -0.16064969 0.2259985 -0.30832893 -0.14338674
000130 86 32 8b be 54 a2 dc bd 51 ec 1f bd 0b 2d 7e be
       -0.27186984 -0.10773149 -0.03904373 -0.2482187
000140 ce df 2b 3d 57 db 12 b8 22 87 f7 be 9a 20 fe bd
       0.041961484 -3.501339e-05 -0.48345286 -0.12408562
000150 24 df 3f be 0d 43 25 3b d1 bd 49 be 88 7a 37 be
       -0.18737465 0.0025216967 -0.19701315 -0.17917836
000160 53 f9 7c be 48 65 d3 bd 8c 0c b1 be d4 b2 87 3d
       -0.24704485 -0.10322052 -0.34579885 0.06625906
000170 43 2e 12 3c 03 5d 15 be 66 e8 45 be b6 00 8f bd
       0.0089221625 -0.14586262 -0.19326934 -0.069825575
000180 b1 f3 0a be ff 7f 87 bd e2 f9 01 3e 07 a9 92 3d
       -0.13569523 -0.0661621 0.12692979 0.07161146
000190 da 63 7f 3e 47 24 b4 3d 7e d6 02 3e e4 41 63 3e
       0.24940434 0.08795982 0.12777135 0.22193104
0001a0 50 ac 8e 3e db ce 0d be 8c 57 b4 3e 7c 68 07 3e
       0.2786584 -0.1384844 0.35223043 0.13223451
0001b0 22 ca 96 3d 26 fc a8 3c 31 56 35 be 22 df 67 3d
       0.073627725 0.020628046 -0.1770866 0.05660928
0001c0 73 7d af be a6 20 1f 3e ad c2 02 be ab dd 4b be
       -0.34275398 0.15539798 -0.12769575 -0.19908778
0001d0 20 e8 8e 3d 60 ac 0e 3d cd 4d 2b 3e 82 68 3c 3e
       0.06977868 0.03483236 0.16728897 0.18399242
0001e0 64 4a f0 bd 53 07 93 3e 03 97 02 be 18 40 7d be
       -0.11732939 0.28716525 -0.12752919 -0.24731481
0001f0 b4 b0 d8 bd f9 11 78 3d 33 9f 13 bd 5b 2f b3 3d
       -0.105805784 0.060564015 -0.036040496 0.08749267
000200 d0 7d 57 3e aa b7 00 3e 26 6f 79 3e dd 7e ce 3e
       0.21044087 0.12570062 0.24358806 0.40331164
000210 67 5b b3 3e a4 c8 b3 3d 25 da a8 3c 19 88 b2 3d
       0.35030672 0.087785035 0.020611832 0.08717365
000220 42 56 1c 3e 16 31 fc 3d 07 26 f1 bc 8d 5a db 3d
       0.1526728 0.1231405 -0.029437078 0.107106306
000230 90 b4 93 3d a8 91 93 bd 43 26 16 be b1 97 aa bd
       0.07212174 -0.07205516 -0.14663033 -0.08329714
000240 08 8a 41 be d0 5b b7 bd 3d 55 21 be ea 2d d1 be
       -0.18900311 -0.08953059 -0.15755172 -0.40855342
000250 c8 80 f7 bc 0d 5f 72 3d 5f 56 4d 3d 26 32 38 3d
       -0.030212775 0.05917268 0.050131198 0.0449697
000260 df c7 f1 bc db 0d 8e bb fe 2c aa bd e3 99 cb bd
       -0.029514251 -0.004335148 -0.08309363 -0.09941461
000270 7f ca a7 3d b4 7c 43 3e 13 a6 ac 3c 5a e0 94 3d
       0.0819292 0.19090539 0.021075284 0.07269354
000280 d6 6d 09 3c 0a e5 28 be a1 7b 33 be 18 44 44 bd
       0.008388003 -0.16493621 -0.1752763 -0.0479165
000290 49 d8 af 3e 44 c3 ee be 28 ab 55 bd b7 60 db 3d
       0.343447 -0.4663335 -0.05216518 0.10711806
0002a0 5a 04 b4 3d 46 59 14 3e 52 15 36 be 22 b8 66 be
       0.087898925 0.1448718 -0.1778157 -0.22531179
0002b0 24 42 9d be 96 13 c2 bd dc 94 89 be f6 6f 55 bd
       -0.30714524 -0.09476392 -0.26871383 -0.052108727
0002c0 78 e0 13 be 61 62 a0 bd a5 b0 9a be 7a 64 2c bd
       -0.14441097 -0.07831264 -0.30212894 -0.04208801
0002d0 2d 94 94 be aa 07 90 3c 13 57 45 3d 7d be 66 be
       -0.290193 0.01758178 0.048178744 -0.22533603
0002e0 1f 3c bd bd 6a a3 21 3e 19 47 dc be 5a 72 7f 3e
       -0.09239983 0.15784994 -0.43022993 0.24945965
0002f0 e8 fe 6c bd 85 7e 1b be 84 14 44 be 30 28 d1 3d
       -0.057860285 -0.15184982 -0.19148451 0.10212743
000300 37 23 55 bc 86 ee 49 3e c1 6a 8f bd fb 11 54 be
       -0.013008884 0.19719896 -0.070027836 -0.20709984
000310 10 5c fb bd 76 b8 90 3e b3 26 74 bd 4e d8 c5 be
       -0.12273419 0.28265733 -0.05960722 -0.3864159
000320 5c 5c 48 3e 75 fa cb bd 8f 3e 8b be 46 7d 43 3e
       0.19566482 -0.0995988 -0.27196166 0.19090757
000330 c5 dc fc bc f6 42 07 3d 4f 49 be bd 96 1d c1 3d
       -0.03086699 0.033022843 -0.09291326 0.09429471
000340 c8 65 9b be 58 a4 20 3e bb 33 5c bd 17 2e 14 3e
       -0.3035109 0.15687692 -0.05376027 0.14470707
000350 fe b2 8e be b3 06 25 3b 67 a1 c3 3d 26 35 42 bd
       -0.27870935 0.0025180995 0.095522694 -0.047413968
000360 15 3d c0 bd c5 77 0a bd 39 28 c5 be a1 3d 11 be
       -0.093866505 -0.033805627 -0.3850725 -0.14183666
000370 31 a9 e5 3d d5 73 bf bc 86 cc 15 3b d5 ca fe bd
       0.11213911 -0.023370663 0.0022857501 -0.12441031
000380 b0 3f e7 3d 23 64 e2 bd 02 e7 15 be 26 b9 60 3d
       0.11291444 -0.11054256 -0.14638904 0.05486407
000390 4b 13 dc 3a 61 61 36 bd bc be 02 bd 06 d3 07 be
       0.0016790418 -0.04452646 -0.03192018 -0.13264093
0003a0 13 51 00 3c 76 6c 81 3e 1a c1 95 bd 32 f8 52 be
       0.00783183 0.25278062 -0.07312222 -0.20602491
0003b0 5b 27 a3 bd 69 c0 e2 bd f7 15 1b 3e e2 10 ec bb
       -0.07966491 -0.110718556 0.15145098 -0.007204161
0003c0 db 6a 1b 3d 6a f8 2d be e8 45 36 bd 27 81 b1 3b
       0.037943702 -0.16989294 -0.04450026 0.0054170075
0003d0 61 92 ed 3d 77 82 ce bc c1 a1 d6 bd 00 46 d4 bc
       0.11600185 -0.025208695 -0.10480071 -0.025912285
0003e0 1c 97 b0 be 10 b3 2a 3e b0 0e bf bd 71 c9 df bd
       -0.34490287 0.1666987 -0.09328973 -0.10927094
0003f0 4d f3 30 be c1 22 db bc ce 8b d9 3d c3 d3 92 be
       -0.17280312 -0.02674997 0.10622369 -0.28677186

bias f4 [24]
000000 ac df ce bd e0 a2 2d be 4a 0b d2 bd 96 26 1e 3e
       -0.10101256 -0.16956663 -0.102560595 0.15444407
000010 a3 af e2 3c 2f 5d d2 3d 2e dd 6d bc 6b 32 58 be
       0.02767164 0.102716796 -0.014518065 -0.21112983
000020 b7 33 9b be c0 9e 11 3d 81 69 68 be 54 54 a2 3c
       -0.30312893 0.035551786 -0.22696497 0.019815601
000030 15 e6 bf bd 12 a3 fb bb 26 14 96 bc 10 03 68 be
       -0.093700565 -0.0076793516 -0.018320154 -0.22657418
000040 be 5f 2f bc 66 9d bc bb 7e bf 80 3e ed 9f 46 3e
       -0.010703979 -0.005756068 0.25146097 0.19396944
000050 bb 39 79 bd 56 85 2f be c2 22 37 be ab 2c 1a 3d
       -0.06084607 -0.17140707 -0.17884353 0.037640255

weight f4 [48, 24, 6]
000000 d1 b0 ce bd c1 5a 1d be 6e a9 b5 bd 6a 47 ef bd
       -0.10092319 -0.15366651 -0.08870207 -0.11683543
000010 2d f4 9b bd bb 22 e5 3d 60 2d e1 bd c9 42 0b be
       -0.07614932 0.11188265 -0.10994983 -0.13599695
000020 b4 a6 26 be 8d 89 81 be 04 46 b7 bd 1b 29 37 3d
       -0.1627453 -0.25300255 -0.08948901 0.044716936
000030 81 b6 c4 bd 76 29 cd bc 18 d1 dd be 53 13 25 be
       -0.09605122 -0.025044184 -0.43323588 -0.16120653
000040 5a c6 33 be 33 c7 39 be 2b af 59 be af 61 df be
       -0.17556134 -0.18142395 -0.21258228 -0.43629214
000050 a7 5f d4 be 48 17 e3 be 29 e8 ed be fc 50 6e be
       -0.41479227 -0.443537 -0.46466187 -0.2327308
000060 88 07 90 3e 1a c9 19 3e 17 c8 ce 3c 38 9a d0 3e
       0.28130746 0.1501812 0.025241895 0.4074266
000070 b0 a1 48 3d 6d 35 22 3e 08 b4 e1 3d ca fe 93 3d
       0.048982322 0.15840693 0.11020666 0.072263315
000080 38 c7 6f 3e 01 a6 0d 3d d6 ea 03 bd a5 0d b6 3c
       0.2341584 0.03458214 -0.03220638 0.022223303
000090 53 0d 9f 3e 5a 36 06 3f 3d fb 1e 3e 90 e6 04 3d
       0.31064853 0.52426684 0.15525527 0.032446444
0000a0 cf df 96 3e 95 f6 7b 3e 81 11 36 be e5 4b 47 be
       0.29467627 0.24605782 -0.17780115 -0.19462545
0000b0 47 fa fd 3d eb 89 7c bb f8 90 9d 3b ec d8 28 be
       0.12401252 -0.0038534354 0.0048085414 -0.16488999
0000c0 50 1a 88 bb aa 16 bb bc 2b c8 07 be fc 37 8c bd
       -0.0041535273 -0.022837956 -0.13259952 -0.06846616
0000d0 38 5a f4 bd ec a8 0b 3c fc dc ca bc b5 3a 6a bc
       -0.1193127 0.008524161 -0.024763577 -0.014296223
0000e0 46 a3 1a be ef 6f 6a 3d d7 3f 57 3d 16 ee 6a 3e
       -0.15101346 0.057235654 0.052551117 0.22942385
0000f0 52 d7 07 bd db df 86 be 02 a3 2b bd ce 94 d8 bd
       -0.03316433 -0.26342663 -0.041903503 -0.10575257
000100 bc 83 11 be 5a 08 4a bd e3 67 25 3e 89 62 6c bd
       -0.14210409 -0.04932437 0.16152911 -0.057711158
000110 43 c1 11 bd ba 73 14 bc d9 6c 5f 3d e7 d7 6c bd
       -0.0355847 -0.0090607945 0.054547165 -0.057823088
000120 9b e4 75 be a2 01 a5 be e9 60 84 bd 84 56 1f bd
       -0.24012987 -0.32227808 -0.06463797 -0.038900867
000130 33 66 4a be 2d 30 97 be fe e4 04 bd c2 cd 81 bd
       -0.19765548 -0.29528943 -0.032444946 -0.06338073
000140 75 65 ee bd 4b 1a 18 3e 59 0c 13 be 81 03 82 be
       -0.11640445 0.1485378 -0.14360179 -0.25393298
000150 f0 eb bb 3d ec e9 c7 bd 19 7e 74 be 8b c7 a7 bd
       0.09175861 -0.09761414 -0.23876227 -0.08192357
000160 2e 47 a5 bd 23 9e 56 be 2f 6d 0f 3e 32 40 1a bd
       -0.08070217 -0.20958762 0.14006494 -0.037658878
000170 43 f1 03 3d 78 3c 4b bd 98 3a e9 3d b7 ab 32 be
       0.032212507 -0.049618214 0.11388129 -0.17448317
000180 86 27 97 3d d1 de 2b 3d 49 e1 9e 3d 17 65 56 be
       0.07380585 0.04196054 0.077578135 -0.20937
000190 11 a6 7c be d5 c2 ef bc 6b 65 0d be eb 26 98 be
       -0.24672724 -0.029267708 -0.13808219 -0.29717192
0001a0 23 cb 09 bf 5f 11 aa be 52 3e 05 be 75 73 93 be
       -0.5382559 -0.33216378 -0.13012055 -0.28799024
0001b0 47 72 02 be 9f b9 97 be 6b 10 f7 be fa 2a 98 be
       -0.12738906 -0.29633805 -0.48254713 -0.2972029
0001c0 67 51 fa be a1 95 ba be a0 d3 31 be 1f 59 60 be
       -0.4889023 -0.36442283 -0.17365885 -0.21908997
0001d0 60 e9 a9 be 61 fd 07 bf af 08 1f bf 57 60 ab bd
       -0.33185863 -0.53121 -0.62122625 -0.08367985
0001e0 fd 69 68 be 9b 11 0a 3c d8 46 da bd 6d 59 a2 bd
       -0.22696681 0.008427049 -0.106580436 -0.07927213
0001f0 cb ad c1 3d 8c 06 9a be 30 4f 1a 3d 35 9b 12 3d
       0.094569765 -0.3008312 0.037673175 0.03579255
000200 66 42 9e be ec 17 78 3d 43 1f 59 be 7a 2f bc bd
       -0.30910033 0.06056969 -0.21203332 -0.09188743
000210 97 cb 19 be f5 ba 60 be 28 fb 2f be 6a a1 ea be
       -0.1501907 -0.21946318 -0.17185652 -0.45826274
000220 95 e1 0c be ae d4 99 be 57 71 08 3e 26 69 be 3d
       -0.13757928 -0.30045074 0.13324486 0.09297399
000230 80 b8 3d be 6d 10 9f bd d9 09 d9 bd d8 be bb bb
       -0.18527412 -0.07766805 -0.105975814 -0.0057295375
000240 c0 38 40 3d 3d bf 10 3e d0 31 01 bd 89 ab 79 bd
       0.04692912 0.14135452 -0.031541646 -0.060954604
000250 08 c7 32 3e 18 7d 74 3e be 7e 54 bd 6b 45 82 3e
       0.17458737 0.23875844 -0.051878683 0.25443587
000260 85 fb 22 be c8 5a 82 3e 84 4e 8f 3c 68 47 9d bc
       -0.1591626 0.25459886 0.017493494 -0.019199088
000270 39 ce 25 bd cd 7f 81 be 48 31 89 be f0 b4 1f 3e
       -0.040479872 -0.25292817 -0.2679541 0.15596366
000280 f0 26 ab 3d 25 25 03 bd 9a 7e 89 bd b4 a9 2e bd
       0.08357036 -0.032017846 -0.067136005 -0.04264231
000290 c3 65 d6 3d 0e 1b 2d bc 5b e9 c1 bd 23 eb 63 3d
       0.10468628 -0.010565532 -0.09468337 0.055644166
0002a0 07 05 43 3e 49 8a cb bd a9 e9 f1 bc 58 2c 82 3d
       0.19044887 -0.09938485 -0.029530363 0.06356114
0002b0 e1 72 b8 be 8c 7a 10 3e 45 55 0d be fe c7 7e be
       -0.36025146 0.14109248 -0.13802059 -0.24880978
0002c0 e3 77 2a bd 16 c5 b4 bd 5a db 08 3e 00 e3 77 bd
       -0.04161824 -0.08826654 0.13364926 -0.06051922
0002d0 e1 71 91 be cf 0d 9a be 9d 24 80 be 89 00 8d be
       -0.28407195 -0.3008866 -0.25027934 -0.2753947
0002e0 aa 20 10 be 1d 0c c1 be 02 ff f4 bd 0a 70 f2 be
       -0.1407496 -0.37704554 -0.119627014 -0.47351104
0002f0 2b 40 5a bd 06 c2 a0 be 56 6d 2a be 32 d9 88 be
       -0.05328385 -0.31398028 -0.16643271 -0.26728207
000300 2b de d0 bc 84 e0 26 be b0 45 92 3c 45 db a0 be
       -0.025496563 -0.16296583 0.017855495 -0.3141729
000310 ee 45 00 3e e4 10 9c be 95 0d 4c 3e b1 ad 2e be
       0.12526676 -0.30481637 0.19927056 -0.17058446
000320 25 bb 35 bd 92 16 8d 3d 9f af f5 3c e3 8f 8c be
       -0.044367928 0.068890706 0.02999097 -0.27453527
000330 c8 00 ca be d2 16 99 be 0f bd 36 be 70 47 d4 bc
       -0.3945372 -0.29900223 -0.17845558 -0.02591297
000340 67 f5 aa be a0 4f b0 be ea cb 8f be 19 78 0c bd
       -0.33390352 -0.3443575 -0.28085262 -0.03429422
000350 f2 02 5f 3e f6 91 bc 3e cb e0 d8 bc a3 d5 7f bc
       0.21778467 0.3683011 -0.026474377 -0.0156149
000360 c3 fa 68 3d a4 d0 6d be 4e bf db 3d b0 58 4f bd
       0.05687977 -0.23224121 0.10729848 -0.05062169
000370 ab a8 a6 bd b6 da 79 3c 72 ec bf bc 0d ae 66 be
       -0.081376396 0.015249899 -0.023428176 -0.22527333
000380 ec 34 65 3e e9 59 60 3c 02 de 54 bb 18 eb 66 be
       0.2238347 0.013693311 -0.003248096 -0.22550619
000390 cc 80 9e 3c 69 7f 1d be d8 b2 3b 3d d0 0f 89 be
       0.019348525 -0.15380634 0.045824856 -0.26769876
0003a0 fe d8 7e bd f5 6a 84 3d 13 d6 ff 3d d4 8e b1 3e
       -0.06221866 0.06465713 0.12492003 0.34679282
0003b0 1b 44 94 3c be e2 1f 3d 2f c8 37 3e 55 25 1a 3e
       0.018098881 0.039034598 0.17947458 0.15053304
0003c0 f3 62 09 be 57 c7 fb 3b de ee 81 3e 92 30 19 be
       -0.13416652 0.0076836753 0.25377554 -0.14959934
0003d0 5c f4 65 3e e8 ee ec bc 43 c5 1c 3e e1 2c af bd
       0.22456497 -0.028922513 0.15309624 -0.08553482
0003e0 58 5d 38 be 2d 7b e5 bd f6 7d 05 3e 0d bf b9 3e
       -0.18004358 -0.112051345 0.13036332 0.36278573
0003f0 72 66 4b bd 41 0e 83 3e cd d4 42 be e5 e9 96 bd
       -0.049658246 0.25596812 -0.1902649 -0.073688306

bias f4 [48]
000000 9e f8 45 3e c0 c7 70 3d f4 05 cc bc 3e 91 ff bd
       0.19333121 0.058784246 -0.024905182 -0.124788746
000010 b3 6a 26 be 79 9e a4 be 5b 2c 76 3e df ff 0d be
       -0.1625164 -0.32152155 0.24040358 -0.13867138
000020 fd c4 87 bc 2d 05 2e be 64 3b d4 3d 27 c1 93 3e
       -0.016573424 -0.16994162 0.1036289 0.288583
000030 ed 77 53 be 8a b2 2a 3e ef bc 9b 3e 58 fc 22 3e
       -0.20651217 0.1666967 0.30417582 0.15916574
000040 97 84 34 be e1 5f 56 3e 22 f9 18 be 06 27 b2 bd
       -0.17628704 0.20935012 -0.14938787 -0.086988494
000050 08 25 d1 3d 9e c6 14 be 67 e5 0f 3e a9 f7 31 be
       0.10212141 -0.14528891 0.14052354 -0.17379631
000060 e5 56 b3 be 52 59 65 3e 84 b0 2e 3e f4 2f 29 3e
       -0.35027233 0.22397354 0.17059523 0.16522199
000070 c5 51 7c be 56 7d 4a be 4b 79 3e 3e 96 73 eb 3d
       -0.24640568 -0.19774374 0.18600957 0.11496656
000080 96 85 1d be 3e 6d f8 3d 17 12 36 3e dd f9 8e 3d
       -0.1538299 0.12130211 0.17780338 0.069812514
000090 50 c7 1c be 68 e0 1e 3d 31 72 83 3d f4 51 8f 3d
       -0.15310407 0.03878823 0.06418265 0.06998053
0000a0 e8 3d 08 3c 2d 79 67 be f1 10 3f 3e a9 68 d0 bd
       0.008315541 -0.22604819 0.18658806 -0.10176212
0000b0 48 33 40 3e fc 7f 6d 3e ad 83 e1 3d f7 dc 47 3e
       0.18769562 0.23193353 0.11011443 0.19517885

weight f4 [64, 1344]
000000 a7 c1 38 bd ba c9 a0 bd 30 0a 24 be 40 b6 09 bd
       -0.045106556 -0.07850976 -0.16019511 -0.033621073
000010 8e d7 00 3e cf d4 66 be 0a 4d 42 be 94 b9 8d bc
       0.12582228 -0.22542118 -0.189747 -0.017300405
000020 6f 88 40 bc 51 fb e6 bd e9 a5 6d be 93 16 71 bd
       -0.011751278 -0.112784036 -0.23207821 -0.05885942
000030 e7 16 32 3d 65 23 80 3d 41 f6 21 bd e9 de 9b 3d
       0.043478873 0.06256751 -0.039541487 0.07610876
000040 0c d6 17 3e 0a b9 ac bd ef 47 00 be 3c 24 da b8
       0.14827746 -0.08433731 -0.1252744 -0.00010401799
000050 c6 a7 c6 bd db ae 98 3d 54 20 c0 bd db 82 80 3d
       -0.09699969 0.07455226 -0.09381166 0.06274959
000060 f1 4b 21 3e ed c8 14 bb fb ff 29 3e 87 81 06 bd
       0.15751626 -0.002270277 0.16601555 -0.03283837
000070 17 61 44 3e af 9c ff 3d 39 f3 21 bd 02 1b 87 3e
       0.19177662 0.12481057 -0.039538596 0.26387793
000080 7c 7e bc bd ec 55 bd bd b4 ee 6e bd 2e da 1f bd
       -0.092038125 -0.09244904 -0.058333114 -0.03902643
000090 3d 64 31 3d 98 e3 0d 3c 55 d5 47 3d a0 62 3d bd
       0.043308485 0.00866022 0.048787434 -0.046236634
0000a0 20 e3 9d bd 3c a0 a4 3d f7 25 70 be 54 f9 66 bd
       -0.07709336 0.08038375 -0.23451982 -0.05639012
0000b0 5d 5e 97 3d c0 6c 64 3d f8 fb 3c be 43 31 bf bd
       0.07391045 0.055767775 -0.18455493 -0.09335568
0000c0 2a 3a f4 3c ed 63 b7 bd 06 c3 a1 be 13 cb 9d 3e
       0.029812891 -0.08954606 -0.31594104 0.30818996
0000d0 9f da 5d 3e 71 ab b8 bd fa 92 bb bc ed 1d b6 3e
       0.21665429 -0.09017075 -0.022897232 0.35569707
0000e0 f7 61 28 3d 96 fa 24 bd 04 7d 45 be 39 41 a7 bc
       0.04110905 -0.04027804 -0.19285971 -0.020416843
0000f0 26 fa 7e be 66 73 76 bd 35 97 7c bd 5e d5 8b 3d
       -0.24900112 -0.060168646 -0.06166764 0.06827806
000100 7a 67 08 3d 49 94 9d be 54 49 6f 3c 69 85 9f bd
       0.033301808 -0.30777195 0.014604885 -0.07789118
000110 e5 10 24 3e 4b bc d0 bd 2e 1d 02 3e 57 15 92 3e
       0.1602207 -0.10192164 0.12706444 0.28531906
000120 7d 0a 6a 3d dc 0d 7a 3e 24 92 01 3e 83 0b 6f 3e
       0.05713891 0.2441935 0.12653404 0.23344235
000130 ac e6 22 3e e1 8b cb bd c2 5d 68 3c 98 1b 64 3e
       0.15908307 -0.09938789 0.01418251 0.22276151
000140 37 9d b6 3e a0 fd 3c bc e5 ae 06 be 1f 25 8d bd
       0.3566682 -0.011535078 -0.13152654 -0.06891846
000150 70 d0 ec be e8 02 fc 3d a5 25 89 3e b9 66 20 3e
       -0.46252775 0.12305242 0.26786533 0.15664186
000160 5e c4 25 be 5d 9a b3 3c 9d 4c 9d bd b6 70 5c be
       -0.1618819 0.021924192 -0.076806284 -0.21527371
000170 82 6e ae be 6a c7 ea 3d 0c 95 8f 3d ba 06 79 be
       -0.34068686 0.114638165 0.0701085 -0.24318972
000180 47 c8 43 be 8c 35 de 3d da 9a 1c 3e 74 39 1f 3e
       -0.19119368 0.10850057 0.15293446 0.1554926
000190 29 28 bf 3c 93 97 42 3e bf 1b 86 3d df 02 fb 3d
       0.02333458 0.19003133 0.06548261 0.12256407
0001a0 8e df 92 bc 21 40 6e 3e 43 84 e1 bc 41 9c 19 be
       -0.017928865 0.2326665 -0.027528888 -0.15001012
0001b0 03 89 19 bc 58 45 2e bb 5c 10 81 3d 01 50 8c 3e
       -0.009371045 -0.0026591625 0.063019484 0.27404788
0001c0 c2 62 5d be cf 4f 97 bd 36 11 38 be e2 e1 0f 3e
       -0.21619704 -0.07388269 -0.17975315 0.14051011
0001d0 c8 fb b3 3d d1 8f b9 3d 67 d4 1e be 82 8b bd 3d
       0.08788258 0.09060634 -0.15510713 0.09255125
0001e0 86 d3 c0 3c f2 a2 b9 bb 6a 46 59 be 54 1a 97 bd
       0.023538362 -0.0056651765 -0.21218267 -0.073780686
0001f0 6a 94 e9 3d 87 cd 00 3c 10 36 e5 3c 1f 4e 87 bd
       0.11405261 0.007861502 0.02797988 -0.06606697
000200 c5 e6 ab bd e0 66 c4 ba 30 0f 93 bd c4 3e c0 bb
       -0.08393625 -0.0014984272 -0.07180631 -0.0058668572
000210 79 6c ec bd ca 29 d1 bd cd 7e 0e 3e ca 24 4c be
       -0.11544127 -0.10213049 0.13915558 -0.19935909
000220 72 8e ff bd f6 1f 77 be ac db a5 be 7d ec 87 be
       -0.12478341 -0.24133286 -0.3239416 -0.26547614
000230 f7 b0 3c be 30 46 4c be 22 ce 2f be 74 4a 52 bc
       -0.18426882 -0.1994865 -0.17168477 -0.012835134
000240 b0 dd 14 be 43 1c 81 3d 7d 0d 79 3e 6e 4b 95 3e
       -0.14537692 0.063042186 0.24321552 0.2915911
000250 4e 7e fb bc c0 6f 16 3d 20 81 fb 3d 3d 13 c7 3e
       -0.030699875 0.036727667 0.12280488 0.38881865
000260 42 86 97 3e d8 85 d5 3d ef c9 3b 3e fa df 12 3c
       0.29594618 0.10425919 0.1833875 0.008964533
000270 1e 82 aa 3d 6a 61 09 be 94 3e 23 3d 75 e9 0c be
       0.08325599 -0.13416067 0.0398546 -0.13760932
000280 54 4f 8b 3c c3 8a 96 3b e3 b1 9b 3d 2c ca 74 be
       0.0170056 0.0045941784 0.076022886 -0.23905247
000290 b0 3e 24 be ee 1a 3d be 3f 76 e6 bd b9 23 f5 bc
       -0.16039538 -0.18467304 -0.112530224 -0.02992426
0002a0 f0 35 ac be 4e a5 c5 bd ab a4 57 be 9e d2 0a be
       -0.336349 -0.0965067 -0.2105891 -0.13556907
0002b0 69 0a ac bd e2 3b b1 bc cb a5 be be 1b 15 01 be
       -0.08400423 -0.021635 -0.37235865 -0.12605707
0002c0 36 4d 5a be 79 b5 8f bd ef 12 4f be 7c 22 60 be
       -0.21318516 -0.07017035 -0.20222066 -0.21888155
0002d0 bd 86 36 3d 3b b8 13 bc 18 89 22 bd fd 25 a0 be
       0.04456209 -0.009016092 -0.039681524 -0.31278983
0002e0 60 ae 24 be ed 04 1f bc a9 a4 f9 bd 45 1b 83 be
       -0.16082144 -0.009705764 -0.121896096 -0.25606743
0002f0 32 f9 2b be aa 5c bf bd 78 5e c3 bd 2d 9f bc be
       -0.16794279 -0.09343846 -0.09539503 -0.3684019
000300 04 07 f1 bd 98 24 6a bc 17 34 28 3b ec 1c 50 bd
       -0.11768916 -0.014290951 0.0025665814 -0.050808832
000310 d9 44 f6 bd d2 35 e5 bc 70 33 07 3d b9 3b b4 3d
       -0.120248504 -0.027979765 0.03300804 0.08800454
000320 aa 3d 8c bd fd 26 66 be 73 0b 91 3d c8 0e 17 be
       -0.06847699 -0.2247581 0.07082262 -0.14751732
000330 f2 79 3a 3e 74 d0 25 be 1c 84 d6 bd 6d 09 4f ba
       0.18210581 -0.161928 -0.104744166 -0.0007897828
000340 87 49 9c bd b4 e5 ce 3a c5 35 ec bc 55 16 5b bb
       -0.07631212 0.001578501 -0.028834233 -0.003343006
000350 0e 4a 81 3d 7b 5d 65 3c 70 1f 1f 3e 14 e2 81 bd
       0.06312953 0.013999338 0.15539336 -0.06341949
000360 29 50 9c 3d 8c dd 17 bd 46 00 25 bd 27 26 81 be
       0.07632477 -0.037076518 -0.040283464 -0.2522442
000370 22 db 4c be 17 fd 28 3d 51 ae 90 3d 00 68 4d 3e
       -0.20005468 0.04125699 0.07064498 0.20059204
000380 7a 95 28 3e 23 e6 2a bd 14 a3 1f be 40 15 15 3e
       0.16463271 -0.04172338 -0.15589553 0.14558887
000390 c4 89 26 3d a0 ad 31 3e 01 c8 3a bd 82 86 4b bd
       0.040658727 0.17351389 -0.045600895 -0.049688824
0003a0 5b 30 ab 3d 34 6a 5a 3e 19 a4 2d 3e c9 29 02 be
       0.083588324 0.21329576 0.1695713 -0.12711252
0003b0 3c 5e 35 3e b8 9a d9 bd 14 0a 0f 3d ad 00 d1 bd
       0.17711729 -0.106252134 0.03492172 -0.10205207
0003c0 6f 3f 76 3e 8f 99 42 be e5 a6 d0 3d ef 0c 2b 3e
       0.24047635 -0.1900389 0.101880826 0.16704153
0003d0 b3 b3 06 3e 88 48 ff bc 28 01 a1 bd b1 11 86 bc
       0.13154487 -0.031162515 -0.07861549 -0.016365858
0003e0 d1 ed ea 3d 5d aa 6d 3e 6e 97 a0 3b 46 ba ab be
       0.11471141 0.2320952 0.0049008643 -0.33540553
0003f0 f5 36 fd 3e 9e 76 0a 3e a1 ad c0 3d ae 77 60 3e
       0.4945599 0.13521811 0.09408117 0.21920654

bias f4 [64]
000000 4e ee fb bd 5c 8c 26 be 7a e3 11 3e d8 1e 3e be
       -0.123013124 -0.1626448 0.14246932 -0.18566453
000010 96 f6 01 3e 1c 28 2b 3e 73 cc 00 be 4e 46 74 3e
       0.12691721 0.1671452 -0.12577991 0.23854944
000020 a6 92 18 3e 1f 4b 8a 3e f0 e1 57 bd a9 d0 b3 bd
       0.14899692 0.27010438 -0.052705705 -0.08780033
000030 ac 6b 8a 3e ae e1 51 bc ef 47 b1 bd c9 50 3c bd
       0.27035272 -0.012810154 -0.08656298 -0.04597548
000040 b7 70 18 be 77 4f 3d be 9b d4 f6 3d b5 92 dd bb
       -0.14886747 -0.18487345 0.1205227 -0.0067618736
000050 20 03 0f be 92 b5 5d be 3c 93 0d be 75 45 1e bc
       -0.13966036 -0.21651295 -0.13825697 -0.0096601145
000060 a4 a1 37 be 38 9e f8 3c 0c ee 04 bc dc 88 38 3d
       -0.17932755 0.030348882 -0.008113395 0.045052394
000070 9f 6d 17 3e 00 b3 10 3c b6 85 35 3e 9b b6 43 3e
       0.14787911 0.008831739 0.17726788 0.19112627
000080 c4 34 1d be c6 6d 3f 3e 5d 3f a3 3d a9 98 fd bd
       -0.1535216 0.18694219 0.0797107 -0.12382633
000090 67 c9 3a be 88 78 9d 3e 46 5e 0a bd 2f 66 cc 3d
       -0.18240891 0.3075602 -0.033781312 0.099804275
0000a0 c8 77 6e bd 03 e2 fb bd 19 89 10 be fe 34 48 be
       -0.0582197 -0.12298968 -0.14114799 -0.19551465
0000b0 5b 39 74 be 2a fb f6 3d b4 27 c2 bc da 33 64 be
       -0.23850004 0.120596245 -0.023700573 -0.22285405
0000c0 a0 76 81 3e 34 08 99 bc 8a b1 ef bd 9e e3 3c 3e
       0.25285816 -0.01868067 -0.11703785 0.18446204
0000d0 17 7d cb bd 6e 6e 51 3e 5d 94 3b 3d b4 ff c1 be
       -0.09935968 0.20452282 0.045795787 -0.37890399
0000e0 fa 9e 0a 3e fd 20 10 be 19 e9 38 3d 0e 71 c3 3d
       0.13537207 -0.14075084 0.045144174 0.09543048
0000f0 3d 41 57 bd a4 28 c6 bd f2 54 df bc 9a 65 22 3d
       -0.05255245 -0.0967572 -0.027262185 0.039647676

weight f4 [25, 64]
000000 27 67 78 bd 43 3c a2 bc c6 33 24 3d ef be 55 3e
       -0.06064525 -0.019804126 0.040088437 0.20873617
000010 cc de 08 3d b5 4e 7a 3e 3f 50 b5 3d cb 35 e9 3d
       0.0334156 0.24444087 0.08853196 0.11387213
000020 7f bb 20 3e 50 ad 93 3d 88 94 e1 bd 9f 3a 44 be
       0.15696524 0.07210791 -0.11014658 -0.19162987
000030 f0 77 c6 3d 50 a4 6a be f0 b0 9f bd 96 0f 6b bd
       0.09690845 -0.22914243 -0.0779742 -0.05738791
000040 27 95 a3 be d9 32 45 be d1 32 73 3e 59 ac af bd
       -0.31949732 -0.19257678 0.23749854 -0.085777946
000050 e3 78 07 be 38 18 c3 be c6 33 b6 3d 9c 7e 92 be
       -0.13229708 -0.38104415 0.08896594 -0.2861222
000060 ab 0d 0b be dd be 36 be 1a dc 3f 3e 22 c7 81 be
       -0.13579433 -0.17846246 0.18736306 -0.2534724
000070 f5 aa 03 3e dc bb ae 3e e2 42 04 3e f5 85 5d be
       0.12858184 0.341277 0.12916139 -0.21633132
000080 1c 92 cc bd 4b bc 89 3e 29 b4 09 be b3 51 b9 3d
       -0.09988806 0.2690147 -0.13447632 0.09048786
000090 af 08 39 be 67 b1 ae 3e 44 47 79 3e 4a e2 a7 3d
       -0.18069719 0.34119722 0.24343592 0.08197458
0000a0 22 04 ac bd 79 f8 af be d4 d9 19 3d 5b aa a3 be
       -0.08399226 -0.34369257 0.037561253 -0.31965908
0000b0 55 33 b4 be fc 23 53 3e c5 ca 9d be 1c b6 aa 3d
       -0.35195413 0.20619196 -0.30818763 0.08335516
0000c0 cd 04 64 3e 38 11 14 be 04 25 98 bc b9 43 8d 3e
       0.22267456 -0.14459693 -0.018572338 0.2759073
0000d0 51 d9 9c bd c4 23 90 3e 57 30 c0 3e 2d 74 54 be
       -0.07658637 0.28152287 0.3753688 -0.20747443
0000e0 56 69 ee 3d 63 03 29 be 69 5f 47 3d 25 63 7c 3e
       0.11641185 -0.16505198 0.048674975 0.24647196
0000f0 a9 7a 1f be 41 85 0b 3e 93 0b 81 3e ab d0 29 3e
       -0.15574135 0.13625051 0.25204143 0.16583507
000100 d3 cd 0e be 1a 9f 7c 3d 1c 40 8d 3e 9c db a1 3d
       -0.13945703 0.06167517 0.27587974 0.07903215
000110 b4 bd 48 be a6 6a 99 bd bf 84 c3 bd 87 b1 c1 bd
       -0.19603616 -0.07491045 -0.09546804 -0.09457689
000120 ef df 2e be 48 db 83 be 3d f6 15 be 64 f0 a1 3d
       -0.17077611 -0.25753236 -0.14644714 0.07907179
000130 72 7c 59 be 47 9a 23 be 10 ae ba bd b5 2c c6 3d
       -0.21238878 -0.15976821 -0.09115231 0.09676496
000140 38 01 84 3e 91 f5 68 be 45 59 b2 bc 68 f8 2c be
       0.2578218 -0.22749926 -0.021771083 -0.16891634
000150 66 32 6f 3d 64 ca 6a bd 53 23 7c be 70 bd 92 3e
       0.058397673 -0.05732192 -0.2462285 0.28660154
000160 7a 7a d9 bd a9 dc e2 3c 44 fa 85 3e 84 11 1c 3e
       -0.10619064 0.02769311 0.261675 0.15241057
000170 a0 21 ad bd 71 72 6f bd cf be 65 be f7 6a 87 3d
       -0.08453679 -0.05845875 -0.22436069 0.06612199
000180 f3 2e 49 3d 2d 38 6d 3e e9 3c 22 3e a8 aa e6 3d
       0.04911704 0.2316596 0.15843548 0.11263019
000190 7a 92 3f 3e 13 37 40 3e 02 00 0f 3e 5a 6d 36 be
       0.1870822 0.18771009 0.13964847 -0.17815152
0001a0 a6 10 83 be e1 a7 d5 3d f9 9c 02 3d a5 e8 36 bd
       -0.2559864 0.10432411 0.031887982 -0.04465546
0001b0 78 7b 64 be 47 43 86 3e 30 8f a1 3e 89 38 03 be
       -0.22312725 0.26223204 0.31554556 -0.12814535
0001c0 81 5e 79 bc ad 4b 07 bd 8e 10 d6 3d 36 ae f6 3d
       -0.015220285 -0.033031154 0.10452376 0.12044947
0001d0 fc 5c 60 bd 4c ca 38 bc 6b 1c 79 be 2a f6 1f bd
       -0.054776177 -0.0112787 -0.24327247 -0.03905312
0001e0 67 36 b8 bc 6b 43 07 be 68 4c 3f 3e c4 a1 b6 bd
       -0.022486879 -0.13209312 0.1868149 -0.08917573
0001f0 57 53 1c 3e 7e 23 db bd f2 26 a3 be f4 18 c6 bc
       0.15266167 -0.10700129 -0.3186565 -0.02418182
000200 34 58 3a bd 3f e2 57 be d2 f9 af 3e b3 6f ae be
       -0.045494273 -0.210824 0.34370285 -0.34069595
000210 96 01 38 be 6d 87 b9 bd 6b ef c1 3c 03 1f 03 be
       -0.17969355 -0.090590335 0.023673734 -0.12804799
000220 13 e5 81 3e 13 6c 2d 3e bd 4a 58 3c de 82 22 be
       0.25370082 0.16935758 0.013201413 -0.15870234
000230 11 b9 49 3e 7d f9 0b be 3b 64 85 be 32 62 27 be
       0.19699503 -0.13669391 -0.26053032 -0.16346052
000240 57 d7 2f 3d cc 19 27 bd 46 2b 4a be 64 97 66 be
       0.042929973 -0.040796086 -0.1974307 -0.22518688
000250 bf 89 25 be 39 92 56 be cc b6 f5 bd 22 76 28 3d
       -0.16165827 -0.20954217 -0.11997756 0.041128285
000260 dc 28 ef bd eb 32 0f be ca 4b 72 3e 7f 20 6e 3c
       -0.11677715 -0.13984267 0.23661724 0.014534115
000270 a1 89 3f be b6 84 c5 3d 24 b5 8c 3e b7 eb 72 3d
       -0.18704845 0.09644453 0.2748195 0.059306826
000280 fc 74 0d bf 0c 6c 53 be 24 58 00 3e 0a f6 03 3e
       -0.5525663 -0.20646685 0.12533623 0.12886825
000290 56 24 a1 be af 54 22 3d b2 d0 d0 3d d8 0f c9 3c
       -0.31473035 0.03963154 0.101960555 0.024543688
0002a0 6f 5e 80 be 1c fd 91 be 8f 5f 0b bc ea 0d c9 3d
       -0.25072047 -0.2851342 -0.00850667 0.09817107
0002b0 b2 30 7a be 00 51 b3 be 35 83 79 be 88 02 cf bd
       -0.24432638 -0.35022736 -0.24366458 -0.10107905
0002c0 25 1e a9 3e 5c f1 63 3e d6 40 40 be d1 22 90 3e
       0.3303081 0.2226004 -0.18774733 0.28151563
0002d0 6a 01 06 3c 3d a3 63 3e 5b e7 89 3d 38 03 7f be
       0.008179048 0.22230239 0.06733581 -0.24903572
0002e0 3f 42 d4 3d 7c 70 26 be 23 04 65 bd 65 14 2d 3e
       0.10364198 -0.16253847 -0.05591215 0.16902311
0002f0 ab c5 51 be 33 a8 29 be 4f a5 b9 3d a5 d5 fe bb
       -0.2048556 -0.16568069 0.09064733 -0.0077769333
000300 db a0 06 bd 74 a5 8b 3c 71 83 8e 3d dd 60 0c 3c
       -0.032868247 0.017046668 0.06958664 0.008568016
000310 ef 5e b3 3d c7 4c 06 3e 6f 00 cd be 00 a9 99 bd
       0.087583415 0.13115226 -0.40039393 -0.07502937
000320 16 f1 ac bd 9e 91 78 3e 47 69 4b bd 73 10 9f bd
       -0.08444421 0.24274299 -0.049660947 -0.07766809
000330 b6 46 7c 3e 8b e8 9d be a5 25 c0 bd 81 3c 9d 3d
       0.24636349 -0.3084148 -0.0938218 0.07677556
000340 7d ef 22 3e da f4 5e 3e ab 82 05 bb c2 e1 5a 3e
       0.1591167 0.21773091 -0.0020372074 0.21375182
000350 55 4e 35 be 11 42 28 3e c6 bb 0c bd ef 35 81 3e
       -0.17705663 0.16431452 -0.034358762 0.2523646
000360 84 cf 24 be 0b e1 c1 bc f9 83 80 3d b0 d5 f0 3d
       -0.16094786 -0.02366688 0.06275172 0.11759508
000370 d2 75 81 be f3 b2 92 be b0 46 ae 3e d5 0c 54 3e
       -0.25285202 -0.28652152 0.34038305 0.2070802
000380 53 70 7c 3d 55 65 9a bc 4a 6c c7 3e 61 a1 36 3e
       0.06163056 -0.018847147 0.38949805 0.17834999
000390 4d 7f 87 3b 31 0c 7d 3d 7c 48 13 3e cd f0 2f bd
       0.0041350485 0.061779205 0.1438312 -0.042954255
0003a0 b5 2e bf bd 47 4e 3a bd fa cc ba bc 2b 39 d1 3d
       -0.093350805 -0.045484807 -0.022802819 0.10215982
0003b0 40 dc a0 be 68 91 36 3c 56 77 a4 be 29 3c ca bc
       -0.31418037 0.011143066 -0.32122296 -0.02468689
0003c0 3c a0 a9 3b 3b b1 22 3e d5 15 fc 3d 7a e1 88 3e
       0.005176572 0.1588792 0.12308852 0.26734525
0003d0 31 49 5b 3d c3 f1 de 3d 41 47 ae 3e 95 59 2d bd
       0.053536598 0.10885956 0.34038737 -0.04232176
0003e0 54 eb 0c be 1e 5a 4a 3c 14 eb 43 3e 0e 9e 8f 3b
       -0.13761646 0.012350587 0.19132644 0.0043828553
0003f0 e6 78 dd bd e5 a9 33 be 64 9a 88 3e 30 d6 55 be
       -0.10814075 -0.17545278 0.2668029 -0.20882487

bias f4 [25]
000000 c7 b2 59 3e b2 f0 c1 3e 98 06 c5 3e 91 e2 36 3e
       0.21259604 0.37878948 0.38481593 0.17859866
000010 5f 1c 3e be 03 50 0c be e0 50 a0 3e 83 a2 89 3e
       -0.1856551 -0.13702397 0.31311703 0.268818
000020 82 8d 2f 3e f7 c3 47 bd 56 2b 65 3c e0 ac 86 3e
       0.17143825 -0.04877087 0.013987383 0.26303768
000030 91 00 23 3e d7 10 60 be 72 94 96 bd 5e dc 49 3e
       0.15918185 -0.21881424 -0.073525324 0.1971297
000040 76 8f 58 3e 51 94 42 bd 24 a3 c2 3d 5b 78 c0 bd
       0.21148476 -0.047504727 0.09503773 -0.09397956
000050 ba 69 97 3e bb da c7 bc ea 2f 4f 3d 29 3f d8 be
       0.2957285 -0.024396291 0.050582804 -0.42235687
000060 ac b4 33 bf
       -0.7019756
