result/config4_main/preliminary_model12.pt (torch_old, 482251 bytes, 8 tensors)

weight f4 [12, 2, 192]
0	0x3dab87e6	0.0837553
1	0x3e9be130	0.30445242
2	0x3df84e78	0.12124342
3	0x3c6fdc1a	0.014639879
4	0xbd93aa9e	-0.07210277
5	0xbd251d94	-0.04031141
6	0x3eba5478	0.3639257
7	0x3e0fde92	0.14049748
8	0x3d72c0bd	0.05926584
9	0x3cb7c1b1	0.022431226
10	0xbe8777ed	-0.26458684
11	0xbe41b0ec	-0.18915147
12	0x3e5f427e	0.21802709
13	0x3de4df02	0.11175348
14	0x3da6ee66	0.0815094
15	0x3e2d835f	0.16944645
16	0xbe36807c	-0.1782245
17	0x3d372fe3	0.044723403
18	0x3d75fd66	0.060056113
19	0xbdeba8f1	-0.115068324
20	0x3dd13448	0.1021505
21	0xbddb2639	-0.1070065
22	0xbe2fb51d	-0.17158933
23	0xbcdafb0d	-0.026731038
24	0xba40b6c5	-0.00073514535
25	0xbd177c52	-0.036983795
26	0x3bd02785	0.0063523673
27	0xbe209960	-0.15683508
28	0x3d0dec12	0.034648962
29	0x3bad6f04	0.005292775
30	0xbe5b29fd	-0.21402736
31	0xbe95f38b	-0.2928737
32	0xbdc7e833	-0.09761085
33	0x3e4dc911	0.20096232
34	0x3e0ec1de	0.13941142
35	0xbd0511ab	-0.032487553
36	0xbe1db2b3	-0.154002
37	0xbe0800b3	-0.13281517
38	0xbd5fdbef	-0.054653104
39	0xbe0dac00	-0.13835144
40	0x3d6cf2a1	0.057848576
41	0x3cbb15f4	0.022837617
42	0xbe078ab6	-0.13236508
43	0xbd8b5ffa	-0.068054155
44	0xbd27027f	-0.040773865
45	0x3e991f1a	0.2990654
46	0xbc349b2d	-0.011023325
47	0x3e2038f5	0.15646727
48	0x3e1a5cab	0.15074413
49	0xbe071f0c	-0.13195437
50	0xbc75ed12	-0.015010135
51	0xbe29cf10	-0.16582894
52	0xbbc56358	-0.0060238056
53	0x3e39642c	0.18104619
54	0x3e3135f4	0.17305738
55	0xbd575746	-0.052573465
56	0x3c20d4ea	0.009816388
57	0xbe24b4de	-0.1608462
58	0xbde94c98	-0.11391562
59	0xbdf6a751	-0.12043632
60	0x3e4d27cb	0.20034711
61	0x3ec89f5d	0.39184085
62	0x3e0541c9	0.13013376
63	0xbc1604d2	-0.009156423
64	0xbe59ce06	-0.21269998
65	0xbe1b45e9	-0.15163387
66	0xbdbbb1ce	-0.09164773
67	0xbe01664c	-0.1263668
68	0xbeaaa278	-0.3332708
69	0xbdcecccb	-0.10097655
70	0x3df14a3f	0.117817394
71	0x3e664e13	0.2249072
72	0x3dee825d	0.116459586
73	0xbbf093cd	-0.007341838
74	0xbd9a48cc	-0.07533416
75	0xbe080d8e	-0.1328642
76	0xbe979270	-0.2960391
77	0xbe5712a0	-0.21003199
78	0x3d2422b5	0.04007216
79	0x3ce60f85	0.028083572
80	0xbd61acc2	-0.055096395
81	0xbe145930	-0.14487147
82	0xbdf7fe51	-0.12109054
83	0x3e3dd7e2	0.18539384
84	0x3e252980	0.16129112
85	0x3d5151cc	0.0511034
86	0x3e054814	0.13015777
87	0xbe31d1b8	-0.17365158
88	0xbce4e805	-0.027942667
89	0xbe597a42	-0.21238044
90	0xbe124100	-0.14282608
91	0xbd8d84a8	-0.06910068
92	0xbe38dd17	-0.18053089
93	0x3e5dd612	0.21663693
94	0xbd64e1e0	-0.055879474
95	0xbe441aa9	-0.19150795
96	0xbd849ff2	-0.0647582
97	0xbe195330	-0.1497314
98	0xbe00b6dd	-0.12569757
99	0xbdb9ccb7	-0.090722494
100	0x3e1dde2c	0.15416783
101	0x3e644a8b	0.22294061
102	0x3e840b53	0.2578989
103	0x3dfe6339	0.12421269
104	0x3cbb6ea4	0.022879906
105	0x3e9d4587	0.30717108
106	0xbdafaf98	-0.08578414
107	0xbd83dfb0	-0.064391494
108	0x3e65d672	0.22445086
109	0x3e3fac0d	0.18717976
110	0x3d0dade5	0.034589667
111	0xbe667e38	-0.22509086
112	0xbe9f07fe	-0.31060785
113	0xbc7cf203	-0.015438559
114	0x3c5c0d47	0.0134309
115	0x3dae19e6	0.085010335
116	0x3e3ad6ab	0.18245952
117	0xbce5e9d0	-0.028065592
118	0xbda097a5	-0.07841424
119	0x3da57fb2	0.080809966
120	0x3e60af11	0.21941783
121	0x3e64d083	0.22345166
122	0x3da80638	0.08204311
123	0x3d00d5e6	0.03145399
124	0x3dbdf0a4	0.09274414
125	0xbe0bff79	-0.13671674
126	0xbd96307c	-0.073334664
127	0xbdb5a2d3	-0.08868947
128	0xbe595c3c	-0.21226591
129	0x3e305044	0.17218119
130	0xbda2c161	-0.0794704
131	0xbd3d8cfb	-0.046277028
132	0x3e21ee87	0.15813647
133	0xbc90e3c8	-0.01768674
134	0xbe10d1b2	-0.14142492
135	0x3e07f1d1	0.1327584
136	0xbad259bd	-0.0016048473
137	0x3df1c896	0.11805837
138	0x3ca46b2a	0.020070631
139	0xbe537426	-0.20649776
140	0xbc1ddaed	-0.0096347155
141	0xbe2201ab	-0.15820949
142	0xbdc4d093	-0.09610095
143	0xbe078a62	-0.13236383
144	0x3d4b29fd	0.04960059
145	0xbd4cbee9	-0.049986754
146	0xbdbea86e	-0.09309469
147	0xbd27abfb	-0.040935498
148	0x3ddaeac5	0.1068931
149	0xbdde8967	-0.10866051
150	0xbc21d027	-0.009876288
151	0xbd6288ad	-0.055306125
152	0xbe9d98cd	-0.3078064
153	0xbde1f710	-0.110334516
154	0x3e8968b2	0.2683769
155	0x3e1be656	0.15224585
156	0x3d6ed8b6	0.05831214
157	0xbd31bb52	-0.043391533
158	0xbd8f2bbb	-0.06990763
159	0xbda0ede2	-0.078578725
160	0x3c8383d5	0.016054073
161	0xbd18c257	-0.037294712
162	0xbcf9f76a	-0.030513484
163	0x3cd99ef3	0.02656505
164	0xbbce6a37	-0.006299283
165	0xbd253a8b	-0.040339034
166	0xbc0b373a	-0.008497054
167	0x3cbf0833	0.02331934
168	0x3cdea767	0.027179433
169	0x3c87a9ca	0.016560454
170	0xbe86378f	-0.26214263
171	0xbcce70a5	-0.025200197
172	0xbdb7e946	-0.0898004
173	0x3e36fb24	0.1786924
174	0x3e113b0e	0.14182684
175	0x3b177e22	0.0023115952
176	0xbcaa7b1d	-0.020810658
177	0xbde885aa	-0.113536194
178	0x3d3d38f7	0.046196904
179	0x3e3b3b96	0.18284449
180	0x3e7bb5f6	0.24581131
181	0xbd0b0acf	-0.033945855
182	0x3cbdadfc	0.023154251
183	0x3cf1088c	0.02942302
184	0x3cb3b0d8	0.021934912
185	0x3e4d505e	0.20050189
186	0x3e9646be	0.29350847
187	0x3e256138	0.16150367
188	0x3ea1dd8a	0.31614333
189	0x3ea92884	0.33038723
190	0x3d9a2d4b	0.0752817
191	0x3d16090e	0.03662973
192	0x3dfc1647	0.123089366
193	0x3dfc2858	0.123123825
194	0x3e709cd6	0.23497328
195	0x3e7c2928	0.24625075
196	0x3ea92ff2	0.33044392
197	0x3e1c9c6e	0.15294048
198	0x3eb7d440	0.3590412
199	0x3e8a8aa2	0.27058893
200	0x3ebef2f5	0.37294737
201	0x3e959254	0.29213202
202	0x3ea219f6	0.31660432
203	0x3e61f702	0.22066882
204	0x3d68fc2e	0.056881122
205	0x3ef50238	0.47853255
206	0x3ec21a29	0.37910584
207	0x3d6ecff7	0.0583038
208	0x3e900392	0.28127724
209	0x3f196bfc	0.59930396
210	0x3e07a3e0	0.13246107
211	0x3e3c716f	0.18402646
212	0x3e6cdca7	0.23131047
213	0x3e9a5fdf	0.3015127
214	0x3eafa4fa	0.34305555
215	0x3d55dada	0.052210666
216	0x3e9c9151	0.30579618
217	0x3e84177c	0.25799167
218	0xbe47b23b	-0.19501583
219	0xbcc016aa	-0.023448307
220	0x3e38d581	0.18050195
221	0x3ee1c5da	0.4409626
222	0x3c974465	0.01846523
223	0xbd450ca0	-0.048107743
224	0x3cc23caf	0.023710577
225	0xbdd76810	-0.10517895
226	0x3e94dd96	0.29075307
227	0x3de21b7f	0.11040401
228	0xbe000f73	-0.12505893
229	0xbda0d143	-0.078524135
230	0x3b33da77	0.0027443448
231	0xbe9fac9c	-0.31186378
232	0xbc58feeb	-0.013244371
233	0x3dac04b0	0.083993316
234	0xbe462ca0	-0.1935296
235	0xbe71358b	-0.23555581
236	0xbd98e86b	-0.07466205
237	0xbd452d49	-0.04813889
238	0xbd85be8d	-0.06530485
239	0xbdceb4bb	-0.10093065
240	0xbede2846	-0.433901
241	0xbeccb7e6	-0.39984053
242	0xbd7909f0	-0.060800493
243	0xbe45cc34	-0.19316179
244	0xbda09914	-0.07841697
245	0xbdce9263	-0.10086515
246	0xbe364d71	-0.17802979
247	0x3c6f5685	0.01460803
248	0xbe9b5f26	-0.3034603
249	0xbe249eec	-0.16076249
250	0xbe2547cc	-0.1614067
251	0xbd0e4d4c	-0.034741685
252	0x3dfc5a90	0.12321961
253	0xbe24b5fe	-0.1608505
254	0xbe85cdd6	-0.26133603
255	0xbe0d6997	-0.1380981

bias f4 [12]
0	0xbe3ef3fe	-0.18647763
1	0xbe90d8b2	-0.28290325
2	0xbe598f40	-0.21246052
3	0xbe8cc86e	-0.27496666
4	0xbe841164	-0.25794518
5	0xbe85bda5	-0.2612125
6	0xbe8dc67e	-0.276905
7	0xbe3c5a5a	-0.18393841
8	0xbe9c77f0	-0.30560255
9	0xbeac9722	-0.33709055
10	0xbe37ecc6	-0.17961416
11	0xbe883d8e	-0.26609462

weight f4 [48, 12, 16]
0	0x3d95eba6	0.07320337
1	0xbdfdf679	-0.124005266
2	0x3e2ffc08	0.17185986
3	0xbe181e1d	-0.14855237
4	0x3dc347a3	0.09535148
5	0x3d53286b	0.051552217
6	0x3db7ae5e	0.08968805
7	0x3db976ed	0.090558864
8	0x3b6732a0	0.0035277978
9	0x3d170e5f	0.03687894
10	0xbda9c635	-0.08289758
11	0xbdd53f0b	-0.10412415
12	0x3caad3ec	0.020853005
13	0xbd8c71a6	-0.06857614
14	0x3d95ad58	0.07308453
15	0xbda88224	-0.08227947
16	0x3d012c2b	0.031536262
17	0xbc812aac	-0.015767418
18	0x3c2995c7	0.010350651
19	0xbe9b3117	-0.3031089
20	0xbe6d8e54	-0.23198825
21	0xbdedb8f9	-0.11607546
22	0xbd1df7f5	-0.03856655
23	0xbd01fd0a	-0.031735457
24	0xbe5e1b5e	-0.21690127
25	0x3d923dea	0.071407154
26	0x3dc11dce	0.09429513
27	0x3dc68f15	0.096952595
28	0x3d879fe9	0.06622297
29	0xbce45443	-0.02787221
30	0xbd812819	-0.06306476
31	0xbe0d9e60	-0.13829947
32	0x3e3dcb83	0.18534665
33	0x3d96ef7b	0.07369896
34	0xbde81355	-0.11331812
35	0x390b5db2	0.00013290977
36	0x3db39007	0.087677054
37	0x3e296ad8	0.16544664
38	0x3e1829da	0.14859715
39	0x3e65fd18	0.22459829
40	0x3e5349a9	0.20633568
41	0x3e15ef29	0.14642014
42	0x3d1edf21	0.03878701
43	0xbe26b2cf	-0.16279148
44	0x3d9df740	0.07713175
45	0x3e7136a1	0.23555996
46	0x3df2babc	0.11852023
47	0xbe0f383e	-0.13986298
48	0x3b01a755	0.0019783576
49	0x3db27244	0.08713201
50	0xbe46db70	-0.19419646
51	0xbe413a7d	-0.18869968
52	0xbc584846	-0.013200825
53	0x3c594a41	0.013262332
54	0x3d8a5b3c	0.06755683
55	0xbd0f4a13	-0.034982752
56	0xbdadf783	-0.08494475
57	0x3de2ccd1	0.11074222
58	0x3c989f75	0.018630723
59	0xbe61de2f	-0.22057413
60	0xbd2320d3	-0.039826225
61	0x3e834f60	0.25646496
62	0x3e65c073	0.22436695
63	0xbd67957a	-0.056539036
64	0x3e946bec	0.28988588
65	0x3e0bd9a3	0.1365724
66	0x3dac767b	0.08421036
67	0x3e036c79	0.12834348
68	0xbd5d8034	-0.054077342
69	0x3e4d2523	0.20033698
70	0x3e1915ad	0.14949675
71	0x3eb2f27b	0.34950623
72	0x3db04b93	0.08608165
73	0x3e4068c4	0.18789965
74	0x3c7d03ba	0.015442783
75	0x3dba168f	0.09086334
76	0x3e144528	0.14479506
77	0x3e8d56f1	0.27605394
78	0x3dd6e99a	0.10493775
79	0x3e649cd3	0.22325449
80	0xbda709d1	-0.08156169
81	0xbe9cfc1e	-0.306611
82	0xbe860e71	-0.26182893
83	0xbdb18c56	-0.08669345
84	0xbc2c1e94	-0.010505337
85	0xbe277965	-0.16354902
86	0xbe950305	-0.29103866
87	0xbe642a8f	-0.2228186
88	0xbe24b19b	-0.16083376
89	0xbe27c1d4	-0.16382533
90	0xbe9ad37a	-0.3023947
91	0xbe9e2e9d	-0.30894938
92	0xbe1dede0	-0.15422773
93	0xbe9369ac	-0.2879156
94	0xbef538b8	-0.47894835
95	0xbeba17af	-0.36346194
96	0xbe231178	-0.15924633
97	0x3bdf46f9	0.0068138805
98	0xbcb9a1e5	-0.022660205
99	0xbe041c33	-0.12901382
100	0xbcb068c3	-0.02153433
101	0xbd851b7c	-0.06499383
102	0xbcbf5356	-0.023355167
103	0x3da68d3c	0.08132407
104	0xbe0461cb	-0.1292793
105	0x3e286352	0.16444138
106	0x3da6ec54	0.08150545
107	0x3d1e3b83	0.038630974
108	0xbe56f813	-0.2099307
109	0x3ea6d1ea	0.32582027
110	0x3d6bb2ca	0.057543553
111	0x3c514fe2	0.012775393
112	0x3df6d008	0.120513976
113	0x3dbc3fb2	0.091918364
114	0x3cca3a7d	0.024686093
115	0x3c558c81	0.013033987
116	0xbdb2ef12	-0.08737005
117	0x3db68669	0.089123555
118	0xbdb695fe	-0.089153275
119	0x3de25a1f	0.110523455
120	0x39952e91	0.0002845419
121	0x3da1b202	0.078952804
122	0x3e0d07c0	0.13772488
123	0x3ce59d2f	0.028029053
124	0x3e909ce3	0.28244695
125	0x3e8430d9	0.25818518
126	0x3da73b72	0.08165635
127	0xbd0ec075	-0.03485151
128	0xbdbf9e2f	-0.09356343
129	0x3c59070c	0.013246309
130	0x3e329342	0.17438987
131	0xbe2b890a	-0.16751495
132	0xbbd7f004	-0.0065898914
133	0x3dd42685	0.103589095
134	0x3e055b68	0.1302315
135	0x3e077d6b	0.13231437
136	0x3d929d5c	0.0715892
137	0x3d940621	0.072277315
138	0x3e32422a	0.17408052
139	0x3e13c9d6	0.14432463
140	0x3d6a2459	0.05716357
141	0xbdcacc6e	-0.09902273
142	0xbe28a1cd	-0.16467972
143	0xbdb1315d	-0.086519934
144	0xbe434289	-0.1906835
145	0xbdc37fba	-0.09545846
146	0xbe2f67ab	-0.1712939
147	0xbea7a4c1	-0.32742885
148	0xbe9c7a15	-0.3056189
149	0xbe8325dd	-0.25614825
150	0xbe71370d	-0.23556156
151	0xbecb0082	-0.39648825
152	0xbece6f8c	-0.4031948
153	0xbe6f3e20	-0.23363543
154	0xbe6ca16e	-0.23108456
155	0xbe545598	-0.20735776
156	0xbedecbbf	-0.4351482
157	0xbea6526c	-0.32484758
158	0xbea2863e	-0.31743044
159	0xbe80455a	-0.2505291
160	0x3e8f17fe	0.27947992
161	0x3da04f66	0.07827644
162	0xbe1c909e	-0.15289542
163	0xbe67f63a	-0.22652522
164	0x3d0ffbed	0.035152365
165	0x3e76bf06	0.24096307
166	0x3e08a849	0.13345446
167	0xbd64b942	-0.055840738
168	0x3e70a0ec	0.23498887
169	0x3e4db920	0.20090151
170	0x3e6f763a	0.23384944
171	0x3dc85f68	0.09783822
172	0x3e37ff60	0.17968512
173	0x3e76b284	0.24091536
174	0x3e5f4326	0.21802959
175	0x3d920618	0.071300685
176	0xbdd32501	-0.10309792
177	0xbe8ea431	-0.27859643
178	0xbbd21ef2	-0.0064123804
179	0x3b86a98d	0.0041095675
180	0x3d215be4	0.039394274
181	0xbd19f052	-0.037582703
182	0xbdeb1eb3	-0.11480465
183	0x3d75b932	0.05999107
184	0x3e0c95e4	0.13729054
185	0x3daabbd9	0.0833661
186	0xbd42f1d5	-0.04759391
187	0xbe198b7b	-0.14994614
188	0x3d84cb22	0.06484057
189	0xbe5128b7	-0.20425688
190	0xbe1a0e3a	-0.1504449
191	0xbe9f516e	-0.31116813
192	0xbe08619b	-0.13318484
193	0xbeecda52	-0.46260315
194	0xba2fa43a	-0.0006700192
195	0xbdc28aa3	-0.09499099
196	0xbe983284	-0.2972604
197	0xbda4f4ce	-0.08054505
198	0xbc45b0f6	-0.012066117
199	0xbd4c5229	-0.04988304
200	0xbe895d94	-0.26829207
201	0xbede0d07	-0.43369314
202	0xbeb66672	-0.35625035
203	0xbe049963	-0.12949137
204	0x3d24085b	0.04004703
205	0x3de429f9	0.11140818
206	0x3dc8a89a	0.09797783
207	0xbe808974	-0.25104868
208	0xbd1a060e	-0.03760343
209	0x3d81313b	0.06308218
210	0xbebad070	-0.3648715
211	0xbe5ad1a3	-0.21369033
212	0xbd6f706c	-0.058456823
213	0xbe57e9b3	-0.21085243
214	0x3d70ad45	0.058758993
215	0x3e508a6f	0.20365308
216	0xbd9a972f	-0.07548367
217	0x3d4236c4	0.04741551
218	0xbd7940dd	-0.060852874
219	0xbe10744b	-0.14106862
220	0xbef8b6a1	-0.48576835
221	0xbc181838	-0.009283118
222	0xbe381a0f	-0.1797869
223	0x3e00f7d3	0.12594537
224	0xbe46a4cb	-0.19398801
225	0xbe335d41	-0.17516042
226	0x3e4ca882	0.19986156
227	0x3e0d104d	0.1377575
228	0xbd992850	-0.07478392
229	0xbb282cb0	-0.0025661401
230	0x3df9bb17	0.12193888
231	0x3e04e507	0.12977992
232	0xbec77a35	-0.38960424
233	0x3df2f8e8	0.11863881
234	0xbd5afc79	-0.053463433
235	0xbeacb251	-0.33729795
236	0x3d0fcd79	0.035108063
237	0xbd580f0a	-0.052748717
238	0xbe309fbc	-0.17248434
239	0xbd63c046	-0.055603288
240	0x3d6202b2	0.05517835
241	0xbd8e7b29	-0.06957085
242	0xbda595c7	-0.080852084
243	0x3ce63ec1	0.028106095
244	0xbd543d4c	-0.05181627
245	0xbe51de26	-0.20494899
246	0xbcc2e997	-0.023793025
247	0x3b864641	0.0040977304
248	0xbe19e2d7	-0.15027939
249	0xbdeda4cb	-0.116036974
250	0xbd876883	-0.06611731
251	0x3e3eb8a9	0.1862513
252	0x3e8af1b3	0.27137527
253	0x3de3dc17	0.11125963
254	0xbc9ed835	-0.019390205
255	0xbd113389	-0.03544954

bias f4 [48]
0	0x3de3e552	0.11127724
1	0xbe00cbff	-0.12577818
2	0x3e2e03e4	0.16993672
3	0xbde2b3b2	-0.110694304
4	0xbcf91420	-0.030405104
5	0xbe8e4708	-0.27788568
6	0xbe4457e9	-0.1917416
7	0x3dff921a	0.124790385
8	0xbd942dab	-0.07235273
9	0xbe254fa1	-0.16143657
10	0xbcc7ba55	-0.024380842
11	0x3df06b50	0.11739218
12	0xbe0e7f44	-0.13915735
13	0x3e232aba	0.15934268
14	0x3d3529a8	0.04422918
15	0xbdb1de37	-0.08684962
16	0x3dbaaeee	0.091153964
17	0x3d7c7dd9	0.061643455
18	0x3d5b4744	0.05353476
19	0xbd8101a7	-0.06299143
20	0x3dda90d9	0.10672159
21	0xbd12019b	-0.035646062
22	0x3d66be56	0.056333862
23	0x3d28ea56	0.041239105
24	0x3dce2406	0.10065465
25	0xbb172071	-0.0023060108
26	0x3dc6f1f6	0.09714119
27	0xba61015f	-0.0008583273
28	0xba0bd3ae	-0.0005333972
29	0xbd1b881e	-0.03797161
30	0x3d32dc5d	0.043667186
31	0x3e481e9a	0.19542924
32	0x3d9375fa	0.072002366
33	0xbd823900	-0.06358528
34	0x3d6e623e	0.05819916
35	0x3cdc1411	0.026865037
36	0x3d108737	0.0352852
37	0x3d593aa6	0.053034447
38	0xbe1579ac	-0.14597195
39	0xbcfae952	-0.030628834
40	0xbdc98380	-0.09839535
41	0x3e37ee2f	0.17961954
42	0x3d01acb1	0.031658832
43	0x3c8fec25	0.017568657
44	0x3e92af86	0.2864954
45	0xbd830d4a	-0.06399019
46	0xbc45e2fe	-0.012078045
47	0x3df93ade	0.12169431

weight f4 [64, 1584]
0	0x3d91e315	0.071233906
1	0xbdecf0fe	-0.11569403
2	0x3e8d89dc	0.2764424
3	0xbce25ffc	-0.02763366
4	0x3cd2c97b	0.025730839
5	0x3a6bf750	0.0009001391
6	0x3e2caf68	0.16863787
7	0xbd1f7f2a	-0.038939632
8	0x3dc2ab60	0.095053434
9	0x3d329fe4	0.043609515
10	0x3bca7bbb	0.0061793006
11	0x3ddaa48a	0.106759146
12	0x3e1f5121	0.15558292
13	0x3dd82329	0.10553581
14	0x3e1e6c79	0.15471067
15	0x3d9501e3	0.072757505
16	0x3e31013d	0.17285629
17	0x3e351e8d	0.17687435
18	0x3ec01661	0.37517074
19	0x3e602b7f	0.21891592
20	0x3ecf7b76	0.4052388
21	0x3ea6609f	0.3249559
22	0x3de7b419	0.11313648
23	0x3e88d757	0.2672679
24	0x3ee00e3c	0.4376086
25	0x3e757b83	0.23972897
26	0x3d543764	0.051810637
27	0xbea8135d	-0.32827273
28	0x3c20aae2	0.009806367
29	0x3d923d65	0.07140616
30	0x3d028615	0.03186615
31	0x3d5fed6b	0.05466978
32	0x3dad0632	0.08448447
33	0xbdc53417	-0.09629076
34	0x3de2f210	0.11081326
35	0xbe5ef597	-0.21773373
36	0x3deeb772	0.11656083
37	0x3a855bc0	0.0010174438
38	0x3e848086	0.25879306
39	0x3e66680e	0.22500631
40	0x3e5a4011	0.21313502
41	0x3e924129	0.28565338
42	0x3ea95d42	0.33078963
43	0x3e1ad18a	0.15118995
44	0xbdc9f562	-0.09861256
45	0x3de312fc	0.11087605
46	0x3e34128e	0.17585203
47	0x3ecf81b7	0.40528652
48	0xbca8c654	-0.020602383
49	0x3d91fbc2	0.07128097
50	0x3e6b041b	0.22950785
51	0xbbf885ad	-0.007584295
52	0xbdf37279	-0.11887068
53	0x3b07bb00	0.0020710826
54	0xbe3ad975	-0.18247016
55	0x3e440af4	0.19144803
56	0xbd386c4c	-0.045025155
57	0x3e34c5f1	0.17653634
58	0xbe59fa1d	-0.21286817
59	0xbda05544	-0.07828763
60	0x3ce1c910	0.027561694
61	0x3e466f14	0.1937831
62	0xbdde0ddb	-0.108424865
63	0xbe507f68	-0.20361102
64	0x3cd731da	0.026268888
65	0x3e01b4d8	0.12666643
66	0xbce99779	-0.02851461
67	0xbd92be67	-0.071652226
68	0xbd5d50de	-0.0540322
69	0x3e600dbe	0.21880242
70	0xbdc8c591	-0.09803308
71	0x3cffb6ca	0.03121509
72	0x3dc99f4b	0.09844836
73	0x3e2b5ccb	0.16734616
74	0xbcabeec7	-0.020987881
75	0x3de67fa0	0.11254811
76	0x3dfadb8d	0.12248907
77	0x3ebcfae3	0.3691016
78	0xbdac4b94	-0.08412853
79	0x3e8cb20e	0.27479595
80	0xbdd044f6	-0.10169403
81	0x3e3b5523	0.18294196
82	0x3e870e49	0.26378086
83	0xbe1c7c5b	-0.15281813
84	0x3d7b7b55	0.061396915
85	0xbdc65835	-0.09684793
86	0xbc81c716	-0.015842002
87	0x3ddff621	0.10935617
88	0x3e96821d	0.29396144
89	0xbe41d046	-0.18927106
90	0x3c34d660	0.011037439
91	0xbd9f485b	-0.077774726
92	0x3e0e0f98	0.13873136
93	0xbd6c9a02	-0.05776406
94	0x3d04aabf	0.0323894
95	0x3e5eced0	0.2175858
96	0x3dc7868e	0.09742461
97	0x3e04b809	0.12960829
98	0xbc3df71c	-0.01159456
99	0x3e0cba23	0.1374288
100	0xbe02b60b	-0.12764756
101	0x3ed214d4	0.41031516
102	0xbd7a1dd7	-0.061063614
103	0x3dd5ba86	0.10435967
104	0xbe2d153e	-0.16902635
105	0x3d61fd5b	0.05517326
106	0xbea244c2	-0.31693083
107	0x3e44dffd	0.1922607
108	0xbe1b4103	-0.15161519
109	0xbec75744	-0.38933766
110	0xbe63a45e	-0.2223067
111	0x3eb5bc46	0.35495204
112	0xbcda27fd	-0.026630396
113	0x3be0c521	0.006859437
114	0xbdf4b0bb	-0.11947771
115	0x3ea4e126	0.32203025
116	0x3dd710d8	0.105012596
117	0xbc578a20	-0.01315549
118	0x3c6eed12	0.014582889
119	0x3e5bb11d	0.21454282
120	0x3a7ad52c	0.0009568508
121	0xbdec2e55	-0.11532275
122	0xbd73af43	-0.059493314
123	0x3d75cfca	0.060012616
124	0x3dc19dba	0.09453912
125	0xbe5f4415	-0.21803315
126	0xbe1e0a62	-0.15433648
127	0x3e45b4f4	0.1930731
128	0x3dbe4e6e	0.09292303
129	0x3e731525	0.23738535
130	0x3d97c948	0.07411438
131	0x3dafcf0a	0.085844114
132	0x3e61aa44	0.22037607
133	0xbe94d8d2	-0.2907167
134	0xbc1258f2	-0.008932339
135	0x3d1424a8	0.03616777
136	0xb9b8b262	-0.0003522812
137	0xbe024738	-0.1272248
138	0x3bfd070f	0.0077217887
139	0x3e14cb3a	0.1453065
140	0x3dd02f20	0.101652384
141	0x3d8fe400	0.070259094
142	0xbe3341ff	-0.17505644
143	0xbcb38163	-0.021912282
144	0x3e941283	0.28920373
145	0x3e28fabf	0.16501902
146	0xbd9b0c03	-0.075706504
147	0x3e5659af	0.20932649
148	0x3d5c558a	0.053792514
149	0x3e5150bc	0.20440954
150	0xbe1c6dfc	-0.1527633
151	0x3e1632d4	0.14667827
152	0x3e444fa2	0.19171003
153	0x3d53c519	0.05170164
154	0xbe62a179	-0.2213191
155	0xbe83fbef	-0.25778148
156	0x3d84c688	0.06483179
157	0x3d33dd60	0.04391229
158	0x3c35c0b1	0.0110933045
159	0xbe906a86	-0.2820627
160	0x3e28a797	0.1647018
161	0x3ded9d0a	0.116022184
162	0x3d817676	0.06321423
163	0x3dc3cc66	0.0956047
164	0x3d832b2d	0.064047195
165	0x3d4248a7	0.047432568
166	0x3eb48e36	0.35264748
167	0xbdc7de50	-0.097591996
168	0xbe59dbb3	-0.21275215
169	0xbe1ee536	-0.15517125
170	0x3dbff6a0	0.09373212
171	0xbe6adbcb	-0.22935407
172	0xbdb00136	-0.08593981
173	0x3e31e84c	0.1737377
174	0x3e3e3a94	0.18577033
175	0xbdc04a4e	-0.093891725
176	0x3d9716bc	0.07377383
177	0xbdc9901a	-0.09841938
178	0x3dc9ff6f	0.09863173
179	0xbe660cd8	-0.22465837
180	0xbd138574	-0.036015943
181	0x3e71a5e7	0.23598443
182	0x3d671640	0.056417704
183	0xbea37330	-0.3192382
184	0xbdda4c20	-0.10659051
185	0x3e38c8d0	0.18045354
186	0x3e9b18c2	0.30292326
187	0xbe8a1963	-0.26972494
188	0xbde4dc7e	-0.11174868
189	0x3d9dc5e2	0.07703759
190	0x3deb9d46	0.11504607
191	0xbe7cecea	-0.2469975
192	0xbe473c3e	-0.19456574
193	0x3d916574	0.07099429
194	0xbd0e199e	-0.0346924
195	0xbe89d7dc	-0.269225
196	0x3cbb671b	0.022876313
197	0x3e1706b6	0.14748654
198	0x3e9efd92	0.31052834
199	0x3e8c94cb	0.2745727
200	0x3e828e9c	0.25499427
201	0x3b1e8b7c	0.0024192026
202	0x3e75c1d9	0.23999728
203	0x3e171a87	0.14756213
204	0x3d2210f7	0.03956696
205	0xbe7e3401	-0.24824525
206	0xbe3a7389	-0.18208136
207	0x3e8d32d1	0.27577832
208	0xbdb3c9e0	-0.08778739
209	0xbd84dbe8	-0.06487256
210	0x3db3864f	0.08765852
211	0x3e2985b3	0.16554908
212	0xbd89e19f	-0.06732487
213	0xbb4bd9d2	-0.0031105173
214	0x3dbc1eae	0.09185539
215	0x3de33299	0.11093635
216	0xbd76b614	-0.060232237
217	0x3d607469	0.054798517
218	0xbd8ff06f	-0.07028281
219	0x3ca6a14a	0.02034058
220	0xbd964b2d	-0.073385574
221	0x3de043b7	0.109504156
222	0xbd21ffed	-0.03955071
223	0x3e8c2d2a	0.27378207
224	0xbea6345c	-0.32461822
225	0xbdc790ea	-0.09744437
226	0xbd858341	-0.06519175
227	0xbd0e0f6e	-0.034682684
228	0xbcef7283	-0.029229408
229	0x3e8dd87e	0.27704233
230	0x3ee2f0c4	0.44324315
231	0x3d22f233	0.03978176
232	0x3c6c8aae	0.014437361
233	0x3cc926e0	0.02455467
234	0x3d1a0804	0.0376053
235	0xbd467989	-0.04845575
236	0x3d704332	0.058657832
237	0x3d7fd7f8	0.062461823
238	0x3e42be29	0.19017853
239	0x3d147dfd	0.036252964
240	0xbe88b149	-0.26697758
241	0xbd107467	-0.03526726
242	0x3c793dcc	0.015212487
243	0x3e436b45	0.19083889
244	0xbeda544f	-0.42642447
245	0xbe7d5c01	-0.24742128
246	0x3e8a0a7b	0.2696112
247	0x3d4ec3dd	0.05047976
248	0x3c3fe874	0.011713136
249	0x3d63d9b7	0.05562755
250	0x3e25dffa	0.16198722
251	0xbd964c36	-0.07338755
252	0xbb810be5	-0.0039381855
253	0xbde56887	-0.11201578
254	0xbc8217f6	-0.015880566
255	0x3ccb132b	0.024789413

bias f4 [64]
0	0x3e493376	0.19648537
1	0x3c638a2f	0.013887926
2	0xb9602ee7	-0.00021379777
3	0x3e6e149a	0.23250046
4	0x3c5db14e	0.013531042
5	0xbdbe8f7c	-0.09304711
6	0x3e6b55eb	0.22981994
7	0x3d39d2e8	0.04536715
8	0x3dcd165b	0.100140296
9	0xbdef2d83	-0.116786025
10	0xbca5f5bb	-0.020258775
11	0xbbf2e186	-0.0074121384
12	0x3cc0954e	0.023508694
13	0x3ca51d1e	0.020155486
14	0x3e7d176a	0.24715963
15	0x3b96a31f	0.0045970823
16	0x3e0cd3ef	0.13752721
17	0x3e343465	0.17598112
18	0x3ddab6bc	0.10679385
19	0x3d1f29fc	0.0388584
20	0xbbd4320a	-0.0064756917
21	0x3ddfdc7b	0.10930725
22	0xbe756a0b	-0.23966233
23	0xbdeb9fe7	-0.11505108
24	0x3d8c0ffe	0.06838988
25	0x3dc4878d	0.09596167
26	0xbda8049d	-0.08204005
27	0x3df16f47	0.117888026
28	0x3e2fe9fc	0.17179102
29	0x3d6d2138	0.057893008
30	0xbe921e16	-0.2853858
31	0xbe32cf50	-0.17461896
32	0x3e2b0ca8	0.16704047
33	0xbd848dbc	-0.06472346
34	0x3da58356	0.08081691
35	0xbd7a1f2e	-0.06106489
36	0xbdfbcd06	-0.122949645
37	0xbe5115b3	-0.20418434
38	0x3d869e94	0.06573215
39	0xbd981cda	-0.07427378
40	0x3e9ff213	0.31239375
41	0xbc8c22eb	-0.017106494
42	0x3dc25246	0.09488349
43	0xbe467be1	-0.19383194
44	0x3d46afae	0.048507385
45	0x3e4df4e8	0.20112956
46	0xbe0b97e0	-0.13632154
47	0x3e8ecd81	0.27891162
48	0xbe06d6b5	-0.13167842
49	0x3db07367	0.08615761
50	0x3c73ac10	0.014872566
51	0xbe269cec	-0.16270798
52	0xbe713b4f	-0.2355778
53	0xbce26409	-0.027635591
54	0x3d0c2b3c	0.03422092
55	0xbe5191d0	-0.2046578
56	0xbdef119d	-0.11673281
57	0xbe163c5b	-0.14671461
58	0x3da5613b	0.08075186
59	0x3dd83fe7	0.105590634
60	0xbe58d06e	-0.2117326
61	0xbe351356	-0.17683157
62	0xbe800f6c	-0.25011766
63	0x3e29a6f1	0.1656759

weight f4 [25, 64]
0	0xbd1e68b4	-0.03867407
1	0xbd943427	-0.0723651
2	0xbeef4c17	-0.4673774
3	0x3ed6f3c9	0.41982868
4	0xbe40781c	-0.18795818
5	0xbe987ee5	-0.29784313
6	0x3e3b45d3	0.18288355
7	0xbbbc893e	-0.005753665
8	0x3c8f6bab	0.017507395
9	0xbe894f3a	-0.26818258
10	0xba947f72	-0.0011329486
11	0xbde4e79e	-0.1117699
12	0xbe753840	-0.23947239
13	0xbea3131f	-0.31850526
14	0xbd8bec69	-0.06832201
15	0x3ec2facf	0.38081977
16	0x3e8976be	0.26848406
17	0x3e6d4c0f	0.23173545
18	0x3da7dfd8	0.08196992
19	0x3e621383	0.22077756
20	0x3e401587	0.18758212
21	0xbdf5ff78	-0.120116174
22	0xbe261a75	-0.1622103
23	0x3e71c767	0.23611222
24	0x3e4279d4	0.18991786
25	0x3e3404c4	0.17579943
26	0x3d58be04	0.052915588
27	0x3edf00d8	0.4355533
28	0xbda414ad	-0.08011756
29	0x3e681658	0.22664773
30	0x3e3a836d	0.18214197
31	0x3dd390dc	0.10330364
32	0xbe42d983	-0.19028287
33	0xbed00351	-0.4062753
34	0x3d019dd3	0.031644654
35	0x3dfe56a3	0.124188684
36	0xbe80df8c	-0.25170553
37	0x3d17a9b2	0.03702707
38	0x3eb9c169	0.36280373
39	0xbdc49933	-0.09599533
40	0x3efba3d8	0.4914844
41	0x3dadd28e	0.08487426
42	0x3e150c08	0.14555371
43	0x3e24e651	0.16103484
44	0xbe2138c6	-0.15744314
45	0x3d7baabb	0.06144212
46	0xbdb360d5	-0.087587036
47	0xbe531b32	-0.20615843
48	0x3e813663	0.25236806
49	0x3e970ee0	0.29503536
50	0x3e44e9a5	0.19229753
51	0x3cf5a665	0.02998657
52	0x3bf3b3a1	0.007437185
53	0xbe810054	-0.25195563
54	0x3e8eacfd	0.27866355
55	0xbdcac85d	-0.099014975
56	0xbd89b779	-0.06724448
57	0xbed3a50e	-0.41336864
58	0x3e155296	0.14582285
59	0x3ea7bbd3	0.32760486
60	0xbe2445f8	-0.16042316
61	0xbe55a5bc	-0.20864004
62	0x3e3eb000	0.18621826
63	0x3d4c5446	0.049885057
64	0xbf0269f6	-0.50942934
65	0xbc874dfc	-0.016516678
66	0xbe6f88f9	-0.23392095
67	0x3d94316a	0.072359875
68	0xbe88e724	-0.26738846
69	0xbe2c85ce	-0.16847917
70	0xbed83d1c	-0.42234123
71	0x3cf38cec	0.029730283
72	0x3e837000	0.25671387
73	0x3e7be23c	0.2459802
74	0x3df9fbb7	0.12206214
75	0x3daa100f	0.08303844
76	0xbec6bf3a	-0.3881777
77	0x3de6b128	0.112642586
78	0xbef62563	-0.480754
79	0x3e332dca	0.17497936
80	0x3e01b94f	0.12668346
81	0x3d89b7c3	0.06724503
82	0xbe41eba1	-0.18937542
83	0x3e9f9413	0.3116766
84	0x3e20505f	0.15655659
85	0xbebf619a	-0.37379152
86	0x3d8556d8	0.06510705
87	0xbee72d95	-0.45151964
88	0xbe8614ef	-0.26187846
89	0xbe4f3d17	-0.20238148
90	0x3e809bd6	0.25118893
91	0xbd73ebea	-0.059551157
92	0xbb8b340e	-0.0042481488
93	0xbe256f8d	-0.16155834
94	0xbdd10406	-0.102058455
95	0x3e65a355	0.22425587
96	0xbe342e56	-0.17595801
97	0x3d819edf	0.063291304
98	0xbde32c8e	-0.110924825
99	0x3e35eec4	0.17766863
100	0x3ea0dae2	0.31416994
101	0xbd702910	-0.05863291
102	0x3cc85414	0.024454154
103	0x3d65dcd8	0.056118816
104	0x3c842068	0.016128734
105	0x3e5ace34	0.21367723
106	0xbe91518f	-0.28382537
107	0x3e84b113	0.25916347
108	0x3dbcd21c	0.09219763
109	0x3e0a8b31	0.1352966
110	0x3e303773	0.17208652
111	0xbe69e4c6	-0.22841176
112	0x3e8daea1	0.27672294
113	0xbe0c0b75	-0.13676246
114	0x3e6ac3f7	0.22926317
115	0xbca90e87	-0.02063681
116	0x3d60d512	0.0548907
117	0xbd0b11f8	-0.033952683
118	0xbe70029a	-0.23438492
119	0xbdc994fb	-0.09842869
120	0x3d5fad03	0.054608356
121	0xbd95df29	-0.07317955
122	0x3e65ccaf	0.22441362
123	0xbe0df9f4	-0.13864881
124	0x3eaaa970	0.33332396
125	0x3d3da3c2	0.04629875
126	0xbe0d094b	-0.13773076
127	0xbddf33ec	-0.10898575
128	0x3e63526d	0.22199412
129	0x3eacea09	0.33772305
130	0xbd959fc6	-0.07305865
131	0x3db13da7	0.086543374
132	0xbd974321	-0.07385851
133	0xbde9f895	-0.114243664
134	0x3e12a77e	0.14321706
135	0xbe5a49e1	-0.21317245
136	0xbc54717d	-0.012966511
137	0x3dd8fe0f	0.10595333
138	0xbecf6575	-0.40507093
139	0x3e00e377	0.12586771
140	0x3da92f75	0.08261005
141	0xbd30694b	-0.043069165
142	0x3e4610a2	0.19342282
143	0x3e300396	0.17188868
144	0x3e1276bd	0.14303108
145	0xbdcde4c2	-0.10053398
146	0xbd704b74	-0.058665708
147	0x3e823b64	0.25435936
148	0xbe7d0852	-0.24710205
149	0xbd7aed3b	-0.061261397
150	0x3e03d637	0.12874685
151	0xbe4ce8e7	-0.2001072
152	0xbe434a4a	-0.19071308
153	0x3e126667	0.14296876
154	0x3ef4c509	0.47806576
155	0x3e6ff32f	0.23432611
156	0x3e8874a7	0.266515
157	0x3ddb70a0	0.10714841
158	0x3df1b4ec	0.11802086
159	0x3e91a08e	0.28442806
160	0x3ec8a06b	0.3918489
161	0x3e09f081	0.13470651
162	0xbe1f4c60	-0.15556479
163	0xbe9d959c	-0.30778205
164	0xbda17f40	-0.07885599
165	0xbe821abe	-0.25411028
166	0x3ee49d08	0.44651055
167	0x3dd10c3d	0.102074124
168	0x3e97715e	0.2957868
169	0xbc400430	-0.011719748
170	0x3e6004dc	0.21876854
171	0x3df3d516	0.11905877
172	0xbe8b247b	-0.2717627
173	0xbcd3f758	-0.025874779
174	0xbecc053d	-0.39847746
175	0xbcfaf25e	-0.030633148
176	0x3ea6b813	0.32562312
177	0xbe07e1c7	-0.13269721
178	0xbd184c7c	-0.037182316
179	0xbe2c7ba9	-0.16844048
180	0x3d820ef5	0.06350509
181	0xbc29be75	-0.01036035
182	0xbe0acf8e	-0.13555738
183	0xbc85c8fc	-0.016331188
184	0xbd8a97d6	-0.06767242
185	0xbe9d0c73	-0.3067356
186	0x3ea7d578	0.3278005
187	0xbdc4c94b	-0.09608706
188	0xbe880dc4	-0.26573002
189	0xbee1f0bc	-0.44128978
190	0x3e35dc07	0.17759715
191	0xbe186b01	-0.14884569
192	0xbe07b58a	-0.13252845
193	0x3d844e12	0.06460203
194	0x3ebc82bb	0.3681849
195	0xbe6b3056	-0.22967657
196	0xbe17a2b4	-0.1480816
197	0x3e69a30d	0.22816105
198	0xbe45a143	-0.19299798
199	0xbdb432ac	-0.087987274
200	0xbdcf4698	-0.101208866
201	0x3eecc0fa	0.4624098
202	0x3d2d55ee	0.042318277
203	0xbeaac664	-0.33354485
204	0xbd6c8eee	-0.057753496
205	0x3e4d376b	0.20040672
206	0xbe6b9b4f	-0.23008464
207	0x3e81eec8	0.25377488
208	0xbea637f1	-0.32464555
209	0x3bbafc83	0.0057063713
210	0x3db4c598	0.088267505
211	0x3dcca727	0.09992819
212	0xbea5b84b	-0.32367167
213	0xbe37b854	-0.1794141
214	0xbd74d8ef	-0.059777196
215	0x3e01e615	0.12685426
216	0xbed126df	-0.4084997
217	0xbdc1510e	-0.09439288
218	0x3e53aeec	0.20672196
219	0x3d16cdf1	0.036817495
220	0xbd97044e	-0.07373868
221	0x3ea47890	0.32123232
222	0x3e51552e	0.2044265
223	0x3e835a84	0.25654995
224	0xbd17909c	-0.037003145
225	0xbdb47c1e	-0.08812736
226	0xbdf4b59e	-0.11948703
227	0xbe072198	-0.13196409
228	0x3e393004	0.18084723
229	0x3e8790ab	0.2647756
230	0x3d18464e	0.037176423
231	0x3e3d25c3	0.18471436
232	0xbd6ca4ab	-0.057774227
233	0x3df7af88	0.12094027
234	0xbefa55f7	-0.4889371
235	0x3e17710c	0.14789218
236	0xbd005658	-0.031332344
237	0x3de98fd3	0.114043854
238	0x3e1c52a4	0.152659
239	0xbe8f61f9	-0.28004435
240	0x3e909b76	0.28243607
241	0x3e7cbc79	0.24681272
242	0xbdba0724	-0.09083393
243	0x3aa806f4	0.0012819455
244	0xbe902eae	-0.28160614
245	0xbd24052b	-0.04004399
246	0xbe34f8ba	-0.17673007
247	0xbee7e2ea	-0.4529031
248	0x3e9a37e8	0.30120778
249	0x3da3a345	0.079901256
250	0x3d0a605e	0.03378331
251	0x3c890875	0.016727665
252	0x3d01078d	0.03150134
253	0x3e720a79	0.23636808
254	0x3e74f438	0.23921287
255	0xbea5130a	-0.32241088

bias f4 [25]
0	0x3d4961c4	0.049165502
1	0xbe1ad3fa	-0.15119925
2	0x3e98ad58	0.2981975
3	0xbe01a8b6	-0.12662014
4	0xbe205f99	-0.15661468
5	0xbd9d403e	-0.07678269
6	0x3e62d3fd	0.2215118
7	0x3dd71499	0.105019756
8	0x3de7d4e6	0.11319904
9	0xbc8bef34	-0.017081834
10	0x3e6d83f3	0.23194866
11	0x3e331e42	0.17492011
12	0xbd17c246	-0.037050508
13	0xbe4c6d8c	-0.19963664
14	0x3d05b381	0.03264189
15	0x3e532d75	0.20622809
16	0x3e5fbde7	0.21849786
17	0xbc0516a8	-0.008123077
18	0xbe50a9f0	-0.20377326
19	0x3cf9e400	0.030504227
20	0xbcda42b7	-0.02664314
21	0xbc81ab08	-0.015828624
22	0x3e1b9726	0.15194377
23	0xbd740fa5	-0.059585232
24	0xbf885dd0	-1.0653629
