result/config4_main/preliminary_model9.pt (torch_old, 482251 bytes, 8 tensors)

weight f4 [12, 2, 192]
00000000: 7dd5 a83d 74ec 6b3e b354 c33d 8621 56bc
00000010: 60b3 ddbc 057a 38bc 3102 ad3e 510c 203e
00000020: bd12 ae3c cb99 f73b a6bc 8abe 0ae6 34be
00000030: 065f 2e3e 2078 343d 44d1 4aba 14b3 fa3d
00000040: 1380 37be 25e4 6b3c 60e2 963d e853 dbbd
00000050: 4b22 d53d a8ba 1bbc 571d f4bd 4a24 32bd
00000060: 33cc fd3c fea8 5b3c e7c7 4b3d 5d7e 24be
00000070: 6df2 54bd 85ed 11bd 0927 2abe 8d04 86be
00000080: c4f1 5ebd 32c4 083e 4402 c53d 4085 ddbc
00000090: 9a2d 2dbe 6441 bcbd b614 46bd 1bf4 bdbd
000000a0: d3ef 553d 46fe 353c d251 9ebd 9f7e e9bc
000000b0: b113 b4bb a44a 8d3e d6c8 e63b 00f4 083e
000000c0: 4b2d e83d c462 25be de29 3ebd dd97 3cbe
000000d0: ed3e 073c 9fef 583e 76ec fb3d 7f30 22bd
000000e0: ebc3 2f3d e56a b8bd 5c59 45bd 7b24 d6bd
000000f0: b233 383e 8fbd b73e 9d56 063e 17fe f03b
00000100: c240 44be 7137 5dbe fb08 d2bd e574 a8bd
00000110: 0217 87be f794 bfbd b842 8a3d 48f6 4a3e
00000120: 9964 253e 1e45 3a3d 7e94 e4bd 1406 47be
00000130: 149b bdbe c0e4 52be 30ff 443d 73c2 763d
00000140: d0f8 c7bd 4ae4 18be babb 61bd 165f 5a3e
00000150: 76cd 533e 52fa 843c 6f7a c43d e3a3 47be
00000160: 5174 60bb 6e02 0dbe 39c3 1dbe 6137 3bbd
00000170: e49b 22be 506d 683e 76e2 7cbd 65b5 82be
00000180: d493 debd b2e2 44be 022b 1abe 00b1 d1bd
00000190: 775f df3d 1277 313e 33e3 603e fd32 0c3e
000001a0: d710 743d b093 943e 3b4a 7cbd 862d 1ebd
000001b0: 9ccb 503e d2ef 3c3e 3ecd 953d 3f92 4fbe
000001c0: 1623 8cbe 413a 523d d3fb 9d3d 3472 8c3d
000001d0: aad0 373e fcae 053d bf7a dcbc a5ac cb3d
000001e0: a2ec 423e e376 3f3e 143a 8a3d b175 b1ba
000001f0: dd17 b03d 250d 96bd c70f 77bd 54a0 89bd
00000200: 0322 42be a78d cc3d ccb0 e5bd 6d08 0abc
00000210: 076e 073e f7d1 893c ae7a a4bd 18a1 133e
00000220: ee3c 583c bc08 c03d ca36 b73c 63f7 d4bd
00000230: 1cc3 c7bb c209 49be 66a0 1fbe 5e81 16be
00000240: 10ad 833d 0ef7 bfbd 6e66 e0bd 377c 3bbd
00000250: 367c 0a3e 6ce9 b1bd 4dee 3fbc 4ad5 e1bd
00000260: fd33 98be b091 b6bd 3a8d 7d3e 5e4b fa3d
00000270: 755d 5c3d 79c9 4f3c 30b5 47bd b832 eabd
00000280: 80b8 64bc 74e6 4dbd 9166 4cbd 7ae3 303c
00000290: 05df 12bd 5108 aebd 6cf5 f4bb 8c6e 823d
000002a0: d097 793d 70dd 4a3d 145e 82be dcad 9b3b
000002b0: 9d89 91bd 6680 cb3d dce0 fb3d fde1 523d
000002c0: 8d0f 5fbd 69a1 1cbe 5755 a03d b6e9 533e
000002d0: 6219 913e 2681 08bc 8cc6 b7bc 3e0a 32bb
000002e0: 4721 b1bc 0be7 ab3d 2271 7b3e cecb 0d3e
000002f0: ee70 873e b1c5 ac3e b2e5 9b3d 5309 f13d
00000300: fb0a f63d 8c19 a53d 4b15 5e3e 5306 1d3e
00000310: a4da 983e f6ed 093e f7a0 af3e 3445 3f3e
00000320: 8a1f c73e e247 bf3e 7e22 803e 0793 513e
00000330: f0d2 333d 956c d23e 25d3 af3e 4925 8a3d
00000340: 7580 8b3e 5ea1 1e3f 968a 3f3e ed41 353e
00000350: f5e9 883e 6377 b83e bd2e a43e a091 783d
00000360: b04f a13e 5fb0 853e 84cf 02be 72e7 b03d
00000370: 8654 643e b3a2 cb3e e6c4 753d b828 1cbc
00000380: fbe8 a9bb 46ae 16be 3376 7d3e bd28 ab3d
00000390: f501 d5bd 8d78 54bd 214b 473d 35de 61be
000003a0: ae2c 9ebc 86d8 be3d 1d22 60be cccb 83be
000003b0: 030c 56bd afc0 5abd 1424 9fbd 9974 b4bd
000003c0: fa92 bebe ce1c d1be 0dec 2abd de84 23be
000003d0: 311c 7abd b77b 1bbd c05e 3dbe e75c 2ebc
000003e0: 1181 89be b36f 01be 9bdf 2dbe 8160 bfbd
000003f0: 5edb 993d 8c79 33be 9175 45be d0d3 c5bd
0.08243845 0.23039418 0.095376395 -0.013069516 -0.027063072 -0.0112595605 0.33790734 0.15629698
0.02124917 0.0075561753 -0.27097052 -0.17665878 0.17028436 0.044059873 -0.00077368715 0.12241188
-0.1791995 0.014397656 0.07367396 -0.10709363 0.104069315 -0.009504952 -0.11919659 -0.04349164
0.030981159 0.01340699 0.04975119 -0.16063829 -0.051989008 -0.035626907 -0.16616453 -0.26175347
-0.054429784 0.13356093 0.09619573 -0.027041078 -0.16911927 -0.0919216 -0.048359595 -0.09275075
0.052230667 0.011107987 -0.0773045 -0.02850276 -0.0054955115 0.2759601 0.0070429845 0.13374329
0.11336764 -0.16150957 -0.046426646 -0.18417306 0.008254749 0.21185158 0.12300961 -0.03959703
0.04291145 -0.090047635 -0.048180923 -0.10456177 0.1798847 0.3588681 0.13118978 0.0073545086
-0.19165328 -0.2160318 -0.10255619 -0.08225421 -0.2638474 -0.09354585 0.06751007 0.19820511
0.16151656 0.04547607 -0.11161135 -0.19435912 -0.37032378 -0.20595074 0.04809493 0.060244035
-0.09764254 -0.14930835 -0.05511067 0.21325335 0.20683846 0.016232643 0.09593665 -0.19496112
-0.0034249017 -0.13770458 -0.15406503 -0.04570711 -0.1587978 0.2269795 -0.061739407 -0.25529018
-0.1086804 -0.19227102 -0.15055469 -0.10238838 0.1090688 0.17330578 0.2196167 0.13691325
0.059586372 0.29018927 -0.06159423 -0.038617633 0.20390171 0.18450859 0.073145375 -0.20270632
-0.27370518 0.051325087 0.07714047 0.0685772 0.17950693 0.03263758 -0.026913999 0.09945039
0.19035581 0.18697695 0.06749359 -0.0013539103 0.085983016 -0.07326726 -0.06031778 -0.06720033
-0.18958287 0.099879555 -0.11215362 -0.00842486 0.13225566 0.016823752 -0.08031212 0.14416921
0.0131981205 0.09376666 0.022364993 -0.10398748 -0.006096257 -0.19632629 -0.15588531 -0.14697787
0.064294934 -0.09373294 -0.10957037 -0.045772757 0.13523945 -0.086871 -0.01171453 -0.1102701
-0.29727164 -0.089145064 0.24760905 0.122214064 0.053800065 0.012682312 -0.04875678 -0.11435455
-0.013960004 -0.050268605 -0.049902502 0.010796422 -0.03585722 -0.0849768 -0.0074755456 0.063687414
0.060935795 0.049527586 -0.254624 0.0047509503 -0.07106326 0.099365994 0.12298748 0.05148505
-0.05445819 -0.15295948 0.07828777 0.20694622 0.28339678 -0.008331573 -0.022433542 -0.002716675
-0.021622313 0.08393677 0.24554875 0.13847277 0.26453346 0.33744577 0.0761217 0.117693566
0.12013813 0.08061513 0.2168781 0.15334444 0.2985431 0.13469681 0.34302494 0.18678743
0.3889125 0.3735953 0.25026315 0.20466243 0.043902338 0.41098467 0.34340778 0.06745393
0.27246442 0.61964977 0.1870521 0.1770093 0.26740995 0.36028585 0.32066908 0.060685754
0.3150611 0.26111123 -0.12774473 0.08637895 0.22297868 0.39772567 0.06000223 -0.0095311925
-0.005185244 -0.14714918 0.2475212 0.083573796 -0.10400764 -0.05187278 0.048655633 -0.22057422
-0.019308414 0.09318642 -0.21888013 -0.25741422 -0.05225755 -0.053406414 -0.07770553 -0.08811302
-0.3722151 -0.4084229 -0.04172902 -0.15968654 -0.06106204 -0.03795978 -0.18493176 -0.010642267
-0.26856282 -0.12640266 -0.1697983 -0.093445785 0.07512544 -0.17526835 -0.1928313 -0.09659541

bias f4 [12]
00000000: d81a 2cbe 9dfc 8abe b5d0 39be 68b7 83be
00000010: 40ff 6fbe bffe 6fbe 8bd6 81be 0ed1 1dbe
00000020: 8585 80be 42be 91be dd2f 1fbe e457 64be
-0.16807115 -0.27145854 -0.18146022 -0.25725865 -0.23437214 -0.23437022 -0.25358996 -0.1541178
-0.25101867 -0.28465468 -0.15545602 -0.22299153

weight f4 [48, 12, 16]
00000000: b3cd bfba a66b ddbd 44a5 e83d 2e44 dbbd
00000010: 2562 213d e6c5 933d d4ed c73d 910f a03d
00000020: 4478 db3c c7b2 1e3d 4776 85bc 6fb3 abbd
00000030: f9f2 903d fc93 6fbd 6998 123d 3a0b f4bd
00000040: 37a6 dbbc 5abb cabc 4fe2 8fbc 0477 65be
00000050: b5b0 4cbe 4d9d a7bd 352a 50bd 45ea 763b
00000060: d773 34be d7ea 263d 66d7 1a3d 3438 bd3d
00000070: 0d21 20bc 10c1 34bc 6d42 4cbd 976d bfbd
00000080: 48e3 803d 2d33 333b 8719 9ebd 619b 9e3d
00000090: 030a bb3d 77d4 4a3e 7f01 0e3e d8cf 453e
000000a0: 2b16 293e cb75 f53d 4179 143d 18fc 0ebe
000000b0: f1ad 503d 3974 7f3e 1b04 0f3e 635d 13be
000000c0: 4342 0c3d eaa2 893d 27e4 5cbe c779 55be
000000d0: 01c1 423c 2d07 c13b 0647 ca3d 4eb7 8abd
000000e0: 0396 b7bd 7b59 e93d a28e b63c 6d55 65be
000000f0: f22b 4dbd de74 6e3e d78a 5a3e 0ba5 38bd
00000100: 1e50 9f3e 1398 003e 5d7a 753d a4a0 e63d
00000110: 4eec 78bd 1346 2b3e 2219 1b3e aab4 9a3e
00000120: 0c95 693d 3e96 543e 129e 863d fa48 043e
00000130: 9130 783d fd55 6b3e ab2f f63d fd02 5f3e
00000140: 56ef 9cbd 181c abbe ac1e 7ebe 5168 5ebd
00000150: 5068 973c 7af2 1ebe a0b6 6bbe b1bd 4dbe
00000160: 57c6 0ebe 41cf 2abe c706 9fbe 3f3c 81be
00000170: 4733 04be d023 94be 9df7 edbe 66d1 98be
00000180: 0d12 d3bd 231b 283d 1315 49bd 9b7c 30be
00000190: caa5 5fbd f8e0 81bd 9dbd 23bd 7ca4 fa3b
000001a0: a16c c4bd 8ab7 ed3d e1ca f43d 3758 863d
000001b0: 9c02 1ebe 9c4f 923e 62fa 723c 00b4 5ebd
000001c0: d516 e53d 8f02 f23c f88d 34bd b392 6e3c
000001d0: ce6f 63bd 3282 9e3d cf37 43bd 5dd5 073e
000001e0: 5e5b 4d3d a6c7 fc3d 8e8b 323e 4fd8 bd3d
000001f0: 9752 8a3e 424b 943e 3e7c 083e b46f 913c
00000200: d4de abbd bb53 d7bc 0052 493e 3941 dbbd
00000210: bad2 2dbd 91f0 9d3d 0d01 e23d 9314 093e
00000220: 2b54 733d 0ebc 8a3b 51e6 b53d 7281 e03d
00000230: 2b91 a73a 6ff1 79bd 1ebd e9bd e53b 6cbd
00000240: e3d0 24be 3272 d4bd bce7 abbd 3eaa 94be
00000250: d4a6 95be a966 87be fc2b 89be 85ce b3be
00000260: c7b3 d6be 2283 96be fe7e 8cbe 7297 2cbe
00000270: 6fc5 b8be ef7c a3be 6149 9ebe cf76 67be
00000280: 95b3 843e 7f98 9f3d 1728 06be a1be 81be
00000290: 5529 63bc e1ab 673e 4bd8 d33d f4cb 7cbd
000002a0: c169 443e 0cdc 5c3e 57ff 263e 8297 643d
000002b0: e4c1 323e eb98 5b3e f087 613e acae a43d
000002c0: ae7f 01be 06eb 61be ec5c abbb 2abb 9c3d
000002d0: e352 debc 916e d2bc 76f4 39be a9a8 b23d
000002e0: 7b93 a73d 1a6e 853d a48e 8cbd 7ff3 03be
000002f0: 9d1b 6a3d 8a78 10be be7e 0fbe 068c 84be
00000300: 902c bcbd 3356 e3be 011b a3b9 7d72 e6bd
00000310: 8899 afbe 3e40 a6bd 5708 c3bc fd15 6dbd
00000320: c54c 69be e826 b6be 3354 a2be 118d 30be
00000330: 3005 573d 66c1 bf3d 95aa b03d 21c8 22be
00000340: a6f3 12bd 92f3 393d 2c68 81be c9bb 66be
00000350: c2bc 56bd 7a21 54be 399d ccbc f272 4e3e
00000360: ef29 cdbc fc84 7d3d ed21 aabd 8569 30be
00000370: 2bdc eebe 72bc 863d 5998 02be 7d1b e53d
00000380: ec65 ffbd 72b1 0bbe 9b20 3d3e d1ca 243e
00000390: 2776 f6bd d89d 0ebd a31e 603d 8090 d33d
000003a0: 8192 b6be 7154 0a3e 0611 b6bb a42f bcbe
000003b0: 9b86 913d 9b78 873d 440c 33be f134 bcbc
000003c0: bcfb c33d 6117 febc 0edf 27bb d737 12bc
000003d0: f791 f6bd e80d 32be 6588 003a 812a 8bbc
000003e0: c4d9 c9bd a743 91bd 0644 93bd 9e27 313e
000003f0: c9e3 7b3e 03c7 073e 188b 52bd bffa 8c3c
-0.0014633447 -0.10811548 0.11359647 -0.107063636 0.03940024 0.072154805 0.09762159 0.07815469
0.026790746 0.038744714 -0.01629175 -0.083838336 0.07077593 -0.05849074 0.03578988 -0.11916204
-0.026812656 -0.02474754 -0.017563967 -0.22408682 -0.19989283 -0.081842996 -0.0508215 0.0037676257
-0.17622314 0.040751304 0.037803076 0.092392355 -0.009773505 -0.011032358 -0.049868036 -0.093470745
0.062933505 0.0027343736 -0.07719713 0.0774448 0.09132769 0.19807611 0.13867758 0.19317567
0.16512363 0.11985358 0.03624845 -0.13963354 0.050947133 0.24946679 0.1396641 -0.14391093
0.03424288 0.067205265 -0.21571408 -0.20847236 0.011886836 0.005890748 0.09876828 -0.06773244
-0.08964159 0.1139402 0.02228481 -0.22395869 -0.050090738 0.23286769 0.21342026 -0.045079272
0.31115812 0.12558012 0.059931148 0.112611085 -0.060772233 0.1672595 0.15146306 0.3021596
0.057026908 0.20760438 0.06573118 0.12918463 0.06059319 0.2298202 0.12020811 0.21778484
-0.07662837 -0.3341987 -0.24816388 -0.054298703 0.018482357 -0.15522185 -0.23018885 -0.20091893
-0.13942848 -0.16680624 -0.31059858 -0.25241277 -0.12910186 -0.28933573 -0.46477976 -0.29847258
-0.10306177 0.041041505 -0.049092364 -0.17235033 -0.05460147 -0.063417375 -0.03997575 0.0076490026
-0.09591032 0.11607273 0.119527586 0.065597944 -0.15430683 0.28576362 0.014830204 -0.05437088
0.111859955 0.029542236 -0.044080704 0.014561343 -0.055526547 0.077396765 -0.047660645 0.13264985
0.050135963 0.123427674 0.17436048 0.09269773 0.27016136 0.28963667 0.13328645 0.01775346
-0.083921105 -0.026285043 0.19660187 -0.107057996 -0.042437293 0.077119 0.11035357 0.13386755
0.05940644 0.0042338436 0.0888182 0.1096219 0.0012784352 -0.061021265 -0.11413024 -0.057674307
-0.16095309 -0.103733435 -0.08393809 -0.29036134 -0.29228842 -0.2644551 -0.2679137 -0.351185
-0.41934034 -0.2939692 -0.27440637 -0.16854647 -0.3608813 -0.31931254 -0.3091536 -0.22603916
0.2591826 0.07792758 -0.1310123 -0.2534075 -0.013864835 0.2262416 0.10343989 -0.061717942
0.19180967 0.21568316 0.16308342 0.05580855 0.17456776 0.21445052 0.22024512 0.080411285
-0.12646362 -0.2206231 -0.005229583 0.07652886 -0.027139133 -0.025687488 -0.1815966 0.087235756
0.081824265 0.06515141 -0.06863144 -0.12885855 0.05715524 -0.14108482 -0.14013192 -0.2588808
-0.09188187 -0.44401702 -0.00031109902 -0.11252306 -0.34296823 -0.08117722 -0.023807688 -0.057882298
-0.22783192 -0.35576558 -0.31704864 -0.17241313 0.05249518 0.0936306 0.08626286 -0.15896656
-0.035876893 0.045398302 -0.2527479 -0.22532572 -0.052426107 -0.20715895 -0.024977313 0.20161036
-0.02504441 0.061894402 -0.08307252 -0.17227753 -0.4665235 0.06578912 -0.12753429 0.111868836
-0.12470612 -0.13641909 0.18469469 0.16092993 -0.120342545 -0.0348185 0.054716717 0.103302956
-0.3565865 0.13508774 -0.0055562286 -0.36755097 0.07105752 0.066148005 -0.17485148 -0.022974463
0.09569499 -0.031017007 -0.0025615129 -0.008924446 -0.12039559 -0.17388117 0.0004903137 -0.01698804
-0.098559886 -0.07092982 -0.07190709 0.17300269 0.24598612 0.1325951 -0.05140218 0.017209409

bias f4 [48]
00000000: b583 d13d 95e5 0bbe 4d71 393e 654e c2bd
00000010: 14ea cebc 136d 48be c46f 06be f42b d83d
00000020: 4c79 00bd f09b b7bd 9065 59bd cd83 b23d
00000030: 05d7 67bd c218 e23d 4144 ab3c 95ff 6ebd
00000040: 3b94 2b3d 3263 223d 2b96 203d c9ac 7dbd
00000050: ad71 d03d e5aa 42bd 1b29 9b3d 35cb a63c
00000060: 7650 c83d 5776 1bba bb3d 983d 0268 d63c
00000070: 779f 47bb c901 ecbc 4575 873d 3d09 483e
00000080: 8b52 a13d c082 9abd 8764 463d 84ce 84ba
00000090: 72f1 f43c 9cb5 643d da96 c5bd 249a 91bc
000000a0: d5a9 c6bd a71b 2f3e 5b81 0f3d 3891 94bc
000000b0: 0f43 7b3e 1064 a0bd e990 f33c e27f 1a3e
0.10230199 -0.13661797 0.18109627 -0.09487609 -0.025258102 -0.19572859 -0.13128573 0.105552584
-0.031365678 -0.089652896 -0.053075373 0.08716545 -0.056601543 0.110398784 0.02090657 -0.05834921
0.04188941 0.03964538 0.03920571 -0.06193236 0.10177932 -0.04752626 0.075761996 0.020360569
0.09780972 -0.0005930415 0.07433649 0.026172642 -0.0030460039 -0.028809445 0.06614164 0.19534774
0.07877072 -0.0754447 0.048435714 -0.0010132347 0.029900286 0.05583726 -0.09647913 -0.017773695
-0.09700362 0.17100392 0.035035472 -0.018135652 0.245373 -0.078315854 0.029732184 0.15087846

weight f4 [64, 1584]
00000000: 76d7 823d caa5 afbd c99b 803e 0100 4dbb
00000010: a1d8 363d 7703 1dbd 474e 693d 6e72 f2bc
00000020: 7aa6 be3d dc27 d63c d842 3b3d 8752 023d
00000030: 8347 253e 61d7 e93d f3ec 193e 2faf 793d
00000040: 4073 1b3e 63ba 583e 3c31 923e 0dba 013e
00000050: 4a01 df3e 5f7b 943e 782c dc3d fa1a 2b3e
00000060: 9eb7 b93e b6d6 4d3e b7e0 a03c 98a0 8dbe
00000070: d63c 693d a5c1 8d3d 1750 9a3d 0b06 113e
00000080: 5359 913d 3e88 04bd 19d1 093e 23a5 90be
00000090: bf8e 273d 7e0c b1bc f5b6 3e3e 703b 3a3d
000000a0: 7248 2c3e c4a8 a13e 7f51 4c3e 141d 873d
000000b0: 320d 30be 155a 8b3d 8cf8 363e 491a b23e
000000c0: 6e23 57bd f2e7 ef3d e6f1 633e f20b 9dba
000000d0: 6f79 00be 8098 103c 94af 9dbd 40bf 423e
000000e0: 226d 0e3c df63 1f3e 7876 4bbe 2aa6 c2bd
000000f0: 6680 a83d 0451 353e c630 cebd 2c02 05be
00000100: ef43 25bd 3386 893d 5814 63bd f276 83bd
00000110: 9bfb 4ebc 1e1e f53d 1557 00bd b4eb 863d
00000120: ff9d 0a3e a2d3 533d 68b4 80bd 02a4 1b3e
00000130: f8c0 ce3d ad56 d83e a662 2dbd baf4 8a3e
00000140: 8567 d6bd 11ec 3d3e 84b6 1f3e 452e d5bd
00000150: fa9b 9b3c 7530 e3bd 0ae1 3d3d ae00 863d
00000160: 2653 723e 52d9 4bbd b83b 283d aed8 90bd
00000170: 97b3 9e3d 1ff7 47bd 1311 aa3c 4d51 813e
00000180: 7302 bc3d 7ded bd3d f5ec 0ebc b36f 1a3e
00000190: 9e97 35bd 5204 a43e dd34 2fbe c6f6 493e
000001a0: 51ad acbd 9371 5a3d a055 5dbe 4d8d 8c3e
000001b0: 324e 2dbe a2ae bebe ff09 24be 4b1a ae3e
000001c0: 44fb 943b 52b0 1dbd 7f50 0abe 8b2e 893e
000001d0: d5d9 903d 54a1 3cbb d9f8 83bd 7277 203e
000001e0: b67c b5bb c7d1 eebd ee5e 4b3c c077 bb3d
000001f0: c047 153d be9d 24be 7c67 51be 29cb ee3d
00000200: a548 123e 69de 143e 2f5d ccbb ffeb 853d
00000210: 8385 9b3e 8698 0ebe 848b 10bd c153 cfbb
00000220: 2cbf 1dbb 49e2 b2bd 1bec 1f3a 4fb4 ae3d
00000230: 73e6 c53d 62ff 9c3c 56c3 29be 1212 f83b
00000240: a6af 4b3e 151e 483e d0c0 f1bc 106c 293e
00000250: e34a d33d 921c 8b3e 6d8a f4bd 2a5f 2e3e
00000260: e5ff 133e cc3f 9f3d 2727 20be 2afd 76be
00000270: 5e77 a23d 0b9f f33c dcce a0bd 722d 6bbe
00000280: 5f27 623e 0c21 043e d36a f83c e8d4 da3d
00000290: a784 943d 5517 0f3e 2272 ab3e 0e0a 12be
000002a0: faf2 07be 1e4a 82bd 008b 433d 8773 9fbe
000002b0: 6b27 94bd 271a 913e 5834 2f3d 66d5 e0bd
000002c0: 299f 973d 9c2d 25bc afaa 693b af70 84be
000002d0: a356 b6bc b40a 873e e542 f93c d89b a3be
000002e0: 56bc 05be 971a a83d 88d9 a73e ab9a 9cbe
000002f0: 85b3 0bbe 44ce ed3d 3b5f d53d 5847 81be
00000300: 5ab5 1bbe 8515 5e3c e074 b3b9 b532 c0be
00000310: 2b1c c0bd a8d2 2b3e 521a 8a3e e4a9 a03e
00000320: 7ee0 2e3e 7f0f 2e3d 30b0 233e 86f2 7f3e
00000330: 67ed 0bbd 938c 56be 429f 15be e70c 483e
00000340: 99a6 85bd f492 91bc 7c53 d13d 0813 483e
00000350: fb4a 8dbd c8f1 6b3d 23f5 e53d 2a4d 0e3e
00000360: 59db 8dbd 320c b13d 67eb 7dbb 0a64 863d
00000370: 6615 43be 29e3 ea3d 482d 6c3c 9adf 753e
00000380: 7f11 86be b70c 2fbe 6033 8ebd 7a5c e6bc
00000390: 0dbc e2ba effe 933e a2aa 043f 1fbe cf3d
000003a0: 3b7b a23d 13f7 b6bc 883d 71bd cdc9 18be
000003b0: 5d8c 933d 4f49 25bd 47b3 df3d ff0f 0f3c
000003c0: 52b1 98be c139 60bd cd85 9e3d a1a4 213e
000003d0: 7b4d a3be 4df1 62be fab8 9d3e 7c73 453d
000003e0: b133 ef3c 3041 c8bb e095 283e b618 a6bd
000003f0: 8847 6a3c 89b2 38be c2f1 e83b 423f cd3c
0.06388752 -0.08576544 0.25118855 -0.003128052 0.044640187 -0.038333382 0.056959417 -0.02959558
0.09309097 0.026142053 0.045718044 0.031816985 0.16140561 0.114180334 0.15031795 0.060958084
0.15180683 0.21164851 0.28553188 0.12668629 0.4355567 0.29000375 0.10750669 0.1670951
0.362729 0.20101437 0.019638402 -0.27661586 0.056942783 0.069217004 0.07534807 0.14162461
0.07097115 -0.032356493 0.1345867 -0.2825099 0.040907618 -0.021612402 0.1862448 0.04546684
0.1682451 0.3157407 0.19952963 0.06597343 -0.17192534 0.06804291 0.1786825 0.3478568
-0.052524023 0.11714162 0.22260246 -0.0011981709 -0.12546323 0.008825421 -0.076995045 0.19018269
0.0086930115 0.15565442 -0.19869411 -0.095043495 0.08227615 0.17706686 -0.100678965 -0.1298911
-0.04034799 0.067150496 -0.055439323 -0.064191714 -0.01263323 0.11968635 -0.031333048 0.065879256
0.13536833 0.0517155 -0.0628441 0.15199283 0.100953996 0.42253628 -0.042330407 0.27139837
-0.104689635 0.18547083 0.15596968 -0.10409216 0.018995274 -0.11093227 0.046357192 0.065430984
0.23664531 -0.0497678 0.041072577 -0.07072578 0.07749098 -0.048819657 0.020760095 0.2525734
0.09180155 0.09273813 -0.008723487 0.15081672 -0.044334047 0.32034546 -0.1711001 0.19723043
-0.08431495 0.05333097 -0.21614695 0.27451554 -0.1692436 -0.3724261 -0.16019438 0.34004435
0.0045465548 -0.03849823 -0.1350727 0.26793322 0.07072798 -0.0028782682 -0.06443948 0.15670565
-0.0055385483 -0.116611056 0.01241277 0.091537 0.03644538 -0.16075799 -0.20449632 0.116598435
0.14285524 0.14537968 -0.0062366943 0.06539153 0.303753 -0.1392537 -0.035289302 -0.006327123
-0.0024070246 -0.08734567 0.0006100551 0.08530485 0.09663095 0.019164745 -0.16578421 0.0075705135
0.19891223 0.19542725 -0.029510885 0.16545129 0.10317018 0.27170235 -0.11940465 0.1702849
0.14453085 0.0777584 -0.15639935 -0.24120012 0.07932924 0.029738924 -0.07851955 -0.22966555
0.22085331 0.12903231 0.030324375 0.1068514 0.07251864 0.13973744 0.33485514 -0.14261648
-0.13276282 -0.06361793 0.047739983 -0.31142828 -0.07234081 0.28340265 0.04277453 -0.109782025
0.07403404 -0.010081675 0.0035654714 -0.2586722 -0.022258108 0.26375353 0.030427406 -0.31954837
-0.13060126 0.082081966 0.3278315 -0.30586752 -0.136427 0.11611608 0.104185544 -0.25249743
-0.15205899 0.013554935 -0.0003422862 -0.37538686 -0.093803726 0.16779578 0.26973206 0.31379616
0.17077824 0.042495247 0.15985179 0.24994859 -0.03416195 -0.20952062 -0.14611533 0.19536172
-0.065259166 -0.017770268 0.102210015 0.1953851 -0.06899067 0.057603627 0.11228397 0.13896623
-0.06926603 0.08644904 -0.0038745047 0.0656205 -0.19051132 0.114691086 0.014415093 0.24011078
-0.26185223 -0.17094694 -0.06943393 -0.028120268 -0.0017298475 0.28905436 0.51822865 0.101436846
0.079336606 -0.022334611 -0.05889657 -0.14920731 0.072045065 -0.040353116 0.10922866 0.008731841
-0.29822785 -0.05474258 0.07740364 0.15785457 -0.3189505 -0.22162361 0.30805188 0.048205838
0.029199453 -0.0061112866 0.16463423 -0.08110182 0.014299281 -0.18036856 0.007108898 0.025054578

bias f4 [64]
00000000: e1dc 413e bedf 4c3d e2a0 5abb 7a4f 563e
00000010: 44be a6bb 73f1 9dbd 7ca2 373e 7ea7 343b
00000020: 0009 8e3d 2444 e3bd cacc 27bc af15 933c
00000030: bbcf 163d b9f3 233d 5b12 5e3e c6b2 3e3c
00000040: bb85 f83d 55fc 1f3e a26a b13d 254d 523d
00000050: 20fa eb3a 74c3 e83d ab0d 54be 2f98 aabd
00000060: 42b3 ac3d 5d71 a83d 44da adbd 7e9b d63d
00000070: b231 3a3e 065d 113d d973 5ebe edc7 ebbd
00000080: 6282 3a3e 81f2 cfbd 17a5 163d ccc1 95bd
00000090: 0030 bcbd 5617 15be 1a36 343d 32bb 5fbd
000000a0: 1b55 7d3e 24a7 5abc 0308 aa3d 1a0c febd
000000b0: be63 933c d394 1e3e ff78 12be 3c86 653e
000000c0: cde4 edbd b7b7 433d 5f3c 133d 30b4 03be
000000d0: 7b86 5ebe 4ab8 a53c 5af5 0c3d 16ba 1fbe
000000e0: 1616 d1bd 03cf 0dbe f369 8d3d 805f 603d
000000f0: 923d 42be 72a3 08be 49c0 57be 7f1e 173e
0.18931915 0.050018065 -0.0033360054 0.20928755 -0.0050885994 -0.077120684 0.17933077 0.0027565653
0.0693531 -0.11096981 -0.010241697 0.017954675 0.0368192 0.040027354 0.2168669 0.011639303
0.12134882 0.15623601 0.08662917 0.051343102 0.001800362 0.11365405 -0.20708339 -0.08329808
0.08432628 0.08224747 -0.084888965 0.104788765 0.1818302 0.035489105 -0.2172388 -0.11512742
0.182138 -0.10153676 0.036778536 -0.073123544 -0.09188843 -0.14559683 0.043996908 -0.054621883
0.24739496 -0.0133455135 0.08302309 -0.12404652 0.017991897 0.1548646 -0.14303969 0.22414488
-0.11615906 0.047782626 0.035946246 -0.12861705 -0.21730988 0.020229477 0.034413673 -0.1559833
-0.10209291 -0.138485 0.06904974 0.054778576 -0.189688 -0.133436 -0.21069445 0.14757727

weight f4 [25, 64]
00000000: 17c7 8bbd 9e9e 22bd e8be c8be 38f6 b43e
00000010: b5d7 22be 1dcc 93be 2bcd 2a3e fb8b 123c
00000020: dc31 f93c cd71 69be 216a e6bc b9fb babd
00000030: bf19 45be 7cc7 8dbe 98f0 48bd 1107 bb3e
00000040: 1edd 5f3e c8bd 3e3e 4abc 673d c612 573e
00000050: dceb 463e 5ce1 f4bd ece8 0dbe 8efb 2d3e
00000060: 6a84 153e 8f44 f13d e573 ca3d a4ed d63e
00000070: ba11 85bd 088a 8a3e 916d 3f3e e091 a93d
00000080: 016a 02be 40b3 a9be 7ebd c13c cc97 073e
00000090: 3322 6dbe a559 8a3c a561 a93e f3cd 41bd
000000a0: 3a0b f73e ec0b 493d 1e27 0c3e 99c6 133e
000000b0: ecb0 97bd 275a 843d a74f e1bd c1f4 2ebe
000000c0: 0a96 743e 5d65 993e 7aa6 4d3e 46d7 903d
000000d0: fc4e c4bc 77f6 71be 39cf 893e 67a6 97bd
000000e0: aa1b 49bd 1951 cdbe 36dc 203e 63c0 933e
000000f0: 5d70 3fbe e947 30be 8d8c 3c3e 984f 853c
00000100: e1b2 efbe 21d2 fbbc 1867 6ebe 5e9b cc3d
00000110: 40ed 79be ea27 0cbe 053e c0be c149 2c3d
00000120: 33c6 3b3e f6fa 553e 5438 d43d 6d67 8d3d
00000130: 781d b2be 2ef6 f73d 36fe dbbe b699 0c3e
00000140: e2ec c33d 7137 aa3d 480f 2cbe 4b78 883e
00000150: 6cdb 223e b55c adbe c50b 183d 2b9a bbbe
00000160: 0edb 7ebe 4763 64be 2ac3 673e 4af2 e1bd
00000170: 4932 9d3c b0da 28be 9a80 cebd 6d9e 543e
00000180: b4d2 37be bee9 303d b330 9fbd 486e 553e
00000190: 8084 953e 5b88 a5bc 7979 4b3c 10b3 333d
000001a0: 2672 01bd 07d9 593e 44e5 85be eed4 6c3e
000001b0: 7328 c83d 8adf 073e 7d26 253e e637 5abe
000001c0: d44c 813e fc22 00be 8962 6c3e 595b 443c
000001d0: 5ce8 e23c 962f acbc fbe5 49be 466f 8fbd
000001e0: 029f 213d f199 1ebd c1ee 443e 4db2 fcbd
000001f0: 085b a33e a2f7 8e3d 7844 eebd bcdf adbd
00000200: 63ce 3e3e 6514 a13e d50e 43bd bb6a 573d
00000210: d0ef c7bd 58ae d7bd 830d 263e 37ab 5dbe
00000220: 4cba ef3d ed02 753d d3fd a3be db6d 293e
00000230: 44e8 693d 6aaa c3bd a160 403e 5213 1a3e
00000240: 4972 283e 812b 08be 0c5f 8abd b738 993e
00000250: c7a5 42be 5649 c3bc 6856 193e 486d 64be
00000260: a8ae abbd dccd 083e 22e0 cb3e b415 883e
00000270: d33a 613e ad47 853d 5bd7 1d3e 3b57 863e
00000280: 0aa9 bc3e fc45 2b3e a1b0 a3bd 8e65 9bbe
00000290: 3181 b4bd ef66 91be 6870 d83e 8465 443d
000002a0: a488 813e 3d7c 33bd 41ea 753e 07fc f33d
000002b0: 57a1 86be 0001 bfbc cdf8 9fbe e314 d2bc
000002c0: 3b1f a93e 4080 05be f3e2 88bd a58d 3cbe
000002d0: d135 183e 446c 35bd 1dee f7bd 44ac efbc
000002e0: fac3 9abd 5dbc 84be 47f3 ae3e 0d82 e0bd
000002f0: 6012 7ebe 8c45 debe d636 2f3e 8a4f 41be
00000300: 963a 20be accf 883d 64d6 ae3e 2ef7 43be
00000310: 5550 0fbe 6dcb 3e3e 77a0 32be 4470 59bd
00000320: 0f87 1dbd 25a6 e33e 3666 913d 4592 acbe
00000330: 882a bfbd 03cf 343e d6a7 51be 7138 703e
00000340: b01b 96be 1de4 a83c 55aa ba3d 3215 ed3d
00000350: 5af1 90be 8f19 37be 6f0e dbbc 3da5 873d
00000360: 1029 b4be d856 3ebd 7d21 563e 3a74 5a3d
00000370: 9146 9abd d8fe 863e e96a 463e aa16 843e
00000380: 20b1 11bd 09a9 c6bd 384a ccbd 37b4 0cbe
00000390: 50ed 333e b6ef 843e ad5f a4bc de10 3e3e
000003a0: 1044 fcbc 8919 2c3e 7f4e e6be 4591 143e
000003b0: c224 0fbd dd6c be3d 380f 0b3e 0416 88be
000003c0: fd99 7d3e 5673 8a3e ec9a abbd 59b3 38bd
000003d0: 215a 8dbe 8b1d 90bd 1a5a 30be c79c d9be
000003e0: afd4 913e 91dd ad3d b475 febc 22ae 38bc
000003f0: 9695 0b3d 16ce 4c3e 810b 713e 7dca a1be
-0.06825083 -0.03970205 -0.3920815 0.353441 -0.15902598 -0.28866664 0.16679828 0.008944507
0.030419283 -0.22797318 -0.028126778 -0.091300435 -0.19248103 -0.27691257 -0.049057573 0.3652883
0.21861693 0.18627083 0.05657605 0.21003255 0.1942591 -0.119570464 -0.13858384 0.16990492
0.14601293 0.11780655 0.098853864 0.4197818 -0.06497522 0.27058434 0.1869414 0.082797766
-0.1273575 -0.3314457 0.023649927 0.132415 -0.23157577 0.016888449 0.3308231 -0.04731555
0.48250753 0.049083635 0.13686797 0.14431228 -0.07406792 0.06462508 -0.110015206 -0.17085554
0.2388536 0.29960147 0.20083037 0.0707231 -0.023963444 -0.23629175 0.2691591 -0.074047856
-0.049098648 -0.40100935 0.15709004 0.28857717 -0.18695207 -0.17214932 0.18412991 0.016273305
-0.4681616 -0.030739846 -0.23281515 0.099905714 -0.2440691 -0.13687101 -0.37547317 0.042062525
0.18337326 0.20896515 0.10362306 0.069044925 -0.34788108 0.12107502 -0.42967385 0.13730511
0.09566666 0.08311356 -0.16802704 0.26654276 0.15904015 -0.33859792 0.0371206 -0.36641058
-0.2488825 -0.22303496 0.22633043 -0.11032541 0.019189017 -0.16489673 -0.100831226 0.2076356
-0.1795147 0.043191664 -0.077729605 0.2084285 0.29202652 -0.02020662 0.012419098 0.04387194
-0.031603 0.21274196 -0.26151478 0.23128101 0.0977334 0.13268867 0.16127963 -0.21310386
0.25253928 -0.12513345 0.23084463 0.01198467 0.027698688 -0.021018784 -0.19716637 -0.070036456
0.039458282 -0.03872103 0.19231702 -0.12338696 0.3190539 0.06980826 -0.11634153 -0.084899396
0.18633418 0.31460872 -0.047621567 0.05259202 -0.097625375 -0.105313 0.16216092 -0.21647345
0.11705455 0.059817243 -0.3202959 0.16545813 0.05710627 -0.09553988 0.18786861 0.15046433
0.16449846 -0.13297845 -0.0675641 0.29926082 -0.19008552 -0.02383868 0.14974368 -0.22307312
-0.083829224 0.13359779 0.39819437 0.26579058 0.21995096 0.06507812 0.15414183 0.26238427
0.36847717 0.16725916 -0.07992674 -0.30350918 -0.08813704 -0.28398845 0.4227326 0.047948375
0.2529956 -0.043819655 0.24015142 0.11913305 -0.26294968 -0.023315907 -0.31244507 -0.025644725
0.3303164 -0.13037205 -0.06683912 -0.18413408 0.1486428 -0.044292703 -0.121059634 -0.029256947
-0.07556911 -0.2592496 0.3416998 -0.10962305 -0.24811697 -0.43412435 0.17110762 -0.18877998
-0.15647349 0.06680235 0.34147942 -0.1913726 -0.13995488 0.18632288 -0.17444025 -0.05308558
-0.03845888 0.44462696 0.07099573 -0.33705345 -0.09334284 0.17657094 -0.2047418 0.2345903
-0.29318 0.020616585 0.091145195 0.11576308 -0.28309137 -0.17880844 -0.02674028 0.066233136
-0.35187578 -0.04646954 0.20911212 0.0533335 -0.07532991 0.26366305 0.1937672 0.2579854
-0.03556931 -0.0970021 -0.099750936 -0.13740622 0.17570996 0.25964135 -0.020065153 0.18561122
-0.030794173 0.16806616 -0.44981763 0.14508541 -0.034947164 0.09298108 0.13580024 -0.26579297
0.24765773 0.2704112 -0.083791584 -0.045092914 -0.27607825 -0.07036885 -0.17221871 -0.42502424
0.28482577 0.08489526 -0.031061985 -0.011271985 0.034078203 0.2000049 0.23539545 -0.315998

bias f4 [25]
00000000: 1c89 983c b311 15be 57de 833e ae51 f1bd
00000010: d837 08be c16f 22bd 1705 473e d064 b33d
00000020: f697 e63d 7628 f0bc 3aad 4d3e fb96 443e
00000030: db28 e3bc 92c0 0dbe 78d3 ce3c 660a 273e
00000040: 12c7 0f3e cfe6 f6bc 81f6 59be f59f 0e3d
00000050: cbb3 c2bc fa8f 613d 3cd1 133e 54d2 23bd
00000060: 203d 74bf
0.018620066 -0.14557533 0.2575557 -0.11783157 -0.13302553 -0.039657358 0.19435535 0.08759463
0.11259453 -0.029316168 0.20085612 0.1919822 -0.027729442 -0.13842991 0.02524732 0.1631256
0.14040783 -0.030139355 -0.2128544 0.034820516 -0.023767373 0.055068947 0.14435285 -0.039995506
-0.9540577
