result/config4_main/preliminary_model16.pt (torch_old, 482441 bytes, 8 tensors)

weight f4 [12, 2, 192]
00000000: ea44 253e 2b0c 8b3e 7572 b13d 2dad 77bc
00000010: cb23 d5bd 5cbb 333d 6a14 bb3e d63a 933d
00000020: 8a6d 623d 0bfd f63d 875d 70be 5b29 47be
00000030: 6d17 713e 613d d43d 417a d43d 5da2 4d3e
00000040: 9d98 ddbd 6ad6 c13d eee7 263d d290 1cbe
00000050: 1125 973d cd74 2bbe e7ea 56be be4a d1bc
00000060: 2d0d 233d 1dd9 aabb bfda 333d 4fc0 30be
00000070: 2b76 603c 5adc 503c 40e1 89be 9b3d a8be
00000080: 9bef dabd 44d9 6d3e cb3f b23d 1c27 e2bc
00000090: 6932 11be 0ce4 41be 1b7d 10bd 675c 13be
000000a0: 5b97 d73d fa88 ad3d 15c2 b4bd b9dd 00be
000000b0: 6b08 d3bd 0a1a be3e 28c9 69bd 2c04 043e
000000c0: 7867 253e a686 21be 8681 f3bc 6da9 4fbe
000000d0: ef10 49bd c312 5b3e 409c 3c3e 86e5 42be
000000e0: 23b5 b7bc 9e75 bdbd 4207 c2bd fc28 febd
000000f0: 855b 623e 4e42 e23e ea5e 673e 2480 ce3d
00000100: e532 5fbe 3f8d 18be b5f2 debd a714 0cbe
00000110: 6872 aabe 427a aebd a160 2a3e ea27 893e
00000120: 7965 ee3d b330 9ebc 58c3 3dbe 5ff4 53be
00000130: 8edc 95be 7ee3 5bbe a23e 8f3d 71ec 6b3b
00000140: 3dc4 68bd d644 57be 5c98 ccbd e06d 2d3e
00000150: da1b 2f3e b1e0 633d 5544 0b3e fee4 a7bd
00000160: 4578 83bd 28d1 86be 3247 ddbd 5f82 a1bd
00000170: b528 44be f669 723e 5c51 17be 912f 81be
00000180: 7bb7 f1bd 6d14 5bbe 7b87 25be 830a b8bd
00000190: 76bf 673e 463a 533e e640 943e 1f29 2b3e
000001a0: 2420 f73b 5466 df3e 884d 30bd c73f 10bc
000001b0: 0c11 853e 8077 723e 23c7 d13d 811a 83be
000001c0: 9479 ccbe 1940 d0bc 23fe 0b3d 78f0 a53d
000001d0: 665e 713e 56f1 dcbc 2b10 61bb 9688 233e
000001e0: 6eee 7f3e 0587 463e 2702 303d 62ae 063d
000001f0: 5013 003e 6185 0fbe 2463 4dbd 8d69 a0bd
00000200: eb1d 8dbe 1a12 393e 1f2a 7fbd ecb2 35bc
00000210: deae 4c3e e38d e33b 7a34 b1bd 87a8 6e3e
00000220: 3e92 843d 52da 233e f6d2 9ebb 2a0c 80be
00000230: 4652 043c 6c4b 2dbe dda1 cabd ea41 3ebe
00000240: d491 893a aee1 78bd f16e 2bbc 9bfa 08bd
00000250: c222 213e ef3b 07be 3ad8 57bd e724 c7bc
00000260: bd58 a6be 6931 d3bd c90a 743e fed0 3a3e
00000270: 53ca a63d 64bf 73bd b544 d1bd d2f7 0cbe
00000280: da65 01bd 0621 f0bc 0a06 d5bd abb3 d7bc
00000290: 24c1 e8bc 2966 a3bc a16a dfbc 4d7d 683d
000002a0: a63a b3bc 3f16 5dbd 882c a2be b3b0 58bd
000002b0: bf9b 84bd 13fd 3e3e 1e34 043e 9b7c 4fbc
000002c0: f1b3 f5bc 5866 12be e5df 643d fe55 203e
000002d0: 9440 683e d2aa 0d3d 01de ef3d 5287 123c
000002e0: 41e4 d7bb 24ca fb3d 3f5a 9e3e a93d 2d3e
000002f0: 50aa aa3e 6935 a63e 5dbc b73d 1ea2 c03d
00000300: 416c 233e 6be4 a53d 7c4d 803e 868f 873e
00000310: 3aa1 ce3e 8c61 533e 00cc b43e 3a65 833e
00000320: b01a ce3e 1dd9 b93e ba7e 9d3e 2ddf 7d3e
00000330: 48ab 963d deb6 f43e a370 c33e 7c2c 6d3d
00000340: 38d2 a03e d7dc 273f e2a9 373e 32df 483e
00000350: c758 843e 6c46 ba3e f704 ae3e 770c 0d3d
00000360: 72ef 9e3e 7932 a13e 0abe 0abe b1e0 6b3d
00000370: c76b 753e 0a06 023f 00c3 ae3d f228 e2bd
00000380: 12e5 b83a 97c4 60bd 4e97 a23e 510b cb3d
00000390: 5280 ebbd 3581 05be ec02 93bc e8b2 aebe
000003a0: df51 e23b 0ea4 053e 4dd9 efbd 11e2 48be
000003b0: 0a11 08be 0b98 81bd c041 6cbd 850e 8ebd
000003c0: 43cf f3be ed54 0abf 7635 20be 4a5f 90be
000003d0: 3cf7 99bd a03e cbbd 94c2 8fbe bab2 70bd
000003e0: 8bc9 cdbe 4a5d 1dbe 5e75 5dbe 1760 21be
000003f0: d035 c33d 189d 25be 9cc3 69be 38fc 27be
0.1613957 0.2715772 0.08664409 -0.015116972 -0.104072176 0.04387985 0.36539012 0.071889564
0.055280246 0.12059983 -0.23473178 -0.1944937 0.23544092 0.103632696 0.103748806 0.20081468
-0.10820124 0.09464724 0.04074853 -0.1528962 0.07380117 -0.16743775 -0.20988046 -0.025548335
0.039807487 -0.00521387 0.043909784 -0.1726086 0.013700048 0.012747848 -0.26929665 -0.328595
-0.10690232 0.23227412 0.08703574 -0.02760654 -0.14179386 -0.18934649 -0.03527556 -0.14390717
0.10526916 0.08473392 -0.08826081 -0.1258458 -0.1030434 0.3712924 -0.057076603 0.12892216
0.16152751 -0.1577402 -0.029724848 -0.20279475 -0.049088415 0.21393876 0.1841898 -0.19032869
-0.02242524 -0.09250949 -0.094740406 -0.12410161 0.22105224 0.4419121 0.225948 0.10083035
-0.21796758 -0.14897631 -0.108861364 -0.13679753 -0.3329041 -0.085194126 0.16638424 0.26788265
0.11640448 -0.019310331 -0.18531549 -0.20698689 -0.29269832 -0.214735 0.06994368 0.0035999084
-0.056827772 -0.21022353 -0.09989998 0.16936445 0.17100468 0.055634204 0.13600285 -0.08197974
-0.06419424 -0.2633145 -0.10804595 -0.078861944 -0.19156154 0.23673233 -0.1477713 -0.25231603
-0.11802574 -0.2139451 -0.16164963 -0.0898638 0.2263163 0.20627698 0.28955764 0.16714905
0.0075416733 0.43632758 -0.04304269 -0.008804268 0.25989568 0.23678398 0.102430604 -0.25606158
-0.39936507 -0.02542119 0.03417791 0.081025064 0.23571166 -0.026970547 -0.0034341912 0.15970072
0.24993297 0.19387443 0.042970803 0.03288115 0.12507367 -0.14015724 -0.050143376 -0.07832632
-0.27561888 0.18073311 -0.06229603 -0.011090022 0.19988582 0.0069444044 -0.08652587 0.23306476
0.06473206 0.16001251 -0.004846926 -0.2500928 0.008076256 -0.16923302 -0.09894154 -0.18579832
0.0010495731 -0.0607621 -0.010463462 -0.03344212 0.15735915 -0.13206457 -0.052696444 -0.024309589
-0.32489577 -0.103121586 0.23832239 0.18243787 0.08144059 -0.059508696 -0.10218183 -0.13766411
-0.031591274 -0.029312622 -0.104015425 -0.02633079 -0.02841241 -0.019946175 -0.027272524 0.05676012
-0.021878552 -0.053976294 -0.316746 -0.05290289 -0.06475019 0.18651228 0.12910506 -0.012663986
-0.02999303 -0.14296854 0.055877585 0.15657803 0.22680885 0.034586735 0.11712266 0.008943396
-0.0065884893 0.12294415 0.30928227 0.16918053 0.33333063 0.32462624 0.08971474 0.094059214
0.15959264 0.08100208 0.25059116 0.26476687 0.4035738 0.2064268 0.3531189 0.25663167
0.40254736 0.36298457 0.30760747 0.24792166 0.07356888 0.47795767 0.38171872 0.05790375
0.31410384 0.6557135 0.17935899 0.19616392 0.25848982 0.36381853 0.33988163 0.034435716
0.31042057 0.3148382 -0.13549057 0.05758733 0.23966895 0.50790465 0.08533287 -0.11042966
0.0014106354 -0.054874983 0.3175606 0.09914268 -0.114990845 -0.1303757 -0.01794573 -0.3412087
0.0069067325 0.13050863 -0.11711369 -0.19617487 -0.1328775 -0.06327828 -0.05767989 -0.06936363
-0.47619066 -0.54035836 -0.15645394 -0.281977 -0.07517859 -0.09924054 -0.2807814 -0.058764197
-0.40192828 -0.15367618 -0.21626803 -0.15759312 0.09531748 -0.16173208 -0.22828525 -0.16404808

bias f4 [12]
00000000: 9243 62be 41f6 9cbe 8a7b 70be 90d7 96be
00000010: 5f9c 97be d929 96be aa8f 8dbe 5cef 52be
00000020: 4678 a4be 1d65 b1be 1ab1 42be c50f 99be
-0.22096089 -0.30656627 -0.23484626 -0.29461336 -0.2961149 -0.29328802 -0.2764867 -0.20599121
-0.3212301 -0.34647456 -0.19012871 -0.29894844

weight f4 [48, 12, 16]
00000000: dbfd b83d 6b89 86bd 9082 633e 1565 18be
00000010: 2e92 643d 4b90 233d 4755 1a3e 71a6 a23d
00000020: ab6e c93c e57f 373d c89d 9cbd adff c5bd
00000030: aa1e 1b3d 7ceb 82bd e179 083e 83c9 ccbd
00000040: c10e be3c 233c 87bd ac2d 7cb9 3e71 a0be
00000050: b58c 28be bddd 0fbe fd1e 9fbd 8bca 88bc
00000060: 5ed8 6ebe 72da 843d 516f 553d bfc0 b33d
00000070: abc5 c7bc 02de 48bd b14c ecbd 58b9 11be
00000080: 4e36 323e a317 0c3d baa4 52be 6df2 34bc
00000090: e329 d53d 262a 5b3e 8874 3f3e 955e 983e
000000a0: dbc5 3b3e c431 eb3d 90ab cf3d 0964 43be
000000b0: b500 103d 8602 a33e ef01 2a3e 3096 0ebe
000000c0: 29e5 50bc f4b0 c13d 67f3 39be de42 7fbe
000000d0: fe8a 02bc a34e cf3c faaa e83d ad91 ce3c
000000e0: beed 0cbe 0b7f 2d3e 5749 353d 962b 81be
000000f0: 6adf f7bc 9573 a23e 31cb 4b3e d2aa 8fbc
00000100: 76e2 aa3e c320 2d3e ab87 103e ed74 013e
00000110: ab05 99bd 70b4 843e 6dd7 273e 0465 c83e
00000120: dbac 823d 6772 563e 614e 8a3d 173a a23d
00000130: c4a0 713e 9b66 883e 1164 e73d e34a 6d3e
00000140: 3103 ffbd efe0 c8be 3961 96be b5ca 2fbe
00000150: 5c23 293d d5ad 5ebe 9b96 9bbe ca9f 57be
00000160: 67ac 08be 477f 52be f9b6 96be 9645 b6be
00000170: 9391 28be 17ec aabe b696 01bf 1c65 98be
00000180: a6b7 46be 5f01 f9bb c30d 8bbd d139 10be
00000190: 91e3 61bd f1f3 7ebd 3aaf e2bd b802 d63d
000001a0: 1d68 eebd 949d 763e 5dfb fc3d 5185 ce3c
000001b0: 168c 80be 0aef 9e3e 8f8d 243d c77d 36bd
000001c0: a443 0c3e fbfc 993d 6c33 243c e73f c93c
000001d0: d23f fcbd cd91 ef3d 6910 c6bd a41e d33d
000001e0: 8984 ae3c d9e3 8b3d cb05 0d3e e078 85bc
000001f0: db82 873e f845 853e 4e67 c43d 75eb 7fbd
00000200: 0348 c4bd ff9d d7bc 1b5d 2b3e 3206 06be
00000210: 573a 6e3d 1f68 e03d 4682 3c3e f82a af3d
00000220: e757 dc3d aee6 613d e901 403e 4fa0 343e
00000230: 4b8d 483d 03de 7cbd c3f5 11be 2b59 85bd
00000240: 2145 8fbe 75ea 08be e124 2ebe 3434 acbe
00000250: caf5 97be afa4 7dbe d952 82be 565c c0be
00000260: 3e10 f0be c442 5abe 35ce 9bbe 62ab 5bbe
00000270: 7cc0 12bf b861 d0be cf84 b7be 0f7b 99be
00000280: d186 963e d561 e93c 26e6 29be 8b1d 59be
00000290: ac20 ab3d f710 793e ff2d 093e e7ba 30bd
000002a0: 30dd 2c3e 9285 6c3e 23a4 883e a58a bb3d
000002b0: 99e0 0e3e 754c 7d3e 80b5 8e3e 1844 b73d
000002c0: 8dd2 15be 6cbc 99be 2f4f 1c3c cd3c 333c
000002d0: 7b49 88bd 48a2 98bd df7f 3fbe 2ac4 923c
000002e0: 1c8f 283e 80fb 203e 24ec babd d783 61be
000002f0: 8ead a63c e74c 26be 3e2c 2dbe 6075 afbe
00000300: 22cb 41be 5aca 10bf 2daf 87bd 598a 3bbd
00000310: 66ad 61be b898 46be 8646 e1bc 7ad5 4abd
00000320: c8d7 88be edb7 e1be 2ea6 c0be f2c6 12be
00000330: 5b5a 4c3d 2e46 e63d fca5 db3d b4fb b7be
00000340: a6a6 d9bd 1133 183e 37a0 d1be 7bd4 52be
00000350: 921f 41bc 7859 3abe d7dc 8b3d be1f 153e
00000360: 6d2e 3e3c 7b2e 843c ea2c 31be 04b9 c8bd
00000370: 1799 11bf fb2e 7fbc 056b 83be 2092 053e
00000380: 2437 99be de6f 7cbe 1a02 473e f7b2 2d3e
00000390: b78e bdbc 6878 0dbd fe0b 253e afd4 463e
000003a0: 5050 d9be 6d2b 023e 36ca 2bbd 0476 dbbe
000003b0: 269c 9ebd d4d5 80bd c728 35be 799d edbd
000003c0: 37fa b33d 8965 25bd 4359 1ebe 31cd 573d
000003d0: 87f6 adbd 4af3 83be c214 79bd 725b 0ebd
000003e0: 3ded 27be 36c3 08be 19a9 e6bb 819c 363e
000003f0: f078 763e 89fd 0d3e 7b61 49bd 2241 debd
0.09032794 -0.06569179 0.22217774 -0.1488231 0.05580347 0.03993253 0.15071593 0.079419024
0.024588903 0.044799704 -0.07647282 -0.09667907 0.03787104 -0.06392571 0.13327743 -0.09999373
0.023200395 -0.06603267 -0.00024049607 -0.31336397 -0.16459925 -0.1404943 -0.077695824 -0.016698143
-0.23324725 0.06486978 0.052108113 0.08776998 -0.024386248 -0.04903985 -0.11538065 -0.1423086
0.17403528 0.03420223 -0.2057065 -0.011044127 0.1040838 0.21402797 0.18696797 0.2975966
0.18337195 0.114841014 0.10140145 -0.19081129 0.035156924 0.31837863 0.166023 -0.1392448
-0.012749949 0.09457579 -0.18159257 -0.24927852 -0.007967709 0.025306052 0.11360736 0.025215948
-0.13762566 0.16942994 0.044259395 -0.25228566 -0.0302579 0.31728807 0.1990173 -0.017537508
0.333759 0.16907029 0.14114253 0.1264226 -0.07471784 0.25918913 0.16390772 0.3913957
0.06380626 0.20942079 0.06753231 0.07921236 0.23596483 0.26640782 0.11298383 0.23173098
-0.124517806 -0.3923411 -0.2937105 -0.1716717 0.041293487 -0.21745999 -0.3038834 -0.21057048
-0.13347016 -0.20556365 -0.29436472 -0.35599965 -0.16461782 -0.33383247 -0.5062059 -0.2976464
-0.19405994 -0.0075990404 -0.06789734 -0.14084555 -0.055148665 -0.06224436 -0.11068578 0.10449737
-0.11640952 0.24083549 0.12352631 0.025210055 -0.25106877 0.31041747 0.040174063 -0.044553544
0.13697678 0.07518955 0.010022026 0.024566604 -0.1231686 0.11697731 -0.09671099 0.103085786
0.021303432 0.06830568 0.13771741 -0.01629299 0.26467022 0.26029944 0.09590016 -0.06248041
-0.09584048 -0.026320456 0.16734736 -0.13088301 0.058161106 0.109573595 0.1840907 0.085531175
0.107589535 0.055151634 0.18750729 0.17639278 0.048962872 -0.061735164 -0.14253907 -0.06511148
-0.2798243 -0.13370688 -0.17006256 -0.33633578 -0.2967971 -0.24769853 -0.25453833 -0.37570447
-0.46887392 -0.21314532 -0.3043076 -0.21452096 -0.5732496 -0.40699553 -0.35843512 -0.299767
0.29399732 0.028489033 -0.16591701 -0.21202676 0.08355841 0.24322878 0.13396452 -0.043146994
0.16881251 0.23097828 0.26687726 0.09157304 0.13952865 0.24736197 0.2787285 0.08948535
-0.146311 -0.30026567 0.009540363 0.010939789 -0.0665464 -0.07452828 -0.18701123 0.017915804
0.16460842 0.1572094 -0.091270715 -0.22022949 0.02034643 -0.16240273 -0.16911408 -0.34269238
-0.18925145 -0.56558764 -0.06625209 -0.045786235 -0.22038803 -0.19394195 -0.027499449 -0.049519993
-0.26727128 -0.44085637 -0.37626785 -0.14333704 0.049890857 0.112438545 0.107250184 -0.35934222
-0.10627489 0.1486323 -0.40942547 -0.20588867 -0.011787312 -0.18198192 0.06829231 0.1456289
0.011607748 0.016135445 -0.1730229 -0.09800914 -0.5687422 -0.015575166 -0.25667587 0.13044024
-0.2992488 -0.24652049 0.19434395 0.16962801 -0.02313934 -0.034538656 0.16117856 0.1941707
-0.42444086 0.12711878 -0.04194089 -0.42863476 -0.07744627 -0.062907845 -0.17691337 -0.11602301
0.08787959 -0.040380035 -0.15463738 0.05268592 -0.08494287 -0.25771552 -0.06081081 -0.034755178
-0.16399093 -0.13355717 -0.007039201 0.17833139 0.24069571 0.13866247 -0.04916523 -0.10852267

bias f4 [48]
00000000: 1fd3 e03d 57bb 11be 2ebd 503e ca38 b3bd
00000010: 8d00 c9bd 248e 9dbe 82bb 60be 1353 0b3e
00000020: 000f 9bbd d04a 2ebe fc6c 72bc 1185 0a3e
00000030: 9b85 2ebe d83d 363e 7c1a 4b3d db86 92bd
00000040: c9d9 ac3d c4ac 813d 9458 813d 07e1 9ebd
00000050: 5ede 633d 0bc3 99bd 37b1 573d 490b 863b
00000060: e224 9c3d be28 50bd 4e10 913d c05f dfbc
00000070: 295e 863c 2f59 9dbc 9e4b e7ba 1cb9 3d3e
00000080: 87bf 7c3d 0511 c5bd 53c9 993d e130 a8bb
00000090: 4b80 3e3d fc05 423d ecc9 3bbe 43b0 7dbd
000000a0: 3bf4 f0bd ed5f 4a3e 294f e03c c733 273c
000000b0: e6eb ab3e ac81 29bd 093e 0fbd 8e58 ce3d
0.10977768 -0.1423162 0.20384666 -0.08751066 -0.09814558 -0.30772507 -0.21946529 0.13605909
-0.075712204 -0.17020726 -0.014796492 0.13527323 -0.17043154 0.17797029 0.049585804 -0.07154628
0.08439977 0.063317806 0.06315723 -0.07757764 0.055631988 -0.075079046 0.05265924 0.0040907008
0.07624222 -0.050820105 0.07083188 -0.027267337 0.016402321 -0.019207565 -0.0017646437 0.18527645
0.061706092 -0.09622387 0.07509103 -0.00513278 0.04650907 0.04736899 -0.18338746 -0.061935674
-0.11765333 0.19763155 0.027381497 0.010205216 0.33578414 -0.04138343 -0.03497127 0.10075484

weight f4 [64, 1584]
00000000: 6cca 473d e254 38be 1a6c 4c3e d7af 81bd
00000010: 08f5 9cbc b61d 2b3b 7627 233e 539c 803d
00000020: 99d9 4c3e 6c5f 363e e3d1 f83c 1925 203e
00000030: 7f9e 113e c255 113e 1293 2b3e bae4 eb3d
00000040: dfb3 323e 8702 723e 489b d43e 8762 6e3e
00000050: ef17 fb3e a6db a73e bdad 2f3e 6927 433e
00000060: da0c ef3e ae3d 413e c9cc 3a3c 7253 acbe
00000070: ccb3 cd3c d9c4 fe3d 6791 4e3d d90d ec3c
00000080: 9370 1b3d 72b6 b9bd ad51 263e b2d1 84be
00000090: 78fd fa3d 9bd2 023e 503b 893e 6edc 743e
000000a0: 608a 9d3e ed5e 273e b167 c63e 7ac8 2d3d
000000b0: f4f0 3ebe dc66 2b3e 76e4 bb3e ab7e ef3e
000000c0: b837 a2bc f77a 5b3c 06c4 723e 34a7 c4bd
000000d0: 8092 25be b13e 683d 725d 6fbe b44d 4e3e
000000e0: d448 24bd 77f2 e43d d765 58be 7862 9bbd
000000f0: d454 8cba d7d2 2e3e d306 c3bd 4de2 0bbe
00000100: 30c8 803d 6100 453e a6e3 ddbb b482 17be
00000110: 2621 f4bd 9f32 b53e 0227 57bd f67d 5d3d
00000120: d40b 563d 7589 3e3d c5da 81bd dfa7 bb3d
00000130: 808c a43d 6f97 cf3e 7f60 13be 251d 973e
00000140: 7074 5d3c c64f 3a3e 025b 8f3e 15cc a4bd
00000150: a349 663e 1c75 fdbd 4f13 2c3d a280 3c3d
00000160: 2615 a13e e4fb aebd c8c1 61bd 40f1 36be
00000170: 4037 963d 1c79 48be 479a c93d f67a 873e
00000180: 4d8d b73d 5b75 c53c 4b1b d9bc 31b0 903d
00000190: 0a86 cabd 7bb4 ba3e 0f97 e53c 39a7 2a3e
000001a0: 8fc5 3abe 8950 ce3c 92dc 97be 7e17 043e
000001b0: 3cc1 2fbe 9d15 a1be 7745 2abe d9e9 c63e
000001c0: cd18 aabd e0b3 123e 90cc abbd 5429 8c3e
000001d0: 56fb cb3d 8f3a 38bd f1b2 043d d391 893e
000001e0: 8f7c 98bd 7909 0ebe 33da 29bd 0239 953c
000001f0: 161d d4bb 8621 0ebe 6829 20be 6b1b 903e
00000200: 6fd4 763e e0d1 d13d ba3e 5f3d 4ae1 163e
00000210: 5c4d 6d3e 821b aebe ebd4 18bc 9d5d aa3d
00000220: d24f a8bd cd9e 6fbd f82e 5d3d d8c9 113e
00000230: 77f1 8f3d 8eb6 f33d d895 57be c488 c6bc
00000240: 7fc3 953e 37e6 0d3e 1715 84bd 5e37 a03e
00000250: 523b 7b3d ecbe 4f3e 923e 85be fb33 2b3e
00000260: ba07 453e 1061 ef3c 7bc6 3cbe fc8f 96be
00000270: 94ec 043e 5403 c4bb 191f 303b 32b3 b4be
00000280: f096 5c3e ec71 133e 0c54 053e c505 8e3e
00000290: c907 dabd 34de cb3d 50fa a23e 28d4 cdbd
000002a0: 9cf9 2bbe 6417 59be 370c ab3d 3cac 27be
000002b0: ab9b dabd 906f 003e a82c 663e 8a7d 10be
000002c0: 4adc fd3d d1a9 ccbd 5d13 403e bbe8 57be
000002d0: 23c6 dcbd 64e9 5a3e e42c 19bd 8496 a3be
000002e0: 2761 15be 3450 5e3e 22c9 d33e 6c6a 80be
000002f0: c873 9ebe 6d1c 743d 0743 1f3e ed5c 5fbe
00000300: 794b 4abe 2961 ae3d 4e62 22bc 1208 70be
00000310: 283a 9c3c 2ba5 083e 6db0 dc3e 051f 943e
00000320: 3334 993e 8713 5b3d 6eab a23e 6f62 083e
00000330: 058c df3c 9fbb 83be 583d 14be 815c 8d3e
00000340: 088e 1ebe a70b 96bc 8932 643e 2013 653e
00000350: 02a3 7abc 9584 2dbd 51a6 373d 41f5 f63d
00000360: f83b 35be 2dd1 973d fae0 1abd 392e 8f3b
00000370: 8701 21be 41cd fe3d 4302 12bd 93cc 5e3e
00000380: 9360 babe dc7c 96bc 7764 1d3d 035b d6bd
00000390: 3221 4bbc 159e 843e c472 b03e ebbe 6b3d
000003a0: f495 3abe 464c 2bbc ef01 b63d 2b30 20be
000003b0: 1d30 2cbd b861 593d b015 8f3e f6ce 9e3c
000003c0: 66fb 9bbe a9ba c4bb 534e 223d c9a6 413e
000003d0: c7b2 dbbe 5266 82be ae3b b63e 27b4 833c
000003e0: d1a8 dabd 9e87 703d 39f6 da3d 1190 2c3d
000003f0: 6f25 e3bd 6395 b9bd cffd e83d 7eeb 5b3d
0.04877703 -0.1800113 0.19963112 -0.06332367 -0.019159809 0.0026110238 0.15933022 0.062798165
0.20004882 0.17809838 0.03037352 0.15639152 0.14220618 0.1419287 0.16755322 0.115182355
0.17451428 0.23633777 0.4152472 0.23279773 0.49041697 0.32784766 0.1715612 0.19058003
0.46689492 0.18871185 0.011401364 -0.33657414 0.025110148 0.124398895 0.050431635 0.028815197
0.037949156 -0.09068002 0.16242094 -0.25941235 0.122553766 0.12775652 0.26803064 0.23912212
0.30769634 0.16344805 0.38750985 0.042427517 -0.18646604 0.16738456 0.3669774 0.46776327
-0.01980196 0.013396016 0.2370759 -0.09602204 -0.16169167 0.056700412 -0.2337549 0.20146829
-0.040108517 0.11179059 -0.21132599 -0.07587141 -0.0010706433 0.17072617 -0.09522786 -0.13660546
0.06288183 0.19238426 -0.0067715226 -0.14795953 -0.11920385 0.35390183 -0.052527435 0.054075204
0.052257374 0.046517808 -0.06340555 0.09162878 0.08034611 0.40545222 -0.14392279 0.29514423
0.01351653 0.18194494 0.2799912 -0.08046738 0.22489028 -0.123758525 0.0420106 0.04602111
0.31461447 -0.08544138 -0.055116445 -0.17865467 0.07334757 -0.1957745 0.09843879 0.26461
0.08962498 0.024103811 -0.026502272 0.07064856 -0.09888847 0.3646582 0.028026132 0.16665353
-0.18239425 0.025184887 -0.2966047 0.12899587 -0.17163557 -0.31461802 -0.16628061 0.38850287
-0.083055116 0.1432643 -0.083886266 0.2737528 0.09960048 -0.04497772 0.032397214 0.26869068
-0.07445633 -0.13870801 -0.041467857 0.01821566 -0.006473194 -0.13879976 -0.15640795 0.28145918
0.24104474 0.102451086 0.05450318 0.14734378 0.23174042 -0.34005362 -0.009328107 0.083186366
-0.082183495 -0.058501054 0.05399987 0.14237154 0.07028478 0.11900054 -0.21053255 -0.024235137
0.29250714 0.13857351 -0.06449335 0.31292242 0.06133587 0.20287675 -0.260243 0.16719048
0.19241229 0.029221088 -0.1843509 -0.29406726 0.12980872 -0.005981842 0.0026874004 -0.35292965
0.21541953 0.14398926 0.13020343 0.27738777 -0.10646016 0.09954491 0.31831598 -0.10050231
-0.16794437 -0.21200329 0.08351939 -0.16374296 -0.106742226 0.12542558 0.22477973 -0.1411039
0.123955324 -0.099933274 0.18757387 -0.21084873 -0.10779979 0.21378094 -0.037396327 -0.31950772
-0.14587842 0.21710283 0.4136439 -0.25081193 -0.3094771 0.05959742 0.15552913 -0.21812792
-0.19755353 0.085146256 -0.009911133 -0.23440579 0.0190707 0.13344257 0.43103352 0.28929916
0.29922637 0.05348542 0.31771415 0.133188 0.027288446 -0.2572908 -0.14476526 0.27609637
-0.15483868 -0.018316103 0.22284903 0.22370577 -0.015297653 -0.04236277 0.044836346 0.12058497
-0.17698658 0.07412944 -0.03781221 0.004369524 -0.15723239 0.12441493 -0.03564669 0.21757726
-0.36401805 -0.018370084 0.03842589 -0.10466578 -0.012398051 0.25901857 0.3446256 0.05755512
-0.18221265 -0.010455197 0.088870876 -0.15643375 -0.042038072 0.053071707 0.27946234 0.019385796
-0.3046524 -0.006003697 0.039625477 0.1891128 -0.42909834 -0.2546869 0.35592407 0.016077114
-0.106767304 0.058723085 0.106914945 0.04212958 -0.11091124 -0.090616964 0.11376535 0.05369138

bias f4 [64]
00000000: 4610 583e df6c 01bc 9a44 313b 42e5 883e
00000010: 5aac c23b eedd c1bd c307 933e 6b72 443d
00000020: 2cb9 d43d ece8 13be d184 1fbd 185a 0fbd
00000030: 4185 753a 376f 223d 4cae 9e3e c99b c33a
00000040: 6b89 173e c0e6 403e 6b5b 0a3e 2b93 2b3d
00000050: a2cf 6eba 61ad 043e 50e1 8cbe 15fa c7bd
00000060: 0ff5 b43d c63a e23d 54c9 65bd 73fa 0c3e
00000070: db2c 4b3e 6806 a33d 6933 a4be ba67 2fbe
00000080: 3328 283e 73d6 3ebd 2db3 d63d f363 9ebd
00000090: eaa0 24be d123 5abe c129 623d 2e19 d7bd
000000a0: 4874 af3e 19d8 05bd a395 e83d 8eb1 6bbe
000000b0: 7db1 293d 9c60 743e 35be 2fbe a87a 9a3e
000000c0: 2fd0 12be 1ba5 c63d 216c 9e3b b6f0 20be
000000d0: cb99 8cbe 4485 6cbc 8fdc 033d 2708 60be
000000e0: a3be 00be 5165 1bbe 3dc0 923d 6a9b 0c3e
000000f0: c948 81be 9596 58be 427f 87be 8ed0 443e
0.21099958 -0.007899492 0.0027048946 0.2673741 0.005940956 -0.09466158 0.2871686 0.04796068
0.10386881 -0.14444321 -0.038945023 -0.03499803 0.00093658647 0.039656844 0.30992353 0.0014923747
0.14798515 0.18838024 0.13511436 0.041888397 -0.0009109919 0.12956764 -0.2751565 -0.09764496
0.08835804 0.110463664 -0.056100205 0.13767414 0.1984133 0.07960206 -0.32070473 -0.17129412
0.16421585 -0.046591233 0.10483394 -0.077339076 -0.16077009 -0.21302725 0.0552156 -0.105028495
0.34268403 -0.03267679 0.11356666 -0.2301695 0.04142903 0.23864979 -0.17162402 0.30171704
-0.14337228 0.0969946 0.0048346673 -0.15716824 -0.27461085 -0.01443607 0.032192763 -0.2187811
-0.12572722 -0.15175368 0.07165573 0.13731161 -0.25250843 -0.21151192 -0.26464278 0.19220182

weight f4 [25, 64]
00000000: 1a0b 4abd 7c05 e4bd c9ed 01bf 0229 e03e
00000010: e53f 31be 3e0b 9dbe a53d 933e 8b7c 71bb
00000020: ad2c d63c ec77 95be 86e6 8ebd c1a5 02be
00000030: c0f7 7fbe 52d4 b8be 099d c9bd 0d1d b83e
00000040: 324f 933e 7f6f 9c3e f0fd 273e c871 7b3e
00000050: a669 363e 8092 f6bd 6625 2ebe f756 8e3e
00000060: 1baf 423e 6dc6 343e 4f28 a63d c220 023f
00000070: 0476 febd 60fb 693e 9903 253e 87a9 b93d
00000080: 1b17 3dbe 75da e7be b67a 183d 0ac8 163e
00000090: e4c4 8abe 547e 243d 445d cd3e 5f19 14be
000000a0: dded 043f 39b9 da3d 19d7 fb3d fb61 c03d
000000b0: 8df7 20be 9b4d 893d 1200 b0bd 2b1f 55be
000000c0: 0e9b 6c3e 4f40 9c3e ad24 4b3e 9dca c83d
000000d0: c459 343c 0047 9cbe 3862 bc3e 0c1a 46bd
000000e0: 7ed9 29bd ccfa f3be 12d5 1e3e 057b c53e
000000f0: 5a07 66be c5df 78be 097b 473e 9eec 973d
00000100: c85f 12bf 8ba7 2fbd 59dc 8fbe a0b6 063e
00000110: 40fb 88be e8f5 31be 1ff4 eabe d49b 323d
00000120: 7721 a03e 663c 793e eca5 e03d 1709 e43d
00000130: 5934 d1be 7c79 243e bdd9 07bf 4ddf 523e
00000140: 25e1 443e a052 943d 6c12 5cbe 82bc a63e
00000150: 2a21 3d3e bd1f cdbe 5280 b8bc 97e7 f2be
00000160: d4f4 8cbe 52d9 83be 516e 783e caa1 bebd
00000170: 88e6 b8bc f8c6 45be d42f 01be 328b 6c3e
00000180: 25d0 47be 5088 503c 337b 88bd d736 363e
00000190: 284c b43e ac10 bfbd 998b a63c 0fe6 593d
000001a0: 0344 2cbc 0416 623e 5b9a a0be 6979 a23e
000001b0: 7e4e 053e eb54 023e 8850 273e 25c9 68be
000001c0: 4d67 8c3e 988d 24be e9bf 7b3e 404a 73bd
000001d0: 5574 a63d 9c44 30bd c6c6 87be 94d5 d5bd
000001e0: a8bb 843d d044 a8bc 36f4 5d3e f806 07be
000001f0: cabb b03e 3fa1 943d 9766 acbd a4ac bdbd
00000200: 4c22 7b3e 941f c13e 8768 a0bd fc96 213d
00000210: e717 19bd f450 30be 1a3e 553e bce7 44be
00000220: 1b0f 1abb 77c2 dd3d 5cb9 e2be 14b1 1c3e
00000230: 47e2 3f3d 19f8 f2bd 066f 573e 1ad9 4a3e
00000240: b4cf 363e 114f f5bd 61ae debd 1c36 8b3e
00000250: 2886 a2be 002b 7fbd ca5d 383e 4289 92be
00000260: a491 2abe a1be 3e3e 490a 1b3f 0a9a 823e
00000270: 26a5 473e 4f14 6c3d 3982 dd3d 6b3d b03e
00000280: 208e cc3e 56e5 4d3e b1a8 13be 6a61 a9be
00000290: 862a 0cbe 0fbb abbe fb83 f13e d032 313e
000002a0: 3dfc a73e 4946 0c3d bbd1 843e e1a2 9a3d
000002b0: dc30 9bbe a0a5 a7bd 824d e8be 93b6 6bbd
000002c0: 5d33 c03e 2719 efbd ea52 0abd b728 5abe
000002d0: 6383 053e 892f b5bd c5cd 05be a98f 913c
000002e0: 0a45 b8bd bb55 9dbe 0c9b a53e cd0b 0abe
000002f0: ca84 a6be dacf 06bf ee85 5c3e 5c2b 49be
00000300: 08c3 34be a0cf 753d 0477 db3e 5c65 a1be
00000310: 3b59 2bbe 1796 6a3e 82a4 4abe 35ec a7bd
00000320: 1b9b b8bd c7ad 053f 9325 2f3d d0ab bdbe
00000330: 3efb 03be 9d7c 5e3e f926 8abe 5df0 963e
00000340: e0f4 c7be 83e9 ecbb 0fd3 8a3d a4c4 133e
00000350: deea a3be 9db3 2dbe 9a08 74bd 9203 5b3e
00000360: 0dea ddbe 5ebf 28be a681 913e 2ec1 063d
00000370: 05de e4bd a7bd ae3e 5847 873e 3ec3 a73e
00000380: c386 02be 28dd 03bd 222f cfbd f55b dcbd
00000390: e901 273e 908e 933e 299f b03c 58b2 653e
000003a0: 90b7 fabd 9a00 b23d 8eba 0fbf 2779 0c3e
000003b0: 3748 f2bc f4e2 1b3e 2622 003e 018d aebe
000003c0: 61ea a73e ed93 733e a804 93bd 34c7 d83d
000003d0: 9daa 94be a34b 26bd c5b1 37be 13f0 dbbe
000003e0: 6855 af3e bb8e 013e cf5b 193d 3a22 cb3c
000003f0: e173 8bbb a139 8b3e 0998 853e 1aa4 bebe
-0.049326994 -0.111338586 -0.50753456 0.43781286 -0.1730953 -0.3067264 0.2875797 -0.0036847915
0.02614435 -0.29193056 -0.069775626 -0.12758543 -0.24996853 -0.36099488 -0.09844405 0.35959664
0.2877136 0.30553815 0.16405463 0.24555123 0.17813739 -0.120396614 -0.17006454 0.27800724
0.1901211 0.17653818 0.08113157 0.50831234 -0.124248534 0.22849798 0.16114654 0.09065538
-0.18465845 -0.45283857 0.0372264 0.14724746 -0.2710334 0.04015954 0.4011022 -0.14462803
0.5192545 0.1067986 0.12296886 0.09393688 -0.15719433 0.06704255 -0.085937634 -0.20812671
0.23106024 0.30517814 0.1983821 0.098042704 0.01100773 -0.3052292 0.36793685 -0.048364684
-0.041467182 -0.4765228 0.15510967 0.3857042 -0.22463742 -0.24304111 0.19480528 0.07418178
-0.571774 -0.04288439 -0.280978 0.13155603 -0.2675419 -0.17378962 -0.45889375 0.04360564
0.31275532 0.24339446 0.10969147 0.11134546 -0.4086025 0.16061968 -0.5306662 0.20592995
0.19226511 0.07242322 -0.21491402 0.32565695 0.18469682 -0.40063277 -0.022522125 -0.47442314
-0.2753054 -0.2575174 0.24260832 -0.093082026 -0.022570863 -0.19314182 -0.12615901 0.23099974
-0.19512995 0.012727812 -0.066641234 0.17794357 0.35214353 -0.09329352 0.020330237 0.053197917
-0.010514262 0.22078711 -0.31367764 0.31733254 0.13018224 0.12727706 0.16339314 -0.2273298
0.27422562 -0.16069639 0.24584927 -0.059396982 0.08127657 -0.04303418 -0.2651884 -0.104411274
0.06481105 -0.020540625 0.2167519 -0.13186252 0.34518272 0.07257318 -0.08418005 -0.09261444
0.24524802 0.37719405 -0.07832437 0.03945063 -0.03737631 -0.17218381 0.20824471 -0.19229025
-0.0023507539 0.10828107 -0.44282043 0.15301925 0.046846654 -0.11863727 0.21038446 0.1980938
0.1785267 -0.11977971 -0.10873104 0.2718972 -0.31742978 -0.062296867 0.18004528 -0.28620344
-0.1665712 0.18627407 0.6056257 0.25508147 0.19496593 0.057636555 0.108158536 0.34421858
0.39952183 0.20107016 -0.1441982 -0.33082134 -0.13688096 -0.33541152 0.47171006 0.1730454
0.3280963 0.034246717 0.25941262 0.07550598 -0.30310714 -0.08185887 -0.45371634 -0.057547163
0.37539187 -0.11674719 -0.03377048 -0.21304594 0.13038401 -0.08846957 -0.13066776 0.017768698
-0.08997543 -0.3072947 0.32344854 -0.13481064 -0.32523185 -0.52660906 0.21535465 -0.19645447
-0.17652524 0.06001246 0.4286424 -0.31522644 -0.16733257 0.22908817 -0.19789317 -0.0819935
-0.09013959 0.5221829 0.042760443 -0.37045145 -0.1288881 0.21727224 -0.2698286 0.29480258
-0.39054012 -0.007229985 0.067785375 0.14430481 -0.32015127 -0.16963048 -0.059578516 0.2138808
-0.4334263 -0.16479251 0.28419226 0.032899074 -0.11175159 0.34129068 0.26421618 0.32766145
-0.1274672 -0.032193333 -0.10116412 -0.10759727 0.16309322 0.28819704 0.021560268 0.22431314
-0.12242043 0.08691521 -0.56144035 0.13718091 -0.02957545 0.15223294 0.12513027 -0.34091952
0.32796004 0.23786898 -0.071786225 0.1058487 -0.29036418 -0.040599477 -0.17938907 -0.429566
0.34244847 0.12652104 0.03744107 0.024796594 -0.004255757 0.27192405 0.26092556 -0.37234575

bias f4 [25]
00000000: 7868 933d fc41 51be 0947 af3e 82d4 18be
00000010: bb8d 2ebe bedc eebd 0701 8b3e 6db3 013e
00000020: 62fe f33d d1f4 2dbc 43c5 753e 1df7 213e
00000030: e4ea 99bc 3f64 60be 17ff 56bc 4525 663e
00000040: 32e5 7c3e b677 cc3b 2234 21be f7bc a23c
00000050: ba00 62bd b0c6 30bd c8d6 1d3e 26d2 c1bc
00000060: 2365 93bf
0.0719766 -0.20435327 0.34233883 -0.14924815 -0.17046253 -0.11663197 0.2714922 0.12666102
0.11913754 -0.010617451 0.2400103 0.15816922 -0.018788762 -0.21913241 -0.013122342 0.22475155
0.24696806 0.0062398566 -0.15742543 0.019865496 -0.055176474 -0.043158233 0.15413964 -0.023659777
-1.151524
