result/config4_main/preliminary_model14.pt (torch_old, 482251 bytes, 8 tensors)

weight f4 [12, 2, 192]
0.16725112 0.28726432 0.11080977 0.016939128 -0.0705186 0.024630966 0.3799371 0.08133559
0.027534656 0.050088245 -0.24929522 -0.18981604 0.26599562 0.070316404 0.034684017 0.19045807
-0.1924382 0.020013187 -0.023195451 -0.16821201 0.08143691 -0.116222814 -0.16340679 -0.01931428
0.004550209 -0.0611083 -0.013010456 -0.16566238 0.010546 -0.024649177 -0.25208673 -0.30014077
-0.10719687 0.19137931 0.11224449 -0.030656885 -0.13647664 -0.14407614 0.00056271406 -0.14141773
0.04458603 0.04537801 -0.105658755 -0.12853006 -0.05546473 0.35414517 -0.04612791 0.14272594
0.14945425 -0.1306458 -0.0030694494 -0.1725129 0.0060160914 0.23202282 0.16214147 -0.12415208
0.013295661 -0.077904135 -0.08165628 -0.13113883 0.16155186 0.35688275 0.1540478 0.005442387
-0.22314744 -0.13735482 -0.09795971 -0.12786223 -0.33355075 -0.09472464 0.13074668 0.2520416
0.092585966 -0.04474742 -0.14621478 -0.19098012 -0.33214372 -0.24240346 0.06515722 0.020135459
-0.061559662 -0.17124267 -0.10573746 0.18656799 0.20511574 0.079483286 0.12830102 -0.115078904
-0.022238228 -0.23228833 -0.15077172 -0.14756262 -0.23025106 0.18541998 -0.10464924 -0.20969768
-0.10692095 -0.17921005 -0.18054496 -0.081806906 0.2042302 0.21062736 0.30224532 0.14774221
-0.002232499 0.30777785 -0.1512336 -0.06980183 0.23591502 0.21899845 0.043096256 -0.2862629
-0.38516495 -0.06422157 -0.027583957 0.08840027 0.2547851 0.0030558694 -0.002043337 0.19031964
0.2758189 0.20009486 0.03550671 0.013883399 0.15110362 -0.10057409 -0.021560928 -0.051085718
-0.24375504 0.16368452 -0.077515215 -0.018969594 0.23539105 0.041825972 -0.0794369 0.19569433
0.02463403 0.15465564 0.015539816 -0.18982364 0.028711502 -0.15667756 -0.07480079 -0.13345991
0.048490874 -0.047969908 -0.08462835 -0.034864187 0.16694945 -0.080104336 0.004913528 -0.028976228
-0.3212071 -0.08310595 0.2370628 0.14289153 0.06817358 -0.03763191 -0.06402451 -0.09809788
0.033098843 -0.024340324 -0.058188964 0.015379346 -0.028063944 -0.012274333 0.018051377 0.07016935
0.029648004 0.0020879598 -0.28066134 -0.039426737 -0.07349205 0.1684509 0.17464219 0.039645668
-0.053619936 -0.15354137 0.04442491 0.18413462 0.25863576 -0.0028432284 0.062767476 0.017016813
-0.0070518204 0.14114341 0.26130784 0.121585034 0.30620107 0.31660172 0.09695856 0.02020656
0.175845 0.11021838 0.21097901 0.20198265 0.30488762 0.12957035 0.37134668 0.2376257
0.3978209 0.309374 0.30501384 0.21285419 0.031595733 0.46282244 0.35773835 0.070283465
0.27540156 0.641033 0.18537049 0.22746101 0.27081993 0.37700236 0.39014173 0.01701071
0.291377 0.3043709 -0.17869255 0.012961279 0.22130862 0.5276212 0.103873655 -0.04013193
-0.008390564 -0.10885913 0.30891716 0.081484675 -0.14253865 -0.11946686 0.016046641 -0.31990156
0.03778703 0.13795042 -0.11167624 -0.22084816 -0.14239079 -0.09202477 -0.14412634 -0.08478682
-0.4191397 -0.44094104 -0.119880244 -0.25981918 -0.03015412 -0.088670276 -0.25699136 -0.061337788
-0.3987849 -0.17197259 -0.18653966 -0.104968905 0.09117395 -0.17508264 -0.28139597 -0.14969209
00000000: e143 2b3e 4f14 933e 3cf0 e23d edc3 8a3c
00000010: 0e6c 90bd e1c6 c93c 1e87 c23e 4693 a63d
00000020: 5c90 e13c 5529 4d3d 3f47 7fbe 235f 42be
00000030: 9430 883e 0c02 903d d410 0e3d 7107 433e
00000040: 850e 45be b2f2 a33c 6304 bebc c53f 2cbe
00000050: 65c8 a63d 3a06 eebd 1c54 27be fb38 9ebc
00000060: eb19 953b b24c 7abd cf29 55bc 66a3 29be
00000070: 21c9 2c3c 12ed c9bc 8311 81be 0dac 99be
00000080: 088a dbbd f0f8 433e 70e0 e53d 2624 fbbc
00000090: 88c0 0bbe b288 13be 1a83 133a cfcf 10be
000000a0: d79f 363d 4bde 393d 9e63 d8bd 629d 03be
000000b0: fc2e 63bd 8452 b53e 9ff0 3cbd c026 123e
000000c0: 890a 193e 03c8 05be d128 49bb 39a7 30be
000000d0: a222 c53b 6497 6d3e 6a08 263e 7243 febd
000000e0: 0bd6 593c 348c 9fbd 683b a7bd 4249 06be
000000f0: da6d 253e 56b9 b63e b5be 1d3e 0d56 b23b
00000100: c380 64be bea6 0cbe 1a9f c8bd 51ee 02be
00000110: 2ac7 aabe fefe c1bd 75e2 053e 990b 813e
00000120: b69d bd3d 1249 37bd 54b9 15be 4b90 43be
00000130: be0e aabe 9d38 78be 2671 853d 1ef3 a43c
00000140: fc25 7cbd 3d5a 2fbe e28c d8bd ae0b 3f3e
00000150: dc09 523e 22c8 a23d 5861 033e 7dae ebbd
00000160: f22c b6bc fedc 6dbe e763 1abe a81a 17be
00000170: efc6 6bbe bcde 3d3e 5752 d6bd fdba 56be
00000180: 5ff9 dabd d782 37be c7e0 38be 618a a7bd
00000190: b921 513e b3ae 573e e6bf 9a3e bc49 173e
000001a0: 1e4f 12bb 0f95 9d3e fbdc 1abe 43f4 8ebd
000001b0: b593 713e 2141 603e b385 303d 0d91 92be
000001c0: 5734 c5be 9986 83bd c0f7 e1bc 330b b53d
000001d0: 3173 823e fb44 483b 82e9 05bb 27e3 423e
000001e0: 2338 8d3e abe5 4c3e 7c6f 113d 3277 633c
000001f0: e8ba 1a3e caf9 cdbd 8ba0 b0bc 423f 51bd
00000200: ec9a 79be ea9c 273e 4cc0 9ebd 1f66 9bbc
00000210: 5a0a 713e b651 2b3d d0af a2bd 1864 483e
00000220: 4ecd c93c 0c5e 1e3e b69a 7e3c 2161 42be
00000230: 6234 eb3c 1570 20be 2831 99bd b7a9 08be
00000240: 5e9e 463d 187c 44bd a151 adbd c0cd 0ebd
00000250: ccf4 2a3e be0d a4bd a901 a13b 8e5f edbc
00000260: 4275 a4be 7433 aabd 97c0 723e 2852 123e
00000270: 979e 8b3d eb23 1abd 481f 83bd 8be7 c8bd
00000280: a792 073d 5c65 c7bc 8d57 6ebd a7f9 7b3c
00000290: 5be6 e5bc 491a 49bc 7be0 933c f3b4 8f3d
000002a0: 5fe0 f23c 27d6 083b d8b2 8fbe ee7d 21bd
000002b0: 0083 96bd 657e 2c3e 67d5 323e 7f63 223d
000002c0: 94a0 5bbd f339 1dbe e5f6 353d c98d 3c3e
000002d0: e86b 843e 7555 3abb 3c8c 803d d866 8b3c
000002e0: f512 e7bb e687 103e 24ca 853e 9301 f93d
000002f0: 63c6 9c3e 9f19 a23e 3692 c63d 3a88 a53c
00000300: b610 343e 2dba e13d e20a 583e 8ad4 4e3e
00000310: 3b1a 9c3e 17ae 043e 2721 be3e 2754 733e
00000320: 2eaf cb3e 4566 9e3e c62a 9c3e 73f6 593e
00000330: 876a 013d 10f7 ec3e 7b29 b73e c7f0 8f3d
00000340: 6f01 8d3e bd1a 243f c3d1 3d3e 8aeb 683e
00000350: e9a8 8a3e 7406 c13e a8c0 c73e 0b5a 8b3c
00000360: 5e2f 953e 81d6 9b3e 2efb 36be 8b5b 543c
00000370: ba9e 623e 2f12 073f b6bb d43d 6161 24bd
00000380: 9378 09bc 89f1 debd 642a 9e3e 70e1 a63d
00000390: a7f5 11be 0bab f4bd 3f74 833c 23ca a3be
000003a0: 93c6 1a3d e042 0d3e 83b6 e4bd 0526 62be
000003b0: e4ce 11be 7c77 bcbd db95 13be b6a4 adbd
000003c0: 7b99 d6be 06c3 e1be c683 f5bd 0507 85be
000003d0: c605 f7bc c398 b5bd 5f94 83be 553d 7bbd
000003e0: 892d ccbe 9519 30be 4104 3fbe f0f9 d6bd
000003f0: 68b9 ba3d dd48 33be 2213 90be e248 19be

bias f4 [12]
-0.20227776 -0.302719 -0.21846798 -0.27386504 -0.2734196 -0.2740307 -0.29053319 -0.18850555
-0.30891323 -0.3359163 -0.19780844 -0.28062904
00000000: e721 4fbe fcfd 9abe 12b6 5fbe 0a38 8cbe
00000010: a7fd 8bbe c04d 8cbe c4c0 94be 9907 41be
00000020: e029 9ebe 39fd abbe 4c8e 4abe 9cae 8fbe

weight f4 [48, 12, 16]
0.071802855 -0.085420124 0.23002857 -0.18723112 0.075368784 0.069243 0.10306117 0.04716373
-0.03381194 0.057298873 -0.06728182 -0.1071463 0.029423812 -0.069572866 0.103294544 -0.100637764
-0.0050462033 -0.04224626 -0.065010734 -0.33638594 -0.21511887 -0.1184181 -0.066989966 -0.044842284
-0.22856975 0.07502791 0.07757942 0.10372713 0.033072226 -0.010726055 -0.08561824 -0.12408746
0.18686473 0.046790157 -0.16264337 -0.038711388 0.0887223 0.19491504 0.14549525 0.2827127
0.20452905 0.11053437 0.08055505 -0.16893478 0.08895023 0.25054002 0.13271143 -0.16365495
-0.0248545 0.086656556 -0.19430104 -0.22371402 -0.01387498 0.016708761 0.08104149 -0.0199544
-0.1126874 0.14052618 -0.0005476076 -0.23068298 -0.042770647 0.29832312 0.20223853 -0.035801284
0.3084845 0.17212425 0.10119624 0.17585397 -0.07818655 0.2206629 0.11731952 0.359205
0.042389605 0.20359218 0.007525492 0.0994015 0.12812355 0.259055 0.1045477 0.2676432
-0.123534165 -0.3597944 -0.26300955 -0.14970504 -0.011124459 -0.15791336 -0.34721354 -0.22280203
-0.15788935 -0.17451215 -0.30616915 -0.34665996 -0.15821357 -0.27394077 -0.49623197 -0.32456437
-0.16105786 0.046790168 -0.04940774 -0.15970965 -0.024233077 -0.06564773 -0.07644519 0.08867347
-0.1373968 0.1865542 0.12737878 0.022155058 -0.21554302 0.31268188 0.048336502 0.025966909
0.17160518 0.073203504 -0.016885469 0.04324458 -0.06402236 0.09543232 -0.09610236 0.16512895
0.028963037 0.08932329 0.15559474 0.010521225 0.2637689 0.2580727 0.0916649 -0.007549396
-0.10742665 -0.024311118 0.16458845 -0.21258259 0.031794768 0.10368892 0.17112385 0.082012035
0.07700675 0.08629581 0.18608825 0.13437118 0.03048664 -0.10927228 -0.13948362 -0.06828039
-0.23609886 -0.08745788 -0.18237893 -0.31975353 -0.27722555 -0.26831236 -0.22933152 -0.36368752
-0.38074186 -0.23031512 -0.23576514 -0.13873757 -0.47263566 -0.37289274 -0.34849218 -0.2498318
0.3128174 0.051768396 -0.1680231 -0.20371173 0.057132732 0.23816212 0.15224123 -0.03320684
0.19733725 0.20352338 0.22568075 0.114204936 0.18341595 0.24956861 0.24552786 0.09353019
-0.13025066 -0.30944148 0.018480742 0.013044707 -0.020398121 -0.040407103 -0.12752593 0.05246997
0.10857845 0.09062063 -0.042349618 -0.20675482 0.058005664 -0.20804732 -0.15899986 -0.30288982
-0.11698689 -0.45939714 -0.06037304 -0.12251132 -0.2853271 -0.17449495 -0.061646484 -0.088411786
-0.26211366 -0.4716985 -0.38320443 -0.10301508 0.07111257 0.12489529 0.14944771 -0.2681242
-0.08972097 0.10360534 -0.47161743 -0.2067504 -0.061841745 -0.20130584 0.068746716 0.20425685
-0.028775303 0.045739908 -0.12016938 -0.14335302 -0.5242328 -0.023810068 -0.22562307 0.0771058
-0.25336123 -0.2203694 0.17725179 0.10118651 -0.090769775 -0.056957316 0.12472017 0.1654337
-0.42569575 0.08991633 -0.030653989 -0.31755236 -0.05882828 -0.053687688 -0.19159892 -0.09599654
0.11418712 -0.076609954 -0.15435773 0.10489714 -0.068032555 -0.22062117 -0.036654104 -0.07275061
-0.16079788 -0.13794185 -0.0429433 0.17903888 0.2881379 0.09596997 -0.049337395 -0.07253913
00000000: 600d 933d bff0 aebd 9c8c 6b3e 84b9 3fbe
00000010: f35a 9a3d 46cf 8d3d bc11 d33d c12e 413d
00000020: 647e 0abd 39b2 6a3d 0dcb 89bd 856f dbbd
00000030: 350a f13c 387c 8ebd 178c d33d 2c1b cebd
00000040: 9f5a a5bb 6a0a 2dbd 5924 85bd c73a acbe
00000050: 1f48 5cbe 3085 f2bd 0932 89bd 8bac 37bd
00000060: 300e 6abe 3ca8 993d f5e1 9e3d e46e d43d
00000070: be76 073d 56bc 2fbc 9e58 afbd 9121 febd
00000080: 7859 3f3e 09a7 3f3d fc8b 26be d58f 1ebd
00000090: 0ab4 b53d cf97 473e b5fc 143e b8bf 903e
000000a0: 1070 513e d85f e23d 0cfa a43d 3dfd 2cbe
000000b0: 8a2b b63d c846 803e 81e5 073e 2a95 27be
000000c0: aa9b cbbc fe78 b13d daf6 46be 4a15 65be
000000d0: e253 63bc d0e0 883c 15f9 a53d 6977 a3bc
000000e0: a7c8 e6bd 18e6 0f3e 538d 0fba 2938 6cbe
000000f0: 4630 2fbd cfbd 983e 9e17 4f3e 5ea4 12bd
00000100: aef1 9d3e 5741 303e f93f cf3d 1013 343e
00000110: 4520 a0bd 75f5 613e 3745 f03d b8e9 b73e
00000120: b9a0 2d3d 787a 503e 6798 f63b 0393 cb3d
00000130: d232 033e dba2 843e 1b1d d63d 8808 893e
00000140: 7bff fcbd f936 b8be 30a9 86be 474c 19be
00000150: 5d43 36bc 0ab4 21be f9c5 b1be 3726 64be
00000160: bfad 21be 50b3 32be 34c2 9cbe 6a7d b1be
00000170: bd02 22be f741 8cbe 1e12 febe 4d2d a6be
00000180: 5aec 24be 0ca7 3f3d c55f 4abd ed8a 23be
00000190: 7284 c6bc 5172 86bd 4c8f 9cbd 709a b53d
000001a0: bfb1 0cbe 1008 3f3e 956f 023e 867e b53c
000001b0: 4fb7 5cbe d717 a03e 7ffc 453d 8eb8 d43c
000001c0: 45b9 2f3e b8eb 953d 6553 8abc 3b21 313d
000001d0: 281e 83bd 0572 c33d 50d1 c4bd 9017 293e
000001e0: e443 ed3c 21ef b63d 3a54 1f3e 3761 2c3c
000001f0: b80c 873e 1b22 843e cfba bb3d ec60 f7bb
00000200: 8102 dcbd 1c28 c7bc e089 283e 40af 59be
00000210: 3b3b 023d db5a d43d 173b 2f3e edf5 a73d
00000220: b7b5 9d3d dcbb b03d eb8d 3e3e 9998 093e
00000230: 1ebf f93c 25ca dfbd cbd4 0ebe 97d6 8bbd
00000240: e6c3 71be 1e1d b3bd 8bc1 3abe bcb6 a3be
00000250: 82f0 8dbe 3d60 89be e2d5 6abe 4035 babe
00000260: 99f0 c2be bad7 6bbe 6b6c 71be 3911 0ebe
00000270: 4dfd f1be cceb bebe 916d b2be e8d3 7fbe
00000280: 9a29 a03e 190b 543d 3f0e 2cbe cf99 50be
00000290: 0304 6a3d c5e0 733e 20e5 1b3e e503 08bd
000002a0: c712 4a3e 6f68 503e db18 673e 47e4 e93d
000002b0: 64d1 3b3e ea8e 7f3e a86b 7b3e c28c bf3d
000002c0: 6e60 05be 1d6f 9ebe ed64 973c 77b9 553c
000002d0: f619 a7bc eb81 25bd 2896 02be c0ea 563d
000002e0: 615e de3d 4f97 b93d cb76 2dbd 89b7 53be
000002f0: 5997 6d3d 5b0a 55be dcd0 22be 6014 9bbe
00000300: d396 efbd 1a36 ebbe b949 77bd 37e7 fabd
00000310: 6516 92be ceae 32be 0681 7cbd 3d11 b5bd
00000320: c333 86be 7782 f1be 5f33 c4be 92f9 d2bd
00000330: 78a3 913d 1ac9 ff3d d208 193e 9347 89be
00000340: a1bf b7bd 092f d43d d777 f1be 60b6 53be
00000350: c54d 7dbd 1e23 4ebe 14cb 8c3d b528 513e
00000360: 2fba ebbc c559 3b3d 5d1b f6bd 22cb 12be
00000370: 1f34 06bf 550d c3bc bc09 67be a5e9 9d3d
00000380: 90b8 81be 84a8 61be 7e81 353e df3a cf3d
00000390: 81e5 b9bd 134c 69bd 4a6d ff3d 7467 293e
000003a0: cbf4 d9be 0e26 b83d 131e fbbc 3996 a2be
000003b0: ecf5 70bd 9fe7 5bbd 8232 44be d599 c4bd
000003c0: f0da e93d aee5 9cbd f40f 1ebe 50d4 d63d
000003d0: a754 8bbd 84ea 61be 9d22 16bd 46fe 94bd
000003e0: 33a8 24be a140 0dbe 50e5 2fbd f855 373e
000003f0: d086 933e e78b c43d 0216 4abd 658f 94bd

bias f4 [48]
0.11704726 -0.12880123 0.2125085 -0.09485591 -0.05441476 -0.3014517 -0.2009796 0.1299478
-0.08717285 -0.1508247 0.009335137 0.12388174 -0.1374628 0.15737964 0.06926705 -0.09388618
0.08858656 0.032310504 0.08546366 -0.06721305 0.09757931 -0.07041614 0.073747024 0.019103795
0.083101064 -0.020475214 0.078619614 -0.047071576 -0.02345027 -0.03972116 0.029844832 0.18429582
0.05906684 -0.06867162 0.044597838 0.026199283 0.018862706 0.05705437 -0.1800226 -0.06301702
-0.13843161 0.18307996 0.02114236 0.016843943 0.29390198 -0.056604665 -0.0027846624 0.093861066
00000000: 79b6 ef3d 78e4 03be d49b 593e d143 c2bd
00000010: 03e2 5ebd e157 9abe 99cd 4dbe 0911 053e
00000020: ae87 b2bd ca71 1abe 67f2 183c b6b5 fd3d
00000030: 0cc3 0cbe 2128 213e e2db 8d3d 6647 c0bd
00000040: df6c b53d 0558 043d 9207 af3d ffa6 89bd
00000050: a9d7 c73d 5636 90bd ae08 973d 907f 9c3c
00000060: e430 aa3d a3bb a7bc 5203 a13d 20ce 40bd
00000070: c81a c0bc a8b2 22bd 267d f43c 0bb8 3c3e
00000080: 12f0 713d b5a3 8cbd 39ac 363d e19f d63c
00000090: f685 9a3c d8b1 693d d857 38be 110f 81bd
000000a0: 04c1 0dbe 5079 3b3e be32 ad3c 4ffc 893c
000000b0: 527a 963e 4bda 67bd e27e 36bb 3b3a c03d

weight f4 [64, 1584]
0.0380868 -0.17323284 0.2557063 -0.054041784 0.027329946 0.009253218 0.16593096 0.023768974
0.0837653 0.09229308 0.0021459018 0.14473315 0.14057843 0.104386345 0.15568948 0.045318425
0.17462283 0.17300716 0.37823778 0.22772425 0.46420383 0.37860844 0.1144561 0.24908943
0.41497442 0.21246406 0.016493471 -0.3154849 0.006094692 0.06866443 0.029400826 0.06687379
0.06836537 -0.13263437 0.16132867 -0.23611534 0.15021658 0.08677053 0.24435128 0.22860134
0.24129242 0.25297153 0.37308785 0.09697634 -0.10646246 0.16816634 0.2893653 0.38887605
-0.078563355 0.12036123 0.25937995 -0.03860185 -0.14522147 0.024885751 -0.12414979 0.19704312
-0.056972094 0.13716003 -0.23708011 -0.049647707 0.061029445 0.18471158 -0.13870448 -0.21982771
0.09305532 0.1422362 0.004061214 -0.11204686 -0.08744822 0.31140462 -0.056584094 -0.0050491327
0.10126135 0.06783437 -0.052792124 0.1063585 0.17553854 0.38469914 -0.06156374 0.31202206
0.005616526 0.20903893 0.29675567 -0.07415256 0.17251465 -0.11898698 0.012663836 0.055668816
0.33944425 -0.104410134 -0.016907362 -0.107326366 0.054122984 -0.15591082 0.101863794 0.2642942
0.07301776 0.044713978 -9.019792e-05 0.09081402 -0.14075145 0.3885784 0.026279703 0.10434882
-0.1637105 0.009852572 -0.37197968 0.17364573 -0.16193868 -0.36953548 -0.13671242 0.33671418
-0.06847452 0.08571644 -0.16817822 0.29646432 0.09861298 -0.059033982 0.009410666 0.22424304
-0.06354699 -0.09412678 -0.071284615 0.021767529 0.021798627 -0.13956252 -0.1935267 0.18991262
0.14240329 0.13341875 0.071198024 0.13520859 0.19819488 -0.2949037 -0.024807869 -0.00012869675
-0.051300354 0.0013021498 0.040915735 0.11300655 0.10229045 0.089911714 -0.24038306 -0.08644812
0.32173675 0.19372904 -0.028899027 0.31351247 0.006340272 0.16067275 -0.2875956 0.1518392
0.21520227 0.08517971 -0.22098364 -0.29146037 0.14983013 0.061838143 -0.05415634 -0.30051833
0.20214929 0.122576624 0.042400185 0.22389336 -0.008891017 0.08378612 0.33588022 -0.09613365
-0.17073272 -0.15998419 0.06949215 -0.14012094 -0.09202906 0.1759508 0.19356906 -0.17479996
0.06829368 -0.10406569 0.123944774 -0.26553214 -0.0993159 0.1997264 -0.0191994 -0.33522785
-0.11470214 0.22090766 0.33577326 -0.2604893 -0.17158957 0.09232564 0.13036858 -0.2311477
-0.17331845 0.08419861 -0.0571206 -0.27970776 0.004286549 0.12814635 0.36844948 0.30058134
0.25324896 0.00040583263 0.23438513 0.14261578 -0.015828695 -0.25368366 -0.22204988 0.29824832
-0.13145746 -0.021897258 0.1311835 0.20313741 -0.035594184 0.023926146 0.15103318 0.09785584
-0.13051346 0.13246867 -0.03676759 0.031335615 -0.08801368 0.12961303 -0.012687171 0.2333821
-0.35234934 -0.13211802 -0.06894845 -0.10116708 0.05361316 0.34706566 0.41744295 0.024855005
-0.13877879 0.037253615 0.08366197 -0.1047117 0.033276632 0.123339444 0.25964522 -0.014741893
-0.27818587 -0.05333481 0.01882754 0.17407227 -0.44219255 -0.25704446 0.36913797 0.061986554
-0.07593981 0.029416697 0.1567782 -0.054617528 -0.080315985 -0.08016982 0.029395511 0.019912578
00000000: e800 1c3d f363 31be f0eb 823e eb5a 5dbd
00000010: 0de3 df3c cf9a 173c cee9 293e 27b7 c23c
00000020: 248d ab3d 2804 bd3d 42a2 0c3b ed34 143e
00000030: cbf3 0f3e 82c8 d53d 106d 1f3e d09f 393d
00000040: 54d0 323e ca28 313e 62a8 c13e 8c30 693e
00000050: 20ac ed3e f7d8 c13e f667 ea3d 4d11 7f3e
00000060: 8777 d43e 2e90 593e 511d 873c 3d87 a1be
00000070: fbb5 c73b f09f 8c3d 00da f03c 20f5 883d
00000080: 2503 8c3d 4ed1 07be 5833 253e 38c8 71be
00000090: 60d2 193e bfb4 b13d 3937 7a3e 7816 6a3e
000000a0: 5c15 773e 7c85 813e 5f05 bf3e 889b c63d
000000b0: fd08 dabd cc33 2c3e b027 943e c31a c73e
000000c0: d3e5 a0bd f37f f63d 73cd 843e f91c 1ebd
000000d0: f0b4 14be 34dd cb3c 3f42 febd acc5 493e
000000e0: 925b 69bd ae73 0c3e 21c5 72be 655b 4bbd
000000f0: 03fa 793d 0825 3d3e 8c08 0ebe 841a 61be
00000100: ca93 be3d 5ea6 113e ef13 853b d378 e5bd
00000110: 0d18 b3bd 6d70 9f3e b9c4 67bd 3273 a5bb
00000120: 1c62 cf3d bfec 8a3d 8e3c 58bd 7cd2 d93d
00000130: 60c0 333e 49f7 c43e 432a 7cbd 5bc1 9f3e
00000140: d60a b83b 4d0e 563e 5cf0 973e 4cdd 97bd
00000150: aea7 303e 72af f3bd fa7b 4f3c fc04 643d
00000160: a3cb ad3e fbd4 d5bd 4f81 8abc edcd dbbd
00000170: 10b0 5d3d 16a7 1fbe f79d d03d 9251 873e
00000180: 568a 953d 0126 373d a428 bdb8 b3fc b93d
00000190: 2621 10be bff3 c63e 8848 d73c d6b4 d53d
000001a0: baa3 27be af6c 213c 1f74 bebe 30d0 313e
000001b0: 41d3 25be c133 bdbe 57fe 0bbe cd65 ac3e
000001c0: 5f3c 8cbd 1a8c af3d e936 2cbe 2cca 973e
000001d0: 9af5 c93d 9ecd 71bd 322f 1a3c f89f 653e
000001e0: ed24 82bd 8bc5 c0bd abfd 91bd d151 b23c
000001f0: 0993 b23c 7ae9 0ebe dd2b 46be 7478 423e
00000200: 2bd2 113e ed9e 083e 45d0 913d 1f74 0a3e
00000210: 99f3 4a3e 9efd 96be df39 cbbc c5f2 06b9
00000220: 5220 52bd e6ac aa3a 4297 273d fa6f e73d
00000230: a87d d13d a223 b83d fa26 76be b60b b1bd
00000240: aeba a43e e860 463e a7bd ecbc b584 a03e
00000250: 0ec2 cf3b 6687 243e bb3f 93be bc7b 1b3e
00000260: fc5d 5c3e b372 ae3d 8949 62be 4b3a 95be
00000270: 126d 193e fe49 7d3d 0ad3 5dbd 8add 99be
00000280: 3900 4f3e 7409 fb3d d1ab 2d3d 4d44 653e
00000290: a1ab 11bc 0f98 ab3d 7ef8 ab3e b8e1 c4bd
000002a0: 8fd4 2ebe e5d2 23be e651 8e3d dd7b 0fbe
000002b0: bb79 bcbd 722c 343e f836 463e c3fe 32be
000002c0: 8fdd 8b3d 6420 d5bd c2d6 fd3d d4f3 87be
000002d0: 2266 cbbd 1485 4c3e 0f48 9dbc fca2 abbe
000002e0: f5e8 eabd 9e35 623e 79ea ab3e db5e 85be
000002f0: 2db5 2fbe 3a15 bd3d 577f 053e fcb1 6cbe
00000300: 647a 31be 5270 ac3d 4af7 69bd db35 8fbe
00000310: 2e76 8c3b cc38 033e 69a5 bc3e cce5 993e
00000320: d9a9 813e efc5 d439 a802 703e df09 123e
00000330: 2eab 81bc d3e2 81be 0b61 63be 01b4 983e
00000340: c99c 06be e161 b3bc f854 063e 4103 503e
00000350: 35cb 11bd c400 c43c 71a8 1a3e a568 c83d
00000360: 52a5 05be dea5 073e 9d99 16bd c659 003d
00000370: 8440 b4bd 47b9 043e dadd 4fbc b8fb 6e3e
00000380: 2267 b4be f249 07be d834 8dbd b030 cfbd
00000390: 7999 5b3d 97b2 b13e 15bb d53e b99c cb3c
000003a0: 071c 0ebe 3f97 183d f856 ab3d 1673 d6bd
000003b0: 144d 083d 6499 fc3d 38f0 843e fb87 71bc
000003c0: 616e 8ebe 9a75 5abd 373c 9a3c 0040 323e
000003d0: 1067 e2be 559b 83be a7ff bc3e 9de5 7d3d
000003e0: 5586 9bbd 49fb f03c 778a 203e a1b6 5fbd
000003f0: b57c a4bd 1330 a4bd dbce f03c b41f a33c

bias f4 [64]
0.22640252 0.011946733 0.0068269116 0.24260625 0.01980058 -0.09689697 0.26139733 0.04226005
0.09786631 -0.12513815 -0.03355765 -0.010693955 0.025934556 0.03318624 0.2788878 -0.008471746
0.13379398 0.17034812 0.11884192 0.034042146 -0.029906735 0.123234056 -0.24340862 -0.11795621
0.084009156 0.11600232 -0.07292326 0.12927899 0.20679326 0.06433916 -0.29769045 -0.17239828
0.18129376 -0.06548762 0.070124954 -0.07775512 -0.15111934 -0.21078353 0.061760027 -0.07866228
0.33160496 -0.023753311 0.101086885 -0.22145921 0.042988688 0.21035096 -0.16997442 0.31192717
-0.15395196 0.08684368 0.008380693 -0.16808932 -0.26809072 -0.012108556 0.030220775 -0.2007735
-0.120765366 -0.1662606 0.07646227 0.11658162 -0.24550587 -0.18704332 -0.2741051 0.18714698
00000000: 10d6 673e 3bbc 433c 49b4 df3b c66d 783e
00000010: d334 a23c eb71 c6bd dfd5 853e e018 2d3d
00000020: 226e c83d 3724 00be bf73 09bd b335 2fbc
00000030: b574 d43c 4bee 073d 62ca 8e3e 14cd 0abc
00000040: 4a01 093e bd6f 2e3e 6463 f33d c76f 0b3d
00000050: f8fe f4bc 2362 fc3d 1c40 79be 0793 f1bd
00000060: fe0c ac3d a092 ed3d ca58 95bd b661 043e
00000070: 9dc1 533e 40c4 833d e26a 98be 2d89 30be
00000080: 12a5 393e 601e 86bd ac9d 8f3d 143e 9fbd
00000090: 07bf 1abe a3d7 57be 15f8 7c3d b119 a1bd
000000a0: 20c8 a93e 4e96 c2bc a406 cf3d 34c6 62be
000000b0: e814 303d 3e66 573e c60d 2ebe ebb4 9f3e
000000c0: 95a5 1dbe 19db b13d 2d4f 093c 9b1f 2cbe
000000d0: 3043 89be f762 46bc 8f91 f73c 9297 4dbe
000000e0: d553 f7bd 3840 2abe 4098 9c3d 58c2 ee3d
000000f0: e465 7bbe 4988 3fbe 8157 8cbe 75a3 3f3e

weight f4 [25, 64]
-0.060382865 -0.08722335 -0.4766427 0.41285822 -0.18832345 -0.3138734 0.239589 0.005451963
0.028805012 -0.26065552 0.003303211 -0.13195567 -0.25104654 -0.33017153 -0.0695349 0.37594834
0.2455857 0.25696233 0.1099025 0.22071727 0.18490218 -0.12508972 -0.15410027 0.25400326
0.17847869 0.19762714 0.06399046 0.48679653 -0.1200586 0.25913414 0.18106206 0.07247605
-0.17482165 -0.41570282 0.041042175 0.13661495 -0.2791468 0.052713774 0.38074267 -0.14192304
0.5112018 0.11373505 0.14075778 0.14678708 -0.14806694 0.08183748 -0.08643996 -0.19772989
0.25171137 0.36514518 0.17613767 0.051603198 -0.010810979 -0.28094977 0.3459634 -0.100051194
-0.066954024 -0.4097046 0.14221016 0.34623668 -0.15771222 -0.24650458 0.20616812 0.08623602
-0.55121493 -0.039338302 -0.25297666 0.10414629 -0.25001064 -0.14626749 -0.4149399 0.052359298
0.28079677 0.26919058 0.13233374 0.0562832 -0.40524396 0.11952415 -0.50378245 0.19113675
0.13668407 0.08801845 -0.17400898 0.31576434 0.19559039 -0.3625379 0.032310892 -0.44086877
-0.2874778 -0.26054344 0.2508977 -0.07023548 -0.04446971 -0.20637064 -0.0845855 0.2278292
-0.17034684 0.049896095 -0.021613246 0.18602574 0.32785642 -0.07226713 0.05164312 0.045187023
0.008656533 0.24346657 -0.31540963 0.25860593 0.13507022 0.13393489 0.17915392 -0.23316045
0.27029458 -0.15069458 0.2492107 -0.02683623 0.0758804 -0.080498315 -0.21685633 -0.10131545
0.06718692 -0.01912515 0.20659578 -0.115659826 0.35943183 0.04591142 -0.104951136 -0.12048445
0.22565942 0.36860284 -0.07495324 0.06948909 -0.058702163 -0.14994486 0.16256304 -0.19769575
-0.027381213 0.1044854 -0.4556772 0.14886509 0.09132548 -0.09253046 0.2028089 0.18259382
0.18474233 -0.09971792 -0.08934562 0.2566401 -0.32286218 -0.0671797 0.12221524 -0.22580308
-0.18304975 0.18928757 0.54609865 0.2292891 0.22746946 0.08528232 0.10990163 0.32273334
0.38246575 0.15402803 -0.16993195 -0.33925262 -0.10043577 -0.30204743 0.47629175 0.1278278
0.30018762 0.0090160575 0.2472377 0.1284889 -0.3225156 -0.047302984 -0.433769 -0.0651673
0.35254556 -0.14297521 -0.05034409 -0.20478839 0.09940848 -0.05717932 -0.14191434 -0.0027073661
-0.07878474 -0.3173499 0.33380765 -0.13578598 -0.28650728 -0.48959196 0.22546057 -0.16778307
-0.14902309 0.058002897 0.38746926 -0.28077155 -0.16013607 0.19992717 -0.20187032 -0.06924833
-0.07827587 0.5082294 0.10720813 -0.343926 -0.12939619 0.19650283 -0.29078096 0.3043343
-0.38380647 0.011837931 0.08768579 0.12608504 -0.290007 -0.16363792 -0.005068267 0.11530875
-0.40299422 -0.11708444 0.23023176 0.07788839 -0.09293111 0.3030745 0.27636066 0.27334848
-0.05405302 -0.10488946 -0.1160769 -0.103137866 0.15366152 0.2886887 0.0024134733 0.20973307
-0.035742853 0.14278412 -0.5190892 0.13876855 -0.0136555685 0.11631706 0.14758584 -0.30448833
0.29912618 0.29235452 -0.043797906 0.068343595 -0.29158133 -0.051959116 -0.12613237 -0.4404456
0.33796915 0.069665395 0.017877351 0.02599433 0.03973645 0.2577675 0.22305605 -0.34526917
00000000: 0654 77bd 28a2 b2bd 830a f4be 2762 d33e
00000010: ddd7 40be 04b4 a0be d256 753e 61a6 b23b
00000020: 7df8 eb3c a474 85be af7a 583b 631f 07be
00000030: 2c89 80be 3e0c a9be 5068 8ebd 4d7c c03e
00000040: d17a 7b3e 9190 833e 9014 e13d b503 623e
00000050: ff56 3d3e 8517 00be 76cc 1dbe b70c 823e
00000060: 1ec3 363e c55e 4a3e 6e0d 833d 653d f93e
00000070: 49e1 f5bd 3bad 843e 5568 393e 536e 943d
00000080: 7204 33be 00d7 d4be d71b 283d cae4 0b3e
00000090: 54ec 8ebe 66ea 573d b4f0 c23e 4654 11be
000000a0: 1fde 023f eced e83d cf22 103e 5a4f 163e
000000b0: dc9e 17be 699a a73d 6f07 b1bd b479 4abe
000000c0: 50e0 803e 4ff4 ba3e 6f5d 343e e05d 533d
000000d0: 8820 31bc a6d8 8fbe 1d22 b13e a4e7 ccbd
000000e0: 311f 89bd cdc4 d1be 8a9f 113e ef45 b13e
000000f0: 507f 21be b26b 7cbe bc1d 533e 839c b03d
00000100: 6c1c 0dbf 3321 21bd 2886 81be a64a d53d
00000110: 6501 80be 25c7 15be 0173 d4be b476 563d
00000120: 98c4 8f3e 59d3 893e 7f82 073e 3689 663d
00000130: 237c cfbe 14c9 f43d e3f7 00bf 5ab9 433e
00000140: e9f6 0b3e 0443 b43d 692f 32be ddab a13e
00000150: d948 483e 919e b9be 6d58 043d 8db9 e1be
00000160: 4a30 93be f365 85be aa75 803e 9fd7 8fbd
00000170: df25 36bd d352 53be 2a3b adbd 0f4c 693e
00000180: 676f 2ebe d95f 4c3d 430e b1bc 887d 3e3e
00000190: ccdc a73e ca00 94bd bc87 533d 0716 393d
000001a0: 22d4 0d3c 4d4f 793e 5f7d a1be ff67 843e
000001b0: d94f 0a3e 3a26 093e 2074 373e 9dc1 6ebe
000001c0: 0d64 8a3e ae4f 1abe 1731 7f3e a7d7 dbbc
000001d0: 2f67 9b3d 4ddc a4bd 960f 5ebe 7a7e cfbd
000001e0: 4c99 893d 59ac 9cbc d88d 533e 0fdf ecbd
000001f0: 7307 b83e 9d0d 3c3d 9ff0 d6bd 8dc0 f6bd
00000200: 4313 673e 83b9 bc3e 1681 99bd 4c50 8e3d
00000210: ae71 70bd 258b 19be ed76 263e c170 4abe
00000220: 914e e0bc 71fc d53d 864e e9be 1770 183e
00000230: da08 bb3d 9c80 bdbd 23ad 4f3e e0f9 3a3e
00000240: 182d 3d3e e938 ccbd d6fa b6bd 5566 833e
00000250: 314e a5be 8395 89bd fc4b fa3d ec38 67be
00000260: 6571 3bbe 9ad4 413e 1fcd 0b3f c3ca 6a3e
00000270: c1ed 683e 7fa8 ae3d 1b14 e13d 4e3d a53e
00000280: 8dd2 c33e 86b9 1d3e a402 2ebe 85b2 adbe
00000290: 45b1 cdbd f6a5 9abe 83dc f33e 4ae5 023e
000002a0: 31b2 993e 16b8 133c e12b 7d3e 9892 033e
000002b0: c420 a5be c6c0 41bd f816 debe 6f76 85bd
000002c0: da80 b43e 1868 12be 9b35 4ebd 0cb4 51be
000002d0: ac96 cb3d dd34 6abd fe51 11be 116e 31bb
000002e0: e559 a1bd b07b a2be d6e8 aa3e 7b0b 0bbe
000002f0: 15b1 92be ccab fabe 23df 663e 53cf 2bbe
00000300: 8299 18be 7294 6d3d 5f62 c63e 4ac1 8fbe
00000310: b6fa 23be b5b9 4c3e 18b7 4ebe 12d2 8dbd
00000320: 194f a0bd 521b 023f f08f db3d 1217 b0be
00000330: 6f80 04be 0a38 493e 3ee1 94be b5d1 9b3e
00000340: 4882 c4be e2f3 413c 9c94 b33d 701c 013e
00000350: cc7b 94be b390 27be b513 a6bb fe26 ec3d
00000360: 4255 cebe f8c9 efbd e0c1 6b3e f383 9f3d
00000370: aa52 bebd 952c 9b3e 257f 8d3e 55f4 8b3e
00000380: b366 5dbd 49d0 d6bd bab9 edbd f239 d3bd
00000390: 7259 1d3e 01cf 933e 5d2b 1e3b 44c4 563e
000003a0: 1967 12bd 0036 123e 08e3 04bf 5819 0e3e
000003b0: 9bbb 5fbc a437 ee3d be20 173e e5e5 9bbe
000003c0: 1127 993e 7eaf 953e 6f65 33bd baf7 8b3d
000003d0: 264a 95be 15d3 54bd d828 01be 1682 e1be
000003e0: 4b0a ad3e bbac 8e3d 8673 923c 10f2 d43c
000003f0: b0c2 223d 1afa 833e ce68 643e 1fc7 b0be

bias f4 [25]
0.03417716 -0.19363798 0.34243065 -0.14478013 -0.16077381 -0.09391485 0.24477232 0.12751043
0.118451424 -0.030465502 0.24262467 0.18557103 -0.044468123 -0.20868963 0.024411336 0.2151332
0.21851966 -0.008414578 -0.18120308 0.042375635 -0.028946107 -0.026807565 0.16943018 -0.06290212
-1.0861772
00000000: 5afd 0b3d 0949 46be 1253 af3e 3e41 14be
00000010: e4a1 24be 6e56 c0bd 98a5 7a3e 1892 023e
00000020: a996 f23d ca92 f9bc 9a72 783e 5506 3e3e
00000030: 3524 36bd bcb2 55be 48fa c73c e14b 5c3e
00000040: 9ec3 5f3e 4cdd 09bc 4d8d 39be 1392 2d3d
00000050: 6320 edbc 8a9b dbbc 1b7f 2d3e d4d2 80bd
00000060: db07 8bbf
