result/config2_main/preliminary_model1.pt (torch_old, 874676 bytes, 10 tensors)

weight f4 [12, 2, 192]
00000000: 41d0 b43d cdce 913d 3adc 813d be9e b53d
00000010: 2a61 0abd fe7b 443b 5fea fb3d aad2 163e
00000020: 6b71 a0bb b5bf a9bd 1340 31bd 61e1 b0bd
00000030: e7a1 e6bc 2eda 153b 2d63 823d 8bb9 c53c
00000040: 282f efbc 4e18 92bd fbbb bbbc 71ce 573d
00000050: 235d e73b 67b4 fa3c 859f a8bd 79c3 613d
00000060: e9e8 9b3d 897d 5ebd 30ac 9d3d 7fb1 93bc
00000070: 4e68 a73c c438 05be 29e6 9cbd 84d8 00be
00000080: a0df 8abd e4be bfbc beca efbc e854 9e3d
00000090: b83f 86bd 3a40 adbc 9cf9 2ebd 0317 17bc
000000a0: 2468 5c3d 4080 1f3d 18c4 edbc 3295 993d
000000b0: c2e2 943c 5f03 a83d 8117 ccbd 0afb ebbc
000000c0: 10d0 fdbc 4c89 7cbc 80f4 fc3c b00e 4f3d
000000d0: 19f0 bc3c 830b 01bd 7483 e5bd 092e b73b
000000e0: 680c 03bd 3dc0 d5bd ea9f 41bc 20a2 47bd
000000f0: bd71 053b f566 1bbd 0924 053d 1d99 913d
00000100: 6014 42bd 07b2 b9bd dcf7 17bc f3d6 14bd
00000110: 95e8 bf3c 32f3 fa3d feeb 59bd b55e 7b3d
00000120: d8c3 503d 91af 86bd 647f 34bd 7cb7 85bd
00000130: 3436 bfbd f324 d53c 1a1b 16bc f954 66bd
00000140: fd15 6bbd a71d 11bc 79ab 4c3d d47a 7e3d
00000150: 4ec0 f7bb af9e 65bd ece7 c6bd d781 4fbd
00000160: 4db8 503b 8aa0 7c3d fa87 96bc 2588 4e3b
00000170: 194d 2a3d 6c25 8e3d faa0 573d 9059 81bc
00000180: 8421 ba3d 0492 253d b8b6 0abc 8426 703d
00000190: 125c ef3d 7cb6 e5ba 71ab 05be 1155 bb3a
000001a0: b520 093d 0be1 d53d 6e1a 003c c4e9 30bd
000001b0: 95c5 7bbc 9e46 a7bc 940d 193e 512c cebb
000001c0: 5e2e aa3d b2c9 893d 1b4d 833d a606 92bd
000001d0: 83cb e7bc dc08 17bd 8c18 0abd 6ab0 993d
000001e0: 3b7c d0bb 3a75 cbbd 6bed 0cbe 0f02 ffbc
000001f0: 7b89 ad3d 1509 e9bc 6095 84bd c99a 05bd
00000200: 339b d43b 2124 533d fe1f c93d aeb1 b03d
00000210: 9c48 05be d05c 8cbd fe18 483d 2177 1d3e
00000220: d527 00bd cb9c 3b3d b258 943d 7882 913c
00000230: 17e7 3b3d 760d 813d 7535 3d3d bf4e a4bc
00000240: 8ea3 903d bb54 17bd 0d8d 4c3c 35ed 8f3d
00000250: 1e3b ca3c ad8a 72ba 6af6 26bd 13d4 d53b
00000260: 0536 c13b 9be8 153e cb92 9b3d 15d9 4d3e
00000270: 4923 2a3e 4b1b 353d f095 23bd 9c3d 1dbc
00000280: 0549 073d 5e1e 93bc 38e8 05bd 4503 083d
00000290: bf4a 86bd f898 c03c a645 dfbc 281a c6bc
000002a0: fbe2 d6bd 21ef 7cbd 8b79 a63d 2d38 8b3c
000002b0: 1352 c43d ef6b a83d 6d72 5d3d 9c33 5dbc
000002c0: 8b80 e23b f47c f83d 8b01 2a3e 6ced db3d
000002d0: ff6f cc3d 8506 89bd cd19 febc e526 ac3c
000002e0: feca e5bc 72d2 97bb b120 993b 980a aebd
000002f0: 4004 85bc 2acb 8c3d b986 193e 4702 5d3d
00000300: 113e 503e a4fd 5ebb e15a 0a3c 0c7d 85bd
00000310: b029 13be 5417 6d3c 7865 de3c a310 9c3c
00000320: 28b9 11be 99a0 cfbd 2142 be3d 2884 053d
00000330: 7f96 68bc 58bc f33c 812e 423d 2c54 fa3d
00000340: bc35 363d 8be7 da3d 15cd 92bc 13e2 5f3d
00000350: 0812 4b3d febd 5d39 674b eb3b d9d4 033e
00000360: 5cc0 043e bd54 2abd c609 673d a4b9 abba
00000370: 1caa 043d 0375 acbd eb96 f3bd f892 dabd
00000380: f245 803d b631 a53d 0d21 c33d 99ba 193d
00000390: 3e63 fbbd ac3d dbbd 496b 25bc 91bb e1bc
000003a0: 6dca 44bd 4f0f 08be 8e42 babd b421 ecbd
000003b0: 93a8 26bd e9c1 673d b39c 69bd ca8e 2cbe
000003c0: 2a9e 20be edba 13bd 56c2 f0bc dd60 dfbd
000003d0: e04f fbbd e298 cebd fd80 14be 0e5a cfbd
000003e0: b622 24be 77ef 63bc 5bf5 6fbd 209a 9bbd
000003f0: ed24 a7bc 3810 9c3d be80 843d de6c b33d
0.08828784 0.07119522 0.06340833 0.08868168 -0.03378407 0.0029981132 0.12300562 0.147288
-0.004896333 -0.08288518 -0.043273997 -0.086367376 -0.028153373 0.002286564 0.063665725 0.024136325
-0.02919729 -0.07133542 -0.022916785 0.052687112 0.0070606633 0.0306036 -0.08233551 0.055118058
0.076127835 -0.05431894 0.07698858 -0.018028973 0.020435479 -0.13009936 -0.07661087 -0.12582594
-0.06780934 -0.023406453 -0.02927148 0.07731038 -0.06555122 -0.02114879 -0.042718515 -0.009221795
0.053810254 0.038940668 -0.029024169 0.0749916 0.018174533 0.08203768 -0.099654205 -0.028806228
-0.030983001 -0.0154135935 0.030878305 0.050551116 0.023063706 -0.03150512 -0.11206713 0.0055902046
-0.031994253 -0.10437057 -0.011817912 -0.0487386 0.0020361983 -0.037939984 0.03250507 0.07109282
-0.047382712 -0.09067159 -0.009275403 -0.036337804 0.023426333 0.12253417 -0.053203575 0.061369617
0.05096802 -0.065764554 -0.0440668 -0.065291375 -0.0933651 0.026018595 -0.009161735 -0.05623338
-0.057394017 -0.008857167 0.049968217 0.062128857 -0.0075607663 -0.056059536 -0.09712204 -0.050660934
0.0031848133 0.06167654 -0.018375386 0.0031514254 0.041577432 0.069407314 0.052643754 -0.015789777
0.09088424 0.040422454 -0.008466415 0.05863048 0.11687483 -0.0017525698 -0.13053681 0.001429232
0.033478457 0.10443314 0.007818801 -0.043191686 -0.015366931 -0.020419415 0.14946586 -0.006291904
0.08309625 0.067279235 0.06411191 -0.07130174 -0.028295284 -0.036873683 -0.033714816 0.075043514
-0.0063624657 -0.099344686 -0.13762443 -0.031128911 0.08473488 -0.028446713 -0.064738035 -0.032618318
0.0064882278 0.051548127 0.09820555 0.0862764 -0.1301598 -0.0685364 0.04885196 0.15377475
-0.031287987 0.045803826 0.0724348 0.017762408 0.04587468 0.063013956 0.04619356 -0.02005708
0.070624456 -0.03694604 0.012484801 0.070276655 0.024686392 -0.00092522317 -0.040762343 0.0065255254
0.005896332 0.14639513 0.07596358 0.20102341 0.16615023 0.04421548 -0.039937913 -0.009597208
0.03302862 -0.017958816 -0.032692164 0.033206243 -0.065572254 0.023510441 -0.02725489 -0.024182394
-0.10492512 -0.06175149 0.08128651 0.01699456 0.09585967 0.08223712 0.054064203 -0.013501074
0.006912296 0.12133208 0.16602151 0.10738644 0.09982299 -0.066906966 -0.031018162 0.02101464
-0.028050896 -0.0046332413 0.0046730866 -0.08498114 -0.016237378 0.06874688 0.14992799 0.05395725
0.20336176 -0.0034025693 0.008444519 -0.065179914 -0.14371371 0.014470894 0.027147993 0.019050902
-0.14230788 -0.101380534 0.09289957 0.032596737 -0.014196037 0.029752895 0.04740763 0.12223086
0.04448484 0.106886946 -0.017920056 0.05465896 0.049577743 0.0002114698 0.0071806195 0.12874164
0.12964004 -0.04158472 0.056405805 -0.001310159 0.03238879 -0.08420756 -0.1189402 -0.10672563
0.06263341 0.08066122 0.09527788 0.03753147 -0.12274788 -0.10705122 -0.01009638 -0.027555259
-0.04804461 -0.1328709 -0.090947255 -0.11529866 -0.04068811 0.05658141 -0.057034206 -0.16851345
-0.15685335 -0.03606694 -0.029389542 -0.10907147 -0.12271094 -0.10087754 -0.1450233 -0.101245984
-0.16028866 -0.013912073 -0.0585836 -0.075977564 -0.02040335 0.07620281 0.06469868 0.08760999

bias f4 [12]
00000000: 7a09 9ebd e8d4 bdbd 9263 e2bd 6ecd a8bd
00000010: 1977 f3bd 25f8 00be a619 89bd d40e a4bd
00000020: 09a0 d7bd 3fbe 30bc 9bc6 02be 8133 39bd
-0.07716651 -0.09269124 -0.11054148 -0.082423076 -0.118879505 -0.1259466 -0.06694345 -0.08010641
-0.10528571 -0.010787546 -0.12771074 -0.045215134

weight f4 [48, 12, 16]
00000000: e4a8 b5bd da28 8a3d 982f babb 28b3 01be
00000010: 3e84 f2bd 25c6 86bd 3a13 aabc 4c00 25bd
00000020: 62f2 3abd a5e6 c7bd ebf5 7ebc 4f98 66bd
00000030: 149e c6bd db85 9bba a013 a8bd bb99 193d
00000040: 553f 91bc dd04 d7bd f572 21bd 2d61 41bc
00000050: f06b 3e3c 1363 9a3c d8d6 013d 365f 1dbd
00000060: 744c 72bc bf65 663d b1a1 3c3c d1c9 70bc
00000070: 3e63 8fbc f738 b53d 8653 04bd a38d 9cbd
00000080: ab73 8bbd 398e e9bd 3362 c2bd 7cca 17bd
00000090: 7e55 8dbd 0513 79bc 2d0e c9bd 4f5b 53bb
000000a0: 4fc4 f43c e930 5cbd 13d0 8dbd 81cf 67bc
000000b0: 3c8d 6f3c 6da0 c2ba 2545 81bd 0e40 8cbc
000000c0: a4b2 17bd 68f2 a7bd 0b8a a53b be98 1dbd
000000d0: 97f7 863c 248b a9bc cf4e 9bbc 3c1d cfbd
000000e0: 8ee4 293d 09fa b6bd bfb2 52bd e0e6 cebd
000000f0: f110 b4bc e03b dd3c 4de0 7fbb 073e 443c
00000100: 1625 7b3b d2d0 56bd 8b76 d9bd 5c7a 55bd
00000110: e0d5 c4bc 7481 8dbd 5701 59bd df7d 3dbd
00000120: 3f27 ebbc 8090 d2bc d6b2 e6bd 11b2 87bd
00000130: 548a 18bb b588 b0bc 173a ba3d c91c a7bc
00000140: 8f79 f03c 7d8c 14bd 2899 8ebd 185f 48bd
00000150: 00ee 84bd d8f6 6cbd 55d4 1c3c 33d0 03be
00000160: 7b9a 7dbd 8d96 a3bc 64f8 953c 64f6 2fbd
00000170: 9282 a3bd 04f9 d0bd 5d3e 94bd 05ce 043c
00000180: 7e04 173d 133f 6abd 08fc 04be b0ab cbbd
00000190: 3b20 a1bd 404f 73bd a78c 80bc 9673 833d
000001a0: 40fd 663d 17e2 713c a5f3 55bd c17d 453d
000001b0: de11 b1bd c571 22bd 8e55 1bbd 2aed 0cbe
000001c0: 1e3b cebd 69c6 16bd 6ca2 12be 0445 fcbd
000001d0: 025f 5f3b 4848 4fbd 8eea 79bd 0891 a13b
000001e0: 3a26 c3bd 1d17 ff3b b9cc 72bd 3ddd 173d
000001f0: 05d4 4fbd c826 8ebc 95d9 da3d e6ad 093d
00000200: 55e4 d9bd 483a 25bd 15be 2fbd 67aa b6bd
00000210: 3cad a9bd a828 f43c 07cd 0dbd 19b3 2ebd
00000220: bd88 0b3d 6c3f 3abd a2f4 04bd 4cc1 c3bd
00000230: f374 aa3d 8e12 94bd 9ec7 a5bd 9655 27bd
00000240: 616a 75bd 729a 9e3c df5f b6bd 1cef 01bd
00000250: 856d 03be dcdc 9a3d 1b25 07bd 65af 013d
00000260: 7558 573b 50d1 1abd c715 d5bc 4043 a4bd
00000270: d8dd 90bd 226d 23bd dca2 7dbd b5dc 8b3c
00000280: 67a8 09be 05c4 32bc a7bb 5cbd c5d3 693c
00000290: 1267 adbd 935d b73c 78f8 0e3d 3e2c 0bbe
000002a0: 2546 6bbc 0aa8 253d b31e c0bd 5e38 bfbd
000002b0: 1543 ac3b 56b4 eabd 2819 d3bc 6e33 583d
000002c0: 6d04 373d c6fe 06bd 9af4 50bd 41f7 863b
000002d0: 0d16 ccbc 0b93 273d 6b9e 2ebd baa5 67bd
000002e0: 7cb7 41bd 84d7 013d 68bb 10bd d8c1 66bc
000002f0: 53ab 3fbd e505 8bbc 444a aebd ecfa 403d
00000300: 008e 37bd 91e2 c43d d82e e4bc d84e 7bbd
00000310: c8af 0f3e 1a0e 57bb eb12 a63d 3db6 3f3c
00000320: 1c20 58bc a310 f33c acfc 67bd 2e88 2c3d
00000330: a538 9abd a2d6 e7bd be70 fd3d ae0a 883c
00000340: 665f dc3d fe69 803d 676f a1bd 9e75 bd3d
00000350: 8199 95bc 9696 123a fd8f aebd 808a df3d
00000360: 5c76 b7bc fe04 093d ccb3 143b c352 44bb
00000370: f016 e8bc 950b 0a3d 9a9a 8ebc e45d fd3c
00000380: 478a 21bd cd7e 05be a0b2 bcbd fbb9 a3bd
00000390: 150a 20bd 3784 7abc 6d92 4ebd a363 adbc
000003a0: 9393 9cbd bfa6 9abd 3d4d d4bd d97c e8bc
000003b0: af28 e5bc 8090 e6bd 3067 1abe c30a 19be
000003c0: 6b0e cfbc f34b 0abd cf14 a6bc 216a 4bbd
000003d0: 8e29 163e 1223 e83c 14d5 e13d 22b8 abbd
000003e0: e415 1b3d 5fc9 043d c42f 9dbb ca86 e7bd
000003f0: b796 bc3d f73c 843d d0db 31bc 8f96 f3bc
-0.08870104 0.06746073 -0.005681943 -0.12665999 -0.118416294 -0.06580762 -0.020761121 -0.040283486
-0.04564131 -0.09760789 -0.015561561 -0.056297597 -0.0969812 -0.0011865454 -0.08206868 0.037500124
-0.017730394 -0.104989745 -0.039416272 -0.011802954 0.011622414 0.01884607 0.03169903 -0.03842088
-0.014788736 0.056249376 0.01151316 -0.014696554 -0.017503377 0.08848756 -0.032306217 -0.076442026
-0.06809171 -0.1140408 -0.09491386 -0.03705834 -0.06901072 -0.0152022885 -0.09817157 -0.003225047
0.029878763 -0.05375758 -0.06924453 -0.014148594 0.014621075 -0.0014848836 -0.063120164 -0.017120387
-0.0370356 -0.08200532 0.0050518564 -0.038475744 0.016475482 -0.02069623 -0.018958477 -0.10112998
0.041477732 -0.08934409 -0.051439997 -0.1010263 -0.021980735 0.02700609 -0.0039043606 0.011977679
0.0038321665 -0.05244524 -0.106183134 -0.052118644 -0.024027765 -0.06909457 -0.052979793 -0.04626262
-0.028705237 -0.025703669 -0.11264579 -0.0662576 -0.002327581 -0.021549562 0.09093111 -0.020399468
0.029354839 -0.036266793 -0.06962806 -0.048918813 -0.064907074 -0.057852596 0.009572108 -0.1287239
-0.061914902 -0.01996925 0.018306918 -0.042959586 -0.07983889 -0.10203746 -0.07238457 0.0081057595
0.03686952 -0.05718906 -0.12986767 -0.09944856 -0.078674756 -0.05940175 -0.015692068 0.06418531
0.05639386 0.014763377 -0.05223431 0.04821563 -0.08645986 -0.03965928 -0.03792339 -0.13762346
-0.100698695 -0.036810312 -0.14319772 -0.12317851 0.0034083729 -0.050606042 -0.061014704 0.004930619
-0.095287755 0.0077847377 -0.05927727 0.037076224 -0.050739307 -0.017352477 0.10686032 0.033613108
-0.10639254 -0.040338784 -0.042905886 -0.089192204 -0.08284995 0.029804543 -0.034619357 -0.04265127
0.03406595 -0.04547064 -0.032459863 -0.09558353 0.083230875 -0.072301015 -0.080947146 -0.040853105
-0.059915904 0.019360755 -0.08905005 -0.031722173 -0.12834747 0.07561657 -0.03299437 0.03166141
0.003285912 -0.037797272 -0.02601136 -0.080206394 -0.07073563 -0.039899 -0.061922893 0.017073015
-0.13443147 -0.0109109925 -0.053889897 0.014271681 -0.08466925 0.022383487 0.034904927 -0.13591096
-0.0143599855 0.040443458 -0.093808554 -0.09336923 0.0052570202 -0.114601776 -0.025768831 0.052783422
0.044681955 -0.032957815 -0.05101452 0.0041188304 -0.024912858 0.040911715 -0.042631548 -0.056554534
-0.047294125 0.031699672 -0.035334975 -0.014084302 -0.046794247 -0.016970584 -0.08510259 0.047114298
-0.044813156 0.096135266 -0.027854368 -0.061354488 0.14031899 -0.0032814802 0.08109077 0.011701164
-0.013191249 0.029671019 -0.05663745 0.04212206 -0.07530335 -0.11320235 0.123750195 0.016606655
0.10760383 0.062702164 -0.078825764 0.09250949 -0.018261673 0.0005591897 -0.08523557 0.10915089
-0.022395305 0.033452027 0.0022690175 -0.0029956556 -0.02833125 0.03370245 -0.017407704 0.03092856
-0.039438512 -0.13036652 -0.092137575 -0.07994457 -0.039072115 -0.015290312 -0.05043261 -0.021165675
-0.07645335 -0.075513355 -0.103662945 -0.028379845 -0.027973501 -0.1125803 -0.15078425 -0.14945512
-0.02527543 -0.033763837 -0.020273594 -0.04966176 0.1466429 0.028337035 0.110269696 -0.0838473
0.037862673 0.032418605 -0.004796954 -0.11305006 0.09208434 0.064569406 -0.01085563 -0.029734878

bias f4 [48]
00000000: c64f b7bc 6542 1dbd 62e1 c0bc a52f ebbd
00000010: a474 8dbd 5d42 e2bc 09c9 efbd 765a 0bbd
00000020: 18d7 793d a599 0f3e e485 5ebc 0fd8 8dbd
00000030: d948 3bbd 3247 0c3c 710c 0ebe 9843 36bd
00000040: 3e97 d6bb 58bb da3d 9934 b5bc c156 3bbd
00000050: ef3e 533d 423a 3e3e 1b98 b2bb ffec 4dbd
00000060: d85b cfbd 6c41 a7bd 01a1 a0bd 79b9 88bc
00000070: 7c21 3bbd 2eb3 e0bc d091 d6bd bde0 debd
00000080: c8ab c8bd 8791 0abe 2c90 023d e3bd 433c
00000090: cfa4 323d 0f92 d5bd a2aa c2bd 4e2d a1bc
000000a0: 4f9c c03b 9b2f 0d3e 9039 a4bd 3244 d63d
000000b0: 4845 53bc 9acd 073e 912b 923c 7c11 9bbe
-0.022376906 -0.038393397 -0.02354497 -0.11483697 -0.06907013 -0.027619535 -0.11708266 -0.034021817
0.060996145 0.14023454 -0.013581727 -0.069259755 -0.04572377 0.008561896 -0.13871934 -0.044498056
-0.006548791 0.10680264 -0.022119807 -0.04573703 0.05157369 0.18576911 -0.0054502613 -0.050274845
-0.1012494 -0.08166775 -0.07843209 -0.016690003 -0.04568623 -0.02742919 -0.1047703 -0.10882709
-0.0979839 -0.13532077 0.031875774 0.011947128 0.043614205 -0.10428249 -0.09505202 -0.019674923
0.0058780084 0.13787691 -0.08018792 0.10462226 -0.012894936 0.13262025 0.01784304 -0.30286777

weight f4 [96, 48, 6]
00000000: c70b f7bc e0ea d0bc f3ad 82bd 8743 83bd
00000010: 2dff 80bb c4e5 5dbd 155f 83bd 2e83 09bd
00000020: 2fe0 e83c 6b11 dc3c 110f 9abd ae1a 873d
00000030: dded f0bc 712e 73bb b261 02bd c9b2 0cbd
00000040: b4e7 dd3c 84f2 ccbb 0b34 9b3d 3ed9 313d
00000050: 5b5b 95bc ee89 36bd e597 9b3c b570 e4bd
00000060: a45d abbd 2b1e 44bd 8307 01bb aaa9 2b3c
00000070: a5c8 81bd ff84 503b 350e 22bd 77a3 f23c
00000080: 9ea6 b5bc 83ad 65bd 5880 dfbd a6dc a5bd
00000090: 907a 883c b633 53bd 158f 67bc 4521 4abc
000000a0: 36f1 1f3d f7ca 0a3c ea51 88bd 4909 893d
000000b0: 486d 24bc 28c5 2e3d f4b4 61bb 9f2e f6bb
000000c0: e9a9 19bd e0d7 91bd 8317 e9bd 3dca b9bd
000000d0: ed4a a0bd f2e7 00be e08c 21bd 8ee7 96bd
000000e0: b126 cfbd 9fe8 f6bc 8296 19bd dfd5 babd
000000f0: e977 02bd fbf6 bebd a2b1 53bd 5477 fdbc
00000100: 7b72 79bd 85d7 04bd 6af9 febc c37f fc3c
00000110: d18f f13b 7f4c 7eba 4fa9 bd3b 084d 913d
00000120: 662d f8bb 28c8 d5bd 30d8 85bd 5fdf bebd
00000130: 9a93 a0bd 39ff bdbd 1c46 0bbe 1d98 4a3c
00000140: aa87 30bd 070b 3cbd ac27 33bc 93f3 20bd
00000150: 1671 e3bc 945d 13bd e076 b8bc d33a 0cbd
00000160: d32a 2abd 1bfa fdbc 1b29 b8bd f7dc f7bd
00000170: e3bb 03bc 5d18 86bd 0172 fdbc 2fdc 69bd
00000180: 178f 053c 759f e83b f87d a6bd 8b34 86bc
00000190: 4298 84bd 5867 19bc ea1d 6fb9 fdee a1bb
000001a0: 65c2 53bc 51c9 173d 7a1b a83b f51b 82bc
000001b0: 3e0a 9d3b 914f 92bc b49f 343d fd33 2e3d
000001c0: 4a9b 69bc 0e02 a6bc f3f6 3d3c ceeb a13b
000001d0: 8b61 5cbd 03aa dc3c 9f01 7e3d dd51 0c3c
000001e0: 7037 04bd c807 d5bd fb42 dd3c 3c12 27bb
000001f0: 2dd8 8fbd aa5d a43c 4ea7 0ebc 7ddb bc3a
00000200: 3b7c c9bc 36db f7bc 64a1 dfbc f6eb 11bb
00000210: ba63 c1bd b59b bfbd 3097 5cbd d073 a0bd
00000220: 01df 63bd e0ea c5bd 82ca 1b3d 364d 57bd
00000230: 596d e23c 8f50 3dbc 743e c63c 0950 24bd
00000240: cc31 bb3d ec01 f93c 3434 853d e8f7 193c
00000250: ea85 c43d 8c80 18bc 522e 28bc 31d6 3abd
00000260: d44e 82bd f757 053d cf4f 5a3c 8b8c 68bb
00000270: 6191 743d cdee 973d 85a1 b4bc 2bb4 723d
00000280: a545 1a3d 67e6 df3b 2fe7 79bd 9d7e 30bd
00000290: 506d 24bd 0dfc 86bc 87d2 203d 19b7 cf3a
000002a0: 5fbe 9c3d df42 ac3d 8d74 523d 931c d23c
000002b0: a60c 273d 5102 623d 1017 abbc d043 01bd
000002c0: cf28 b03b dc63 2bbd f37d 06bd 244a a0bc
000002d0: 8dd9 13bd 1b73 543d ffe8 bc3b 4d47 6c3d
000002e0: ed3e 8fbd bb61 043d c811 2a3d f9e9 aabc
000002f0: 797f 10bd 00bb 5dbc b075 94bd e5d3 583c
00000300: 1aa0 913d 5b11 863d bf30 833d dec1 4d3d
00000310: d08d 353c 5d22 18bd cc64 6e3b 3461 3cbd
00000320: 73b4 20bd a3dc 28bd c5d1 d13c caa0 f83c
00000330: b07b 37bd 960e 3b3d 24d8 463d c180 33bd
00000340: 1219 44bd 15f4 6a3c ede6 68bd ce03 cfbc
00000350: 7b90 053d 4f58 a4bb 0acc 6abd fa24 40bd
00000360: ce2d 323c 8028 a0bd 4286 1b3d 6e8f 603d
00000370: f3e3 6fbc beaf 3bbb f9f5 d0bc d0a6 d93c
00000380: e786 21bd b385 3e3d bd3a d1bd e3ec 7c3c
00000390: 1f82 f8ba 4811 14bc d7bf 203d 8880 d83b
000003a0: 8be3 07bd 20a7 b43c a001 243d 4ab6 38bd
000003b0: 0570 7c3d 5bf3 a63c 662c 0e3c 2d52 dabc
000003c0: a5e6 efbc aed1 4ebb 224a f0bc 8f1c cb3c
000003d0: 8770 043c e513 20bd f740 65bc bd7f 23bc
000003e0: 1402 cdbc 1cd6 9fbd 9c75 3a3b 3e2f a73c
000003f0: 7afd 5bbc 6ef3 923c b745 d3bc 24a8 a3bd
-0.030156983 -0.025502622 -0.063808344 -0.06409364 -0.0039366693 -0.0541742 -0.0641462 -0.03357237
0.028427212 0.026863774 -0.07522405 0.065968856 -0.029410297 -0.0037106539 -0.03183145 -0.03435019
0.027088024 -0.006254496 0.07578286 0.04342007 -0.018232038 -0.044565134 0.018993327 -0.1115431
-0.0836747 -0.047880333 -0.0019688315 0.010477463 -0.06337098 0.0031817553 -0.03956433 0.029618962
-0.022174176 -0.056073677 -0.109131515 -0.08098726 0.016660005 -0.051562987 -0.0141332345 -0.012337034
0.039048396 0.008471242 -0.06656249 0.06691224 -0.01003582 0.04266849 -0.0034440132 -0.007512882
-0.037515555 -0.07121253 -0.11381438 -0.09071777 -0.07826791 -0.1258848 -0.03944099 -0.07368384
-0.10114802 -0.03014022 -0.03749705 -0.09122824 -0.031852636 -0.093244515 -0.051683076 -0.03094069
-0.060900193 -0.032432098 -0.03112479 0.03082264 0.0073718806 -0.000970073 0.0057880054 0.07094771
-0.0075737713 -0.104385674 -0.06535375 -0.093199484 -0.07840653 -0.092771955 -0.13600963 0.012365368
-0.04309813 -0.045908954 -0.0109347515 -0.03929479 -0.027763885 -0.035977915 -0.022517622 -0.034235787
-0.041544747 -0.031003049 -0.08992215 -0.121026926 -0.008040401 -0.06547616 -0.03093815 -0.05709475
0.008151791 0.007099087 -0.081294954 -0.016382476 -0.064743534 -0.009363018 -0.0002280396 -0.0049418197
-0.012924765 0.037057225 0.0051302286 -0.015882472 0.0047924807 -0.017860206 0.044097617 0.04253005
-0.014258215 -0.020264652 0.011594522 0.00494144 -0.05380396 0.026936537 0.062013265 0.00856444
-0.03227943 -0.10401875 0.027009478 -0.0025493046 -0.07023654 0.020064194 -0.008706881 0.0014408674
-0.02459537 -0.030255895 -0.027298637 -0.0022265888 -0.094428495 -0.09355871 -0.05385512 -0.078345895
-0.055632595 -0.096639395 0.038034923 -0.05256387 0.027640032 -0.011554851 0.024199702 -0.04011539
0.091403574 0.030396424 0.065040976 0.009397484 0.095958546 -0.009307992 -0.01026495 -0.045614425
-0.063626915 0.032554593 0.013324692 -0.003548416 0.059708957 0.074185945 -0.022049675 0.059253853
0.037664074 0.006832886 -0.06101149 -0.043089498 -0.04014331 -0.016477609 0.039263275 0.0015847414
0.07653498 0.08411192 0.051380683 0.02564839 0.040783547 0.05517799 -0.02088502 -0.03155881
0.0053759585 -0.04184328 -0.03283496 -0.019566603 -0.036096144 0.051867586 0.00576508 0.057685185
-0.06994424 0.032319766 0.041520864 -0.02086352 -0.035277817 -0.013533354 -0.072490096 0.013234113
0.07110615 0.06546279 0.06405782 0.050233714 0.011081174 -0.037142146 0.0036375998 -0.045991138
-0.03923459 -0.04122604 0.025612721 0.030350108 -0.044795692 0.045668207 0.04854597 -0.04382396
-0.04787547 0.01434042 -0.056860853 -0.025270369 0.03260849 -0.00501541 -0.057323493 -0.046910264
0.0108751785 -0.07820225 0.037969835 0.054824285 -0.01464175 -0.0028638686 -0.025507914 0.0265688
-0.039435294 0.046514224 -0.102162816 0.015437338 -0.0018959678 -0.009037323 0.039245453 0.006607119
-0.033175986 0.022052348 0.040040612 -0.04509572 0.061630268 0.020379713 0.008677578 -0.026650513
-0.029284785 -0.0031558084 -0.029332224 0.024793891 0.008083469 -0.039081473 -0.01399254 -0.009979186
-0.025025405 -0.0780451 0.0028451448 0.020408269 -0.013427133 0.017938342 -0.025790079 -0.07991055

bias f4 [96]
00000000: 2a95 5abd 8241 80bd 44d4 7e3b 9240 403c
00000010: 4a97 1b3c d542 bdbc cbb7 5bbd 283a 2c3d
00000020: 4034 29bd 6504 af3c 6d27 933d b7e3 97bd
00000030: a2f5 25bd eedf 80bd db92 033d cad0 5ebd
00000040: baf4 f93c f24b 0abd 4b9e f4bd 6ba7 a1bd
00000050: 8aba 27bb 9982 7abd eabf a6bd 84ae 01bd
00000060: 3ac5 73bd 3554 7f3d 1c2d a3bd 465a 16bd
00000070: d526 0c3d 3ccd f33d 89af 84bd 93f9 a93c
00000080: 4597 69bd 2851 0e3e 6642 aabd e7d7 b63c
00000090: 71eb 44bd 5a81 c73b 9633 333d 7ead 48bd
000000a0: 8546 efbb 6011 a2bd 1354 263e b98b aa3d
000000b0: 6985 d9bd dc3f 153c b193 45bd d78f 30bd
000000c0: dce8 703d 797b 96bd eba0 31bc 9b74 ad3c
000000d0: 47a0 183b 1463 643c 495d 86bd 27ea 6dbd
000000e0: 40f9 41bd a938 bc3d 1647 3abd 3914 5a3d
000000f0: 0264 aabc 2203 61bd 1a0e 763d 7b35 adbd
00000100: 058f 633d 7763 b7bd 0711 95bd d83a 91bd
00000110: bcfe 2b3d aff1 fdbc 3d0d d53c ffa8 a8bc
00000120: b213 c13c b4d3 0d3d 18e3 b9bd b447 bdbd
00000130: 68ee 2c3d 29a3 abbd 0630 d63d 77bf 62bd
00000140: 7270 a9bd 14de 373d 970f e0bc 757e 06bd
00000150: 20dc cabd 5df6 68bc 12ca afbd 0b9c 9b3c
00000160: aa5e 3bbd 1be7 63bd 2143 293d f679 55bd
00000170: 1730 083c ddba 2c3d 1df6 703d d708 0ebe
-0.05336491 -0.062624946 0.0038883844 0.011734145 0.009496519 -0.023103157 -0.053642076 0.04204765
-0.041309595 0.0213644 0.07185254 -0.0741648 -0.040517457 -0.06292711 0.032122474 -0.054398336
0.030512203 -0.033763833 -0.119442545 -0.078932606 -0.0025593364 -0.061159704 -0.081420735 -0.03166057
-0.05951426 0.062336165 -0.07967588 -0.036707185 0.03421672 0.1190438 -0.06478793 0.02074889
-0.057029027 0.13898146 -0.08313446 0.022319747 -0.048076097 0.006088418 0.043750368 -0.04899358
-0.0073021078 -0.0791347 0.1624301 0.08327431 -0.10621149 0.009109464 -0.048236553 -0.043105926
0.058815822 -0.07347769 -0.0108415885 0.021173766 0.0023288892 0.013939638 -0.065607615 -0.058084633
-0.047356844 0.091904946 -0.04547795 0.053241942 -0.02079964 -0.05493463 0.060072042 -0.08457466
0.055556316 -0.08954518 -0.07278638 -0.07091302 0.04199098 -0.030999033 0.026007289 -0.020588396
0.023568962 0.034625724 -0.09076518 -0.09242192 0.04221955 -0.0838073 0.104583785 -0.055358376
-0.082734 0.044889525 -0.027351184 -0.032835443 -0.09905267 -0.014218894 -0.08583464 0.018995306
-0.045744576 -0.05564032 0.041323785 -0.052118264 0.008312247 0.042170394 0.058828462 -0.1387056

weight f4 [64, 2688]
00000000: 8e92 f4bc 0c88 03bd 8149 98bc 28f7 9dbc
00000010: e04a 12bb 49b3 8ebd 97bf d93b 15cc dbbc
00000020: a283 92bc 2a18 53bc 376f ef3c b7e8 d23c
00000030: 7951 6a3c 4d3b 9e3c 6fda 85bc af49 2b3c
00000040: 0a62 633a 75cd 8ebb b83e b93c 8675 813c
00000050: 45bc b5bb 95df abbc 9a26 b23b e711 dfbc
00000060: 612e b4bc d9bf e5b9 4550 66bb 9b03 20bd
00000070: dc9f 943c c427 273c e766 383a 1018 a13c
00000080: 3971 523c d33f 2c3a c8e4 8f3c 7216 1bbc
00000090: d266 c0bb 1d44 34bb a41e 14bc 1126 343c
000000a0: 3865 403c c5fc 8d3c e2f7 5e3c 0bb6 583c
000000b0: 7125 dc3c 3486 a0bb 356c 453c f061 e83c
000000c0: 3d79 113c 2a1b 73bc 18e1 7c3b 0096 7d3c
000000d0: 62e6 c2bb c74f 01bc 971d c9bc 5544 36bc
000000e0: d7f3 f6bc 9979 99bd 6597 2ebd 3c77 5d3b
000000f0: eeac 91bc c7b0 38bd b90d bfbd e96c 89bd
00000100: 3123 63bc 2b61 84bd 8d00 adbd 51c4 bdbd
00000110: 7609 13bd d6ed 8bbd 9384 40bd 0144 35bd
00000120: d67f 3a3d 4dcd 3bbc 42d2 80bd 7f5a 15bd
00000130: b279 27bd 170a 26be 8464 abbd 6643 a0bd
00000140: 4ee5 e2bd 11bd c0bd b82e ec3c 7f5a 0cbd
00000150: 8409 ccbc eabc 67bc 1f7a 673c 7d05 9d3d
00000160: b521 653d aa89 ca3b b833 0bbd 33fc f3bb
00000170: 9017 39bc 465f 25bd 3977 33bd 1903 8abc
00000180: fd47 743b a7c8 c93c bc6e eb3c d062 64bc
00000190: 27ad 77bc af65 8ebc a572 60bd 0cdf 44bd
000001a0: 790d 92bd c28e bebd 2cf2 5dbd 1340 8ebd
000001b0: 6a17 a2bd 473c 39bd 15ad 2dbd 3341 f1bc
000001c0: 2c02 d5bc 4477 e6bc f86e 3c3c bfae 813c
000001d0: 902b 47bb c7d0 a8bc 2e05 86bd a2e4 50bd
000001e0: 3271 41bd e76a 7dbc acd1 90bd 00bf 3bbd
000001f0: 16df 96bd f73e 1abd 4b30 a9bd 3815 49bd
00000200: f90e 96bc f12a 9bbc 428d 6dbd a45e 4cbb
00000210: 422c 66bd 7778 94bd 4080 4dbd 3e8f 35bd
00000220: 520b 77bd f6ef a1bd 208c 69bd 23d1 39bd
00000230: 4688 f0bb 823e b8bc 98a2 1b3b 067e c5bc
00000240: 4209 243c 4350 ccbb 743a f7bb 2701 54bc
00000250: 6d4c 153b b5a3 23bd fcd5 4fbc b4b0 46bc
00000260: 4e11 84bb 16ff 39bc 73ca 793c 4551 6dbc
00000270: 45c0 b3bc d96f 01bc fb9c 8cba 5930 d0bc
00000280: 7b89 f63b a322 a1bb 7e11 dfbc 0892 8abc
00000290: 11dd 67bb 4b45 92bc 079e 0c3b f76e 0e3b
000002a0: 58c0 263d ba5d dc3c ee64 473c 3291 133c
000002b0: 601f adbb 00bd d3bb e00a 173d 695a 223d
000002c0: 56fb 283d 0b7c aa3b 7b4f d0bb 35cd 403d
000002d0: 3f94 7e3d 5c79 383d 8747 893d f7da 943d
000002e0: 887e 893d 5465 943d 4481 5e3d 0122 663c
000002f0: 5f20 153d 9467 8a3d 11bb f73c 21dc 003d
00000300: 6f95 6f3c 1c4c dc3c b1d7 35ba bc8f 153c
00000310: 577a fbbc 0d19 95bc 1ab1 043d 02c1 ce3b
00000320: 9ec4 6b3d cc66 efbc 3260 063b 18b3 e03b
00000330: 01fe 90ba 04e5 b6bc c3f1 97bd 70f9 5fbd
00000340: 1065 a43c 05eb cebb 93c8 e8bc 5a44 d2bc
00000350: 4fef 2ebd edcc a2bd 5dc7 80bd 5bc0 77bd
00000360: 8368 9dbb 8153 9abd b069 3fbd 5bbc 8cbd
00000370: 241f 23bd c352 8bbd d616 a8bc 4816 06bc
00000380: d9dd d2bc d677 b0bd ceb1 fbbc a41f 90bd
00000390: 15f5 88bd 7976 12bd eb66 94bd 80f1 ebbc
000003a0: d684 61b9 a21f aeba 15d2 0d3a 730d 303d
000003b0: 5a88 663d 2f1f ba3c 6865 acbc eb5f 27bb
000003c0: 3ab6 253d 8032 203c a14a 6d3c 05dc ffbc
000003d0: af6b 6bbd 9d1c 9dbc f211 7cbc f74a 20bd
000003e0: 7697 86bc 83bf cabb 2d53 36bd b7da 57bd
000003f0: 2e85 333d c4e4 113c e219 c23c dcfe 9a3c
-0.029855039 -0.032112166 -0.018589737 -0.019282892 -0.002232246 -0.0696779 0.0066451537 -0.026830712
-0.017885033 -0.012884179 0.029227836 0.025745733 0.014301651 0.019315386 -0.016339509 0.010454579
0.0008673972 -0.0043579885 0.022612914 0.01580311 -0.005546125 -0.020980636 0.0054367306 -0.027230216
-0.021994771 -0.0004382122 -0.003514306 -0.03906594 0.018142633 0.010202352 0.00070343766 0.019664794
0.012844377 0.000657079 0.017565146 -0.009465801 -0.005871632 -0.002750642 -0.009040508 0.010995404
0.011742882 0.017332444 0.013608905 0.013226996 0.026873322 -0.0048988108 0.012049724 0.028367013
0.008879003 -0.014838019 0.0038586315 0.015477657 -0.005947874 -0.007892556 -0.024550242 -0.01112469
-0.030145569 -0.07493896 -0.04262485 0.0033792993 -0.017782655 -0.045090463 -0.09328789 -0.06710226
-0.013863371 -0.06463846 -0.08447371 -0.0926596 -0.035897695 -0.06832473 -0.047001433 -0.044254307
0.04553207 -0.011462522 -0.062901035 -0.036463257 -0.040887542 -0.16214786 -0.08368781 -0.07825355
-0.11078893 -0.094110616 0.028830871 -0.03426599 -0.024906881 -0.014144162 0.014128237 0.076670624
0.05594035 0.0061809616 -0.03398487 -0.007445836 -0.011297122 -0.040374063 -0.04381487 -0.01684718
0.0037274354 0.024631811 0.028739326 -0.013939574 -0.015116966 -0.01738247 -0.054796834 -0.048064277
-0.07131476 -0.09304573 -0.05418603 -0.06945815 -0.07914622 -0.0452235 -0.042401392 -0.029450035
-0.026002012 -0.028133042 0.011501066 0.015830396 -0.0030390956 -0.020607365 -0.06543957 -0.05099929
-0.047227092 -0.015467382 -0.07071242 -0.04583645 -0.07366769 -0.037657704 -0.08261164 -0.0490925
-0.018317686 -0.018941374 -0.057996042 -0.003118434 -0.05619455 -0.07249539 -0.050171137 -0.04432606
-0.06031353 -0.07907097 -0.0570184 -0.045365464 -0.007340464 -0.022490744 0.0023748036 -0.024107944
0.010011973 -0.006235154 -0.00754481 -0.012939728 0.002278115 -0.039951045 -0.012685295 -0.01212709
-0.004030383 -0.011352321 0.015246022 -0.014484708 -0.021942267 -0.007900202 -0.0010727936 -0.025413679
0.007523713 -0.004917459 -0.02723002 -0.016915336 -0.0035379569 -0.017855307 0.0021456496 0.002173362
0.040710777 0.026900161 0.01217006 0.009006785 -0.005283281 -0.0064617395 0.036875606 0.039637003
0.041255318 0.0052027754 -0.006357131 0.0470707 0.062153097 0.045037612 0.06703096 0.07268327
0.06713587 0.07245889 0.054322496 0.014046193 0.036407825 0.06758037 0.030240567 0.03145993
0.01462303 0.02689176 -0.00069367426 0.009128507 -0.030697985 -0.018200422 0.03239546 0.0063096294
0.057560556 -0.029223822 0.0020504114 0.006857287 -0.0011062027 -0.022326 -0.07419159 -0.05468124
0.020067722 -0.0063146376 -0.028415954 -0.025667358 -0.04270869 -0.07949243 -0.062880255 -0.06048618
-0.0048037185 -0.07535458 -0.04673165 -0.068718635 -0.03982462 -0.06802895 -0.020518702 -0.008184023
-0.02574055 -0.08616607 -0.030724432 -0.07037285 -0.06687371 -0.035757516 -0.072461925 -0.02880168
-0.00021507157 -0.0013284574 0.0005410028 0.042981576 0.05628238 0.022719948 -0.021044448 -0.002553935
0.040456988 0.009777665 0.014483125 -0.031232843 -0.057475742 -0.019178683 -0.015385138 -0.039133992
-0.016429644 -0.0061873808 -0.044512916 -0.052698817 0.043828182 0.00890464 0.023693983 0.018920355

bias f4 [64]
00000000: 9b3f 873d 42b9 843c 011a 183d 8055 c8bd
00000010: f1c7 c1bd 78fe fdbc 2323 7f3d ddff 06bd
00000020: db6c d43c 7ea8 82bd c446 a33d 9dc9 cabd
00000030: fb5f 0d3e b31f a83b 7790 d53b b794 bebd
00000040: c060 c1bd 47a1 173b 9bc6 fabc 21bc 9fbd
00000050: 1a3d 713c bb16 1cbb 76dd 6ebd 7cd9 183d
00000060: 0c65 aebc 1716 d13c 7473 99bc 7fe7 3ebd
00000070: 7a81 453d 5f7d a2bc b603 67bd 2be6 bcbd
00000080: b100 213c cdbd bd3c 82eb 0e3e 4eb9 193d
00000090: 3d04 09be 0c04 78bd 7365 533d aefa 893d
000000a0: dc26 91bd 674f 893c dd11 b2bd bc0f aebb
000000b0: 21c1 00bd efd5 8f3d fdef d73b e202 cfbc
000000c0: d4c1 fe3c 31b1 8a3c 4050 033e a2a3 b8bc
000000d0: c443 013e 5735 c13d a107 11bd 5ee8 b1bc
000000e0: e6a8 b6bd f4f3 39bd e171 7a3d b44e a73d
000000f0: a0f6 093d a810 d0bc ea68 223e 394f 70ba
0.06603929 0.016201619 0.037134174 -0.09781933 -0.09461964 -0.03100513 0.06228937 -0.032958854
0.025930813 -0.063797936 0.07972482 -0.09901736 0.13806145 0.005130732 0.0065174657 -0.09305709
-0.09442282 0.00231369 -0.03061228 -0.077995546 0.01472404 -0.002381726 -0.05831667 0.037316784
-0.021288417 0.025523229 -0.01873181 -0.04660749 0.04821918 -0.019835172 -0.056400023 -0.092235886
0.009826825 0.023161793 0.13957027 0.037530236 -0.13380523 -0.060550734 0.05161042 0.067372665
-0.0708749 0.016761495 -0.086948134 -0.0053119343 -0.031434182 0.070232265 0.006589888 -0.02526993
0.031098284 0.016930195 0.12823582 -0.022538964 0.12623507 0.09434002 -0.035407666 -0.021717247
-0.089189336 -0.045398667 0.06114376 0.08169308 0.033682466 -0.025398567 0.15860334 -0.00091670785

weight f4 [25, 64]
00000000: 7c89 343e 5d57 debc 6a10 bfbd a77e b7bd
00000010: d54d eb3d af9c e0bd 4168 b73d c1dc 21bc
00000020: 5922 783d f5f0 e43d 3cff bf3d f2b3 bbbb
00000030: a515 ccbd 6f57 713d 9e30 0abe 83d4 98bc
00000040: 3798 ee3c 236b fa3d 3556 85bc f4fe e53d
00000050: 4952 ad3d 1cff 8abd 5138 cebd 384f c53d
00000060: 004d ae3d c307 09bd 3b24 633d 65c7 1bbd
00000070: 8a64 f53d a997 a1bd 0b27 91bc d434 4bbd
00000080: 52b7 d63d 3ce1 73bb 538a 073d dc00 7a3c
00000090: 4091 efbd 3215 5abc a2a0 c73d 2158 2bbc
000000a0: 75c6 08be c066 96bc be88 313b edf6 0fbe
000000b0: 02b3 9fbc aee2 20bd 7e37 e13c 64c0 61bc
000000c0: 8805 84bc 6059 043e a2dc 14be 1460 fd3c
000000d0: c586 4c3b 87b1 aabd 5e0b 8bbd f2bb ab3d
000000e0: f59c aabd 1ab6 65bd b64f 29be 8ae4 11bd
000000f0: 4ae0 febd 7df5 58bd 2d7c dabd 907e 563d
00000100: eca6 7cbd c940 19be 54e4 223e b21d 123d
00000110: 791a 94bb d7f4 a73d 4a0f 68bd b71d 8abd
00000120: a44d fabd 5702 cabd 6fda 24be d8eb 6e3d
00000130: db11 033e 6700 fbbc ba7e bc3d 8ab1 463d
00000140: 69ae b53c a658 0abd 4f1d 353e 7ce3 07be
00000150: 524c dabd 03f2 86bd 277e b93d 4887 773c
00000160: 1e6b 8b3d 5e2a e1bc 4eba e73c c673 153e
00000170: 3686 50bd 92da 813d 9d86 b93d 3360 09bd
00000180: b9cb a4bd 87ff dbbd a234 ffbd 9dc3 31be
00000190: 1b91 103e c868 8ebd a577 733d 84ff 70bd
000001a0: 8fe3 dc3d 3e11 403d 0edd 1a3e 5695 0e3e
000001b0: 7914 0e3d 204e 853d 885c 54bc 276f 73bc
000001c0: ab61 203d f751 02bb ed12 2a3e acb9 1a3d
000001d0: 83ee 00be c403 be3d 20c5 c63b 485d f9bd
000001e0: c15d c33d fc6a c4bb 91d8 0a3e 78f9 2d3e
000001f0: 0e84 3d3d ba95 9bbd aabc 053e 7c37 f0bc
00000200: 2d29 1b3d aedd 333d 191d 46be e61d dcbd
00000210: 7952 b43d 5dd5 d1bd b257 dcbb 0f13 bcbd
00000220: 8322 9d3d b4ea 2d3e e563 a23d 7058 85bc
00000230: 0308 b5bd 9474 843d 2bb7 0fbe 1750 113d
00000240: c1e0 d13c df05 663d a6f5 55bd ca1d 2e3e
00000250: 2e6d de3d a20b 1ebd afb7 c3bd 9cfa b63c
00000260: 8cf2 ca3c f61f 80bd a51e 24be da4a a9bd
00000270: 09b1 31bd 8764 d4bd 5edb 2fbe 4317 86bd
00000280: cda5 55bc f9da f5ba b361 613d 44a4 213e
00000290: 670d 9fbd 01b1 103d 0556 30bd a0db 0c3d
000002a0: b84f dabc 0f91 213d 5888 01bd fc2d 45bc
000002b0: 21a7 01be 2d7f 28bd a4a8 59bc 18f4 99bb
000002c0: 51ad 5bbd 9910 8d3c 79a5 e1bd 9db0 1bbd
000002d0: 5025 f13c d1d4 e4bc e9c1 b4bd a357 433e
000002e0: 5d46 e93c a5fd 0fbd 0515 53bd 0322 d3bd
000002f0: badb 413d 9cf8 a7bc 4bf3 8bbd a7f0 17bd
00000300: 72a1 50be 46b3 68be 47d7 113e 6d68 ddbd
00000310: 92b0 24be 898e aebd d09b 4bbe 26e0 febd
00000320: 6199 4b3d 6215 803d db91 07be 4d51 db3d
00000330: 682e 063d 334c e63d f0da c53d 6e79 a4bc
00000340: 045b 233e 0da0 ca3d 2ba3 693e d781 27bd
00000350: ae42 c03d a49f 2abe 1e50 ec3d 3557 cc3c
00000360: c3dc 143d 508a e1bd a328 11be 4310 c6bb
00000370: bec6 a53c eb7e 2c3e 349e 28ba 31e5 a33d
00000380: f029 23be 33a1 d6bd 1b81 b6bd ba79 fbbc
00000390: 432f a73c 8801 56bd 4408 a9bd f330 48bd
000003a0: 1917 053d d700 5a3d 5273 1f3e 2b7f 333e
000003b0: 17b8 9a3d 0407 33bd 9eb4 c03d ae3b d3bd
000003c0: 704a a1bc e6dd 0e3d 882b 3ebd 7986 7c3d
000003d0: cbbf 86be 4e98 8b3d c31f df3d 3696 613c
000003e0: ddb8 27bd ab74 903d 7b91 62bb 2bd5 953d
000003f0: a6b6 793c 092a 1fbe abdb a33d 5768 5dbc
0.17630571 -0.027141267 -0.093293026 -0.08959704 0.11489455 -0.10967385 0.08955432 -0.009879292
0.06057963 0.111787714 0.09374854 -0.0057282383 -0.09965066 0.058921274 -0.13495108 -0.018656021
0.029125316 0.12227466 -0.016276458 0.11230269 0.0846296 -0.067869395 -0.10069335 0.096342504
0.0851078 -0.033454668 0.055454474 -0.038031954 0.11982067 -0.07890255 -0.017718812 -0.049610928
0.10484184 -0.0037213108 0.0330909 0.015258994 -0.11697626 -0.013310717 0.09747435 -0.010458023
-0.13356955 -0.018359542 0.0027089561 -0.14059038 -0.019494537 -0.03927868 0.027492281 -0.01377878
-0.016115919 0.12924719 -0.1453729 0.030929603 0.0031208259 -0.08334642 -0.067892775 0.08385457
-0.083307184 -0.05608187 -0.16534314 -0.035618342 -0.124451235 -0.05296849 -0.10668216 0.052366793
-0.061682627 -0.1496612 0.15907413 0.03567285 -0.0045197573 0.08200996 -0.056655206 -0.06743949
-0.1222184 -0.098637275 -0.16098951 0.058330387 0.1279978 -0.03063984 0.09203859 0.04850916
0.022177892 -0.033775948 0.17686962 -0.13270372 -0.10659088 -0.06589129 0.09057265 0.015107937
0.0680754 -0.027486023 0.02828708 0.14594945 -0.050909244 0.06340517 0.090588786 -0.03353901
-0.080466695 -0.10742097 -0.12461211 -0.17359777 0.14117853 -0.06953579 0.059440274 -0.05883743
0.10785591 0.046891443 0.15123388 0.13924155 0.034687493 0.06509042 -0.012961514 -0.014858044
0.039155643 -0.001988528 0.16608782 0.037774727 -0.12590985 0.09278062 0.0060659796 -0.12175995
0.095393665 -0.005994199 0.13559176 0.16989696 0.046268515 -0.075969175 0.13060251 -0.029323332
0.037881065 0.043912582 -0.19347037 -0.1074789 0.08804793 -0.10245774 -0.0067243213 -0.09183323
0.07672598 0.16984063 0.079292096 -0.016277522 -0.08839419 0.06467548 -0.14034717 0.03547677
0.025619866 0.056157943 -0.05223622 0.17003551 0.10860668 -0.038585313 -0.09556519 0.022336297
0.024773858 -0.06256096 -0.16027315 -0.0826623 -0.043381725 -0.103707366 -0.17173526 -0.065474056
-0.013040018 -0.0018757276 0.055024814 0.15785319 -0.07766228 0.035325054 -0.043050785 0.03438914
-0.026649341 0.03944498 -0.03162417 -0.012034889 -0.12661411 -0.04113691 -0.013284836 -0.0046982877
-0.053632084 0.017219828 -0.110178895 -0.03801023 0.029436737 -0.02793351 -0.08826048 0.190764
0.028475935 -0.035154004 -0.051533718 -0.103092216 0.04732869 -0.020504288 -0.06833514 -0.03709474
-0.20374086 -0.22724637 0.14242278 -0.10810933 -0.16082981 -0.0852328 -0.19883657 -0.12445097
0.04970682 0.062540784 -0.13239233 0.10708866 0.0327591 0.112450026 0.096609 -0.020077433
0.15952688 0.098938085 0.2281615 -0.04089531 0.09387718 -0.1666246 0.11538719 0.024943927
0.036343347 -0.11012709 -0.14175658 -0.006044419 0.02023637 0.1684529 -0.00064322655 0.08002699
-0.15933967 -0.10479965 -0.08911344 -0.030697692 0.020408278 -0.052247554 -0.0825353 -0.048874807
0.03249273 0.053223457 0.15571335 0.1752898 0.075546436 -0.043707862 0.0940945 -0.10314117
-0.019688815 0.034879588 -0.046428233 0.06165168 -0.263182 0.06816159 0.1089473 0.013768723
-0.040947784 0.07053503 -0.0034571576 0.07316049 0.015241301 -0.15543379 0.08000883 -0.013513646

bias f4 [25]
00000000: 41b0 f5bd dd7c cc3d 6f71 63bd 6457 463d
00000010: 8f01 443d a7ab b93c 7d9b 8b3d 2694 45bd
00000020: b6d8 8d3c ecd7 cd3c 366c 1fbc ffdb 243d
00000030: ff95 223d ce44 eb3c 4fd9 b43d b862 4a3b
00000040: 1199 66bd bc92 683c 1c92 89bd db41 75be
00000050: eb5d 213e 12c1 a53d 22d9 0f3d 6ee8 093b
00000060: 2c9e 64bf
-0.119965084 0.09984753 -0.0555281 0.048423186 0.04785305 0.022664858 0.068167664 -0.04823699
0.01731525 0.025127374 -0.009730389 0.040248867 0.03969383 0.028719332 0.08830511 0.0030881595
-0.05629832 0.01419514 -0.06717321 -0.23950903 0.15758483 0.08093466 0.035119183 0.002104308
-0.8930385
