result/config2_main/preliminary_model9.pt (torch_old, 874676 bytes, 10 tensors)

weight f4 [12, 2, 192]
00000000: 966e b83e 053b f63d e557 083e 3f5b 4f3d
00000010: 1620 2bbe 50ff dd3c f1e5 bb3e 91bd 653e
00000020: d560 1f3d 8abb 7c3c f0bc 75bc 87a7 8dbd
00000030: 1312 0dbd 95d7 04be 4364 2c3e 0972 a23d
00000040: c8ef 46bd 4bf8 253d 916a 9dbd 50ed 3a3d
00000050: b0c5 f43b f161 593d 187c a9bd 8873 04bd
00000060: 049d a13b 4e8b 31be 9183 f93d 22c1 11be
00000070: 405a adbd 34fb a9bc 1560 fa3b 9219 81bd
00000080: 4563 a93d 6409 633e 64c0 4c3c 25f0 05bc
00000090: dc95 5fbe 44c4 ccbd ef6a 47be 2a8c 89bc
000000a0: 20ac 943d 0369 81bd 47f3 c9bd 06cc debc
000000b0: 3a0a c8bd 9dd6 b33d f202 dbbd 46fd aabd
000000c0: 9480 eb3a 5d6d 5bbd 68a7 633d ecb1 e23d
000000d0: 1be7 9bbd 70dc 6abd 12c9 3fbe f9f3 c1bd
000000e0: 0fb0 943d 2bb1 af3d 0ca7 bf3c fde5 f5bd
000000f0: 66e9 f3bd 4aa5 f8bd 4308 493e 3e59 1d3e
00000100: 9772 57bc 32c2 06be 45f8 c53d a811 ff3d
00000110: ed8c a63a e4c4 0f3e 22b4 02be bcda fe3c
00000120: 7ab5 8e3e 1b50 7b3c 403c 3f3d afd4 593c
00000130: 364c 5ebd 8130 023e 97f2 383e f3ae eb3d
00000140: e633 f6ba 3ac4 c1bd c7f9 c73c d65a 323e
00000150: 7d7b b73d 6178 40bb 7869 f23b 6b74 d73d
00000160: 1030 a93d 609d 6a3e 5576 25bd 0931 6b3c
00000170: 2a85 303c 3786 053e e7aa 543e b9ba ac3b
00000180: b12e d93d fa11 5f3d f29e 35bc 5562 2a3e
00000190: 833e 253e 7eb6 e3bd 89dd 10be 77ea 683e
000001a0: 1e13 123e 5eb4 523e 8bed 973d 555f 55be
000001b0: 0bf9 c4bd 57aa cfbd a069 1f3e ef74 bebb
000001c0: 6f09 883d d828 4ebd 8c67 c83b 295e 42be
000001d0: 614c 833b 858e 8b3c c506 f7bc f2a0 653e
000001e0: 3415 243e 838e e8bd 7306 a8be 6299 52be
000001f0: b03d 03be 77db 88be 1020 a8bd 61b3 8bbd
00000200: b7c1 0cbe 1d6b 6bbc 07bf dd3c f1e0 d53d
00000210: 7041 5cbe 5644 2abe 4ae8 8f3d 1eed a03e
00000220: b05f b3bd f07e cf3d 47b3 9d3d f6cc 95bd
00000230: bb77 ce3b 4e4b 1b3e 8988 213e 1674 efbb
00000240: b86d d4bb 529c e9bd 386c 313d 8f5d b2bd
00000250: 8ede 803d 967d c13d 0060 6c3d 48e3 1a3d
00000260: 63a8 7f3d 3d59 3e3e b5db fc3c 5fc9 713e
00000270: 4bd1 953c 1641 b8bd 165c 77be ccbb 21be
00000280: 2256 81bc 1e73 6c3b 55ce 073b 14ac 15ba
00000290: a136 ca3d 2cd4 833d 24ab 8ab9 9b82 523e
000002a0: 25e9 e3bd 6ea1 11be 19f3 903d d41e b0bd
000002b0: f5d6 3e3e 8ee9 7f3e 42e5 503e 69d1 10be
000002c0: cc79 e0bd 2e8e 393e c4ff c13e 6751 d13e
000002d0: 5e0f 223e 2c06 22bd 0813 05be b892 e83d
000002e0: 78bf 3c3e 6109 af3d cd0b eebd 9a20 33be
000002f0: 5a21 ec3b 2012 213d fbf6 943e 1eac a83d
00000300: a29b 883e 4f71 cfbd 7f91 e83d 98c2 983d
00000310: 6e76 8bbe 0349 543c 76ed 963e 4c2c 9e3e
00000320: 654c 8abe 1044 52be c3b4 9b3d 4765 e139
00000330: b9bf fe3d 97b6 0fbc 0da8 36bc 7c29 75bd
00000340: 7adc 9c3d fa35 9d3e ad47 07be 14e7 e8bd
00000350: 52b0 61be dfc6 913d d248 c03d deb6 5b3e
00000360: 26b3 303e 0a5e d9bd b059 163d 06a3 7cbd
00000370: b08d 823d 107a e6bc f957 65be b546 d3be
00000380: 39d1 2cbe a195 833d fd0e 70bd 8da2 1dbe
00000390: 07dc 00be 9698 62be 8b5c b1bd bbdd 40be
000003a0: 1988 d2bc c76d bcbe 040b 19be 7f49 74be
000003b0: 670d 82be 6e12 ca3d 8174 9dbd 24af 603d
000003c0: 6fb1 6ebc 8c77 fcbc e666 f03d b291 393e
000003d0: 7c92 edbd c5c7 023b 3818 d1bd 806f cabd
000003e0: be1b 48bd 53bf 233e eb2d cf3d db7a 1bbd
000003f0: 470c 28bd 9ca2 d33c 277a 113e 6654 6a3e
0.3602187 0.12022976 0.13314779 0.05062413 -0.16711459 0.027099282 0.3669887 0.22435595
0.038910706 0.015425572 -0.0149986595 -0.06916719 -0.034441065 -0.12972863 0.16835122 0.07931907
-0.048568517 0.040519994 -0.076863416 0.045636475 0.0074698552 0.05307192 -0.08275622 -0.03233674
0.004932048 -0.17338297 0.121832974 -0.1423383 -0.084644794 -0.020749666 0.0076408484 -0.06303705
0.08270887 0.22171551 0.012497041 -0.008174931 -0.2183451 -0.09998372 -0.19474386 -0.016790468
0.07259393 -0.063188575 -0.098608546 -0.027196895 -0.097675756 0.087811686 -0.10693921 -0.08349089
0.0017967396 -0.053571094 0.055579573 0.11069092 -0.07612439 -0.05733913 -0.18729046 -0.09470362
0.07260143 0.08578714 0.023395084 -0.120067574 -0.119097516 -0.121409014 0.19632058 0.15366074
-0.013149879 -0.13160017 0.09666494 0.124545395 0.0012706794 0.14039952 -0.12764028 0.03111016
0.2787283 0.015338923 0.04668832 0.013295337 -0.0542719 0.12713815 0.1806129 0.11507978
-0.0018783777 -0.09461255 0.024411095 0.17417464 0.089591004 -0.0029368626 0.0073978268 0.10520252
0.0826112 0.22911596 -0.040396053 0.014354953 0.010773936 0.1303948 0.20768319 0.0052712825
0.10604609 0.054460503 -0.011085259 0.16639073 0.16137128 -0.11118792 -0.14147009 0.22745691
0.14265105 0.20576617 0.074183546 -0.20837148 -0.09617814 -0.101399116 0.15567636 -0.0058122794
0.06642424 -0.05033192 0.0061158594 -0.18981232 0.004006908 0.017035732 -0.030154595 0.22424677
0.16023713 -0.11355307 -0.3281742 -0.20566323 -0.128165 -0.26729938 -0.082092404 -0.06821323
-0.13745771 -0.0143687995 0.027068628 0.10443295 -0.21509337 -0.1662763 0.070267275 0.31430906
-0.08758485 0.10131633 0.0770021 -0.07314484 0.006300894 0.15165445 0.1577474 -0.0073075397
-0.006482806 -0.11406769 0.043316096 -0.08709251 0.06292449 0.09447782 0.05770874 0.03781441
0.062416445 0.18588729 0.030866483 0.23611973 0.018288275 -0.08996789 -0.24156222 -0.15794295
-0.015788142 0.0036079357 0.0020722349 -0.00057095406 0.09873701 0.06436953 -0.0002644892 0.20557635
-0.11128453 -0.14221737 0.07077617 -0.0859963 0.18636687 0.24991438 0.20399955 -0.14142384
-0.10960731 0.18120643 0.37890446 0.40882418 0.15826175 -0.039556667 -0.12995541 0.113561094
0.18432415 0.08546711 -0.116233446 -0.17492905 0.0072061243 0.039323926 0.2909468 0.08235954
0.26681238 -0.10129034 0.11355876 0.07458991 -0.27238792 0.0129568605 0.29478043 0.3089317
-0.2701141 -0.20533776 0.07602837 0.00042990802 0.12438912 -0.00877156 -0.011148465 -0.059854016
0.0765924 0.30705243 -0.13210936 -0.113722 -0.22039917 0.0711801 0.09388889 0.21456477
0.1725584 -0.1061364 0.036706626 -0.06167891 0.06374681 -0.028134376 -0.2239684 -0.41264883
-0.16876687 0.06425024 -0.058608044 -0.1539404 -0.12583934 -0.2212852 -0.08660229 -0.18834583
-0.025699662 -0.36802503 -0.14945608 -0.23856162 -0.2540085 0.098667964 -0.07688237 0.054854527
-0.014568671 -0.030818723 0.11738376 0.18121985 -0.11600205 0.0019955498 -0.102096975 -0.09884548
-0.048854582 0.15990953 0.1011618 -0.03795896 -0.041027334 0.025834374 0.14206754 0.22883758

bias f4 [12]
00000000: ee22 41be 561a 8bbe c0ee 53be 836b 14be
00000010: 7e53 6ebe 9d8d 7abe 1cb1 94be 2fae 64be
00000020: d018 47be 0f87 dbbd 94ab aabe f0af 33be
-0.18860981 -0.2716853 -0.20696545 -0.14494137 -0.23274037 -0.24468084 -0.29041374 -0.22332071
-0.19443059 -0.1071912 -0.3333403 -0.17547584

weight f4 [48, 12, 16]
00000000: ada4 33be 3804 dfbe 87a0 30be 3832 bdbd
00000010: c435 e0be 4d99 70be 5daf 023e 3bb2 043e
00000020: b1b4 80be 2381 13bf e1a1 b83d f827 3ebe
00000030: a00a 7abd 801f 1bbe 96c2 6a3e a739 7e3e
00000040: 49c3 723e 5593 dabe 89f4 41be 4fb7 db3c
00000050: 5ef2 7bbc a53e 3b3d 08c5 2b3d d3a1 8abe
00000060: a056 12be 469d 4dbe 87cb a5be 02db a4be
00000070: f117 39be 407c c0be 90fc 153e 9865 403e
00000080: 7ff8 c5bd 6ab8 eabb a219 00be 1e66 823c
00000090: 16bd 8ebd 6248 9bbd c9ab 0b3d 39e6 3dbd
000000a0: e337 e13a 4559 a9bd daa9 d6be 2517 a5be
000000b0: 4b92 cd3d 53c5 41be e713 ee3d 771f 2cbd
000000c0: 2ac3 a1bd ec1e 1dbe fb1e 4e3e ac1f 9fbe
000000d0: 94c1 96be aea1 b5bd 1db6 6bbd d44e 163d
000000e0: 751e 89bd 225e 77be 32a2 c1be 03e5 4abe
000000f0: b3d6 b0be b406 ab3e d5c2 bf3d a7ba 2f3e
00000100: 1b30 00be ff35 96bd dc6b babe 2417 9fbe
00000110: 002d 013c 27c7 7a3d 9d63 9a3c 7524 8ebd
00000120: 3944 1cbe a5c5 d1bd 86ca 81be 0262 abbe
00000130: 5e91 74bc ce1c 173c 2a8f a43e a160 343e
00000140: 9ad4 56be 4ae9 4abe cf3d e2bc e596 e3bd
00000150: 6d17 b2be f670 e73d e57f c13e 5cbf 1abd
00000160: 55fb 843c 472d 8cbe a46e 8dbd 1bf3 35be
00000170: d944 edbe ccd8 d6bd a064 113e 72db 073e
00000180: 7ac1 70bd 10cb e2bd 9434 673e faea b0bd
00000190: 5a0b 80be 60cd 4abc ac01 36bd 9376 113e
000001a0: 5e59 1fbe 139b 28be 109f e5bd 209d 0abe
000001b0: 049a f33c c367 2fbe 1a92 30be b77b b73b
000001c0: badc f7be b1b4 5fbe 3a89 bcbe e1eb 25be
000001d0: 959d e4be 47df e23c 4b7f 81be 8664 a7bd
000001e0: ed2b 1abe 7d11 88bd 981d a4be c45b 6abe
000001f0: 91bb 5ebd 8613 0dbe 6a38 9f3e ef84 4f3e
00000200: 0463 eabe 59fc 4b3d b3d8 99be 3825 81bd
00000210: 15d1 0cbf 2b54 3a3d 4161 6a3e 0119 eb3d
00000220: f91f 72be 589b a1be 93d5 59be 7142 85be
00000230: 058d b8bd b657 53be 63f3 4d3d c83f 703e
00000240: 3bf3 aabe 824f 993d 0bad 25bf 148f c73d
00000250: cff2 ddbd 3575 673e 41d4 b73d 8c9a 973c
00000260: 24df 113e c6aa e0bd 21a4 e3bd 2f25 4fbb
00000270: ea24 30be 276f a53d d510 a1bd 1008 4e3e
00000280: bf46 9cbe 11b3 f33d 5c40 d3be 83ca 4abe
00000290: 6eb3 91be f2fb 0c3e cf0a 243e a291 193e
000002a0: 6780 113c 9c12 70be 27f0 ecbc b54d 98be
000002b0: 5449 abbe 2aa2 8fbe 5a39 56be 4d7b a43d
000002c0: d484 e2bd 9310 bb3d 822d df3d 2e02 493d
000002d0: a8cf 0abe c21f e0bd b907 19bd 4bec 9bbd
000002e0: d94f 6abd f6b5 26be 6ad1 41be 104e 45be
000002f0: 3b50 bbbb 642d f0bd 724c 71bc 0230 173e
00000300: c7b0 b13d e9fc 4c3e 56d8 14bd f581 23be
00000310: b05b 513e 80ff 00bd e14e 7b3d ca78 933b
00000320: 835e 683d dcaf 903d 64d7 963d 2689 603c
00000330: 8259 523e fdff 37be e168 513e 2696 f93c
00000340: 1b7a ae3d 4dc2 dfbc 789e abbd d514 433d
00000350: 7431 39be bab6 dbbd 5001 81be 1f02 53bc
00000360: 7c92 2abe 15bd 45be 82d6 a5bd 12ea 2a3e
00000370: 45ed 34be 2ce5 8cbd 8424 bcbd 8a1b 8f3b
00000380: c5a1 cf3d 6f0c 35be e93b 1dbe f3c1 ecbd
00000390: fa8a 373e a662 523e f3ed 3d3e 806c 5abc
000003a0: 4fcc 31be a800 debd 87ea 5dbd cfde 7abc
000003b0: 35fe 853c 4aa6 c9bd 3185 55be 58b4 b83b
000003c0: 27a7 b8bd 548a 6ebd 45f6 913d 8acc 8abd
000003d0: 111e af3d d6fa c5bc b030 4c3e 02c2 c4bd
000003e0: 83f0 973d b138 8a3d a03f 513d 6fe9 a03c
000003f0: eb0e 323d 8fbf 563c 16be fa3d 3dd2 96bb
-0.17543288 -0.43557906 -0.17248736 -0.09238094 -0.4379102 -0.2349598 0.12762208 0.12958615
-0.25137857 -0.5761892 0.09015251 -0.18569934 -0.06104529 -0.15148735 0.22925791 0.2482668
0.23707308 -0.4269053 -0.18940939 0.026820807 -0.015377609 0.04571404 0.04193595 -0.27076587
-0.14290857 -0.20079526 -0.32381842 -0.3219834 -0.18075539 -0.37594795 0.14647126 0.18788755
-0.096665375 -0.007163097 -0.12509778 0.015917834 -0.06969659 -0.07582165 0.034099374 -0.046362136
0.0017182793 -0.0826898 -0.4192646 -0.3224422 0.10037669 -0.1892293 0.1162489 -0.042022195
-0.07898553 -0.15343827 0.20129006 -0.3107885 -0.29444563 -0.088687286 -0.057546724 0.03669627
-0.06695262 -0.24157003 -0.37819058 -0.19813924 -0.34538803 0.33403552 0.09363333 0.17161046
-0.12518351 -0.07334518 -0.36410415 -0.31072342 0.007884264 0.061225083 0.018846327 -0.069405474
-0.152604 -0.10242776 -0.25349826 -0.33473212 -0.014927236 0.009223176 0.32140476 0.17614986
-0.20979539 -0.19815555 -0.027617363 -0.11112765 -0.34783497 0.113008425 0.37792888 -0.03778015
0.016233126 -0.27378294 -0.06905869 -0.17768519 -0.4634159 -0.104905695 0.14198542 0.13267305
-0.058778264 -0.11073887 0.2257865 -0.08638568 -0.2500866 -0.012378067 -0.04443519 0.14205389
-0.15561435 -0.16465406 -0.112119794 -0.13536501 0.029736526 -0.17129426 -0.17243233 0.0055994648
-0.48410589 -0.21846272 -0.36823446 -0.16203262 -0.44651476 0.027694358 -0.2529243 -0.0817347
-0.15055819 -0.066439606 -0.32053828 -0.22886568 -0.054378096 -0.13776979 0.31097728 0.20265554
-0.45778668 0.049801204 -0.3004814 -0.06305927 -0.55006534 0.045490425 0.22888662 0.114793785
-0.23645009 -0.3156383 -0.21272878 -0.26027253 -0.09011272 -0.20638928 0.05028094 0.2346183
-0.33388695 0.07485868 -0.6471717 0.09744087 -0.10837328 0.22603305 0.08976031 0.01850631
0.14245278 -0.109700724 -0.111152895 -0.0031607857 -0.17201582 0.08077841 -0.078645386 0.20120263
-0.30522725 0.118993886 -0.4126004 -0.19803815 -0.28457206 0.13767985 0.16019748 0.14996961
0.008880711 -0.23444599 -0.028923107 -0.29746786 -0.33454382 -0.2805341 -0.20920315 0.0803133
-0.11060491 0.09134021 0.10897352 0.049074344 -0.13555777 -0.10943557 -0.03736088 -0.07613429
-0.057205055 -0.1628035 -0.18927541 -0.1926806 -0.0057163513 -0.117274076 -0.014727699 0.14764407
0.08676296 0.20018353 -0.036339127 -0.15967543 0.20445132 -0.031493664 0.06135452 0.004500483
0.05673076 0.070647925 0.07365301 0.013704574 0.20541957 -0.17968746 0.20450164 0.030467104
0.085193835 -0.02731433 -0.08379835 0.04762729 -0.18085271 -0.10728212 -0.25196314 -0.012878924
-0.16657442 -0.1931041 -0.08097555 0.16690853 -0.17668636 -0.068796486 -0.09186652 0.0043672966
0.10138277 -0.17680524 -0.15354885 -0.115604304 0.17924109 0.20545444 0.18547802 -0.0133315325
-0.17363094 -0.10839969 -0.05417874 -0.015311911 0.016356567 -0.0984617 -0.2085159 0.005636733
-0.09016257 -0.05823739 0.0712705 -0.06777294 0.085506566 -0.02416746 0.19940448 -0.096073166
0.07418921 0.06749094 0.05108607 0.01964256 0.043471258 0.013107195 0.12243287 -0.004602699

bias f4 [48]
00000000: b777 dabc 86fc 26be 4c93 b63d 9654 8fbe
00000010: 5c32 18be c994 d6bc 35bc 8abb d5d2 d63c
00000020: e9fb 993d 810a 263e b9fe 723c 4794 5dbd
00000030: 1bc6 c2bb 2420 d7bb f451 86be 3788 563d
00000040: 76e9 04bd f97f 303d 57ed 3dbe 2fee 7ebb
00000050: 7774 03bd a6ac 883d 9044 19bb 333a d13c
00000060: b487 84bd b55c 7dbe 944d 26bd 39c6 a2bc
00000070: b518 01bc 1885 6fbc 4478 0dbe 0c4f 01be
00000080: b62d 1bbe 1140 86be b84e 703d 66a8 e5bc
00000090: 078b 1f3d 6cc1 42be 7790 2dbe 3eca bcba
000000a0: 8312 8d3b 43d9 053e 10be 37be d455 e2bd
000000b0: 4618 d33c 00c1 da3d 835c a2bc 5cac 53be
-0.026668413 -0.16307268 0.089148134 -0.2799422 -0.1486296 -0.026193993 -0.004233862 0.02622358
0.07518751 0.16214944 0.014831238 -0.054096486 -0.005944026 -0.0065651108 -0.262344 0.052376
-0.03244921 0.043090794 -0.18547569 -0.0038899293 -0.03209349 0.06673555 -0.0023386814 0.025540447
-0.06471196 -0.24742396 -0.040601328 -0.01986991 -0.007879426 -0.014619134 -0.13815409 -0.1262781
-0.15154156 -0.26220754 0.058668822 -0.0280344 0.038950946 -0.19019097 -0.1694964 -0.0014403535
0.0043051853 0.1307116 -0.17943597 -0.11051527 0.02576841 0.10681343 -0.019819504 -0.20671219

weight f4 [96, 48, 6]
00000000: 1ee5 5cbd d9ff c9bd 00ff b5bc fe4c 85be
00000010: ee24 043e f23b e5bc 43b6 c3be b9c9 823d
00000020: 3ebd cbbd f750 8e3e 1e65 693c 41ae a63e
00000030: c89e 01be e961 413d efe2 bc3e d49e 0f3d
00000040: af90 e53d 8a6c 98be 2846 d93d b31e 953d
00000050: 5b8d 9abd febb 003c a04e 81bd f076 57bc
00000060: 54b5 4b3d d06b 64bd 9193 c43c 0ad4 723e
00000070: 1fcd 1cbe c1f9 cf3d 69df 6c3d 8468 8abd
00000080: f7ff 67be af29 7fbe 73cd 8dbe d957 7cbe
00000090: 190d dc3d c4a2 02be 4362 6b3d 759c d83d
000000a0: 32c0 24be 53b1 bebe c5dc 8dbe 4e26 28be
000000b0: a4c8 b3be b6a7 dcbd 9945 82bd 01b2 d63d
000000c0: 60e2 54be d755 78be b2af 1f3d bc32 7cbe
000000d0: e30d 37be bfcf d8bd f906 81be d20e c83a
000000e0: e851 7bbd 4381 f7bd 1b9b 0fbd 939d 80be
000000f0: 7b89 263e b889 3ebe f1ee 04be 7371 7dbe
00000100: 79d1 9dbd c970 58be 8dea 67be d094 0c3e
00000110: c2ae 953d 029e 9fbd 4b78 aabe 8c9f 3d3e
00000120: 4688 2fbe 319d 94be bdeb 5abe 2dd5 93bd
00000130: 9aef 7ebe ac52 d93d cf08 9dbd 4cb7 71bd
00000140: ee2e 483e 8e3a 27be bd53 d5bd e01c 33bd
00000150: 63eb 803e 4a16 b83c 83af 12bd 6f0b bd3d
00000160: 94b5 af3d b0cd 153d 45d7 22be 24ce 16be
00000170: 3ace 973c ea54 92bd a122 103e 9216 a5be
00000180: dfc1 d13b 4ea9 49be f205 fdbc d469 ebbd
00000190: 0e75 03be 62b4 b6bd f622 b2bd 3661 72be
000001a0: 7f16 af3d ab75 f9bc dafd 893e 4b1b d4bd
000001b0: 8016 debd b935 f9bd 4315 36bd 6dd7 133d
000001c0: e81f 6b3d d538 7bbc 2cc4 7c3d f954 513e
000001d0: 6892 28be 3921 3dbe e66e a33d c24c a63d
000001e0: 32f8 07bc d4d0 dcbd d671 d23c 9bfa 9b3b
000001f0: 2742 bb3c 82c7 0bbe 8b71 d2be 6451 a5be
00000200: 0225 17bd a502 4dbd de60 55be eb92 363b
00000210: 3a41 27be 0831 d7bd 551f 49be 7e08 93be
00000220: fd51 abbd 629f c3bd e8f8 963c 3673 51be
00000230: dc24 333e 8d40 e13b f277 82bd 2b97 debd
00000240: 1ffe 863e b8ab 47bd 82ea 0bbd 326b cebc
00000250: c90a 523d 7cd1 503b 95bf 61bd 55c1 173e
00000260: 8cf3 813d 8601 eb3d 7736 ebbd 3e3a ecbd
00000270: f8c2 b33e 58d1 99bd a97f 02be 610b 573e
00000280: 1c2b e0bd 200a c53d 95a0 a13b 8ae3 48be
00000290: 5d7b c33d 29b9 69bd e655 563e 4275 da3d
000002a0: d74d 393e 242c 7d3e 4399 043e 3858 b53d
000002b0: 27bb 8f3d 2e4f d43d 4442 c43c 4a94 4bbc
000002c0: 0d68 5f3e 78bb 1c3e a1d8 ccbd 147c 9e3d
000002d0: 3278 84bd ce14 0a3e 3bb1 803c 8ac0 883c
000002e0: 6913 efbd 878d a5bd 4cad da3d d7db 113e
000002f0: 9720 433d 6eeb 3ebc 7989 97bb 01d6 99bc
00000300: 1aa0 913d 5b11 863d bf30 833d dec1 4d3d
00000310: d08d 353c 5d22 18bd 65f8 8ebe b77b 6fbe
00000320: 7998 7fbe 509c c93d 018d 79be 34c4 7a3e
00000330: 363e 7e3d bd0b 2a3e 887c 033e 7fa3 68bc
00000340: 1657 edbd 827c a9bd 33aa 083e ae82 8ebe
00000350: 638d 88be 8b2c 21be d223 86bd f1bc e23d
00000360: 9265 c53d d172 d8bd 700e 9ebe 1082 7bbe
00000370: 8093 cd3b e170 cdbe b820 383e b252 13be
00000380: aaa9 a5bd 2c8c a0bd 56b9 57bd 77e8 913d
00000390: 3046 f93d 6151 d13c 0142 063d e67c bf3d
000003a0: e227 8ebd 4bfd e93d 0e2d 7d3e 2871 38be
000003b0: d55a 1c3e a90a 5e3e d980 0cbe a7ca 2ebe
000003c0: 2502 0a3d d7a7 3c3d 7124 a43c f285 d0bc
000003d0: 835c eabd 45ce 24be 65ad 1abe 6697 62be
000003e0: c61d ebbe dd0d 20be 14e3 493e 94a3 8f3d
000003f0: 7e7b 043e a327 113e 64f9 8c3e 5261 e33c
-0.05392944 -0.09863252 -0.02221632 -0.26035303 0.12904713 -0.027982686 -0.38224992 0.06386132
-0.099482045 0.27796146 0.0142453 0.3255482 -0.12658226 0.047212515 0.36891887 0.03506358
0.11209237 -0.2977031 0.10609084 0.07281246 -0.07546493 0.007857321 -0.06313825 -0.0131509155
0.049733475 -0.05576688 0.023996146 0.23713699 -0.15312622 0.10155059 0.057830248 -0.06758216
-0.22656237 -0.24918245 -0.27695808 -0.24642886 0.10744686 -0.12757403 0.057466757 0.10576717
-0.16088942 -0.37244663 -0.27707496 -0.16420862 -0.35114014 -0.10774176 -0.06360931 0.1048317
-0.2078948 -0.24251495 0.038985915 -0.24628729 -0.17876391 -0.105864994 -0.25200632 0.0015263206
-0.06135741 -0.120852016 -0.03506003 -0.2512022 0.16263382 -0.18607223 -0.12981774 -0.24750309
-0.07705969 -0.21136774 -0.22648068 0.13728642 0.07308723 -0.077938095 -0.332949 0.18517894
-0.17141828 -0.29026178 -0.2137899 -0.072183944 -0.24896088 0.106114715 -0.07667696 -0.059012696
0.19549152 -0.1633093 -0.104163624 -0.04372871 0.25179586 0.022471566 -0.035811912 0.092306964
0.08579555 0.036573112 -0.15902431 -0.14727074 0.018530954 -0.07145102 0.1407571 -0.32243782
0.006401285 -0.19693491 -0.030886624 -0.114947945 -0.12837622 -0.08921124 -0.086980745 -0.23669896
0.08549213 -0.030451616 0.26951486 -0.10356768 -0.10844135 -0.1216845 -0.04445387 0.036094118
0.057403475 -0.015333374 0.06171052 0.20442571 -0.164621 -0.18469705 0.079801366 0.08120109
-0.0082989205 -0.10782018 0.025689047 0.004760099 0.022858692 -0.13650325 -0.4110225 -0.3228866
-0.036900528 -0.05005135 -0.20837733 0.0027858566 -0.16333476 -0.10507399 -0.19640858 -0.28717417
-0.083652474 -0.09551884 0.018429235 -0.20454106 0.1749453 0.00687415 -0.06370534 -0.10868677
0.26365754 -0.048747748 -0.03415919 -0.0251976 0.051279817 0.0031863144 -0.055114347 0.14819844
0.06345281 0.114749 -0.11484998 -0.11534546 0.35109687 -0.07510632 -0.12744011 0.21000434
-0.109457225 0.09621072 0.004932473 -0.1961805 0.09545014 -0.057061348 0.20931205 0.106668964
0.180961 0.2472387 0.1294909 0.08854717 0.07018118 0.10366665 0.02395738 -0.012425492
0.21817036 0.15305889 -0.10002256 0.0773851 -0.06468238 0.13484499 0.01570951 0.016693372
-0.11673624 -0.08083635 0.10677585 0.14244018 0.047638502 -0.0116528105 -0.0046245423 -0.018778803
0.07110615 0.06546279 0.06405782 0.050233714 0.011081174 -0.037142146 -0.27923885 -0.23387037
-0.24960507 0.09844267 -0.24370195 0.24488908 0.062071048 0.1660604 0.12840474 -0.014199137
-0.11588876 -0.08275701 0.13346176 -0.27834076 -0.2667037 -0.15739648 -0.06549801 0.11071194
0.096385136 -0.105687745 -0.3087039 -0.24561334 0.006273687 -0.40125182 0.17981231 -0.14387015
-0.080890015 -0.07839236 -0.052666984 0.07124417 0.1217159 0.0255515 0.03277779 0.09349994
-0.06941201 0.11425265 0.24724218 -0.18011916 0.15269025 0.21683754 -0.13721026 -0.17069493
0.03369345 0.046058502 0.020036908 -0.025454495 -0.114434265 -0.1609431 -0.15105207 -0.22128066
-0.45921153 -0.15630288 0.1971553 0.07013622 0.12937734 0.14175276 0.2753402 0.027756367

bias f4 [96]
00000000: 9f01 96bd a907 f23c 6e8f 4dbd e3e1 50bd
00000010: 358a 9fbc a9de 25be 9687 36be 6a77 cdbd
00000020: b4c2 b43d d2d4 2a3d 978d 52bd a39d 37be
00000030: 4100 b0bd b117 1fbe 997b bcbc 5271 fbbd
00000040: 4b1a 063d e04e 2dbe 6701 83bd 1271 eebd
00000050: 0c87 ed3c d89a aa3d c831 75be 5b40 adbc
00000060: 0ef1 ddbb 2bf4 133c 90dd 76be 6c1f a3bd
00000070: 609e c43d b53f 543e 5ba7 3abe 82b2 bdbc
00000080: 1bc4 1ebe a791 643e 744f 64be 3ec1 673d
00000090: adc0 1dbe 3eee dabc 8537 523c 9ee0 a03a
000000a0: 7769 523d 4d6a c5bd 4d20 6f3e 3bac 68bc
000000b0: 0572 34be 5fdf 393c ea5c a7b9 a8c1 58bd
000000c0: a4f0 b03d 433a 9ebd 463e debb cf9b 203e
000000d0: 48de 84bd 8ec7 283e 4451 cebd 4458 eebd
000000e0: b328 cbbd a085 c53d 6b1a e7bd 04ba 2c3d
000000f0: 9304 04be 4f57 603d 8671 103e 0fc2 03be
00000100: c9db fc3b aaf0 80bd aa5b dabd 1d19 08bd
00000110: b8b9 c83d 6730 a73c cc24 e93d aec8 8e3d
00000120: 7fca b9bc 691f c6bc 519d 48bd 49d4 aabd
00000130: de8e 97bd 272c 32be 2b35 1b3e 9087 42be
00000140: 07da 3bbe c232 dfbc 419d 493d 30a0 3a3d
00000150: 2f6c 1fbe 6382 493c 0a5d 21be aad9 993d
00000160: 836e 44be 05c0 37be e8a9 81bd 7619 3dbe
00000170: cbfc 1ebe c869 1f3d aee4 abbd fe12 6abe
-0.07324528 0.029544668 -0.050185613 -0.050996672 -0.019475082 -0.1619822 -0.1782516 -0.10032542
0.08826199 0.041706868 -0.05140456 -0.17931227 -0.085937984 -0.15536381 -0.023008155 -0.122774735
0.03273992 -0.1692462 -0.06396752 -0.1164266 0.02899506 0.08330315 -0.23944771 -0.021148851
-0.0067731207 0.009030382 -0.24107957 -0.079649776 0.0960052 0.20727427 -0.18227904 -0.023156408
-0.15504496 0.22321187 -0.22295934 0.056580774 -0.15405531 -0.02672493 0.01283062 0.0012273972
0.05137011 -0.09639416 0.23352166 -0.014201219 -0.1762162 0.01134476 -0.00031921949 -0.05291906
0.086396486 -0.07725956 -0.006782326 0.15684436 -0.06487709 0.16482374 -0.10074094 -0.11637929
-0.09919872 0.096446276 -0.11284336 0.042169586 -0.1289237 0.054770764 0.14105806 -0.12866996
0.00771663 -0.06295903 -0.10662015 -0.033227075 0.09801048 0.020408822 0.113839716 0.0697187
-0.022679565 -0.0241849 -0.048978154 -0.083412714 -0.07400297 -0.17399655 0.15157 -0.18997025
-0.1834489 -0.027245883 0.049222235 0.045562923 -0.15568613 0.012299153 -0.15758148 0.07512219
-0.19182782 -0.17944343 -0.06331235 -0.18466744 -0.1552612 0.03891924 -0.083932266 -0.22858807

weight f4 [64, 2688]
00000000: 6f30 cb3d ea91 97bd 5ecb 5ebe 05f9 7fbb
00000010: 0d51 62bd 4a25 ccbd 169e 2cbe 711b 6c3e
00000020: 9171 84bd 8270 6c3d 9f7f 1cbc 204d bc3c
00000030: afc4 20bd f709 a33d b237 de3b c3a2 2bbd
00000040: 4cb5 64be d822 bbbd 997b 2abe 714b 003e
00000050: 363c e9bd 0955 cc3d b577 f13c f5ed fe3c
00000060: 4efa 863d d2e7 6dbd 8a05 58bd a8f2 7ebd
00000070: b17e a23d 8967 6f3d 36c3 bebd 9ee6 f9bd
00000080: 9c0b 7dbd 48fc 37be d045 a4bd 20cb 73be
00000090: cebb 8fbd c4f9 98bd b2ae 1fbe cebc 4cbd
000000a0: fb1a e03d 774e a3bd 73ee 39bd bce1 a3bd
000000b0: 056e f83d fc8c 4c3c 89b6 fcbd b406 80be
000000c0: 4ee5 8ebd eaca 70bd e7a1 30bd 10ea 9e3d
000000d0: dc5c febd fff4 d8bd 5c5b 2dbe 86f6 b83d
000000e0: ef35 5cbe f780 69be 8c25 08bd 837d 47bc
000000f0: 5b45 fe3a 5bbb cbbd eea1 56be 32d5 07be
00000100: 6d81 f13c a710 63be 9afa 59be fc0b 6abe
00000110: 51e3 2ebc a382 11be 678d debd bab4 11bb
00000120: b1cf 97bd eac0 94bd d375 20be 9eb9 2dbe
00000130: 74fd 2fbe 89f6 62be f12c a1be 1fc5 c3bd
00000140: 2d42 f83d 0383 70be 9404 91bc 6648 823c
00000150: ffd1 34be 1de8 5cbe 7e44 ae3d cf51 f7bd
00000160: 13d2 d1bc 6273 65bd 500e 1fbe e8bd 64be
00000170: 9129 2fbd 67b1 75bd 0011 0fbe e842 41be
00000180: 81d5 223d 61e9 ce3c ffaf f33c 1b1d 273c
00000190: 2a6a b3bd b427 ebbc 1c6b bc3d 1059 74be
000001a0: 0694 67be dd87 dcbc a46b 393d 77fa c4bd
000001b0: b3e8 84bd e3e4 e1bd dec6 f23b 8d74 6dbb
000001c0: 7a32 65be 42f6 5bbd 3129 673d 955c 0dbd
000001d0: b215 0d3e f9ab 60bb 7030 99bc b2c0 2bbe
000001e0: ae55 6dbd 21c1 bcbd 11c7 1abe f929 c3bd
000001f0: 63a0 3dbe 13bb 38bb b528 3ebd 2e29 adbd
00000200: 533c 04be 0415 84bd 9235 3cbc 0741 d3bd
00000210: 818e c2bd 0ed1 8bbe 522c aaba 7501 72bd
00000220: ad7b a8bc d7cc 49be 6b27 acbd d90f cdbd
00000230: 5e11 dabb d144 b6bc 98a2 1b3b 067e c5bc
00000240: 4209 243c 4350 ccbb 443b b2b9 2701 54bc
00000250: 6d4c 153b b5a3 23bd ebc3 373c 887a 933c
00000260: 4e11 84bb 16ff 39bc 73ca 793c 4551 6dbc
00000270: b139 34bc ff54 8dbc fb9c 8cba 5930 d0bc
00000280: e5e9 90bc 4394 90bb 7e11 dfbc 22f4 6abc
00000290: 289e 5f3b 4b45 92bc d704 363c f76e 0e3b
000002a0: 4e7a 8abc 787f f8bc 1e95 6dbe e810 7fbe
000002b0: efa3 9cbe 9db7 9ebc 39ba 3abe f05e 133e
000002c0: 1b0a 7cbd 5c2c d53d a1b9 4cbe c12a edbb
000002d0: 03c4 84be 651d 3d3e 4d35 28be 12d3 2fbd
000002e0: 1870 42be 4cb6 b23e c16e 07bd bb08 47bd
000002f0: 4350 49bd 1bae 633e dcb4 c9bd 2d79 c1bd
00000300: f348 883b 2e09 82bd 867b 11bd 853b 18be
00000310: d5de 3dbe 6ebc 31be 46f6 103c 7194 febd
00000320: b82f 1f3d 29c9 e4bd 89d8 bfbd ee7c 4cbe
00000330: 2ecb e5bc 15af 1dbe 97d4 9bbd a89c 05be
00000340: 9766 a33d 9b78 9e3d 3384 bc3d 7953 52bd
00000350: 785e 07be 89a6 dabc 9884 afbd 74f5 7abd
00000360: 1dcd 523d bdb1 24be 8f1d dc3c 253e f9bd
00000370: b029 043e d79a 08be 1069 493e f66d c73c
00000380: 1daf 1f3e 4fe3 f23c 6a55 043e 6540 563d
00000390: 33bd 8e3c de52 c43d ee4e 903c 3a6d 153e
000003a0: 0ff6 923e 1817 7b3d f7dc da3d 99da e93d
000003b0: 45e9 993e 5617 1b3e b45b 493d 7699 a93c
000003c0: 8673 1e3e 9ada 80be 145b e53d 5f2d 313e
000003d0: bb52 ab3e 084a 023e a34e 823e 65bd a03d
000003e0: 5924 103e bae5 13bd c200 17bc 8233 09be
000003f0: 59ed 7f3e e23b 99bd d440 3b3e a0ca 1cbe
0.09921347 -0.07400878 -0.21757266 -0.003905834 -0.055253077 -0.0996805 -0.1685718 0.23057343
-0.064669736 0.057724483 -0.009551912 0.022985995 -0.039250072 0.07960885 0.0067815417 -0.04190327
-0.22334784 -0.09137505 -0.16648711 0.12528779 -0.113884374 0.09977157 0.029476026 0.031119326
0.065907106 -0.05808241 -0.052739657 -0.062243134 0.07934321 0.05844835 -0.09314577 -0.1220219
-0.06177865 -0.17967331 -0.08021128 -0.23807955 -0.07018243 -0.07469514 -0.15593985 -0.049984746
0.10942646 -0.0797395 -0.04539342 -0.0800204 0.121303596 0.012484785 -0.12339503 -0.25005114
-0.0697733 -0.058787264 -0.043123152 0.07759488 -0.12420055 -0.10593604 -0.16929382 0.090313956
-0.21504949 -0.22803102 -0.033238932 -0.01217592 0.0019399332 -0.099478446 -0.20960209 -0.13264921
0.02948066 -0.22174321 -0.21287003 -0.22856134 -0.010674314 -0.1420999 -0.10866814 -0.0022232966
-0.07412661 -0.07263358 -0.15669946 -0.16965339 -0.17186528 -0.22164358 -0.314796 -0.09559082
0.12121997 -0.23487477 -0.017702378 0.015903663 -0.17658232 -0.21572919 0.085091576 -0.120761506
-0.025612867 -0.05601824 -0.15532804 -0.22338068 -0.04276425 -0.059983637 -0.13971329 -0.18873179
0.039754394 0.025257768 0.029747007 0.01019981 -0.087604836 -0.028705455 0.09200117 -0.238621
-0.2261506 -0.026920253 0.04526867 -0.09618085 -0.06489696 -0.11029985 0.0074089607 -0.00362328
-0.22382537 -0.053701647 0.056435768 -0.03451212 0.13777807 -0.0034282191 -0.018699855 -0.16772726
-0.05794304 -0.09216524 -0.15115 -0.0952949 -0.18518214 -0.0028187677 -0.04642554 -0.0845512
-0.12913637 -0.06449321 -0.0114873815 -0.10315137 -0.09499837 -0.27307934 -0.0012983179 -0.05908342
-0.020566786 -0.19707046 -0.08405956 -0.10012788 -0.0066549024 -0.022249611 0.0023748036 -0.024107944
0.010011973 -0.006235154 -0.00033994962 -0.012939728 0.002278115 -0.039951045 0.011216144 0.018002763
-0.004030383 -0.011352321 0.015246022 -0.014484708 -0.011000083 -0.017252443 -0.0010727936 -0.025413679
-0.017689655 -0.0044122054 -0.02723002 -0.014340432 0.0034121368 -0.017855307 0.011109552 0.002173362
-0.016904023 -0.03033422 -0.23201415 -0.24908793 -0.3059382 -0.019374663 -0.18235101 0.14391685
-0.061533075 0.104088515 -0.19992687 -0.0072377627 -0.25930795 0.18468244 -0.16426583 -0.0429259
-0.18988073 0.34904706 -0.033064608 -0.04859231 -0.04914881 0.22234385 -0.09848949 -0.094469406
0.004159087 -0.06349407 -0.03551819 -0.14866455 -0.18542035 -0.17357036 0.008847779 -0.12430657
0.038863868 -0.11171181 -0.09367473 -0.19969532 -0.028050985 -0.1539882 -0.07608908 -0.13048041
0.07978552 0.077378474 0.092049025 -0.051349137 -0.1321963 -0.026690738 -0.08570212 -0.06126924
0.051465143 -0.16083427 0.026869563 -0.12170056 0.12906528 -0.13340317 0.19668984 0.024344426
0.15594144 0.029649405 0.12923208 0.052307505 0.017424202 0.09586118 0.017615762 0.14592448
0.28703353 0.06130132 0.10686677 0.11418647 0.30060783 0.1514562 0.04915972 0.020703059
0.15473756 -0.2516678 0.111990124 0.17302464 0.33461556 0.12723553 0.2545062 0.07848624
0.14076366 -0.036107756 -0.009216489 -0.13398555 0.24992885 -0.07482125 0.18286449 -0.1531167

bias f4 [64]
00000000: 536e 523e f57c 0b3c fee5 90bc 2e38 47bd
00000010: 5ce2 d5bd 1f25 b53c 1c02 4b3d 3445 66bd
00000020: e6f5 793e d05d 723c 9da5 bd3e 4176 43be
00000030: b790 523e 04e6 ed3c 78f3 23be be19 adbd
00000040: 9e5e 5abe 7987 eabc c83e 7bbe 2b6b 30bd
00000050: 3574 9ebd d76c 113d 63e2 36be d996 e73d
00000060: 4bef ecbd 5e7f 163d a94e dc3c 84d2 6ebe
00000070: 3f77 0a3e 92ad 77be 5c3f fcbe 7ff4 59be
00000080: a8bb 6fbd ad2f ee3d ac91 973e f0b4 bf3d
00000090: acc8 77bc 3147 7bbe ead2 093e 5854 5e3e
000000a0: 6cbf 4abe 1521 793e 24cc 03be c5b1 04be
000000b0: fce2 9a3d 5244 043e 3df5 483c 7fda adbd
000000c0: 45a4 cf3d cc79 103e 1e8c 723e 42e0 1e3d
000000d0: cd21 8e3e 4041 423e f3e5 8fbe 4017 37bd
000000e0: 88c0 e2bd c836 01be 4344 26bd 2c56 e13c
000000f0: bceb 7f3e 1aae 0bbe d225 4c3e 8a37 ab3d
0.20549898 0.008513679 -0.017687794 -0.04863756 -0.10443565 0.022112427 0.04956256 -0.05621834
0.24410209 0.014792874 0.37040415 -0.19088079 0.20563017 0.029040344 -0.16010845 -0.084521756
-0.21325156 -0.028629052 -0.24535668 -0.043070953 -0.077370085 0.03550419 -0.17859797 0.11308069
-0.11569079 0.03674256 0.026892977 -0.23322493 0.13522051 -0.24187306 -0.4926709 -0.21284674
-0.058528572 0.11630187 0.29603326 0.09360683 -0.0151235275 -0.24538876 0.13459364 0.21711862
-0.19799584 0.24329026 -0.12870842 -0.12958439 0.07562825 0.12916687 0.012265501 -0.084889404
0.10138754 0.14108962 0.23686263 0.038788088 0.27760163 0.18970203 -0.28105125 -0.044699907
-0.11071879 -0.12618554 -0.040592443 0.02750691 0.2499227 -0.13640633 0.19936302 0.083602026

weight f4 [25, 64]
00000000: 3109 753e 7bc6 963b 1959 f1bd afc3 12be
00000010: 8c58 3e3e bc0c f6bd f71c 153e 384b 11bd
00000020: 6ad9 bfbd 3dbb 1a3e a6bc 5f3a cc7e 873c
00000030: ac89 00be d68f 803d 026e 9bbd 8960 2a3b
00000040: c285 db3d bfed 233e 6fd4 03be fa94 183e
00000050: e282 c73d 1d6f 7bbd e747 4bbd 61ad 073e
00000060: b2ed 57bd 6fa4 89bc ef67 223d 84ed 9e3c
00000070: ccfe 563e 4893 76bc 69bb 343c 9977 17bd
00000080: c2b5 a13c d1f2 24be ff93 2d3d 5700 a13d
00000090: 0633 33be 43f9 6ebd e58e a83b 7595 b63d
000000a0: 945b 16be 6f1b 6fba 6767 1ebd af17 24bd
000000b0: 369c 82bd 5b80 c5bb 1424 37be f87a 9b3d
000000c0: ab71 c83d 35dd 223e 955a 2ebe 338b 99bc
000000d0: ad7c 4a3d a00b acbd 2af0 b4bd 2015 ef3d
000000e0: 8a3f c1bd 52d8 e5bd 5a76 61be 4ada a33c
000000f0: 1cf5 2dbe a3a6 59bd 343f 0abe 4587 d63d
00000100: fb40 e9bd 5fe4 99be d546 803e 86c3 383e
00000110: 13a8 b9bd 0391 3e3e 9c12 adbd 6605 25be
00000120: 23ee 64be 83fb 65be 7099 7abe 26cc e23d
00000130: c435 433e 0a21 f83d 3c3c 1b3d ddbd 993c
00000140: 6a26 763e d7d1 bc3c 98fa 5b3e 5c95 66be
00000150: 764d 42be 14a1 dfbd dbed 063e d99a cb3c
00000160: c5fe 323e ea3c 32be 43f2 b63d 6f87 2b3e
00000170: b6f4 a93d 2a9f 5f3d a6f1 1f3e 2a5c 65be
00000180: 46b3 37be 74f4 3dbe 3d34 1fbe 8203 91be
00000190: 32d5 d33e af57 1dbe 8377 0b3e 81c5 5ebe
000001a0: 7a9c 7c3e e377 5f3e fc3f 823e 5e6b 2d3e
000001b0: 9244 af3e 21cf 093e d67f 61bd e9ca 4ebe
000001c0: 60a7 16be 77fa 0b3e 3c42 583e 83e4 423e
000001d0: 5148 3cbe 669b 233e 472f 72bd 1135 21be
000001e0: 4b5f 9c3e 3647 dcbd 9f5f 2b3e 05d2 7c3e
000001f0: 347e 6f3d e56d 1cbe d2bd 793e d64b 00be
00000200: 1ad4 ff3d 0f80 43bd ebed 57be 8f66 46be
00000210: fd76 1e3e 43d0 4abe 5a95 873d 48e9 7cbe
00000220: 7edf 96bd 7303 d73d 0925 d9bd cb28 143e
00000230: f536 bc3d a9c0 3e3e 15c9 5dbe 59ec 393d
00000240: 9278 0a3e bdaf 06bd d76b 59be 7166 633e
00000250: b88c 4d3e fb22 ddbd 97f3 663d ebb8 9bbd
00000260: c195 0fbe d12e 19be 905b 89be 4928 66be
00000270: f01c 58be 9514 acbc de19 6bbe 2a05 7c3b
00000280: 7025 26bd 486f bbbd 56b9 383d f9c3 833e
00000290: 8484 12be 70a8 0d3e 703a 59be 1404 3abd
000002a0: 84c3 be3d 6e07 a0bc 20f8 b9bd 2a91 393e
000002b0: 58dc 4ebe f3a5 f4bd e0d0 00be 6656 8a3d
000002c0: 122e 3fbd 09bc 6cbd accc 37be 1a7a 25be
000002d0: 1fd0 8dbd fb9d 2b3e 6d64 eabd 665b a73e
000002e0: b014 793c d55e dd3d 8221 f1bd 16ea 183e
000002f0: 31d9 a53d 9114 3f3d ed17 ba3d fbe7 76bc
00000300: c3eb acbe 0cc5 85be 940e 873c dc50 3dbe
00000310: 2c50 49be b761 503d e329 a5be 7c9e 60be
00000320: 8380 c53d 5888 853e 63d5 94be 2aef 123e
00000330: e1ee 77bd 34f5 d03d 9abb 043d ef0d 143d
00000340: 768f a03e 976d a93e 87ae ae3e a696 913c
00000350: a759 103e 1ba3 81be b82c afbc d45b 94bb
00000360: 9469 803e c397 74be 2c8a 5dbe 655b 0c3e
00000370: 3e11 173e f0e4 ff3d 0429 d73d 1765 783d
00000380: bb93 64be d464 a1bd 0910 05be 9121 583e
00000390: af8e 503d 4dcc 4bbe e72c 473e 624a 33be
000003a0: 25cf cdbd e315 a43b cf0d 123e 64b8 943e
000003b0: ea3b 233c 4c9c d53c 8e8b 6e3d a05a 06be
000003c0: dfc8 90be dc9f 4a3e b957 15be ffb2 5a3e
000003d0: e7b6 a7be 2713 48bd e261 03be 68e2 c2bc
000003e0: 3bcc 8d3d 4496 96bd 6fb5 d3bd 2423 3e3d
000003f0: 4f28 65be d663 a1be 157c 9c3d 3e09 e53c
0.23929287 0.0046012974 -0.11784572 -0.1433246 0.18588465 -0.12014148 0.1456183 -0.035472125
-0.0936764 0.15110488 0.0008534886 0.016539954 -0.12552518 0.062774345 -0.07589342 0.002599748
0.10718872 0.16008662 -0.12874006 0.1490058 0.09741761 -0.061385263 -0.04962912 0.13249733
-0.05271692 -0.01680204 0.0396499 0.019400366 0.20995635 -0.015049763 0.01103101 -0.03697929
0.01973999 -0.16108252 0.04237747 0.07861393 -0.17499933 -0.058343183 0.0051439875 0.089152254
-0.14683372 -0.00091212144 -0.03867283 -0.04006165 -0.06377451 -0.006027264 -0.17884856 0.07591814
0.097873054 0.15904696 -0.17026742 -0.018743133 0.049435306 -0.08400655 -0.0883487 0.11673951
-0.09435947 -0.112229005 -0.22017804 0.02000155 -0.16988033 -0.053137433 -0.13500673 0.10475019
-0.11389347 -0.30057046 0.2505404 0.18043336 -0.09065261 0.18610005 -0.08450815 -0.1611534
-0.22356467 -0.22459225 -0.24472594 0.110740945 0.19063479 0.12115677 0.03789924 0.018767292
0.24038091 0.023049278 0.21482313 -0.22517914 -0.18974862 -0.10919395 0.13176672 0.02485411
0.1748 -0.1740605 0.089329265 0.16750883 0.08298628 0.05459515 0.15619525 -0.22398439
-0.17939481 -0.18550283 -0.15547271 -0.2832299 0.41373593 -0.1536548 0.13619809 -0.2175503
0.24669066 0.21823077 0.2543944 0.16935489 0.34232002 0.1345792 -0.055053554 -0.20194592
-0.14712286 0.13669764 0.21119016 0.19032483 -0.18386962 0.15977249 -0.05912712 -0.157429
0.30541453 -0.1075577 0.16735695 0.24689491 0.058469966 -0.15276296 0.24388817 -0.12528929
0.12491627 -0.047729548 -0.21086852 -0.1937506 0.15475078 -0.19806008 0.066202834 -0.24698365
-0.073668465 0.10498705 -0.10602767 0.14468686 0.0919017 0.18628182 -0.21658738 0.045391414
0.13522556 -0.03288244 -0.21232544 0.22207047 0.20073211 -0.107976876 0.05638465 -0.0760363
-0.1402197 -0.14959265 -0.2682767 -0.22476305 -0.21104789 -0.021005908 -0.22959086 0.0038455226
-0.040563047 -0.091520846 0.045098625 0.25735453 -0.14308363 0.13833785 -0.21213698 -0.045414045
0.093146354 -0.019534793 -0.09080529 0.18121782 -0.20201242 -0.11945715 -0.1257968 0.067547604
-0.046674795 -0.05779651 -0.1794917 -0.1615986 -0.069244616 0.16759484 -0.11444936 0.3268692
0.015202686 0.108091034 -0.11773969 0.14933047 0.080980666 0.046650473 0.09086595 -0.015069957
-0.33773622 -0.26126897 0.016486444 -0.18487877 -0.1965949 0.050874438 -0.3225852 -0.21935457
0.09643652 0.26080585 -0.2906905 0.14349046 -0.060530547 0.10203019 0.032405473 0.0361461
0.31359452 0.33091423 0.3411753 0.01777203 0.140967 -0.25319752 -0.021383628 -0.0045275483
0.2508055 -0.23886018 -0.2163474 0.13706739 0.14752671 0.12494838 0.1050587 0.06064328
-0.2232198 -0.078805596 -0.12994398 0.21106555 0.050917324 -0.19902153 0.19450723 -0.17508844
-0.10049275 0.005007492 0.1426308 0.2904693 0.009963015 0.026075505 0.05823856 -0.13120508
-0.28278252 0.19787544 -0.14584245 0.21357344 -0.3275673 -0.04884639 -0.12830308 -0.0237896
0.069237195 -0.0735288 -0.1033734 0.04642023 -0.22378658 -0.3152148 0.07640854 0.027958509

bias f4 [25]
00000000: 01cb 32be 0c98 333e 0e5e eb3d 7e41 00bc
00000010: df26 cfbe 911c f23d 8f1a f03e bfdb 15be
00000020: 8f86 613e 3b0b 64bd beb8 503d 3c30 813e
00000030: b054 5b3c e761 043e d2db 12bd 6905 c1bd
00000040: 639b 07be f28f 3a3e da2d 6f3d 0260 e5be
00000050: 8048 d23e 915d 1f3c 4b91 b73d 200f 803e
00000060: fe63 afbf
-0.17460252 0.1753847 0.11492549 -0.007828115 -0.40459344 0.11821855 0.46895263 -0.14634608
0.22023986 -0.055674773 0.050957434 0.25232112 0.01338689 0.12927972 -0.03585417 -0.0942486
-0.13242869 0.18218973 0.058393337 -0.4479981 0.41070938 0.009726898 0.08963259 0.2501154
-1.370239
