result/config2_main/preliminary_model4.pt (torch_old, 874676 bytes, 10 tensors)

weight f4 [12, 2, 192]
0	0x3e4ac9d6	0.19803557
1	0x3d37b8ab	0.044853847
2	0x3db60ba4	0.08888939
3	0x3d4c8695	0.049933035
4	0xbe250aa0	-0.16117334
5	0xbcb94770	-0.022617072
6	0x3e36a28e	0.17835447
7	0x3e4bebee	0.19914219
8	0x3c482d5b	0.012217845
9	0x3d3ef8b3	0.046623897
10	0x3db2c1eb	0.08728393
11	0xbd34c8b8	-0.044136733
12	0xbcd4c6fc	-0.02597379
13	0xbd24f797	-0.040275183
14	0x3d9d8d70	0.07692993
15	0xbd0c6f6a	-0.03428594
16	0xbd04b037	-0.032394614
17	0x3c1d37d1	0.009595827
18	0xbd2c7276	-0.042101346
19	0x3cdec037	0.027191265
20	0x3cebb4a3	0.028772658
21	0x3d2c1170	0.042008817
22	0xbd80c3cb	-0.062873445
23	0x3d357557	0.044301357
24	0x3cf997ca	0.030467886
25	0xbdfe05b1	-0.12403429
26	0x3dbeb313	0.093114994
27	0xbd95ae91	-0.073086865
28	0x3d6b134c	0.05739145
29	0xbd9e855b	-0.07740279
30	0xbd364ad4	-0.044504955
31	0xbdbc210c	-0.09185991
32	0x3ca30c3f	0.0199033
33	0x3e02e44f	0.12782405
34	0x3d136ef4	0.035994485
35	0x3dd96ee6	0.10616855
36	0xbde5e987	-0.112261824
37	0xbd2ac56e	-0.04169219
38	0xbde836f4	-0.113386065
39	0xbc960dc2	-0.018317107
40	0x3cd0df6b	0.025497159
41	0xbd469080	-0.04847765
42	0xbdbee402	-0.09320833
43	0x3d1c55e2	0.03816784
44	0x3d0daae9	0.03458682
45	0x3e28ca48	0.16483414
46	0xbdd2d3e3	-0.102943204
47	0xbda217df	-0.07914709
48	0xbc4fa835	-0.012674381
49	0xbd71861d	-0.05896579
50	0x3af61744	0.0018775244
51	0x3dc469c8	0.09590489
52	0xbd8356f0	-0.064130664
53	0xbdf22f12	-0.11825384
54	0xbe1cb1b2	-0.1530216
55	0xbccdb3f1	-0.025110217
56	0xbcbaa029	-0.022781448
57	0xbca472e2	-0.020074312
58	0x3c3cb231	0.0115170935
59	0xbd9279fa	-0.071521714
60	0xbbe5bf1a	-0.0070113065
61	0xbd1554c0	-0.036457777
62	0x3dfe0fa9	0.12405331
63	0x3d8130a2	0.06308104
64	0xbdb0b9c0	-0.08629179
65	0xbe30dc80	-0.17271614
66	0x3c0100ec	0.007873755
67	0xbd12117b	-0.035661202
68	0xbda50fed	-0.08059678
69	0x3e0e291e	0.13882872
70	0xbdd99d74	-0.10625735
71	0x3ad38a06	0.0016139157
72	0x3e1b3bbe	0.15159509
73	0xbcf06f11	-0.029349836
74	0x3cc76972	0.024342272
75	0xbd81a3bd	-0.06330059
76	0xbd78cd33	-0.06074257
77	0x3e056721	0.13027622
78	0x3db774d6	0.089578316
79	0x3d46ce89	0.04853681
80	0xbc25c16b	-0.010116915
81	0xbc219313	-0.009861725
82	0x3d58f0e1	0.052964095
83	0x3e0110ad	0.12604018
84	0x3ca208f5	0.019779662
85	0xbd333b60	-0.043757796
86	0xbcb2a5c8	-0.021807566
87	0x3d68c5e0	0.056829333
88	0x3e10ce2e	0.14141151
89	0x3e61868a	0.22023979
90	0x3d5ea34f	0.054354962
91	0x3d29e26e	0.041475706
92	0x3dc8b673	0.098004244
93	0x3e215810	0.1575625
94	0x3ddaa7c1	0.10676528
95	0xbc89a1b6	-0.016800743
96	0x3d59e784	0.053199306
97	0x3c906c66	0.017629813
98	0xbd42227b	-0.047396164
99	0x3d84e745	0.06489424
100	0x3ddfff3e	0.109373555
101	0xbd40565d	-0.046957362
102	0xbe09ffe8	-0.13476527
103	0x3dcecefd	0.10098074
104	0x3d1a13ab	0.037616413
105	0x3e0e6de9	0.13909115
106	0x3dc88e62	0.09792782
107	0xbd59a27f	-0.053133484
108	0xbc8d9d2d	-0.017286861
109	0xbdb52d09	-0.088464804
110	0x3e1e22b9	0.15442933
111	0xbc57ca3c	-0.013170775
112	0x3cee6741	0.02910197
113	0x3c98f3c4	0.018670924
114	0x3cb4a17c	0.022049658
115	0xbe0a615d	-0.13513704
116	0xbca38663	-0.019961542
117	0xbd57a349	-0.052645955
118	0xbd3fa6a3	-0.046789777
119	0x3de92fea	0.11386092
120	0x3d119034	0.035537913
121	0xbdfce1bf	-0.12347745
122	0xbe5687ba	-0.20950213
123	0xbd560d23	-0.052258622
124	0x3d608d41	0.05482221
125	0xbdb6e09b	-0.08929559
126	0xbd6b16fa	-0.05739496
127	0xbdd9b3cc	-0.10629997
128	0xbdece211	-0.11566556
129	0x3c28bc95	0.010298868
130	0x3dc80e67	0.09768372
131	0x3dde7fc1	0.10864211
132	0xbe8ce9a6	-0.2752201
133	0xbe711c90	-0.23546052
134	0xbc86505d	-0.016395742
135	0x3e667e1c	0.22509044
136	0xbb722373	-0.00369474
137	0x3dc1cc10	0.0946275
138	0x3dd75d98	0.105158985
139	0xbd3944fd	-0.045231808
140	0xbd9910a5	-0.07473878
141	0x3d8af045	0.06784109
142	0x3d8994f1	0.067178614
143	0xbcb2efbf	-0.021842835
144	0x3cfd51df	0.030922828
145	0xbdadc3b7	-0.08484595
146	0x3cc83418	0.024438903
147	0xbcc774c5	-0.024347672
148	0x3d879257	0.06619709
149	0xbcb15f25	-0.021651814
150	0xbd22166c	-0.039572164
151	0x3bee4406	0.0072712926
152	0x3cb84c61	0.022497358
153	0x3e53a7ff	0.20669554
154	0x3d8e7cc0	0.06957388
155	0x3e620c15	0.22074921
156	0x3caa68dc	0.020801954
157	0xbe1b7edd	-0.15185113
158	0xbe7b6511	-0.24550273
159	0xbe3660df	-0.17810391
160	0xbc944a12	-0.018101726
161	0x3c345d13	0.011008519
162	0xbbf5fa05	-0.0075066113
163	0x3df92cb4	0.121667296
164	0x3ddcf314	0.10788551
165	0x3d88b5df	0.06675314
166	0x3d2ee596	0.04269942
167	0x3e33f732	0.17574766
168	0xbdac3abe	-0.08409642
169	0xbd3d9050	-0.046280205
170	0x3dc64061	0.09680248
171	0xbcafabd2	-0.021444235
172	0x3e3fbc2d	0.18724127
173	0x3e434a51	0.19071318
174	0x3e17a06d	0.14807291
175	0xbdcca0d8	-0.09991616
176	0xbd685285	-0.05671932
177	0x3de0a98c	0.109698385
178	0x3e54865c	0.20754379
179	0x3e887d11	0.26657918
180	0x3e26b5b8	0.16280258
181	0xbda3e472	-0.08002557
182	0xbdc99757	-0.09843319
183	0x3d63017f	0.05542135
184	0x3d554e9d	0.052076925
185	0x3d888cb8	0.06667465
186	0xbba0daf1	-0.0049089123
187	0xbdbfdbff	-0.09368133
188	0x3d3a8fb2	0.045547195
189	0x3da0ddea	0.07854827
190	0x3e69fd37	0.228505
191	0x3dd42fa7	0.103606515
192	0x3e7b9051	0.24566771
193	0xbe0de396	-0.13856348
194	0x3d5ae4ba	0.053440787
195	0x3d485021	0.048904542
196	0xbe3eed8c	-0.18645304
197	0xbcb2dbc7	-0.021833314
198	0x3df8c637	0.121471815
199	0x3e1ed445	0.15510662
200	0xbe1ef2d0	-0.15522313
201	0xbd824677	-0.06361096
202	0x3dd66ceb	0.10469993
203	0x3ca709a2	0.020390335
204	0x3c7c6e2e	0.015407128
205	0xbd94d0e6	-0.07266407
206	0xbdbdf8e9	-0.092759915
207	0xbd844788	-0.06458956
208	0xbb0b89e8	-0.0021291915
209	0x3e4f0870	0.20218062
210	0xbddfad0b	-0.10921677
211	0xbcec4030	-0.0288392
212	0xbd828511	-0.06373037
213	0x3cefc2f5	0.029267767
214	0x3d81dedb	0.063413344
215	0x3e47aa52	0.19498566
216	0x3e20fa9e	0.15720603
217	0xbd7005e5	-0.05859937
218	0x3db788ae	0.089616165
219	0x3d6418f3	0.055687856
220	0x3e323b0a	0.17405334
221	0xbcfa9a7f	-0.030591248
222	0xbe3ec529	-0.18629898
223	0xbe8b721d	-0.272355
224	0xbd88fd9e	-0.06688999
225	0xbc98a0f8	-0.018631443
226	0x3d81ecd2	0.06343998
227	0x3cee3389	0.029077308
228	0xbe25c589	-0.16188635
229	0xbe243919	-0.16037406
230	0xbd9b7f78	-0.07592672
231	0xbdda0d40	-0.106470585
232	0xbd8fdaa7	-0.070241265
233	0xbe921c61	-0.28537276
234	0xbdc04512	-0.09388174
235	0xbe5da823	-0.2164617
236	0xbe1e7856	-0.15475592
237	0x3d9b92ca	0.07596357
238	0xbd8adb73	-0.06780138
239	0xbdc8267d	-0.09772966
240	0xbe163603	-0.14669041
241	0x3b98b480	0.004660189
242	0x3db8670d	0.090040304
243	0x3d96cf96	0.073638126
244	0x3bb77fdb	0.0055999584
245	0x3d5f988f	0.05458885
246	0x3b479927	0.0030456276
247	0xbc428ff1	-0.011875139
248	0xbde30704	-0.110853225
249	0x3cb10838	0.021610364
250	0xbc8b6fc4	-0.017021067
251	0xbd85ea87	-0.06538873
252	0xbdfe570a	-0.12418945
253	0xbd3535cc	-0.044240758
254	0x3cba486e	0.022739615
255	0x3e448878	0.19192684

bias f4 [12]
0	0xbe0a2be3	-0.13493304
1	0xbe5256b1	-0.20540883
2	0xbe2b7df4	-0.16747266
3	0xbe13b93c	-0.1442613
4	0xbe1fc2e9	-0.15601696
5	0xbe4c4e2e	-0.19951698
6	0xbe40d70d	-0.18832035
7	0xbe200d35	-0.15630038
8	0xbe20c27c	-0.1569919
9	0xbd23b2f4	-0.039965585
10	0xbe6b5f43	-0.22985558
11	0xbe056eaa	-0.13030496

weight f4 [48, 12, 16]
0	0xbe01b990	-0.12668443
1	0xbe56603b	-0.20935147
2	0xbbf62b42	-0.007512481
3	0xbe505f66	-0.20348892
4	0xbecb8778	-0.39751792
5	0xbe50b850	-0.2038281
6	0x3dd97e3b	0.1061978
7	0xbd91b9de	-0.071155295
8	0x3ca87149	0.020561831
9	0xbea76da0	-0.32700825
10	0x3da10bc5	0.07863573
11	0xbe2bae75	-0.16765769
12	0xbd5f2d03	-0.054486286
13	0xbe2cbc7b	-0.16868775
14	0x3dea53e5	0.11441783
15	0x3e5ac364	0.21363598
16	0xbcc8ed4a	-0.02452721
17	0xbe3d2093	-0.18469457
18	0xbda02e40	-0.078213215
19	0xbdb5fb39	-0.088858075
20	0xbd327a3b	-0.0435736
21	0xbc62ceb8	-0.013843231
22	0x3ce450fb	0.027870646
23	0xbea1748b	-0.31534228
24	0xbe240484	-0.16017348
25	0xbe49c5fe	-0.19704434
26	0xbe4a0cbd	-0.19731422
27	0xbe4ecea5	-0.20196016
28	0xbdffa637	-0.12482875
29	0xbe37d63b	-0.17952816
30	0x3d84b28e	0.06479369
31	0x3d189bd9	0.037258003
32	0xbe4ae8cd	-0.19815369
33	0xbbf58949	-0.0074931723
34	0xbe6119b2	-0.21982458
35	0x3db9bc59	0.090691276
36	0xbe22052c	-0.15822285
37	0xbd95b82d	-0.07310519
38	0x3c933b80	0.017972708
39	0xbd7bf4d7	-0.061512794
40	0xbcf3dd62	-0.02976865
41	0xbde36bd0	-0.11104548
42	0xbe709cda	-0.23497334
43	0xbe521cde	-0.20518824
44	0x3cfe5c14	0.031049766
45	0xbdae3215	-0.08505646
46	0x3d8b0edf	0.06789946
47	0x3bdaf3dd	0.006681903
48	0x3ba244ef	0.004952065
49	0xbdf1db5a	-0.11809416
50	0xbd6aadcc	-0.057294652
51	0xbe1332bb	-0.14374821
52	0xbe3d11b5	-0.18463786
53	0xbdacb6f1	-0.08433331
54	0xbe2cc79c	-0.1687302
55	0x3d0d009b	0.034424406
56	0xbc6a98c5	-0.01431865
57	0x3c9043c1	0.017610433
58	0xbe405a99	-0.1878456
59	0xbd4bba9f	-0.049738523
60	0xbe751f3c	-0.23937696
61	0x3d82fc45	0.06395773
62	0x3dfd24cd	0.12360535
63	0xbc2c3252	-0.010510044
64	0xbd979c18	-0.074028194
65	0x3d9a4194	0.07532039
66	0xbe472a96	-0.19449839
67	0xbe598b83	-0.21244626
68	0xbe02e751	-0.12783553
69	0x3e1ef71a	0.1552395
70	0xbd4d837b	-0.050174218
71	0xbc16b6dc	-0.0091988705
72	0xbe238e56	-0.15972266
73	0xbd9c6df5	-0.0763816
74	0xbe219ab9	-0.15781678
75	0xbe11b2c1	-0.14228345
76	0x3d2b59ea	0.041833796
77	0xbd5a25b5	-0.053258616
78	0x3e9efcce	0.3105225
79	0xbc9f5de0	-0.019453943
80	0xbdfa70b4	-0.12228528
81	0xbdcdfc0e	-0.10057841
82	0xbdd6951d	-0.1047766
83	0xbde9f0dd	-0.11422894
84	0xbe45498d	-0.19266339
85	0x3e319c0e	0.17344686
86	0x3e85358f	0.26017424
87	0xbdb3a855	-0.08772341
88	0x3c984e22	0.018591944
89	0xbdabc5a2	-0.08387305
90	0xbcca49b6	-0.024693351
91	0xbe326d8f	-0.17424606
92	0xbe628ec7	-0.22124778
93	0xbda61f7c	-0.08111474
94	0xbcb5cd2b	-0.022192558
95	0x3e1fd510	0.1560862
96	0x3d1241a2	0.035707124
97	0xbd970908	-0.073747694
98	0x3bf6ef55	0.007535855
99	0xbe581ac3	-0.21103959
100	0xbdc15cf1	-0.09441555
101	0xbd94f8e9	-0.07274038
102	0x3d7ea0d8	0.06216511
103	0x3db688b5	0.089127935
104	0x3d352955	0.04422887
105	0xbda18831	-0.078873046
106	0xbe085638	-0.1331414
107	0xbd750cd2	-0.05982668
108	0xbda2d72a	-0.079511955
109	0xbe5af71b	-0.21383326
110	0x3bb6e133	0.005581045
111	0xbd7c7d35	-0.061642844
112	0xbe71a594	-0.2359832
113	0xbe32b9df	-0.17453717
114	0xbeaf30f0	-0.34217024
115	0xbe3ccb3a	-0.184369
116	0xbe84c71d	-0.2593316
117	0x3c8b86fc	0.017032139
118	0xbe6f0d3e	-0.23344895
119	0xbcbfa8fe	-0.023396011
120	0xbde610a2	-0.11233641
121	0xbd3c70da	-0.04600606
122	0xbe4cdcf4	-0.20006162
123	0xbe05bb6c	-0.13059777
124	0xbb301327	-0.0026866884
125	0xbd5cbe5b	-0.053892475
126	0x3e7266d1	0.23672034
127	0x3e811cdc	0.2521733
128	0xbe6810e7	-0.22662698
129	0x3dc79bc2	0.09746505
130	0xbe4584e5	-0.19288976
131	0xbe1ad981	-0.15122034
132	0xbeb9c35f	-0.3628187
133	0xbd269ef1	-0.040678922
134	0x3da17470	0.07883537
135	0x3d394ad0	0.045237362
136	0xbded6788	-0.11592013
137	0xbe91d27e	-0.28480905
138	0xbe0a3dcd	-0.13500138
139	0xbe74da70	-0.23911452
140	0xbdec896e	-0.1154965
141	0xbe83c554	-0.25736487
142	0x3d819aad	0.0632833
143	0x3e059a0d	0.13047047
144	0xbe0c96f2	-0.13729456
145	0x3bd6543d	0.0065408037
146	0xbe9d84f5	-0.307655
147	0x3db03430	0.08603704
148	0xbe218d56	-0.15776572
149	0x3d09fbde	0.033687465
150	0xbe4492a9	-0.19196571
151	0x3db40c75	0.087914385
152	0xbab65837	-0.0013911788
153	0xbd4c0a8b	-0.049814742
154	0xbddb46c0	-0.10706854
155	0xbe0b9b98	-0.13633573
156	0xbe3bf2db	-0.18354361
157	0x3d3c96b8	0.046042174
158	0x3aeb947e	0.0017973331
159	0x3dd59caf	0.10430276
160	0xbe6d60a2	-0.23181394
161	0x3d294516	0.04132565
162	0xbddf4e32	-0.109035864
163	0xbe1fe85b	-0.1561598
164	0xbe1ca700	-0.1529808
165	0x3e2cc7c2	0.16873077
166	0x3def3977	0.116808824
167	0xbd57d763	-0.052695643
168	0x3e0f2d03	0.13982014
169	0x3c2ac941	0.010423959
170	0xbe273856	-0.16330084
171	0xbe2f04e5	-0.17091711
172	0xbe46975b	-0.19393675
173	0xbe47df00	-0.19518661
174	0x3ce8b71e	0.02840763
175	0x3db9a2c4	0.09064248
176	0xbbc034f1	-0.005865686
177	0x3ca09386	0.019601595
178	0x3d891199	0.066928096
179	0x3cf90de4	0.030402131
180	0xbd61e296	-0.05514773
181	0xbd3e9045	-0.046524305
182	0xbe072629	-0.1319815
183	0x3c310e34	0.010806609
184	0xbe0318cc	-0.12802428
185	0xbd9d9d50	-0.076960206
186	0xbe9668a0	-0.29376698
187	0xbdf35628	-0.118816674
188	0xbe2e22b3	-0.17005424
189	0xbd1b5f14	-0.03793247
190	0x3dd6614c	0.10467777
191	0x3df23c2c	0.11827883
192	0x3b18707f	0.0023260412
193	0x3e15eddf	0.14641522
194	0xbbf61e5c	-0.0075109433
195	0xbda82b14	-0.082113415
196	0x3e57f74d	0.21090432
197	0x3cd2d1ae	0.025734749
198	0x3dee4cbc	0.1163573
199	0xbcdbecb8	-0.026846275
200	0x3cbe964e	0.02326503
201	0x3cb501ce	0.022095587
202	0x3d2afef5	0.041747052
203	0xbd412643	-0.04715563
204	0x3d3b5b89	0.04574159
205	0xbe168a02	-0.14701083
206	0x3e5cde69	0.21569218
207	0x3cf1dd00	0.029524326
208	0x3cf963a4	0.03044302
209	0xbcaf4a63	-0.021397775
210	0xbcf4522e	-0.029824343
211	0xbc35a2dc	-0.011086192
212	0xbd7ecdc1	-0.06220794
213	0xbe061eae	-0.13097641
214	0xbe107f9c	-0.14111179
215	0x3dbab383	0.091162704
216	0xbdc9ff44	-0.09863141
217	0xbde54f49	-0.11196763
218	0xbcb0e79d	-0.021594817
219	0x3d1af68f	0.037832793
220	0xbdbbc9d1	-0.09169353
221	0xbbafb622	-0.005362288
222	0xbd7fdb45	-0.06246497
223	0x3d21f90a	0.039544143
224	0x3dbe34ae	0.092873916
225	0xbe39296b	-0.18082206
226	0xbdab8c52	-0.08376373
227	0xbd5fed92	-0.054669924
228	0x3e1e2e1f	0.15447281
229	0x3dba4494	0.090951115
230	0x3de40f26	0.11135702
231	0xbcbd9798	-0.023143575
232	0xbdce363a	-0.10068937
233	0xbddc7cf9	-0.10766024
234	0xbd13640f	-0.035984095
235	0xbca37405	-0.019952783
236	0x3d6d08c3	0.057869684
237	0xbd492fe7	-0.04911795
238	0xbe4f97dc	-0.20272774
239	0xbdad6b9e	-0.08467792
240	0xbc608f65	-0.013706063
241	0xbc988ab5	-0.018620828
242	0x3d6c0bce	0.057628445
243	0xbb43aaf5	-0.0029856537
244	0x3d946548	0.0724588
245	0xbcd74f61	-0.026282968
246	0x3e161868	0.14657748
247	0xbd829690	-0.06376374
248	0x3cea8f14	0.028632678
249	0x3c3a6d11	0.0113785425
250	0x3d26c49d	0.04071485
251	0xbd6d72f7	-0.057970967
252	0x3cba49e1	0.022740306
253	0x3c49a757	0.012307963
254	0xbc9ea301	-0.019364836
255	0xbd29eb5d	-0.041484226

bias f4 [48]
0	0xbba545fc	-0.005043743
1	0xbd97a4b6	-0.07404463
2	0x3d63ccff	0.05561542
3	0xbe317be1	-0.17332412
4	0xbe3882bc	-0.18018621
5	0x3c7aa0f8	0.015297167
6	0xbe08902b	-0.13336246
7	0xbb939bdb	-0.0045046634
8	0x3d6cb2e7	0.057787802
9	0x3e2f0374	0.17091161
10	0x3cea738c	0.02861955
11	0xbd710a44	-0.05884768
12	0xbc8bc9b0	-0.017063946
13	0x3d510124	0.05102648
14	0xbe2eaa17	-0.17057072
15	0x3ccbfd04	0.02490092
16	0xbb32a516	-0.0027259043
17	0x3d950744	0.072767764
18	0xbdaa1840	-0.083054066
19	0x3c89dc3e	0.016828652
20	0x3d798aaf	0.060923275
21	0x3d9ebf96	0.07751386
22	0xbb6f0885	-0.0036473584
23	0xbc862260	-0.016373813
24	0xbe0758de	-0.13217494
25	0xbe1c9d74	-0.15294439
26	0xbd65d66a	-0.056112684
27	0x3cd1e8e9	0.025623756
28	0xbcf2ea42	-0.029652718
29	0x3a822a8b	0.0009930892
30	0xbe034848	-0.12820542
31	0xbde585af	-0.11207139
32	0xbe1b2db6	-0.15154156
33	0xbe585b75	-0.21128638
34	0x3d252517	0.040318575
35	0xbd49a32e	-0.049227886
36	0x3d5f5055	0.05451997
37	0xbe459bff	-0.19297789
38	0xbe174e33	-0.14775924
39	0xbd236fea	-0.03990165
40	0x3b4c2da4	0.0031155134
41	0x3e0692d8	0.13141954
42	0xbe00e072	-0.12585619
43	0xbd556ef6	-0.052107774
44	0xbb94aa16	-0.0045368774
45	0x3db75d1e	0.089533076
46	0xbc45c598	-0.012071036
47	0xbe8af49e	-0.27139753

weight f4 [96, 48, 6]
0	0xbe2d299c	-0.16910404
1	0xbdd357de	-0.10319494
2	0xbd069100	-0.032853127
3	0xbd191455	-0.037372906
4	0x3d1063e6	0.03525152
5	0xbb650406	-0.0034945025
6	0xbe395725	-0.18099649
7	0xbd0e40b1	-0.034729663
8	0x3ca5a120	0.020218432
9	0x3e01b6f3	0.12667446
10	0x3c668854	0.014070589
11	0x3e715370	0.23566985
12	0xbe2af0e6	-0.16693458
13	0xbdde0821	-0.10841394
14	0xbd2ec87f	-0.042671677
15	0x3cb076d5	0.021541039
16	0x3e0df460	0.13862753
17	0x3d3ed8dc	0.046593532
18	0x3de1fd96	0.11034696
19	0xbd80aa8f	-0.062825315
20	0xbd70a7ac	-0.058753654
21	0x3cb72c55	0.022360006
22	0x3c20281e	0.00977519
23	0xbde07e1a	-0.10961552
24	0xbd3f1bd4	-0.0466574
25	0xbd14d896	-0.036339365
26	0x3e1e29a5	0.15445574
27	0x3e6c3ab8	0.23069274
28	0xbd232c3d	-0.03983711
29	0x3cb1ca99	0.021703051
30	0xbe40c203	-0.1882401
31	0x3c8de57f	0.017321346
32	0xbe39cb36	-0.18143925
33	0xbe4108ef	-0.18851064
34	0xbdfe7f76	-0.12426655
35	0xbe2ad6e2	-0.16683534
36	0x3c887a90	0.016660005
37	0xbd5333b6	-0.051562987
38	0xbd327363	-0.043567073
39	0xbc4a2145	-0.012337034
40	0x3c2fa320	0.010720044
41	0xbca12660	-0.019671619
42	0xbe85d3f4	-0.2613827
43	0xbdf8711d	-0.1213095
44	0xbe2ce85d	-0.16885515
45	0xbcbd32e9	-0.023095565
46	0xbdbbfeb5	-0.09179441
47	0xbdb9ee20	-0.09078622
48	0xbd81ce23	-0.063381456
49	0xbdcbe6c0	-0.099561214
50	0xbe161876	-0.14657769
51	0xbdf5588b	-0.11979779
52	0xbd8340a4	-0.064088136
53	0xbda9b831	-0.08287085
54	0xbd2c8038	-0.042114466
55	0xbe23af6e	-0.1598489
56	0xbe26bed0	-0.16283727
57	0xbd603d76	-0.054746114
58	0x3d11535e	0.035479896
59	0xbe64eecb	-0.22356717
60	0x3a53fbe5	0.00080865464
61	0xbe621521	-0.22078373
62	0xbcbf22b1	-0.023331972
63	0xbe1e4b27	-0.15458356
64	0xbdd3e42d	-0.103462555
65	0x3d5bf432	0.05369968
66	0xbdd71bb8	-0.10503334
67	0x3df62d50	0.120203614
68	0x3d88cf75	0.06680194
69	0xbd274049	-0.04083279
70	0x3b9a9ef9	0.004718658
71	0x3e2db413	0.16963224
72	0xbdbc2356	-0.09186427
73	0xbe1b1e44	-0.15148264
74	0xbd88ce2e	-0.06679951
75	0xbe14c483	-0.14528088
76	0xbe4463f9	-0.19178762
77	0x3d2aed83	0.041730415
78	0xbe10017f	-0.1406307
79	0xbdc35292	-0.095372334
80	0xbdfc080e	-0.12306224
81	0xbe4b0e0e	-0.1982958
82	0xbd439fca	-0.04775981
83	0xbdbcc02e	-0.09216343
84	0x3dbd1701	0.09232903
85	0xbdf6dc46	-0.120537326
86	0x3d4785da	0.048711635
87	0xbdc644f3	-0.0968112
88	0x3cce83c3	0.025209313
89	0x3d44c8e5	0.04804315
90	0xbdbe8314	-0.09302345
91	0xbdf6582a	-0.12028535
92	0x3de05599	0.109538265
93	0xbddb3055	-0.10702578
94	0x3ccd6111	0.025070699
95	0xbe205c7c	-0.1566028
96	0xbe00b5bd	-0.12569328
97	0xbdff3444	-0.12461141
98	0xbde5d294	-0.11221805
99	0xbc98a44f	-0.018633036
100	0xbd0d980b	-0.034568828
101	0x3ce6584e	0.028118279
102	0xbd1dd3d2	-0.038532086
103	0xbdf47eb7	-0.119382314
104	0x3c8071e5	0.01567931
105	0x3c204fea	0.009784678
106	0x3df70834	0.120621115
107	0xbe1e9b18	-0.15488851
108	0xbd0e1e1f	-0.034696694
109	0xbd897b95	-0.067130245
110	0xbd0c1b68	-0.034205824
111	0x3c395c62	0.01131353
112	0x3c9647e6	0.01834483
113	0xbbf7a451	-0.00755743
114	0x3cead48d	0.028665805
115	0xbc073e86	-0.008254653
116	0xbd80508f	-0.06265365
117	0xbd13a6d5	-0.036047775
118	0x3d9615b2	0.07328357
119	0x3d9f7141	0.07785273
120	0xbcb1c196	-0.021698754
121	0xbe314231	-0.17310406
122	0x3d49ba33	0.04924984
123	0xbd763629	-0.060110245
124	0xbdcdcc59	-0.10048742
125	0xbd8f33b8	-0.069922864
126	0xbe1c77b8	-0.15280044
127	0xbe0b9058	-0.13629282
128	0xbe07a919	-0.132481
129	0xbd5b512c	-0.05354421
130	0xbe07578c	-0.1321699
131	0x3cb0dfdc	0.02159112
132	0xbe98d037	-0.29846355
133	0xbe411adc	-0.18857902
134	0xbe815c44	-0.25265706
135	0xbe515e86	-0.20446214
136	0xbd2c47ab	-0.042060535
137	0xbe00b1c6	-0.12567815
138	0xbbc962bc	-0.0061458033
139	0xbe050a71	-0.12992264
140	0x3d742ac4	0.059611097
141	0x3c39c14f	0.011337592
142	0xbd14bdc5	-0.03631379
143	0xbd9c2314	-0.07623878
144	0x3cb5dfaf	0.022201387
145	0xbcecd364	-0.028909393
146	0xbc981ea2	-0.018569294
147	0x3b3a8225	0.002845892
148	0x3d9a35ae	0.0752977
149	0xbdafbba5	-0.08580712
150	0xbdc48240	-0.09595156
151	0xbdada947	-0.08479553
152	0xbdfedc3a	-0.12444349
153	0xbc342394	-0.010994811
154	0x3d361255	0.044451077
155	0xbd553879	-0.05205581
156	0x3e45b466	0.19307098
157	0x3ceaa638	0.028643712
158	0xbc5bc854	-0.013414461
159	0x3ce57287	0.028008712
160	0xbdda68a5	-0.106644906
161	0xbd90232a	-0.07037957
162	0xbdbbb619	-0.09165592
163	0xbe3882eb	-0.18018691
164	0xbd9aa788	-0.07551485
165	0x3cb0be59	0.02157514
166	0x3e3621a0	0.17786264
167	0x3dc09c8a	0.094048575
168	0x3e08605c	0.13318008
169	0x3e11466d	0.14187022
170	0x3d8ca3d6	0.06867187
171	0x3dd13451	0.10215057
172	0x3c5dd7a8	0.013540186
173	0x3d4c670d	0.049902964
174	0x3ca8f2b0	0.020623535
175	0xbcd8b26b	-0.026452264
176	0x3d8d4279	0.06897444
177	0xbcc37084	-0.023857363
178	0xbe1c6047	-0.15271102
179	0xbc2f81ec	-0.010712128
180	0xbe368e39	-0.17827691
181	0x3d1025b8	0.03519222
182	0xbd897d66	-0.06713371
183	0xbb59c064	-0.0033226246
184	0xbdd99323	-0.10623767
185	0x3cfdb5e0	0.030970514
186	0x3dbb9dc1	0.091609485
187	0x3cbb1d93	0.02284125
188	0xbd61015c	-0.054932937
189	0xbdb36502	-0.087595
190	0x3d0e69bd	0.03476881
191	0x3c1e5959	0.009664857
192	0x3d91a01a	0.07110615
193	0x3d86115b	0.06546279
194	0x3d8330bf	0.06405782
195	0x3d4dc1de	0.050233714
196	0x3c358dd0	0.011081174
197	0xbd18225d	-0.037142146
198	0x3c970b70	0.018438071
199	0xbe0264b3	-0.12733726
200	0xbe6aab80	-0.22916985
201	0xbe2bc2b0	-0.16773486
202	0xbda4e960	-0.08052325
203	0x3c9262c1	0.017869355
204	0xbdb36c59	-0.087609
205	0x3cad3548	0.02114357
206	0x3d60d3b8	0.05488941
207	0xbd651406	-0.0559273
208	0xbdaed7a4	-0.08537224
209	0xb9e985e6	-0.00044540985
210	0xbdbf3f6b	-0.09338268
211	0xbde2fc9f	-0.1108334
212	0x3a434ef6	0.0007450426
213	0xbe25ed79	-0.1620387
214	0xbd61b968	-0.055108458
215	0xbcffc490	-0.031221658
216	0x3d9cafd5	0.07650725
217	0xbe2d7450	-0.16938901
218	0xbab27630	-0.0013615545
219	0xbd9e6f3f	-0.07736062
220	0xbe1be98a	-0.15225807
221	0xbe57c5d7	-0.21071564
222	0x3ce5192e	0.027966108
223	0xbe00cd84	-0.12578398
224	0xbe03f764	-0.12887341
225	0x3c9a7358	0.018853828
226	0xbd4a9862	-0.04946173
227	0x3b4a7834	0.00308944
228	0x3d14d2d8	0.03633389
229	0xbc8a823b	-0.016907802
230	0x3d8579d0	0.065173745
231	0xbc0e3c08	-0.008681305
232	0xbd5937ae	-0.053031616
233	0xbc43543f	-0.011921941
234	0x3e0fdab5	0.14048274
235	0xbe24ba66	-0.1608673
236	0x3d1af64a	0.037832536
237	0x3d61f4a3	0.055164944
238	0xbdb963be	-0.090522274
239	0xbe0ac7bb	-0.13552754
240	0xbc84b285	-0.016198406
241	0xbd382d0d	-0.04496484
242	0xbe11dce5	-0.14244421
243	0xbc4bc300	-0.012436628
244	0x3cc22bb8	0.023702487
245	0xbdd9f466	-0.106423184
246	0xbe2e9399	-0.17048492
247	0xbe2e15cf	-0.17000507
248	0xbe627577	-0.22115122
249	0xbe012b26	-0.12614116
250	0x3de8ec9f	0.11373257
251	0xbb58e91a	-0.0033097924
252	0xbbaeae1a	-0.005330813
253	0x3dabd1fb	0.0838966
254	0x3ce83208	0.02834417
255	0xbd4e0be9	-0.050304327

bias f4 [96]
0	0xbdaa195e	-0.0830562
1	0x3c927609	0.01787855
2	0x3cb9217d	0.022598976
3	0x3c984180	0.01858592
4	0x3d2cd571	0.04219574
5	0xbdab4f1b	-0.083646975
6	0xbdcbf0b7	-0.09958022
7	0x3cd06891	0.025440486
8	0xbc03fc0d	-0.008055699
9	0x3d34d79a	0.044150926
10	0x3d308ac1	0.043101076
11	0xbe0b4d06	-0.13603601
12	0xbd9e642b	-0.07733949
13	0xbe057f0b	-0.13036744
14	0x3cd8ea84	0.026479013
15	0xbe1993d1	-0.14997794
16	0x3a003887	0.0004891236
17	0xbdf6f244	-0.12057927
18	0xbdb79cc6	-0.08965449
19	0xbdeecbb9	-0.11659951
20	0xbd1f1476	-0.038837872
21	0x3d71f852	0.059074707
22	0xbdd40c0d	-0.10353861
23	0xbd9b62dd	-0.07587216
24	0xbdcb0ea6	-0.09914903
25	0xbd588f25	-0.05287089
26	0xbe3c46a0	-0.18386316
27	0xbdaf6e67	-0.085659795
28	0x3b2ee5fb	0.0026687372
29	0x3e160950	0.1465199
30	0xbe1db6e5	-0.154018
31	0x3d31b455	0.04338487
32	0xbd53e007	-0.05172732
33	0x3e3db246	0.18525037
34	0xbe261860	-0.16220236
35	0x3db3aa1a	0.08772679
36	0xbda69bba	-0.08135171
37	0xbd070132	-0.032960124
38	0x3d316099	0.043305013
39	0xbcd525a2	-0.026018921
40	0x3c2c6f10	0.010524526
41	0xbd8e0dea	-0.06936248
42	0x3e39dcf5	0.18150695
43	0xbd0e438b	-0.034732383
44	0xbe128265	-0.14307554
45	0x3d42541a	0.047443487
46	0xbde46771	-0.111525424
47	0xbddd57b9	-0.108077474
48	0x3da8a0cf	0.08233797
49	0xbda8b179	-0.08236975
50	0xbd4d5181	-0.050126556
51	0x3d4d9796	0.05019339
52	0x3cd74438	0.026277646
53	0x3dc81388	0.0976935
54	0xbda9b293	-0.082860135
55	0xbd9b1779	-0.075728364
56	0xbd78b24b	-0.06071691
57	0x3d67007f	0.056396957
58	0xbd1d6b48	-0.03843239
59	0x3cca205d	0.024673635
60	0xbdee6556	-0.11640422
61	0xbd17c2ca	-0.037051
62	0x3d45769a	0.04820881
63	0xbe13eec4	-0.1444655
64	0x3d942d4d	0.07235203
65	0xbe012102	-0.12610248
66	0xbddd0931	-0.10792769
67	0xbd5a7399	-0.0533329
68	0x3cd6f2b6	0.02623878
69	0xbd8c6393	-0.0685493
70	0x3d8d372f	0.06895291
71	0x3c6f8e7b	0.014621372
72	0x3d1755e5	0.03694715
73	0x3c4cb191	0.012493507
74	0xbdc49df5	-0.096004404
75	0xbd8aad2f	-0.067713134
76	0x3d029a02	0.031885155
77	0xbe0f162b	-0.139733
78	0x3e0be020	0.13659716
79	0xbdf4d910	-0.11955464
80	0xbdf06ebd	-0.11739872
81	0x3d18bcd3	0.03728945
82	0x3cc3632a	0.023850996
83	0x3cca08f2	0.024662469
84	0xbe045cb6	-0.12925991
85	0x3c9457f4	0.018108346
86	0xbe0d2dd7	-0.13787018
87	0x3b702665	0.0036643979
88	0xbda777eb	-0.081771694
89	0xbdbe02f1	-0.09277905
90	0x3d6463bd	0.05575918
91	0xbdc33d4c	-0.09533176
92	0xbdd4ebaf	-0.103965156
93	0x3d271fc3	0.040801775
94	0x3c3186c2	0.010835351
95	0xbe3b5ba0	-0.18296671

weight f4 [64, 2688]
0	0xbcc4f484	-0.024042375
1	0xbdd112da	-0.10208674
2	0xbe19d2f4	-0.15021878
3	0xbb63ec1f	-0.003477819
4	0x3cfcb3a0	0.03084737
5	0xbd6b4004	-0.057434097
6	0xbd38e41a	-0.04513941
7	0x3d642fa9	0.055709515
8	0x3d8fc62e	0.07020222
9	0xbad83717	-0.001649591
10	0xbc9de06e	-0.019272055
11	0x3b0aa509	0.0021155498
12	0x3c362549	0.011117288
13	0x3dbbe1eb	0.0917395
14	0x3c7f86af	0.015596076
15	0xbd5e68d9	-0.05429921
16	0xbd03283b	-0.03202079
17	0xbbd058db	-0.0063582486
18	0xbc90547e	-0.017618414
19	0x3cc7cfe7	0.024391128
20	0x3bf90c54	0.0076003466
21	0xbced3766	-0.02895708
22	0x3ca98c14	0.020696677
23	0xbc879ace	-0.016553309
24	0x3d515ce3	0.051113974
25	0x3cf99920	0.030468524
26	0x3c9cc827	0.019138409
27	0x3d4c6567	0.049901392
28	0x3d954155	0.07287852
29	0x3d84e821	0.064895876
30	0xbd8f8182	-0.070071235
31	0xbd411b1d	-0.047144998
32	0xbd470af0	-0.048594415
33	0xbdced86b	-0.10099872
34	0xbd56cbec	-0.05244057
35	0xbdd8cc4a	-0.1058584
36	0xbe16be19	-0.14720954
37	0xbdaa5325	-0.0831664
38	0xbd77c679	-0.060492013
39	0xbd001c99	-0.031277273
40	0x3d7434f0	0.059620798
41	0x3cac90c3	0.021065122
42	0x3c7aeb89	0.015314945
43	0xbd63cf9d	-0.055617917
44	0x3c4947f6	0.012285223
45	0xbd24fcc5	-0.040280122
46	0xbdabae10	-0.08382809
47	0xbde200ad	-0.11035285
48	0xbddd9a0c	-0.10820398
49	0xbdde119c	-0.108432025
50	0xbd0ad372	-0.033893056
51	0x3c221920	0.009893686
52	0xbdf126d9	-0.11774988
53	0xbdaef070	-0.085419536
54	0xbdf34543	-0.11878445
55	0x3c1f814f	0.009735419
56	0xbe2e7015	-0.17034943
57	0xbe69d1a3	-0.22833876
58	0xbce15139	-0.02750455
59	0x3bd93b8a	0.006629412
60	0xbc4c74c7	-0.012479014
61	0xbe149fc7	-0.14514075
62	0xbe261f2e	-0.16222832
63	0xbe1221f1	-0.1427076
64	0xbd9e5883	-0.07731726
65	0xbddc910c	-0.10769853
66	0xbe0fe68e	-0.14052793
67	0xbe0e7a42	-0.13913825
68	0xbcc3b6bf	-0.023890851
69	0xbc8c8514	-0.0171533
70	0x3b81b0bb	0.0039578355
71	0xbd838a21	-0.064228304
72	0xbd42965d	-0.04750668
73	0xbd964311	-0.07337011
74	0xbd484613	-0.048894953
75	0x3c2d8e3f	0.010592996
76	0xbcd9902b	-0.026558002
77	0xbe5143d4	-0.2043603
78	0xbdc51355	-0.09622828
79	0xbdcf95d4	-0.10135999
80	0xbd903691	-0.07041658
81	0xbe2d6fff	-0.16937254
82	0xbd672e0b	-0.056440394
83	0xbc3cbad7	-0.011519155
84	0xbd9e73a5	-0.07736901
85	0xbd75a467	-0.05997124
86	0x3cb85db1	0.022505613
87	0x3d12e8f9	0.03586671
88	0xbce94a08	-0.028477684
89	0x3bd4443b	0.0064778603
90	0xbdce3614	-0.10068908
91	0xbd9c5041	-0.07632495
92	0x3d3d3172	0.046189733
93	0xbde22920	-0.11043
94	0xbd8a53ef	-0.0675429
95	0xbc03fc53	-0.008055764
96	0x3e01b2c9	0.12665857
97	0x3d8444f1	0.06458462
98	0x3cf042e4	0.029328771
99	0x3ba78682	0.00511247
100	0x3beaee93	0.0071695535
101	0x3c99e637	0.018786533
102	0x3d2baa27	0.041910317
103	0xbd7bce59	-0.061476085
104	0xbdaa2680	-0.083081245
105	0xbd93709f	-0.07199215
106	0x3c703507	0.01466108
107	0xbdc0facc	-0.09422836
108	0xbdd0ceea	-0.10195716
109	0xbe3798a6	-0.17929325
110	0xbdc37ecc	-0.09545669
111	0xbc427ff2	-0.011871325
112	0xbe0b02d0	-0.13575292
113	0xbde39779	-0.111128755
114	0xbb777af8	-0.0037762504
115	0xbd834ccc	-0.06411132
116	0x3d62a320	0.05533135
117	0xbaa90bbb	-0.0012897173
118	0xbd6af9c4	-0.0573671
119	0xbd3c8adf	-0.046030875
120	0xbdaf32f3	-0.0855464
121	0xbc85bc68	-0.01632519
122	0xbd8c55a1	-0.0685227
123	0xbd86d61e	-0.06583808
124	0xbdb8ddae	-0.09026657
125	0xba1e8b15	-0.00060479465
126	0xbd3d53aa	-0.046222366
127	0xbdb4abcc	-0.0882183
128	0xbe06cdc2	-0.13164428
129	0xbda96d86	-0.08272843
130	0xbc7db58b	-0.015485178
131	0x3cac8937	0.021061523
132	0xbb693df7	-0.0035589912
133	0xbe56a902	-0.20962909
134	0xbd3c4de2	-0.045972712
135	0xbdfe0fe7	-0.12405377
136	0xbd6cc6cc	-0.057806775
137	0xbe301e8d	-0.17199154
138	0xbdf94aee	-0.12172495
139	0xbd81fe32	-0.06347312
140	0xbbda115e	-0.0066549024
141	0xbcb83e82	-0.022490744
142	0x3b1ba298	0.0023748036
143	0xbcc57e06	-0.024107944
144	0x3c240942	0.010011973
145	0xbbcc5043	-0.006235154
146	0xbbf73a74	-0.00754481
147	0xbc540127	-0.012939728
148	0x3b154c6d	0.002278115
149	0xbd23a3b5	-0.039951045
150	0x3c37c3eb	0.011216144
151	0xbc46b0b4	-0.01212709
152	0xbb84114e	-0.004030383
153	0xbc39ff16	-0.011352321
154	0x3c79ca73	0.015246022
155	0xbc6d5145	-0.014484708
156	0xbc3439b1	-0.011000083
157	0xbc016fd9	-0.007900202
158	0xba8c9cfb	-0.0010727936
159	0xbcd03059	-0.025413679
160	0xbc90e9e5	-0.017689655
161	0xbba122a3	-0.004917459
162	0xbcdf117e	-0.02723002
163	0xbc6af422	-0.014340432
164	0x3b5f9e28	0.0034121368
165	0xbc92454b	-0.017855307
166	0xbca09031	-0.019600006
167	0x3b0e6ef7	0.002173362
168	0xbaacde6b	-0.0013188844
169	0x3c99e606	0.018786442
170	0xbd8bf4f3	-0.0683383
171	0xbd186383	-0.037204277
172	0xbd683509	-0.056691203
173	0xbd058ce0	-0.032605052
174	0xbd42fb95	-0.04760321
175	0x3d6a36a6	0.057181023
176	0x3d5f499c	0.05451356
177	0x3d51c67d	0.051214684
178	0x3afa0809	0.0019075881
179	0x3c11c24e	0.0088964235
180	0xba6f4bc8	-0.0009128419
181	0x3ce28f9d	0.02765637
182	0x3bad9505	0.0052973055
183	0xbd05ad39	-0.0326359
184	0x3d7cf6dd	0.061758865
185	0x3e132a12	0.14371517
186	0x3c09f327	0.008419788
187	0x3cae2a82	0.021260504
188	0x3d3c2356	0.045932136
189	0x3d878cd3	0.06618657
190	0x3cbd7f73	0.023132062
191	0x3c6ff14f	0.014644935
192	0x3d91ef28	0.071256936
193	0x3cbbb4f3	0.022913432
194	0x3afe4bc4	0.0019401242
195	0xbd9df9a0	-0.07713628
196	0xbe2b055d	-0.16701265
197	0xbdbbb0ec	-0.091646045
198	0x3cadece7	0.021231128
199	0xbd9d0a61	-0.07667995
200	0x3cf920b2	0.030411098
201	0xbce77112	-0.028252158
202	0x3bd7f939	0.006590989
203	0xbd8d3bb9	-0.06896157
204	0xbcdd6961	-0.027027788
205	0xbce03dcc	-0.027373217
206	0xbcf5bbe0	-0.029996812
207	0xbd493d54	-0.049130753
208	0x3d942875	0.07234279
209	0x3d7d7905	0.06188299
210	0x3c6c0c3b	0.014407213
211	0xbcfe7b65	-0.031064698
212	0xbe17966e	-0.14803478
213	0xbddc3dcf	-0.107539766
214	0x3b9ca4ec	0.0047804024
215	0x3b851a73	0.004061991
216	0x3bcae5b6	0.0061919345
217	0xbdf53940	-0.1197381
218	0xbd8ff6ad	-0.070294715
219	0xbde0ff00	-0.109861374
220	0xbd06b0f4	-0.0328836
221	0xbe1ac34c	-0.15113562
222	0xbaca2d95	-0.0015424961
223	0xbd3d9a72	-0.04628987
224	0xbc72fc93	-0.014830726
225	0xbc97ce0f	-0.018530874
226	0xbcf5ea5b	-0.030018976
227	0x3d06858a	0.032842197
228	0xbc08b12a	-0.00834302
229	0xbd12c76e	-0.035834722
230	0xbdc29044	-0.09500173
231	0x3c290987	0.010317213
232	0x3e211e00	0.157341
233	0xbc79f37f	-0.015255808
234	0x3c43fc17	0.011961958
235	0x3dc5a1c3	0.09649994
236	0x3e7eb76a	0.24874654
237	0x3c84a405	0.016191492
238	0xbc9d44b6	-0.019197803
239	0x3c475c68	0.012168027
240	0x3de681f8	0.11255258
241	0xbe016656	-0.12636694
242	0x3c698daf	0.014254971
243	0x3d49c292	0.049257822
244	0x3bd45100	0.0064793825
245	0x3c48c9fe	0.01225519
246	0xbd730f8e	-0.059341006
247	0xbc28804f	-0.010284497
248	0xbd3292ee	-0.043597154
249	0xbce8d47f	-0.028421639
250	0xbd28595a	-0.041100837
251	0xbd8f23b2	-0.0698923
252	0x3d9452d8	0.07242364
253	0xbd679c65	-0.056545634
254	0x3e2ecd9c	0.17070621
255	0xbda38316	-0.07983987

bias f4 [64]
0	0x3dfd083f	0.123550884
1	0x3ca1d953	0.019756949
2	0x3b9ae3fb	0.0047268844
3	0xbddaf1a3	-0.1069062
4	0xbdca31d0	-0.09872782
5	0x3d0e8338	0.03479311
6	0x3d7d8fa7	0.061904576
7	0xbd10db58	-0.035365433
8	0x3e306b58	0.17228448
9	0xbd3a5289	-0.045488868
10	0x3e55416c	0.20825738
11	0xbe19c5b8	-0.1501683
12	0x3dec1369	0.1152714
13	0xbc5d5b08	-0.013510473
14	0xbda34e06	-0.07973866
15	0xbd9fafea	-0.07797225
16	0xbe16a0da	-0.14709798
17	0x3b3ebd1c	0.0029104417
18	0xbdc62c95	-0.09676472
19	0xbdfb6665	-0.122753896
20	0xbbf77d36	-0.007552768
21	0xbca4b79e	-0.020107087
22	0xbe2732c7	-0.16327964
23	0x3d84425e	0.06457971
24	0xbc341d9c	-0.010993388
25	0x3d82318f	0.06357109
26	0x3c258bb0	0.010104105
27	0xbe070dea	-0.13188902
28	0x3dd9f398	0.10642165
29	0xbe1cd7ab	-0.15316646
30	0xbe7c9495	-0.24666055
31	0xbe2079e4	-0.15671498
32	0x3b53b97e	0.0032306607
33	0x3da93f5a	0.082640365
34	0x3e60a21b	0.21936838
35	0x3d7b95c5	0.06142213
36	0xbd9e715f	-0.077364676
37	0xbe0fe940	-0.14053822
38	0x3e1a79b0	0.15085483
39	0x3dad023c	0.08447692
40	0xbdff0d01	-0.12453652
41	0x3df1080b	0.11769112
42	0xbe0349be	-0.12821099
43	0xbd981ffb	-0.07427975
44	0xbabac7ae	-0.0014250183
45	0x3dd8faa7	0.10594683
46	0xbc8febec	-0.017568551
47	0xbd8778af	-0.066148154
48	0x3d7263cd	0.05917721
49	0x3d9cf241	0.07663394
50	0x3e2d7ca0	0.16942072
51	0x3b90269b	0.0043991334
52	0x3e57006b	0.20996253
53	0x3d9d04b8	0.07666916
54	0xbe295bc4	-0.16538912
55	0xbd20ad2a	-0.039227642
56	0xbdf97131	-0.12179793
57	0xbe1cd96b	-0.15317313
58	0x3cec4ddb	0.028845718
59	0x3d2ba582	0.041905887
60	0x3de65cee	0.11248194
61	0xbdb1c25e	-0.08679651
62	0x3e2e515a	0.1702322
63	0x3d191d40	0.03738141

weight f4 [25, 64]
0	0x3e5e2cee	0.21696827
1	0x3c2f8c14	0.01071455
2	0xbdeb78f2	-0.11497678
3	0xbdee1dab	-0.116267525
4	0x3e167814	0.14694244
5	0xbe1294df	-0.14314602
6	0x3e04d19f	0.12970589
7	0xbd2b258d	-0.041783858
8	0xbc8e44dd	-0.017366821
9	0x3e088620	0.13332415
10	0x3d5e85d8	0.054326862
11	0x3d752475	0.05984922
12	0xbe0c2db2	-0.13689306
13	0x3da87aef	0.08226573
14	0xbe2bd517	-0.16780506
15	0xbc7a70f9	-0.015285724
16	0x3d3e6ff4	0.046493486
17	0x3dfba7d5	0.12287871
18	0xbde7fc7c	-0.113274544
19	0x3e168a79	0.1470126
20	0x3d7f24f3	0.062291097
21	0xbd40a2f5	-0.047030408
22	0xbd9e197b	-0.07719704
23	0x3e2224f1	0.15834405
24	0x3bb41c22	0.0054965178
25	0xbbdee5b3	-0.0068022846
26	0x3d1e35f1	0.03862566
27	0xbccc817d	-0.024964089
28	0x3e1aa586	0.15102205
29	0xbd649f2d	-0.055815864
30	0xbd2e8bed	-0.042613912
31	0xbccc9a67	-0.024975969
32	0x3da06406	0.07831578
33	0xbccf5156	-0.025307339
34	0x3da39800	0.07987976
35	0x3d1c436e	0.038150243
36	0xbe1ad413	-0.15119962
37	0xbcc5ea5d	-0.024159605
38	0x3d99463d	0.074841
39	0x3d8a8582	0.06763746
40	0xbe0cb12c	-0.1373946
41	0x3c41782f	0.011808439
42	0xbc964fe9	-0.018348651
43	0xbdd8056f	-0.105479114
44	0xbd2008c0	-0.039070845
45	0xbd1de8c4	-0.03855206
46	0xbdd7428c	-0.1051074
47	0x3b779532	0.0037778136
48	0x3c3c8769	0.011506894
49	0x3e0b7b13	0.13621168
50	0xbe26dda3	-0.16295485
51	0xbc079996	-0.008276364
52	0x3ce2b173	0.027672505
53	0xbde6831b	-0.11255475
54	0xbdd9093b	-0.10597464
55	0x3dc0c5fd	0.09412763
56	0xbdc9ccd6	-0.098535225
57	0xbdaee181	-0.08539105
58	0xbe5fad68	-0.21843493
59	0xbd24a064	-0.040192023
60	0xbe29540b	-0.16535966
61	0x3bfbfd5e	0.007690116
62	0xbde7fef2	-0.11327924
63	0x3d0a4ca5	0.0337645
64	0xbe0cf016	-0.1376346
65	0xbe6cd3a1	-0.23127605
66	0x3e5f1d7c	0.21788591
67	0x3d57e143	0.05270506
68	0xbdd0791f	-0.10179352
69	0x3e0ab6fa	0.13546363
70	0xbdf8e04b	-0.121521555
71	0xbe210f22	-0.15728429
72	0xbe1ddf3e	-0.15417191
73	0xbe08adef	-0.133476
74	0xbe5c2a39	-0.21500482
75	0x3d9e2193	0.077212475
76	0x3e2bf3c3	0.16792206
77	0x3cf71d16	0.030165236
78	0x3dd4d749	0.10392625
79	0xbc4b6447	-0.012414045
80	0x3df31d17	0.11870783
81	0x3d23279d	0.0398327
82	0x3e666edf	0.22503231
83	0xbe38fa0b	-0.18064134
84	0xbdaeb0af	-0.085297935
85	0xbe05cebc	-0.13067144
86	0x3dbdb719	0.09263439
87	0x3d3d457a	0.046208836
88	0x3dc53e8f	0.09631073
89	0xbe04f2eb	-0.12983291
90	0x3d213467	0.039356615
91	0x3e41e8b8	0.18936431
92	0x3d0cb046	0.034347795
93	0x3e0b127b	0.13581268
94	0x3e0d55ec	0.13802308
95	0xbd9307ff	-0.071792595
96	0xbe218959	-0.1577505
97	0xbe20ce19	-0.1570362
98	0xbe1d04a1	-0.15333797
99	0xbe5ba442	-0.21449378
100	0x3e5e0d58	0.21684778
101	0xbe04488c	-0.129183
102	0x3de22ef5	0.110441126
103	0xbe0ceca4	-0.13762146
104	0x3e05c250	0.13062406
105	0x3ddd337a	0.10800834
106	0x3e4f5899	0.20248641
107	0x3e35aa68	0.17740786
108	0x3dea1f3d	0.114317395
109	0x3dd11b8e	0.10210334
110	0x3c653856	0.013990482
111	0xbddfee4a	-0.10934122
112	0xbd6758b2	-0.05648107
113	0x3d879ce3	0.06621721
114	0x3e48b4a8	0.19600165
115	0x3e0eef6c	0.1395852
116	0xbe241731	-0.16024472
117	0x3e0a2d4a	0.13493839
118	0x3c0b3cb9	0.008498364
119	0xbe291033	-0.16510086
120	0x3e342920	0.17593813
121	0xbcbb363d	-0.022853011
122	0x3e291339	0.16511239
123	0x3e5c3827	0.21505795
124	0x3d23411f	0.039857026
125	0xbe0e4e49	-0.13897051
126	0x3e496882	0.19668773
127	0xbd7fd0d7	-0.062455025
128	0x3dfee00a	0.12445076
129	0x3a5358bf	0.00080622354
130	0xbe45f318	-0.19331014
131	0xbe214ff9	-0.15753163
132	0x3e2ffe96	0.1718696
133	0xbe2be901	-0.16788103
134	0x3d68b812	0.056816168
135	0xbe1ca398	-0.15296781
136	0x3b8ea937	0.004353668
137	0x3e210ee5	0.15728338
138	0xbc44a344	-0.012001816
139	0x3e04033f	0.12891863
140	0xbd49ad80	-0.049237728
141	0x3e0d4041	0.13794042
142	0xbdcbc4df	-0.099496596
143	0x3d8013d2	0.062537804
144	0x3db925a8	0.090403855
145	0xbc9cc774	-0.019138075
146	0xbe28ae89	-0.1647283
147	0x3e5218bc	0.20517248
148	0x3e16d263	0.14728694
149	0xbd559d3e	-0.05215191
150	0x3d5b4702	0.053534515
151	0x3c4be6d6	0.012445172
152	0xbe0e6255	-0.13904698
153	0xbd89cc7e	-0.06728457
154	0xbe4cb555	-0.19991048
155	0xbe293588	-0.16524327
156	0xbe171c39	-0.1475686
157	0xbcf0d991	-0.029400619
158	0xbe206d29	-0.15666641
159	0x3d14e423	0.03635038
160	0x3d28639c	0.04111062
161	0xbd98c313	-0.074590825
162	0x3cdf023c	0.027222745
163	0x3e2b47c6	0.16726598
164	0xbddeba9b	-0.10875436
165	0x3de96f71	0.11398209
166	0xbe340caa	-0.17582956
167	0x3d828993	0.063738964
168	0x3cd399ac	0.025830112
169	0x3ccc3fbd	0.024932737
170	0xbd79a8f5	-0.060952146
171	0x3c2288d7	0.0099203205
172	0xbe24be7b	-0.16088288
173	0xbe026090	-0.12732148
174	0xbd97cc00	-0.07411957
175	0x3c92b5cc	0.017908953
176	0x3d51fe56	0.051267944
177	0xbc238e6d	-0.009982687
178	0xbe2644ee	-0.16237232
179	0xbdfdaa98	-0.12386054
180	0xbd8333aa	-0.064063385
181	0xbc38a6d3	-0.011270243
182	0xbd9a608f	-0.07537948
183	0x3e88a151	0.26685575
184	0x3b89dc69	0.004207183
185	0x3dc8ea4e	0.09810315
186	0xbe09b69a	-0.13448563
187	0x3d2fbaa3	0.0429026
188	0xbb393903	-0.0028262741
189	0x3cc1f9a0	0.0236786
190	0xbd93c2f2	-0.07214917
191	0x3ae6d44e	0.0017610879
192	0xbe70eeb8	-0.23528564
193	0xbe71fe6c	-0.2363221
194	0x3d5b11da	0.05348382
195	0xbde7d25f	-0.11319422
196	0xbe039c67	-0.12852632
197	0x3b61a960	0.003443323
198	0xbe6926ed	-0.22768755
199	0xbe2f3171	-0.17108704
200	0x3cef4c84	0.02921129
201	0x3e068ebc	0.13140386
202	0xbe28eb39	-0.1649598
203	0x3ddb0836	0.106949255
204	0x3d045bd6	0.032314144
205	0x3db528de	0.088456854
206	0x3da209e9	0.079120465
207	0x3c9d003f	0.019165156
208	0x3e5ae6c5	0.21377094
209	0x3e53d4e5	0.20686682
210	0x3e80e038	0.25171065
211	0xbce642d7	-0.028108044
212	0x3deefcb0	0.1166929
213	0xbe5bfcba	-0.21483126
214	0x3dbd2bed	0.09236894
215	0x3d82a2a0	0.063786745
216	0x3e2598b9	0.1617154
217	0xbe182f8d	-0.14861889
218	0xbe3d4602	-0.18483737
219	0x3d9535b0	0.07285631
220	0x3dba25f5	0.09089271
221	0x3d61bc0b	0.055110972
222	0x3cf53e32	0.029936884
223	0xbc97caa0	-0.018529236
224	0xbe279553	-0.16365556
225	0xbdaa4895	-0.08314625
226	0xbe007228	-0.12543547
227	0x3d2b6d74	0.04185243
228	0x3d81596e	0.063158855
229	0xbe1f7a33	-0.15573959
230	0x3d9a3184	0.075289756
231	0xbd22971e	-0.039694898
232	0xbd7336cc	-0.05937843
233	0xbca0a35b	-0.019609144
234	0x3e1d75db	0.1537699
235	0x3e55b3d3	0.20869379
236	0x3c625827	0.0138149625
237	0x3d43df9c	0.047820672
238	0x3def5afb	0.11687275
239	0xbdcb598a	-0.099291876
240	0xbde881a5	-0.11352853
241	0x3e158f14	0.14605361
242	0xbcd79479	-0.026315914
243	0x3e1d186e	0.1534135
244	0xbe9106db	-0.28325543
245	0x3d0b527a	0.034014203
246	0x3b2bf8df	0.0026240868
247	0xbc8953a4	-0.016763516
248	0x3c448014	0.011993427
249	0x3d0c1de2	0.034208186
250	0xbbbd0217	-0.0057680714
251	0x3d9c882e	0.07643162
252	0xbd39dcd2	-0.045376606
253	0xbe84d778	-0.2594564
254	0x3d92390f	0.07139789
255	0x3d5ae4da	0.053440906

bias f4 [25]
0	0xbe27361c	-0.16329235
1	0x3e452ace	0.1925461
2	0xbd7a38e4	-0.06108941
3	0x3cce8a5e	0.025212463
4	0xbe2b5032	-0.16729811
5	0x3df9f359	0.12204618
6	0x3e7d9e07	0.24767314
7	0xbdc1ed51	-0.09469093
8	0x3e35b05c	0.17743057
9	0xbca7dc25	-0.020490715
10	0xbc70b126	-0.014690673
11	0x3e0f7818	0.14010656
12	0x3d188048	0.037231714
13	0x3dc984e4	0.098398
14	0x3bea06ed	0.007141939
15	0xbd1ef1bd	-0.03880476
16	0xbd2b98b3	-0.041893672
17	0x3de1fae7	0.11034184
18	0x3c75199e	0.014959721
19	0xbe9ce72c	-0.3064512
20	0x3e946252	0.28981262
21	0x3c804d8a	0.015661974
22	0x3d5b432a	0.05353085
23	0x3d661d47	0.056180265
24	0xbf9de5d3	-1.2335762
