result/config2_main/preliminary_model14.pt (torch_old, 874676 bytes, 10 tensors)

weight f4 [12, 2, 192]
000000 7d ca ee 3e d4 7b 83 3e 9f a8 36 3e cf ae 49 bc
       0.4663886 0.2568041 0.17837761 -0.012309744
000010 b7 58 58 be 1c 04 fb 3d 90 26 d4 3e 47 36 ff 3d
       -0.21127592 0.12256643 0.4143567 0.124615245
000020 5d 63 80 3d 13 c7 af 3d dc 2e 91 3d cc 1d 88 bd
       0.06268952 0.08582892 0.07089016 -0.06646308
000030 08 0f 6c bd 2a 94 17 be df 60 1a 3e 2e c9 38 3e
       -0.057631522 -0.14802614 0.15076016 0.18045494
000040 0a f6 ce bd f5 4c c6 ba 86 27 15 be 1f b8 97 3c
       -0.10105522 -0.0015129136 -0.14565858 0.018520413
000050 a2 b1 0b 3d 26 5e f5 3d b2 e6 3a bb 41 22 0a be
       0.03410495 0.11980848 -0.0028518853 -0.1348963
000060 66 61 c3 bd fd a1 83 be 31 5d df 3c 13 84 64 be
       -0.09540062 -0.25709525 0.027266117 -0.22316007
000070 c4 0a 52 be 52 dc 1e bd 9e c7 67 3b 9f 38 23 be
       -0.2051192 -0.038784333 0.0035366784 -0.15939568
000080 48 84 91 3d cc cc 83 3e 66 d6 2d 3d 93 92 31 bd
       0.07105309 0.25742185 0.042440794 -0.043352675
000090 9e 31 a7 be de 9a e1 bd d3 71 52 be 43 cd 81 bd
       -0.32655042 -0.11015867 -0.20551233 -0.06337979
0000a0 6a 50 3d 3d 9d a1 04 bd fe 8c 92 bd be 54 77 bd
       0.046219267 -0.03238069 -0.071557984 -0.06038355
0000b0 0a 06 f6 bd b2 e7 16 3e 80 d7 86 bd 14 7f 3a bd
       -0.120128706 0.14736822 -0.06584072 -0.045531347
0000c0 d1 8d 6f 3d bd 85 98 bd d0 27 e1 3d b8 20 05 3e
       0.058484856 -0.074473836 0.10993922 0.13000762
0000d0 06 e4 fa bd ba 3a 00 be cf cf 99 be 2d 50 3f be
       -0.12250523 -0.12522402 -0.30041358 -0.18682928
0000e0 34 22 25 bc 05 c4 03 3e c5 16 8b 3d c4 be 2d be
       -0.010078955 0.12867744 0.06791452 -0.16967303
0000f0 02 5e d9 bd 19 33 0f be 5f 3a 45 3e 25 5d 48 3e
       -0.10613634 -0.13984336 0.19260548 0.19566782
000100 95 82 76 3d df b3 ea bd 0b b7 5e 3d e6 ab 38 3e
       0.060183126 -0.11460089 0.054373782 0.18034324
000110 9f 38 6e 3d 6a 59 82 3d e3 cb 10 be 48 63 9b 3b
       0.058159467 0.06364711 -0.14140277 0.00474206
000120 1e 5e 91 3e fc 76 52 bc ae f4 8d 3d a3 87 14 3d
       0.28392118 -0.012845751 0.069314346 0.036262166
000130 f1 28 23 be 84 a4 1f 3e fc 89 24 3e f7 9f 24 3e
       -0.15933587 0.15590101 0.16068262 0.16076647
000140 39 5d 74 3b 5d 1a 87 bd 9f 75 97 3d a1 fb 1c 3e
       0.003728701 -0.06596825 0.07395481 0.15330364
000150 78 75 b6 3d 08 13 08 bd 03 0e a5 3d 70 d1 26 3e
       0.08909124 -0.033221275 0.08059313 0.16290832
000160 f8 5c d7 3d 21 42 97 3e 9a 5a f6 bc bf 97 89 3c
       0.10515779 0.2954264 -0.030072499 0.016795991
000170 19 da 33 3c e6 e5 02 3e 1d ca 77 3e be fc b0 bc
       0.0109772915 0.12783012 0.24198194 -0.021604892
000180 75 3e 0d 3d 07 10 c0 bc dd f3 5f bd bf 67 07 3e
       0.03448339 -0.023445142 -0.054675926 0.1322317
000190 f3 c2 5c 3e a7 ad 00 bd 0e fa 3a be 70 f1 82 3e
       0.21558742 -0.031415608 -0.18259451 0.25574827
0001a0 76 c0 f5 3d 91 cb 4a 3e 9f 8b 7d 3d 1f 47 77 be
       0.119996 0.19804217 0.06190073 -0.24148224
0001b0 4e b1 6e be b3 7f c1 bd 06 04 dc 3d 2c 3f bb bd
       -0.23309824 -0.09448185 0.10742955 -0.091429085
0001c0 c2 46 a3 3d dd d8 e4 bd 32 c4 c3 3d 53 55 11 be
       0.0797248 -0.11174176 0.09558906 -0.14192705
0001d0 47 87 e9 3c 22 d8 02 bd b1 16 8e bd f6 90 2a 3e
       0.028506888 -0.0319444 -0.06937922 0.1665686
0001e0 d6 09 13 3e 25 fa 00 be 6b d4 a8 be 45 89 0f be
       0.14359221 -0.12595423 -0.32974562 -0.14017208
0001f0 86 dc ab bd 23 c8 63 be 25 e6 4b bd 0b b2 db bd
       -0.08391671 -0.22244315 -0.04978003 -0.107273184
000200 a1 36 2c be ad 4f 09 bd 9a b4 1e 3d bd 95 ee 3c
       -0.16817714 -0.03352325 0.038746454 0.029124135
000210 ce 1c a7 be ca 5c 5e be f3 38 f7 3c 9f b3 d0 3e
       -0.32639164 -0.21715084 0.030178523 0.4076204
000220 c9 0c 97 bd 00 4d 03 3e 42 54 a4 3d 7b ba 03 be
       -0.073754855 0.12822342 0.080238834 -0.12864105
000230 10 11 c4 bb 62 98 62 3e b1 16 57 3e 6c 16 92 3d
       -0.0059834793 0.22128442 0.2100475 0.07133183
000240 67 25 db 3b e3 b0 0d be 95 ab a2 3d 17 98 58 bd
       0.0066878083 -0.13837008 0.07942883 -0.05287942
000250 54 d6 07 3d 78 2b fc 3b d0 91 ba 3d 8e c5 51 bc
       0.033163384 0.0076956116 0.09109843 -0.012803448
000260 c8 6b 0a bb 77 b1 29 3e 48 1b 08 3e 2d 04 b5 3e
       -0.0021121372 0.16571604 0.13291657 0.35354748
000270 44 0c ab 3d 17 ba c2 bd ff 26 9a be 88 c2 7d be
       0.08351949 -0.0950815 -0.30107877 -0.24781239
000280 05 26 2c 3d eb 1f 79 3d c8 79 1e 3d d0 81 98 3d
       0.042028446 0.060821455 0.03869036 0.07446635
000290 f1 d0 bf 3d 88 da 18 3e 2f 30 3f 3d 07 c9 ba 3e
       0.09366024 0.14927113 0.04667681 0.36481497
0002a0 ff 6f 88 bd cb f0 76 bd 07 c9 13 3e 1c 8d 51 bd
       -0.066619866 -0.06028823 0.14432155 -0.051159963
0002b0 3c eb 7a 3e 08 46 91 3e fb 40 98 3e cc 68 79 be
       0.24503797 0.28373742 0.29737076 -0.24356383
0002c0 79 a1 35 be 86 96 74 3e b7 80 d7 3e 74 30 03 3f
       -0.17737378 0.23885545 0.4209039 0.5124581
0002d0 e1 2e 6c 3e 7a b4 af bd c7 db 48 be c7 8d ab 3d
       0.23064758 -0.08579345 -0.19615088 0.08376651
0002e0 5c f3 49 3e 43 fe 4b 3d 25 2c f6 bd 7d 5b 05 be
       0.1972174 0.04980303 -0.12020139 -0.13023181
0002f0 ca 1e be 3c 4e a2 bf 3d e5 b4 d5 3e 13 a6 d8 3d
       0.02320804 0.09357129 0.41739574 0.10578551
000300 60 1e 98 3e 29 34 aa bd ce bd 24 3e 05 d8 ad 3d
       0.29710674 -0.0831073 0.1608803 0.08488468
000310 24 93 b2 be 8e a6 a9 bd 8b 27 ad 3e aa 72 82 3e
       -0.34877884 -0.08283721 0.3381923 0.25478107
000320 ce a4 69 be 1a 1f a5 bd 04 e0 33 3e 6d 90 02 3d
       -0.22816774 -0.08062573 0.17565924 0.031876016
000330 e9 77 af 3d e3 23 85 bc b4 bc db 3b f1 9a 0d be
       0.08567793 -0.016252464 0.006705845 -0.13828637
000340 91 07 c1 bd bb 75 9e 3e 07 56 15 be ac f3 ee bd
       -0.09425271 0.30949196 -0.14583598 -0.116675705
000350 5e d5 48 be 13 86 22 3e 25 fa 14 3e 4f 4b a1 3e
       -0.19612643 0.15871458 0.14548548 0.31502768
000360 08 0d c5 3e 6c 62 84 bd 20 97 5d 3d b8 5f 09 be
       0.38486505 -0.06464085 0.054099202 -0.1341542
000370 59 ac 4e 3d 7e 33 0a bb ea e6 64 be 4f ef f0 be
       0.050457332 -0.002108782 -0.22353712 -0.47057578
000380 a3 2c 81 be 92 79 8c 3d be fe e7 bd de 0b 77 be
       -0.25229368 0.06859125 -0.11327885 -0.2412562
000390 2b e7 4b be 4f 02 92 be bb 16 fd bd 19 9b 3b be
       -0.19912402 -0.28517386 -0.12357851 -0.18320884
0003a0 53 d5 c7 bb 34 d2 b8 be bc cf 48 be 81 5c 8f be
       -0.0060984283 -0.36097872 -0.19610494 -0.28000262
0003b0 bb d5 69 be 81 31 17 3e b4 5a a1 bd be 5f 7c 3d
       -0.22835438 0.14764978 -0.078786284 0.061614744
0003c0 f9 35 03 3c 8b 38 89 bb 7f eb a3 3d a3 c6 87 3e
       0.008008474 -0.0041876487 0.08003902 0.26518735
0003d0 31 e2 11 be 4b 1f 44 bd 24 d5 bc bc 51 5c d1 bd
       -0.14246441 -0.047881406 -0.023050852 -0.10222686
0003e0 e3 fe 14 bd 73 a2 3c 3e 05 6e 56 3d 35 ef 4d be
       -0.03637589 0.18421344 0.052351017 -0.20110781
0003f0 0c 39 01 bd 62 28 bc bc e3 54 1b 3e 2a 41 99 3e
       -0.031548545 -0.022968475 0.151691 0.2993253

bias f4 [12]
000000 95 21 76 be 4e a5 a3 be 2a cf 81 be 3a b5 2a be
       -0.24036248 -0.31962055 -0.25353366 -0.16670695
000010 5d b6 87 be 8c 83 81 be 96 f4 ae be a0 8b 90 be
       -0.2650632 -0.25295675 -0.3417098 -0.28231525
000020 28 4b 80 be b5 1c 0a be 8a 7c d6 be 28 62 5e be
       -0.2505734 -0.13487513 -0.4189189 -0.21717131

weight f4 [48, 12, 16]
000000 83 b9 8b be a5 48 21 bf 13 f4 10 be 13 d7 6f bd
       -0.27289972 -0.6300147 -0.14155607 -0.05855472
000010 06 80 db be 9f 77 4c be ed 70 03 3e 2a 7f 55 3e
       -0.42871112 -0.19967507 0.12836047 0.2084929
000020 ac cd b6 be 3a 6e 27 bf 73 0e 41 3d c6 c8 13 be
       -0.3570379 -0.6540257 0.04713292 -0.14432058
000030 93 eb 9a bd 7f d1 f2 bc 0d e1 8b 3e 98 a4 c7 3e
       -0.075644635 -0.029640911 0.27320138 0.38992763
000040 e6 18 5d 3e 38 c3 aa be c2 6c 8a be 93 2d 92 bd
       0.21591529 -0.33352065 -0.270361 -0.07137599
000050 55 0b 54 be 08 29 b3 3d e3 92 56 bd b2 1b 87 be
       -0.20707448 0.087480605 -0.052386176 -0.26388317
000060 4c 31 2a be 63 42 8b be 7e 67 93 be 0c 55 10 bf
       -0.16620368 -0.27199087 -0.28789896 -0.5637977
000070 1d 4c a9 be f7 41 10 bf e5 e2 89 3e e1 4e 56 3e
       -0.33065882 -0.56350654 0.2693092 0.20928527
000080 a7 30 da bd dc e8 f8 bc a2 35 39 bd d9 0e 62 3d
       -0.10653811 -0.030384474 -0.045217164 0.05518994
000090 71 3d 00 be 25 3e c8 bd 14 41 21 3e e8 a6 96 bd
       -0.12523438 -0.09777478 0.15747482 -0.073560536
0000a0 7f 50 c2 3c 84 f3 aa bd e3 92 15 bf b0 d6 28 bf
       0.023720024 -0.08347228 -0.58427256 -0.6595259
0000b0 88 8c 3d 3e 73 93 8d be 1d f5 3e 3e 2b 22 17 bc
       0.1851064 -0.27651557 0.18648191 -0.009224455
0000c0 79 d8 0e be 37 c3 8e be 5e e0 2c 3e e1 b0 87 be
       -0.13949765 -0.27883312 0.16882464 -0.26502135
0000d0 0b e6 55 be 83 6e 12 be 09 f5 bd bd 6e 42 ff 3a
       -0.20888536 -0.1429997 -0.09275252 0.0019474754
0000e0 00 d0 fb 3d c9 a1 91 be 80 c9 c9 be ff 0e 5f be
       0.12295532 -0.28443745 -0.39411545 -0.21783064
0000f0 46 24 de be 10 14 aa 3e 42 2b d7 3d 54 24 d9 3d
       -0.4338705 0.3321843 0.10506298 0.10602632
000100 81 74 42 be d3 6e b0 bd 62 a4 f8 be c3 9c a6 be
       -0.18989755 -0.08614888 -0.48562914 -0.32541475
000110 95 f5 d7 bd 6f 79 74 bb e9 b4 e2 3d 70 0d ee bc
       -0.10544888 -0.0037303825 0.11069662 -0.029059142
000120 f8 b0 15 be 52 56 24 be 0f 58 7e be 41 18 b4 be
       -0.1461829 -0.16048554 -0.24838279 -0.35174754
000130 8e 79 af 3c ef d5 ee 3d e3 60 d0 3e 85 36 57 3e
       0.021420266 0.11661898 0.4069892 0.21016891
000140 0a 1e 7b be 5c ac b8 bd 93 7c 1f bd 1e da cb bd
       -0.24523178 -0.0901725 -0.038937163 -0.09953712
000150 8a d9 d4 be 5b 49 1f bc df e0 cc 3e c6 7a 2c bd
       -0.4157222 -0.009722079 0.40015313 -0.042109273
000160 db 4e 53 3e 4a c8 62 be 92 83 4b bb 83 dc 42 be
       0.2063555 -0.22146717 -0.0031053764 -0.19029431
000170 a0 da e5 be 7a db 83 be ff f7 2e 3e cb b8 8f 3d
       -0.4489336 -0.25753385 0.1708679 0.07017668
000180 7c fa 5d be 98 a9 c3 bd 3c e4 c2 3e 03 61 fd bd
       -0.21677583 -0.09553832 0.38064754 -0.12372019
000190 76 7c 57 be 0d 34 f6 3d ce 47 bb bc 54 2c a7 3e
       -0.21043572 0.12021647 -0.022861388 0.32651007
0001a0 5b 63 5a be 1d da be bd 48 67 57 bd 9b 5d f1 bd
       -0.21326964 -0.093189456 -0.05258873 -0.11785432
0001b0 ac 2e 9f 3c 5f 0c ce bd a2 69 8d bd 09 5c 8c bd
       0.019431435 -0.10060953 -0.069049135 -0.06853492
0001c0 b6 90 e7 be f7 8d 4a be e1 59 f9 be c5 f8 62 be
       -0.45227593 -0.19780718 -0.48701385 -0.2216521
0001d0 b9 b2 d8 be 43 24 57 3c c5 5b 8e be 25 93 d0 bd
       -0.42323855 0.013131204 -0.2780439 -0.101843156
0001e0 12 c6 0d bd 14 fd 14 bc e5 56 97 be 94 cc 82 be
       -0.034612723 -0.009093542 -0.29558483 -0.25546706
0001f0 cd d1 50 be c7 8d 32 be 90 a2 f0 3e 97 c1 51 3e
       -0.20392533 -0.17436896 0.46999025 0.20484005
000200 5e 7b ee be 88 71 05 3e ae db f2 be 53 dd 36 be
       -0.46578497 0.1303159 -0.47433227 -0.17857866
000210 e2 14 37 bf c1 d1 7a 3a 84 09 6c 3e 87 84 39 3e
       -0.7151624 0.0009567999 0.23050505 0.18116961
000220 41 b1 92 be 33 7f d6 be 7b 58 85 be a5 3d b4 bd
       -0.2865086 -0.4189392 -0.26044068 -0.0880082
000230 f6 ac 88 be b2 2d 0f bd 0f 20 72 3c 2b 35 aa 3e
       -0.2669446 -0.034955688 0.014778151 0.3324369
000240 d1 0b b1 be 2d 64 9a 3c ee f8 25 bf 02 f6 7c 3d
       -0.34579328 0.018846596 -0.6483296 0.06175805
000250 ea e1 e9 bd 51 d4 6b 3e 9a c3 3e 3e 13 96 8c 3c
       -0.11420043 0.23030211 0.18629304 0.017161405
000260 44 4a 96 3e 18 f6 b1 bd 0d 46 58 3c f4 35 97 bd
       0.29353535 -0.08689517 0.013200295 -0.073833376
000270 5e 3e 87 be 69 83 d7 3d d8 ac 21 be b3 ef 8b 3e
       -0.2641477 0.105231114 -0.15788591 0.27331313
000280 28 1c 8b be 1b 7f 63 3d 62 17 09 bf 1f e3 c3 bd
       -0.2716992 0.05554114 -0.53551304 -0.09564804
000290 c2 63 c6 be 5e f7 a7 3d 82 1e 82 3c 19 6f a3 3d
       -0.38747984 0.082014784 0.015883688 0.079801746
0002a0 4b 43 2b bd d3 3f 8e be 10 2c e6 bc 3a 2e 39 be
       -0.041812222 -0.2778307 -0.028097183 -0.1808404
0002b0 36 d4 d5 be e8 45 98 be e6 d2 81 be 5b 9e 16 3e
       -0.41763467 -0.29740834 -0.25356215 0.14708845
0002c0 43 fc 4c be 1b a8 d6 3d 00 49 07 3e d3 6f d4 3c
       -0.20018105 0.10481282 0.13211441 0.025932228
0002d0 ff 80 18 be 44 d6 63 bd d3 64 12 bd d2 04 2a bd
       -0.14892958 -0.05562426 -0.035740685 -0.041508503
0002e0 7b 40 06 be 6e 88 82 bd f6 d4 22 be 9f 67 25 be
       -0.13110535 -0.06373678 -0.1590155 -0.1615281
0002f0 38 20 9e 3c 86 fc 83 be 33 9d 69 bd 0f ff e1 3d
       0.019302472 -0.25778598 -0.057034682 0.11034977
000300 f3 54 f0 3d a7 e1 8b 3e f2 f9 53 bc 44 a4 ad be
       0.11734953 0.27320597 -0.01293801 -0.33914387
000310 0b e8 81 3e 1c 9d eb bd c2 ec 4b 3d cf 58 97 bc
       0.25372347 -0.115045756 0.049786337 -0.018474964
000320 5d 77 92 3d e3 f5 83 3c 0d 6b 31 3e b9 e0 34 3d
       0.07151673 0.016108459 0.17325993 0.044159625
000330 db de 81 3e 3c 99 da bd 5d 82 83 3e 88 1a 43 3d
       0.25365338 -0.106737584 0.25685397 0.047632724
000340 49 80 f4 3d d6 cd d9 3c f3 27 a1 bd c5 57 24 3d
       0.11938531 0.026587408 -0.07868948 0.040122766
000350 a4 91 4b be 6f 07 34 be b8 6d 37 be 7e db ec bd
       -0.19879776 -0.1758096 -0.17912948 -0.11565302
000360 d3 82 6d be 82 67 81 be 70 e0 9d bd 5a 9f d6 3d
       -0.23194437 -0.25274283 -0.07708824 0.10479613
000370 4b 72 f0 bd b6 b7 aa bd a8 0b 17 be 6b 6d 73 bd
       -0.1174055 -0.08335821 -0.1475054 -0.05943052
000380 5c be 02 3e 30 3a 74 be 1e 58 02 be 84 3f bc bc
       0.12767929 -0.23850322 -0.12728927 -0.022979505
000390 47 ea 3c 3e 90 4b 85 3e 87 39 46 3e 40 ef 3c 3d
       0.18448745 0.26034212 0.19357882 0.046126604
0003a0 70 2c 26 be 40 1a 0d be c2 15 fa ba 33 5d 8d 3c
       -0.16227889 -0.13779545 -0.0019079971 0.017256355
0003b0 93 a0 4c 3d 42 c2 28 be e6 b3 4f be 25 8a 45 bc
       0.049957823 -0.16480353 -0.2028347 -0.012056862
0003c0 0e 3f c2 bd 53 37 cc bd ae f6 cf 3c 6b 00 84 bd
       -0.09484683 -0.0997149 0.02538618 -0.06445392
0003d0 78 b2 ef 3d e2 2f 02 bd 65 46 4d 3e b9 97 b8 bd
       0.11703962 -0.031783946 0.20046385 -0.09013314
0003e0 98 c1 85 3d 69 9c 1c 3e 89 32 6e 3d 80 7d cf 3c
       0.06531066 0.1529404 0.058153663 0.025328398
0003f0 e1 62 41 3c 3b 09 f6 bc 0e 3a 51 3d a5 9c 60 bd
       0.01180336 -0.030033698 0.051080756 -0.054836888

bias f4 [48]
000000 41 f0 3b bd ac 3a 6d be 2a 2e dd 3d 02 b1 b7 be
       -0.04588342 -0.23166913 0.10799821 -0.35877234
000010 37 a3 38 be 92 10 a0 3c 5a 11 b1 3d 34 ee fa 3c
       -0.18031012 0.019539151 0.08645888 0.030631162
000020 88 76 c9 3c 7c 38 67 3e 9a 01 7a 3c 9d 64 80 bd
       0.024592653 0.22580141 0.015259171 -0.062691905
000030 98 02 bb bb a4 09 3c bd 77 f8 8d be e7 90 7d 3c
       -0.0057070963 -0.04590763 -0.27728626 0.015476442
000040 c4 28 68 3c bc 6a 9c bc cc 0a 88 be 96 dd 8c bc
       0.0141698755 -0.019093864 -0.26570737 -0.017195504
000050 83 89 a1 bd 07 92 73 3c f2 1b 2c bd d8 bd 6d 3d
       -0.078875564 0.014866359 -0.04201884 0.058042377
000060 21 7a 94 bd 01 91 9b be c8 7d 36 bd 12 27 0d 3d
       -0.07249857 -0.30384067 -0.044553548 0.03446109
000070 e2 8e 4a 3d 18 e8 e8 bc 83 d1 1d be d2 a7 2e be
       0.04945267 -0.028430983 -0.15411954 -0.17056206
000080 b6 2d 1b be dd 07 b8 be 48 bb b5 3d 40 35 b4 bc
       -0.15154156 -0.359435 0.08873612 -0.021998048
000090 71 f7 e4 3c d9 1b 6c be f7 87 05 be 18 9b 60 3c
       0.02795002 -0.23057498 -0.13040148 0.013708852
0000a0 1a 6b 1b bd f2 f1 de 3d a3 cf 30 be c3 f1 0d be
       -0.037943937 0.10885991 -0.17266707 -0.13861756
0000b0 6e 5f 3f 3d 52 9d 11 3e 41 04 1f 3c b2 84 5b be
       0.04672187 0.14220169 0.009705604 -0.21437338

weight f4 [96, 48, 6]
000000 37 dc 8a be 95 28 b3 3d bf 99 97 bd 1d 88 d4 be
       -0.27121136 0.08747975 -0.074023716 -0.41510096
000010 0b 19 c5 3d 01 f7 92 bd 8b cd 15 bf a0 e8 02 3e
       0.09623917 -0.071760185 -0.5851676 0.12784052
000020 c8 9f 1c be ba 1a 60 3e 49 de b2 3d a1 8d c8 3e
       -0.15295327 0.21885195 0.08733804 0.39170554
000030 60 9a 85 bd a8 4e 42 3d 98 3f b7 3e 1b 41 49 be
       -0.06523585 0.047438294 0.35790706 -0.19653742
000040 52 9d 83 3d 09 e1 9c be 9b 19 8d bb ee 8c 2a 3e
       0.06426491 -0.30640438 -0.004306031 0.16655323
000050 b8 c6 c5 bd 93 74 80 bd 7a ba 4b be 46 64 13 bd
       -0.09657043 -0.06272235 -0.19895354 -0.0359843
000060 bf 11 85 bd 1c 2b 1e 3d 96 cb e2 bb f6 c7 76 3e
       -0.064975254 0.03861533 -0.006921242 0.24099717
000070 87 52 a2 be a8 c3 72 3e b3 59 31 3e 03 0b 28 be
       -0.31703588 0.2370745 0.17319374 -0.1641045
000080 81 a6 95 be 18 9c ad be 6a f3 84 be eb 3f a3 be
       -0.29228595 -0.33908153 -0.2596696 -0.31884703
000090 0b 76 51 3e 26 d6 92 bd 15 81 b6 3d 47 ba c6 3d
       0.20455186 -0.07169752 0.08911339 0.09703498
0000a0 5e 85 85 be c8 6f fc be e6 e7 a1 be 51 5f 36 be
       -0.26078314 -0.49304032 -0.31622237 -0.17809798
0000b0 42 8d a0 be c1 a3 e5 bd 43 45 8c 3d f3 f1 37 3e
       -0.3135777 -0.11212874 0.06849148 0.1796339
0000c0 15 32 73 be ca 02 3b be 53 6e 84 3d 8a e6 33 be
       -0.23749574 -0.18262783 0.06466355 -0.17568412
0000d0 85 f7 c8 bd bd f5 2d 3d ab ee 93 be 9d e3 56 3d
       -0.098128356 0.042470682 -0.28893027 0.052463163
0000e0 66 ed 06 be 58 5b 80 bc cd 02 ca 3d e0 7f 6d be
       -0.13176498 -0.015668556 0.098638155 -0.23193312
0000f0 1c 23 a9 3e d8 51 55 be d3 22 ae bd f2 85 4f be
       0.330346 -0.20832002 -0.08502736 -0.2026594
000100 d3 aa 1c be 7d f0 64 be df 5e 2f be 89 68 a4 bc
       -0.1529954 -0.22357364 -0.17126034 -0.020069377
000110 e7 66 cf 3d 5c 0b 6a bc 51 9e e5 be 64 70 e4 3d
       0.10127049 -0.014284935 -0.44847348 0.11154249
000120 d3 c7 19 be da d9 94 be 82 3b 90 be 63 7b 8f bd
       -0.15017633 -0.29072458 -0.281704 -0.07005956
000130 42 38 a9 be d1 77 c1 3d 8a 50 04 bd 96 81 82 bd
       -0.33050734 0.09446681 -0.03230337 -0.06372373
000140 35 14 8b 3e 5d cf 69 be d9 92 a8 bd 98 2b 10 be
       0.27163854 -0.22833009 -0.08231134 -0.1407913
000150 db e3 ad 3e 17 f2 d5 bd cf cb 85 3d c7 a9 07 3d
       0.33962902 -0.104465656 0.06533014 0.033120897
000160 b4 cb be 3d c1 32 38 3b 0b ab 9e be aa 7c 59 be
       0.09316197 0.0028106424 -0.3098987 -0.21238962
000170 ca d5 0f 3e 41 c9 11 be 9f f0 68 3d 86 e8 b6 be
       0.14046398 -0.14236929 0.0568701 -0.35724276
000180 64 60 5c 3e b4 ee 61 be 4b 6a c5 3d ea 0a 78 be
       0.21521145 -0.22063714 0.096394144 -0.24222913
000190 38 bb 2d be 43 2f c6 bc bc a4 29 be 59 40 ee be
       -0.1696595 -0.024192458 -0.16566747 -0.46533468
0001a0 6f 13 06 3d 66 1c 61 be 77 95 98 3e 49 14 ca bc
       0.032733377 -0.2198349 0.29801533 -0.024667876
0001b0 fe fd 92 be f7 1b 50 bc a2 d0 13 3d 19 6f d1 3c
       -0.28709406 -0.01270198 0.03608764 0.02556567
0001c0 15 b4 cf bc 5e d3 c8 bc 07 79 98 3b 15 1a a1 3e
       -0.025354424 -0.02451485 0.0046530995 0.31465212
0001d0 78 2e 45 be 59 04 f1 bd 9d 7c 18 3e 1d 0f 4b 3e
       -0.19256008 -0.117684074 0.14891286 0.19829984
0001e0 bb 40 86 bc c0 3a fe bd 7a ad 1f 3c 07 d1 e9 bd
       -0.016388288 -0.124135494 0.00974595 -0.11416822
0001f0 b0 fe 04 be 0f 40 9d be 1e bb df be 95 8b 6f be
       -0.1298778 -0.30712935 -0.43697447 -0.2339309
000200 3c f7 34 3c cb de e9 bd f4 e8 41 be 29 32 69 bd
       0.011045273 -0.114194475 -0.18936521 -0.056932602
000210 d8 c8 45 be 6f cd 4b be b9 fc bb bd 19 b4 5c be
       -0.19314897 -0.19902585 -0.091790624 -0.21553077
000220 87 6a 74 be dc 99 d1 bd eb d1 1e 3d 5e 49 8e be
       -0.23868762 -0.102344245 0.038774412 -0.2779035
000230 04 22 9d 3e db 7f c8 3d 10 ec f3 bd 0f c1 eb bc
       0.30690014 0.097900115 -0.1191026 -0.028778581
000240 c9 30 a4 3e 3f 83 39 bd fd c9 07 be 79 8d 8e 3b
       0.3206847 -0.04529118 -0.13260646 0.004350361
000250 e1 c6 3c 3e a4 9d 37 bd 51 8f c6 3c 67 49 2b 3e
       0.18435241 -0.044828072 0.02423826 0.1672722
000260 5c 10 8a 3d 9c 0a 33 3e 58 e9 67 bd 84 8b e4 bd
       0.067414016 0.17484516 -0.05661902 -0.11159423
000270 74 a9 8e 3e f4 37 47 bd 20 ff 99 be 1e 96 10 3e
       0.27863657 -0.048637345 -0.30077457 0.14119765
000280 d8 8d 8f be a4 36 32 bd bd 2f d2 3d 3f 95 88 bd
       -0.28037906 -0.04350914 0.102630116 -0.066690914
000290 85 0f 01 3e 76 1d 18 be 56 64 a1 3e c1 66 82 3e
       0.12603576 -0.14854988 0.31521863 0.2546902
0002a0 3b 2f 9a 3d 66 6f ab 3e 62 ed ee 3d db 78 e1 bd
       0.0752854 0.33483428 0.11666371 -0.110093795
0002b0 98 fb cd bd 27 8a 76 bc a2 06 9e bd 94 07 bc 3c
       -0.10057753 -0.0150475865 -0.07716109 0.022952832
0002c0 14 1d 01 3e 3a 3e 88 3e 3e 8b 34 be cb ba 6d 3e
       0.12608749 0.26609975 -0.17631242 0.23215787
0002d0 03 aa a2 bd e5 7d cc 3d 03 e8 a6 3d c9 fe da bd
       -0.079425834 0.0998495 0.081497215 -0.10693128
0002e0 d9 30 88 be 3d ed f0 bb 16 0e 1b 3e 00 40 b5 3d
       -0.26599768 -0.0073524998 0.15142092 0.08850098
0002f0 a7 c3 8d 3d e2 c7 d8 bd c2 46 89 bc da 5c 13 3d
       0.06922083 -0.105849996 -0.016757373 0.035977222
000300 1a a0 91 3d 5b 11 86 3d bf 30 83 3d de c1 4d 3d
       0.07110615 0.06546279 0.06405782 0.050233714
000310 d0 8d 35 3c 5d 22 18 bd 8c 31 70 be ef c8 86 be
       0.011081174 -0.037142146 -0.234564 -0.26325175
000320 3a 34 5f be 97 cf 26 bd 38 d4 a7 be 6c 33 ba 3e
       -0.21797267 -0.040725317 -0.32779098 0.36367357
000330 7a 47 15 3d 75 0d 65 3e 6c 31 be 3d 3d 45 1a bc
       0.03644512 0.22368415 0.0928677 -0.009415922
000340 30 8d 4d be 49 79 4d be c0 fe 5a 3e 1c 2a d3 be
       -0.2007339 -0.20065798 0.21386242 -0.41243064
000350 f7 77 20 be e1 f0 ce bc e8 fb 0a be 3c 01 7b 3e
       -0.15670763 -0.025261344 -0.13572657 0.2451219
000360 e0 1c 08 3e 82 49 c9 bd 0a 70 b4 be 3a 74 a4 be
       0.13292265 -0.09828474 -0.3524173 -0.32119924
000370 a2 9b 30 3d e9 c4 09 bf 94 92 24 3e 55 72 39 be
       0.043117173 -0.53816086 0.1607154 -0.1811002
000380 84 ab 10 bd ac b5 45 bc bd 00 29 be d3 d1 3c 3e
       -0.03531982 -0.01206724 -0.16504188 0.18439417
000390 68 96 a8 3d 61 71 9e 3c 73 6c 7c bd 8d c0 5e 3e
       0.08231813 0.019341173 -0.061626863 0.2175314
0003a0 62 80 6c be c7 63 3f 3e 2a 2c ac 3d 70 c1 48 bc
       -0.23095849 0.18690406 0.08406861 -0.01225315
0003b0 51 94 29 3e a1 b3 25 3e 74 aa 27 be b3 bd af be
       0.16560484 0.16181804 -0.16373616 -0.34324417
0003c0 c0 82 1b bd 1f 6f fe 3d d2 30 7a bd d1 6a 7f 3d
       -0.03796649 0.124235384 -0.061081715 0.062357727
0003d0 4e 17 d7 bc 6c 25 27 be fc 5f 14 be 7f da b5 bd
       -0.02625623 -0.16322869 -0.1448974 -0.088795654
0003e0 49 e5 ca be 61 c4 ef be 72 69 69 3d a3 bb b7 3d
       -0.39628056 -0.46829513 0.056985326 0.08971336
0003f0 90 30 87 3e e0 b5 80 3e 8a 83 ad 3e e2 5f 2d bd
       0.26404238 0.2513876 0.3388942 -0.04232777

bias f4 [96]
000000 a1 d5 11 be 69 af 9e 3d d4 cd 68 bd d3 1e 4b 3c
       -0.14241649 0.077483006 -0.056836918 0.012397486
000010 b7 73 77 bc a9 de 25 be 6f ee 52 be 47 9c fa bd
       -0.015103272 -0.1619822 -0.20598768 -0.12236839
000020 89 b2 8d 3d 99 66 cf 3c 89 01 63 3d d9 d7 2c be
       0.069188185 0.025317477 0.055421386 -0.16879214
000030 74 f5 99 bc 7e 87 4c be 56 e6 77 bd 24 c8 50 be
       -0.018793799 -0.19973561 -0.0605224 -0.20388848
000040 df 29 0e 3e 17 1b 2f be df 36 82 bd 01 e4 08 be
       0.1388316 -0.17100178 -0.06358122 -0.13368227
000050 2f 0d 0c 3d 69 41 93 3d a9 2c a4 be 50 93 ac bc
       0.03419226 0.0719021 -0.32065323 -0.021066338
000060 de 25 74 3d 33 a3 ae 3c 69 41 70 be 91 01 1b 3b
       0.059606425 0.021318054 -0.23462452 0.0023652057
000070 61 e8 8d 3d 36 4a 76 3e 43 f1 7a be a7 3f 9a 3a
       0.069290884 0.24051747 -0.24506097 0.0011768237
000080 18 9a 65 be d2 eb 7a 3e c9 b5 75 be 23 36 a6 3d
       -0.22422063 0.24504021 -0.23995127 0.081157945
000090 1b 40 07 be f1 da 30 bd 71 7e 84 bc 5a 9b 1c bd
       -0.13208048 -0.04317755 -0.016173573 -0.038234092
0000a0 53 e8 a7 3d 58 8e f1 bd 32 4a 87 3e 05 d2 ce bc
       0.08198609 -0.11794728 0.26423794 -0.02524663
0000b0 19 35 66 be c1 d2 74 3c 43 e4 16 bd de 2a 56 bc
       -0.22481193 0.014942826 -0.03683878 -0.013071744
0000c0 36 30 49 3d 3a 8d 26 be ef e3 a4 3c 89 48 76 3e
       0.049118243 -0.16264811 0.020128218 0.24051107
0000d0 88 03 c9 bd 1e 76 43 3e 98 ed a6 bd 65 cb 24 be
       -0.09815127 0.19088027 -0.08150786 -0.16093214
0000e0 38 9e 18 be e5 29 34 3e 53 8a 42 be 7c 8d 2f bb
       -0.14904106 0.17594106 -0.18998079 -0.0026787212
0000f0 7e 44 4c be 07 12 71 3c 49 7f 60 3e b0 1f 1e be
       -0.19948003 0.014713771 0.21923555 -0.15441775
000100 f7 12 4c bd 8b 9c fc bd 1e b7 cf bd 3a 5e 3a 3d
       -0.049822774 -0.12334546 -0.10142349 0.045500018
000110 df ad 74 3e ad 9e 8c bc 80 3c df 3d f3 71 66 3d
       0.23894452 -0.017165506 0.10900211 0.056261014
000120 47 c2 8b bd 7b ce 96 bd 3a d1 62 bd 23 21 a3 bd
       -0.06824165 -0.07363602 -0.055375315 -0.07965305
000130 41 be ba bd 80 11 60 be 95 d5 15 3e 22 eb 70 be
       -0.09118319 -0.21881676 0.14632256 -0.23527196
000140 8b 0e 3c be 3b 38 01 bd 31 95 6d 3d d3 a1 5c 3d
       -0.18364923 -0.031547766 0.05800361 0.053865265
000150 ce 04 54 be 28 e5 f9 3c ea be 8d be ff 63 e4 3d
       -0.20704958 0.030504778 -0.27684718 0.11151885
000160 4a 7b db bd 67 ea 40 be b0 0d 5f bd 87 6e 47 be
       -0.10716875 -0.18839417 -0.054456413 -0.19475757
000170 c0 bd 74 be 9e 52 7d bc 81 6b bb bd 1c ea 80 be
       -0.23900509 -0.015461592 -0.09151364 -0.2517861

weight f4 [64, 2688]
000000 7a 40 9a 3c 06 b8 59 bd 37 f8 84 be 2a 8f 5c 3d
       0.018829573 -0.053154014 -0.25970623 0.05384747
000010 d7 13 1d be 76 6e 3d 3d 38 0d 7e be bf f1 83 3e
       -0.153396 0.046247922 -0.2480973 0.25770375
000020 73 3e f2 bd 14 13 e8 3c 7f 53 32 3d cd d6 b4 3d
       -0.118283175 0.02832941 0.04353666 0.088300325
000030 be 36 ab 3c c6 ac 3a 3e 47 c2 e1 bd 48 e3 d6 3c
       0.020900127 0.1822997 -0.110233836 0.026231423
000040 97 ca c1 be 8a a4 12 be ff 84 3b be e7 5c 8e 3e
       -0.37849876 -0.14320579 -0.18312453 0.27805254
000050 df 60 1f bd 24 f0 8f 3b 62 fc 10 3c d4 af a2 3d
       -0.038910743 0.0043926407 0.008849235 0.07943693
000060 0b c8 43 3e 12 2b 22 be f9 3d ec bd d1 b1 0f bd
       0.19119279 -0.15836743 -0.11535258 -0.03508169
000070 0d a1 a3 bc 32 64 8b 3d a0 70 b1 bc 53 6b 8b bb
       -0.019974256 0.0680622 -0.02166015 -0.0042547374
000080 60 07 7b 3d 23 82 08 be 2b da f3 bd e4 28 89 be
       0.06128633 -0.13330893 -0.119068466 -0.2678901
000090 a4 82 97 bd 70 9e d9 bd 93 f9 0e be 89 71 23 bd
       -0.073979646 -0.10625923 -0.13962393 -0.039903197
0000a0 f2 48 9b 3d 8b df 0f be 96 fd 40 bd 48 24 0c be
       0.075822726 -0.14050119 -0.04711684 -0.13685715
0000b0 ca 8a fe 3d 08 e8 89 3c b9 a1 ab bc d1 05 81 be
       0.12428816 0.016834274 -0.020951139 -0.2519975
0000c0 53 dd 35 3d 2d bf 1f bc 8b d4 44 bb ee d3 03 3d
       0.044400524 -0.00975017 -0.0030033912 0.032184534
0000d0 36 08 de bd bd ea 25 3c b4 64 cc bd e9 f9 cf 3d
       -0.1084141 0.010126767 -0.09980145 0.101550885
0000e0 66 d7 92 be 14 62 c7 be e3 ff f0 bd f6 5f 11 bd
       -0.2867996 -0.38942015 -0.117675565 -0.035491906
0000f0 41 4f 58 3b 05 37 00 bd 25 1f 36 be e3 77 da bd
       0.0033006223 -0.03130247 -0.17785318 -0.10667398
000100 f4 d4 42 3d 82 dc 50 be 8e b2 70 be bc 31 18 be
       0.04756637 -0.20396617 -0.23505613 -0.14862722
000110 3f c3 54 bd e0 cd be be 2d aa 1a be 29 30 1c bd
       -0.051944014 -0.37266445 -0.1510398 -0.038131867
000120 f3 a1 b2 bd 2a c4 40 be a5 f8 48 be cd 7a 00 be
       -0.087222956 -0.1882483 -0.196261 -0.12546845
000130 13 a0 82 be c0 89 a6 be 7e e6 d0 be f6 d5 1b be
       -0.25512752 -0.3252697 -0.40800852 -0.15218338
000140 a1 d3 08 3e 23 55 19 be 0a 54 06 be 53 d6 6c bc
       0.1336198 -0.14973883 -0.13117996 -0.014455396
000150 7f 08 eb be 70 69 7b be 44 30 86 3e f2 75 8a be
       -0.4590492 -0.2455194 0.262087 -0.2704311
000160 b5 6b 51 bd a0 65 2c be d5 73 26 bd cf 08 f1 be
       -0.051128108 -0.16835642 -0.04063781 -0.47077033
000170 1d af 1c be 97 9e ff bd 9f 83 6d be 78 01 d2 be
       -0.15301175 -0.124814205 -0.2319474 -0.41016746
000180 ea bb 13 bc 6c 7d dd bc 10 8f 3c bd 8a 57 20 be
       -0.00901697 -0.027037345 -0.046034873 -0.15658394
000190 c1 93 01 be 41 cf d7 bd 12 82 d3 3d 10 69 a4 be
       -0.1265402 -0.105375774 0.10327543 -0.32111406
0001a0 09 fa aa be dc 19 f7 3c fb f4 f1 3d c2 72 83 bd
       -0.33393887 0.030163698 0.118143044 -0.06418373
0001b0 06 8b d9 3b 20 d3 ed bd 6d bc 0c be 01 63 3e 3d
       0.0066388873 -0.116125345 -0.13743754 0.046481136
0001c0 91 85 3e be d5 cd 62 be 25 c6 6f 3d 59 ab 6c be
       -0.18605639 -0.22148831 0.058538575 -0.23112239
0001d0 03 7e 3f 3e 7e 7c 97 3d dd 35 a2 3c b1 7c 8a be
       0.18700413 0.07396792 0.019801075 -0.27048257
0001e0 61 96 02 3d d4 8c 5a 3d 4c 5a 4e be fb 38 01 be
       0.031881694 0.05335696 -0.20151633 -0.12619393
0001f0 cd f8 86 be c6 b0 f0 bd 12 47 2a be 68 95 9b bd
       -0.26361695 -0.11752467 -0.16628674 -0.07596856
000200 bd 6d ef bd b2 e6 30 be 36 51 75 3d 02 25 4d be
       -0.11690853 -0.17275503 0.059891902 -0.20033649
000210 92 7f 3e bd 0f 3d d4 be 57 d4 92 bd e5 ce 04 be
       -0.04650838 -0.41452834 -0.07169407 -0.12969549
000220 a7 1a d5 bb 6d 71 72 bd 77 c9 26 3d 95 7e 69 bc
       -0.0065034213 -0.059190203 0.040719476 -0.014251371
000230 5e 11 da bb d1 44 b6 bc 98 a2 1b 3b 06 7e c5 bc
       -0.0066549024 -0.022249611 0.0023748036 -0.024107944
000240 42 09 24 3c 43 50 cc bb 44 3b b2 b9 27 01 54 bc
       0.010011973 -0.006235154 -0.00033994962 -0.012939728
000250 6d 4c 15 3b b5 a3 23 bd eb c3 37 3c 88 7a 93 3c
       0.002278115 -0.039951045 0.011216144 0.018002763
000260 4e 11 84 bb 16 ff 39 bc 73 ca 79 3c 45 51 6d bc
       -0.004030383 -0.011352321 0.015246022 -0.014484708
000270 b1 39 34 bc ff 54 8d bc fb 9c 8c ba 59 30 d0 bc
       -0.011000083 -0.017252443 -0.0010727936 -0.025413679
000280 e5 e9 90 bc 43 94 90 bb 7e 11 df bc 22 f4 6a bc
       -0.017689655 -0.0044122054 -0.02723002 -0.014340432
000290 28 9e 5f 3b 4b 45 92 bc e0 04 36 3c f7 6e 0e 3b
       0.0034121368 -0.017855307 0.011109561 0.002173362
0002a0 05 96 85 bd 3f e9 1a be 86 62 2a be 9e 2f 63 be
       -0.065227546 -0.15128039 -0.16639146 -0.22186133
0002b0 bf 13 de be f3 6d a0 3d c0 b3 8a be 52 37 60 3c
       -0.4337444 0.07833471 -0.27090263 0.013685064
0002c0 a5 5b 94 be a7 00 da 3d 53 b6 4d be 1a c8 a0 3d
       -0.2897617 0.10644656 -0.20089082 0.07850666
0002d0 e8 a3 e3 be ef 19 38 3e 2d 24 b5 bd 6a d7 a1 ba
       -0.44460988 0.17978643 -0.088447906 -0.0012347524
0002e0 db 98 97 be de 4e 99 3e 7f a6 cd bd e7 0d b6 bd
       -0.29608807 0.29942983 -0.10041522 -0.088893704
0002f0 e1 83 dd bd a8 b1 89 3e a1 7a a8 be 6f 8c 6a be
       -0.108161695 0.26893353 -0.32906058 -0.22905134
000300 e5 1f ad 3b 63 e9 13 3c 21 d5 5b bd 24 ae 87 be
       0.005283343 0.009027812 -0.053670052 -0.26500046
000310 2b 22 9b be 68 9e a3 be 20 b3 38 3b 9d ff 8e be
       -0.30299506 -0.31956792 0.0028182939 -0.27929392
000320 a4 fd 2a bd f2 fa 47 be 64 76 87 3c 80 36 a4 bd
       -0.041745797 -0.19529322 0.016535945 -0.080182076
000330 dd c6 09 bd 14 ec 72 be d4 81 2f be d0 d0 5a be
       -0.033636916 -0.23722869 -0.17139369 -0.21368718
000340 b6 14 dc 3d d9 a9 a3 3c 05 31 ef 3d 7a 0f 66 3b
       0.10746138 0.01997845 0.116792716 0.003510444
000350 b1 a8 27 be c3 5d 39 3e 1d da 16 3c 5d 4e 87 3d
       -0.16372944 0.18102174 0.009207276 0.066067435
000360 bb 8d 57 bd e8 33 66 be 6f b1 5e 3d 1d d5 d0 bd
       -0.0526254 -0.22480738 0.054368433 -0.10196898
000370 0b 30 4f 3e 3e 6b 72 be c0 7f 75 3e 25 43 bb 3d
       0.2023317 -0.23673722 0.23974514 0.09143666
000380 8d 56 30 3e 7e a2 5d 3d 46 bc 75 3e ba 6e b1 3d
       0.17220517 0.054110043 0.23997602 0.086636975
000390 96 69 01 3e 58 b0 1c 3e 75 0f 63 bd 20 e6 89 3e
       0.12637934 0.15301645 -0.055434663 0.26933384
0003a0 b3 a8 d1 3e a4 0a 72 3d d1 7d f1 3d 70 f5 0b 3d
       0.4094902 0.05909218 0.11791576 0.034169614
0003b0 4f b9 e5 3e e9 d4 1c 3e 5f c9 8f 3c 63 b4 a4 bd
       0.44867942 0.15315594 0.017552076 -0.080422185
0003c0 cf b2 76 3d e6 94 41 be 9c 1f 01 3e b6 36 eb 3d
       0.06022912 -0.18904456 0.12609714 0.11485045
0003d0 10 9c a6 3e 31 e1 15 3e e5 1c 9d 3e d0 f1 00 3e
       0.3254094 0.14636685 0.30686107 0.12592244
0003e0 d8 5f 98 3e d3 c2 64 bd 20 c6 ad bd 28 96 9c be
       0.29760623 -0.05584986 -0.08485055 -0.3058331
0003f0 37 60 0a 3e c3 a4 f9 bc 99 6c 53 3e c5 e8 48 bd
       0.13513266 -0.030474072 0.20646895 -0.04905011

bias f4 [64]
000000 fb f6 93 3e 6e 69 08 bc d8 b3 44 bd 23 ff 01 bd
       0.2889937 -0.008325918 -0.048023075 -0.031737458
000010 63 38 5d bd 62 21 09 3c 99 07 a4 3d b0 92 83 bd
       -0.054008853 0.0083697755 0.08009262 -0.06424463
000020 f8 95 a8 3e 70 46 9a 3d a3 f2 f5 3e fb da 75 be
       0.32926917 0.07532966 0.4803668 -0.24009316
000030 8d 42 76 3e fc 62 d9 3d 82 37 5d be a9 92 b6 bc
       0.24048825 0.10614583 -0.21603206 -0.02228673
000040 71 71 5d be 0f 88 59 bd 90 ba b4 be 3d 4d 60 3c
       -0.21625306 -0.05310827 -0.35298586 0.01369029
000050 fb d0 09 be a8 3b 75 3d d2 22 33 be 0a d3 e1 3d
       -0.13458626 0.059871346 -0.17493752 0.11026581
000060 c3 cd 1d be 76 49 8c ba 4b 4e 05 bb 12 14 ac be
       -0.15410523 -0.0010703045 -0.0020340856 -0.33609062
000070 81 91 07 3e 3e 7c ae be a0 8a 2b bf d3 c4 76 be
       0.13239099 -0.34079164 -0.670084 -0.2409852
000080 74 8f cc bd 24 30 f5 3d 3f c3 aa 3e fa 97 1a 3e
       -0.09988299 0.11972073 0.33352086 0.15097037
000090 64 b1 2e 3d 9e 4e 93 be bc ea d9 3d 99 81 8c 3e
       0.04264964 -0.28770918 0.10640475 0.27442625
0000a0 77 00 63 be 41 f0 b3 3e 05 f5 24 be 8c be 20 be
       -0.22168146 0.35144237 -0.16109093 -0.15697688
0000b0 52 18 08 3e 3f 1a e7 3d 3b 9a 95 3c 34 59 c1 bd
       0.13290527 0.11284303 0.01826202 -0.09440842
0000c0 17 37 c9 3d 0e 78 5d 3e 43 74 85 3e 4c 87 74 3d
       0.09824961 0.21627828 0.26065263 0.05969934
0000d0 92 ca 9c 3e 9f b6 85 3e ac 31 b6 be 37 2b d8 bb
       0.306233 0.2611589 -0.35584772 -0.0065969485
0000e0 d0 5f 0b be 96 40 d4 bd 2d 07 da bd 30 e8 3d bc
       -0.13610768 -0.10363881 -0.106459 -0.011591002
0000f0 b5 28 bd 3e 09 e6 24 be c9 25 40 3e 51 ae 17 3e
       0.3694512 -0.16103376 0.18764414 0.1481259

weight f4 [25, 64]
000000 84 35 8c 3e 3b e8 97 bc 1e c3 e1 bd dd 30 38 be
       0.2738458 -0.018543353 -0.11023544 -0.1798739
000010 fd 30 7f 3e a1 d4 13 be 42 5e db 3d 03 9c c2 bd
       0.24921031 -0.1443658 0.107113376 -0.09502413
000020 7d 34 c1 bc bf fc 4d 3e 17 0f 92 3d 5f 8f 48 bc
       -0.023584599 0.20115946 0.071317844 -0.012241214
000030 4f ba fa bd 84 78 04 3e 6c cf b1 bd cb af 47 bd
       -0.12242567 0.12936598 -0.08682141 -0.048751634
000040 98 73 24 3e 86 63 a6 3d c6 4f 1a be cc f9 10 3e
       0.1605972 0.08124451 -0.15069494 0.1415779
000050 b4 d3 d1 3d a9 78 95 bd 03 61 c8 bd 75 59 f0 3d
       0.10245457 -0.07298405 -0.097841285 0.117358126
000060 ce 2b 8e bd c8 9f c6 bd 32 84 81 bb b4 83 1b 3d
       -0.06941949 -0.096984446 -0.0039525265 0.0379674
000070 8d 11 4f 3e 1d 47 0f be 9c 3e 84 bd b4 7e 58 bc
       0.20221539 -0.13991971 -0.06457254 -0.013213802
000080 38 89 2d bb 78 a8 40 be 23 25 e0 3d 6b bc fc 3d
       -0.0026479494 -0.18814266 0.10944583 0.123406254
000090 86 68 33 be 8d 31 c3 bd 31 8a 8b bc a8 b7 29 3d
       -0.17520341 -0.095309354 -0.017033668 0.041434914
0000a0 a7 32 1b be cc d7 e2 bc 7e 27 30 bd 6f b2 18 3c
       -0.15156041 -0.02769079 -0.043006413 0.009319886
0000b0 05 75 59 bd 87 c0 f3 bb ab cb 2f be e6 45 fa 3d
       -0.053090114 -0.0074387225 -0.17167537 0.12220363
0000c0 76 09 2a 3d 27 2a 47 3e 99 10 3d be 72 fa f7 bd
       0.04151293 0.19449674 -0.18463363 -0.121083155
0000d0 04 cd 43 3d 44 f6 00 bd 98 49 ef bd 55 e7 0e 3e
       0.04780294 -0.031484857 -0.11683959 0.13955434
0000e0 f2 0b db bd 2b 93 16 be 41 e4 58 be 97 7d 52 3d
       -0.10695638 -0.14704578 -0.21180822 0.051389303
0000f0 c8 d0 20 be e3 aa c9 bd 12 06 fb bd e4 1f e3 3d
       -0.15704644 -0.09847047 -0.12257017 0.11090067
000100 5a 42 66 bd 28 b2 8d be 0e 8d 7c 3e b2 d4 65 3e
       -0.05621562 -0.27674985 0.24663183 0.22444418
000110 3d 31 35 bd 5c 02 33 3e 05 c7 b9 bc d5 ec 22 be
       -0.04423641 0.17481369 -0.022677908 -0.15910657
000120 e7 ae a0 be e2 f4 94 be 11 82 75 be 73 e2 06 3e
       -0.3138344 -0.2909308 -0.23975398 0.13172321
000130 50 19 46 3e a4 6a 66 3e 40 37 50 3b e8 49 ac 3a
       0.19345593 0.22501618 0.0031771213 0.0013144584
000140 cc d1 af 3e c3 52 0a 3d 0a 99 34 3e 10 fe 67 be
       0.3433975 0.033770334 0.17636505 -0.22655511
000150 fd d9 81 be ba a7 ee bd 6e ba 25 3e 7e b8 d4 3d
       -0.25361624 -0.11653085 0.16184399 0.103867516
000160 8a 5c 5a 3e 53 fe 5c be 02 95 be 3d c2 84 29 3e
       0.21324363 -0.21581392 0.09305765 0.1655455
000170 6d 01 2d 3e d6 d5 77 bd b5 ba 1b 3e 62 9b c5 be
       0.16895075 -0.060506664 0.15207942 -0.3859511
000180 89 9c 33 be 6c f1 55 be 3b b6 fa bd 81 06 ad be
       -0.17540182 -0.20892876 -0.12241789 -0.33794025
000190 c0 ff 00 3f be ea 28 be 69 ec 05 3e 41 ff 66 be
       0.50390244 -0.16495797 0.13078465 -0.22558309
0001a0 58 df a2 3e c8 fa 93 3e 09 fc a4 3e f6 2c 0e 3e
       0.31811023 0.28902268 0.32223538 0.13884339
0001b0 10 b3 ea 3e e6 89 30 3e 50 e3 a5 bd 2e 77 4f be
       0.4583974 0.17240104 -0.08099997 -0.20260307
0001c0 1c 6f 41 be 1e 21 37 3e 5b 76 61 3e f1 01 64 3e
       -0.18890041 0.17883727 0.22017805 0.22266366
0001d0 3b ac 3c be 32 6e 1a 3e 94 05 c9 bd a2 58 2d be
       -0.18425076 0.15081099 -0.09815517 -0.16928342
0001e0 3c c2 c0 3e 04 59 35 be 56 c4 27 3e 54 4f 75 3e
       0.3764819 -0.17709738 0.1638349 0.23956043
0001f0 6d 94 01 3d 9f a0 26 be ab f1 7c 3e 9b 9a 07 be
       0.03163569 -0.1627221 0.24701564 -0.13242571
000200 f2 c2 c9 3d c6 ae 73 bd 1a 4c b7 be 52 8f 4c be
       0.09851636 -0.05949285 -0.35800248 -0.19976547
000210 69 3a 2f 3e 47 ae 37 be 25 d6 25 3d e9 1b 96 be
       0.17112125 -0.17937575 0.040487427 -0.2931817
000220 47 77 dc bd ce 8d c9 3d f7 64 ec bd 4b 09 ca 3d
       -0.10764938 0.098415 -0.11542695 0.09865054
000230 46 df 4d 3e d9 e3 19 3e bd 60 8f be 62 ef 2d 3c
       0.20104703 0.15028323 -0.28003493 0.010616155
000240 f7 a7 15 3e ba db 32 bd 9b 50 92 be 55 21 a3 3e
       0.14614855 -0.04366658 -0.28577122 0.31861368
000250 f5 2d 76 3e 8e b8 ce bd e8 35 14 bb ba 45 f8 bd
       0.24040969 -0.10093795 -0.0022615138 -0.12122674
000260 04 30 fd bd 99 6f 45 be d0 38 95 be f0 d4 74 be
       -0.12362674 -0.19280852 -0.29144907 -0.23909354
000270 91 8b 86 be 67 22 1c be 80 8f 8b be 0b 5c 62 bd
       -0.26278356 -0.15247498 -0.2725792 -0.05526356
000280 b6 15 9b bd ef 87 a7 bc 25 bc ad 3d d7 12 bb 3e
       -0.075725004 -0.02045056 0.08483151 0.3653781
000290 cb 46 37 be 45 fe 01 3e 6d 0c 80 be 12 5c dd bc
       -0.17898099 0.12694652 -0.2500948 -0.027021442
0002a0 90 37 7f 3d f0 28 27 be f5 89 5b bd 06 ad c6 3e
       0.062308848 -0.1632421 -0.053598363 0.3880388
0002b0 77 9f 61 be 67 80 b8 bd 09 43 07 be 2f f0 64 3e
       -0.22033487 -0.09008866 -0.13209166 0.22357248
0002c0 36 00 c8 bd 1c 97 bb bd 5c 9f 33 be 0e e4 fd bd
       -0.09765665 -0.09159681 -0.1754126 -0.123970136
0002d0 ba 32 e6 bd f1 fb 95 3e 85 2f 0c be bf 36 af 3e
       -0.11240144 0.2929378 -0.13690002 0.34221455
0002e0 ba 89 26 3d 82 3e 15 3e 99 a5 93 bd ad 50 5e 3e
       0.04065869 0.14574626 -0.072093196 0.21710463
0002f0 d0 5f 15 3e 6c f8 6b 3d 71 a9 6b 3e 51 75 30 bd
       0.14587331 0.05760996 0.23013856 -0.04308063
000300 8e cd cb be ee 76 b1 be 56 64 74 3d 75 61 6f be
       -0.39805263 -0.3466105 0.059666 -0.2337702
000310 63 16 93 be d6 92 b2 bc 4b 04 b8 be 07 49 6a be
       -0.28728017 -0.021798532 -0.35940775 -0.2287942
000320 c7 c0 08 3e 7c 55 8a 3e df ca b6 be 6d 51 46 3e
       0.13354789 0.27018344 -0.35701653 0.19366999
000330 e1 06 8f bd 3d 6f 38 3e a6 2e 5d 3c 11 3e e4 bc
       -0.06983734 0.18011184 0.013499891 -0.027861627
000340 bd ee a1 3e cd 52 c7 3e 50 4d aa 3e 56 f3 93 3b
       0.31627455 0.3893036 0.3326211 0.004515092
000350 29 94 2b 3e 9a 52 79 be d6 53 7b bc d6 de 66 be
       0.16755737 -0.24347916 -0.015339812 -0.22545943
000360 c7 10 80 3e 13 f8 80 be d8 0e 92 be a2 b0 71 3b
       0.250128 -0.25189266 -0.2852695 0.0036878963
000370 63 c8 24 3e b8 a9 7e 3e 1c 16 06 3e 60 24 15 3c
       0.16092066 0.2486943 0.13094372 0.009102911
000380 d4 83 7a be 75 2f 08 bd 43 42 cf bd 91 fb 81 3e
       -0.24464351 -0.033248384 -0.1012006 0.25387242
000390 e0 06 91 3d 5c 74 84 be f7 c5 31 3e d7 0f 45 be
       0.070813894 -0.25870025 0.17360674 -0.19244324
0003a0 27 0f 06 bd 22 cc fe 3b 5b 1e 3b 3e 98 0d ac 3e
       -0.032729294 0.0077757994 0.18273298 0.3360412
0003b0 5c 5b ac 3d f2 da 85 3d 48 17 b2 3c 44 6e 3d be
       0.08415863 0.06535901 0.021739617 -0.18499094
0003c0 67 9f b3 be 59 b5 03 3e 65 7b 82 be d0 d5 63 3e
       -0.35082552 0.12862147 -0.25484768 0.22249532
0003d0 37 73 d5 be 5c 28 3d bd 2c 9d 0c be 86 6c f0 3c
       -0.41689464 -0.046181068 -0.13731831 0.029348623
0003e0 7c 77 e0 3d d7 04 e3 bd c4 13 43 be 5c 1d 70 3d
       0.1096029 -0.110849075 -0.19050509 0.05862175
0003f0 93 5b 3f be df da a4 be 55 00 28 3e 95 23 59 bd
       -0.18687277 -0.32198235 0.16406377 -0.05301245

bias f4 [25]
000000 54 59 05 be 44 dc 47 3e 67 16 44 3e 69 41 15 bd
       -0.13022357 0.19517618 0.19149171 -0.036439333
000010 25 c3 08 bf 75 1f 12 3e 2c bf 0a 3f a3 42 4a be
       -0.53422767 0.14269812 0.54197955 -0.19751982
000020 9e fe 85 3e 0c 88 99 bd 50 55 a2 3d b7 29 96 3e
       0.2617082 -0.07496652 0.07926428 0.293287
000030 70 03 fc 3d ee 2b 1e 3e e0 fe b7 bd 9d 59 4a be
       0.12305343 0.15446445 -0.089841604 -0.19760747
000040 75 91 12 be 78 7a 64 3e fc 1a b7 3d 1b ed 0d bf
       -0.143133 0.22312343 0.08940694 -0.5543992
000050 3d 32 f3 3e 17 73 af bc b1 38 c5 3d 4f 1a af 3e
       0.47499266 -0.021417184 0.09629954 0.3419976
000060 77 c8 c8 bf
       -1.5686177
