result/config2_main/preliminary_model6.pt (torch_old, 874676 bytes, 10 tensors)

weight f4 [12, 2, 192]
00000000: 4ce2 953e fcdb a53d e951 013e fb6a 723d
00000010: 17a2 15be cce4 ff3c b2cf 843e 0cf9 5b3e
00000020: 696c b43c 1576 413d 0907 b83d c4f9 87bc
00000030: a1c7 503c 8361 78bd 39a4 113e 8a9c 11bc
00000040: 078a 71bd 04a1 ab3d a1e6 913c cfdd 723d
00000050: 3723 3ebb b081 bdba 1e83 f1bd 61db 08bd
00000060: 41e6 f43b 44d1 fdbd 2ab5 153e 067b 5fbd
00000070: 5f3c 60bc 2767 55bd ecba c839 3250 d5bc
00000080: 184b 963d 35ce 613e 8e82 393d a29d 863d
00000090: 8537 19be d3ec d4bd 7e97 2cbe ce03 8bbd
000000a0: 4521 be3c 3713 61bd 0cbd bfbd 6e4e 993c
000000b0: 6df4 bdbc f04a d43d 8cc1 babd 41f8 44bd
000000c0: 2256 c43c f529 31bd 6cdc 853c b2ca cc3d
000000d0: 6f61 acbd 1f16 dbbd 0024 17be 6bf0 013d
000000e0: abcc c43d 8006 b13d 9418 b03d ae51 a2bd
000000f0: 00f2 76bd ff89 87bd a41e 093e 6823 a43d
00000100: 2c2b 68bd e7bc 27be 2098 6e3d 2d37 023d
00000110: 9171 85bd 09c9 363e ca22 1abe 33c4 1cbd
00000120: c0e2 303e 46c9 dabd 2ffb 993a f8f4 1bbd
00000130: 3470 b8bd eb3a 083e 50f5 293e f842 b23d
00000140: 596d e7bc 23b7 18bd c359 083d a820 b23d
00000150: 4f05 7e3d cada 42bc fd11 1c3c 6bf1 e73d
00000160: d862 ef3d 24bb 6f3e d207 b83c 007f 83bc
00000170: b74e c83c bee8 043e d787 f03d 50fd 153d
00000180: ba3b 1b3e 9661 283d 11a3 07bd ffd6 c03d
00000190: 0892 b83d f507 e1bd 1842 39be 9fd8 443e
000001a0: 5d31 a93d 7726 2c3e 28b5 7a3d 5dd6 21be
000001b0: b4ee cbbd e7aa e5bd 86a1 563e a726 39bd
000001c0: 0191 603c cfc0 aabc 47b6 ddbb 3e37 29be
000001d0: 7714 c3bc d4e9 c2bc e3ab e23a 0409 753e
000001e0: b10a 313e 1c7e b8bd 79df 7ebe 9439 6bbd
000001f0: 7eb7 8c3c f58d 32be 478c c6bd 718c e5bd
00000200: 6f73 02be 1559 e7bb 4d44 aa3d 1da4 f33d
00000210: cc47 5dbe cc33 88be e318 2abd 0004 6e3e
00000220: 39b3 a0bd 13bc d03d 2297 b83d 7bb9 aebd
00000230: 6ae4 26bd 05dc 043e bcd7 fd3d 7c88 0f3d
00000240: 2108 563d 62d2 93bd 17b1 743d 9feb 823c
00000250: 9980 0d3e 78ab 8d3d d5fc 3d3c 83be 003d
00000260: 1eca a43d 6e4f 633e 7307 103d 4149 743e
00000270: aca1 ae3c da5d efbd 2cc4 62be f5f0 05be
00000280: 80a7 423c 67f9 2b3d 28bf 90bc a02b 4b3d
00000290: 7700 153e 0c8f 083e 1083 5c3d cf15 6e3e
000002a0: 3782 86bc d5cd bfbd 4935 b03d 8e65 4fbd
000002b0: b589 473e 4d81 603e 7b1d 4e3e aee8 e1bd
000002c0: 3676 d1bd c262 213e 2fcc 943e ac7b bb3e
000002d0: 5e60 353e 53a7 abbd 5e71 25bd 3519 1b3e
000002e0: 64fe 1c3e 4565 ed3d b219 81bd 8b39 14be
000002f0: c191 903d babc 8b3d eaa5 5c3e 80a5 a43d
00000300: f605 953e 78e9 d6bd 1b38 ac3d 25bf bd3d
00000310: 7976 79be 6343 3abc 76eb 483e 8fb9 573e
00000320: 3f01 35be 6cb8 19be 2682 e23d 2b45 423d
00000330: 44de 093e 41db bfbc c89e c63c 0195 cbbd
00000340: 958e bc3c a436 9f3e 3308 88bd b235 58ba
00000350: f4df cbbd 5a32 cd3d ef7f f53d cc0a 663e
00000360: a224 2e3e 879a 52bd 7000 c73b 553f 65bd
00000370: 0e0d 8b3d d2b1 8bbd ac9f 40be a1cd abbe
00000380: 378f 19be dc8e 99bc b21e 87bd dbd8 9bbd
00000390: c046 1cbe d10f 10be e8bb 22bd 878a 00be
000003a0: 69a0 7bbd 3cf9 a5be 5f5e fabd e180 83be
000003b0: 084a 4bbe 539e a73d 1c0b 0fbd a60d 183d
000003c0: b8ca 81bd 4e0b 81bd af6e 143d b8d8 943d
000003d0: ba0f a2bd 755e 76bb bb71 f5bd 063b aabd
000003e0: 0d56 77bc dd62 193d 841b c03c afc3 86bd
000003f0: 7956 a2bd 064b 893c 782f bf3d 651c 4d3e
0.29274213 0.08098599 0.12628902 0.059184056 -0.14612614 0.031237029 0.2593971 0.21481723
0.02202435 0.047231752 0.08985717 -0.01659859 0.012742908 -0.06063987 0.14222802 -0.0088874195
-0.058969524 0.08380321 0.017810168 0.059293564 -0.002901269 -0.0014458206 -0.11792587 -0.03341234
0.0074737375 -0.1239343 0.1461989 -0.054560684 -0.013686269 -0.052100327 0.0003828624 -0.026039217
0.07338542 0.22051318 0.045290522 0.06573035 -0.14962585 -0.10396733 -0.16854665 -0.06787835
0.023209224 -0.054949965 -0.0936223 0.018714156 -0.02318784 0.10365856 -0.091189474 -0.048088316
0.023966853 -0.043252904 0.016340457 0.099995986 -0.084170215 -0.10697579 -0.14759827 0.03172342
0.0960935 0.08643818 0.08598438 -0.079257354 -0.060289383 -0.066181175 0.13390595 0.08014566
-0.056681797 -0.16380654 0.058250546 0.0317909 -0.06515802 0.17850126 -0.15052333 -0.038273048
0.17273998 -0.10682921 0.0011747832 -0.038075417 -0.09005776 0.13303725 0.16597486 0.087041795
-0.028250383 -0.037284028 0.03328873 0.08697635 0.06201678 -0.011892984 0.009525773 0.11325344
0.11688775 0.23411232 0.022464667 -0.01605177 0.024451597 0.12979409 0.117446594 0.03661853
0.15159503 0.04110869 -0.033114497 0.09416007 0.09012228 -0.10987846 -0.18091619 0.1922326
0.082613684 0.16811548 0.06120792 -0.1580443 -0.099576384 -0.11214238 0.20960054 -0.045202877
0.013706447 -0.020843891 -0.006766114 -0.1652498 -0.02381347 -0.023793139 0.0017293658 0.2392922
0.17289235 -0.090084285 -0.24889936 -0.057427958 0.01717734 -0.17436965 -0.096947245 -0.11208428
-0.12739347 -0.00706018 0.083138086 0.118965365 -0.2160942 -0.26602018 -0.04152764 0.23243713
-0.07846684 0.10192122 0.09013201 -0.08531471 -0.040745176 0.12974556 0.12394664 0.03504227
0.052253846 -0.07217862 0.0597392 0.015981494 0.13818587 0.06917471 0.011595924 0.031431686
0.08046363 0.22198269 0.035163354 0.23856069 0.021317326 -0.11687823 -0.22145146 -0.13080199
0.011880755 0.041985895 -0.017669275 0.04960215 0.14550959 0.13335818 0.05383593 0.23250507
-0.016419513 -0.09365431 0.08603913 -0.05063396 0.19486125 0.21924324 0.20128433 -0.11030708
-0.10227625 0.1576033 0.2906203 0.36617792 0.17712542 -0.08381524 -0.04039132 0.15146334
0.15331417 0.11591581 -0.06303729 -0.14475076 0.0705905 0.06823106 0.21547666 0.08039379
0.2910611 -0.104937494 0.08409139 0.092649736 -0.243616 -0.011368605 0.19621071 0.21066879
-0.17676257 -0.15011758 0.1105998 0.047429245 0.13463694 -0.023419978 0.024245635 -0.099405296
0.023017207 0.31096375 -0.06642189 -0.00082477473 -0.09954825 0.100193694 0.11987292 0.22465056
0.17006162 -0.0514169 0.00607305 -0.0559686 0.06789599 -0.06821026 -0.1881091 -0.3355532
-0.14996038 -0.018744878 -0.065976515 -0.07609721 -0.15261364 -0.14068533 -0.039729983 -0.12552844
-0.061432276 -0.32416713 -0.12225031 -0.25684264 -0.1985246 0.08184495 -0.034922704 0.03712239
-0.06337494 -0.06300984 0.03623837 0.07267898 -0.07913156 -0.0037592922 -0.11984583 -0.08312039
-0.0150962 0.0374478 0.02345062 -0.065802924 -0.079266496 0.016759407 0.09335226 0.20030363

bias f4 [12]
00000000: a741 0cbe cbd8 76be 9bd3 3ebe 479b 08be
00000010: 7ee8 42be 6415 61be ce1a 73be a4c2 4cbe
00000020: 7ee4 2cbe 4e7c b8bd 1ea8 8ebe 19a4 2fbe
-0.1369692 -0.24106137 -0.18635409 -0.13340484 -0.19034001 -0.21980816 -0.23740694 -0.19996125
-0.16884038 -0.09008084 -0.27862638 -0.17152442

weight f4 [48, 12, 16]
00000000: 75cd b2bd 3418 d3be 6764 c3bd e263 38be
00000010: 3432 d3be a9f4 41be 5b00 c23d 1a4e 183a
00000020: f910 c3bd c2e4 dbbe 52ac 1e3e 63a2 33be
00000030: 7996 4d3c 1c17 2abe ff34 353e dade 873e
00000040: 90e4 053e 5399 a7be 59c2 e3bd 1161 7c3d
00000050: f967 473d dc1e 863d a047 223d ae81 97be
00000060: b5c5 e1bd 7695 6fbe b05a 80be 7fbf 47be
00000070: 79ee 02be 2d1f a8be 636e 9d3d b0b1 843d
00000080: e8fb 0ebe 297d c33c 1698 39be 80c0 133e
00000090: 3d8c 2ebe 5c57 21bd 32a7 a13d ecb4 173d
000000a0: 4a0f 6fbd 52fe f3bd f4b3 9dbe 6455 8dbe
000000b0: 1de9 d93d f76a 41be a677 b83d 87c6 e9bc
000000c0: 1791 a0bd e0c2 a9bd 0d25 ec3c 8c70 7bbe
000000d0: ee3d 67be 6dbd 42bd 5f79 ecbd d018 533d
000000e0: f35e e2bd 205a 92bd 6fad 58be efd8 74bd
000000f0: cdf4 85be cf4b 843e 9c63 d73d c015 d53d
00000100: 5ef5 aebd a5e7 1cbc fa6c 9fbe d385 83be
00000110: 65da ab3b fb61 383e 510b fabc af08 57bd
00000120: 1b0b a5bd 0108 cbbd 0980 45be b988 75be
00000130: ad38 adbb 6ab5 dcbc 4ee4 8b3e 208c 763d
00000140: c943 53be 0824 51be 0095 92bd 80a0 b7bd
00000150: 177d 6fbe d93f 0e3e 2e29 8a3e 3370 5fbd
00000160: 6e33 8a3b ecb5 2ebe d2fd cbbc 6788 83be
00000170: f24e 95be e0bc a2bc 77df 893d f323 d83d
00000180: 4c5f ae3c c40a 85bd 27d5 413e c748 f8bd
00000190: 17b0 5bbe be63 bdbd 11b7 463d f455 173e
000001a0: ebd9 123c 0fce 53bd 43c3 3dbe b914 50bd
000001b0: fd37 b7bd b80e 3cbe 7a5d c3bd cfc6 a3bd
000001c0: d25c a4be ff39 69be 6e9d c8be 8e1f 3cbe
000001d0: 89c3 cebe b62f 9ebc 2b3c 5fbe 08f4 09bd
000001e0: 705b 03be d991 1a3a 99a1 6abe e19e 34be
000001f0: 05f7 723c c995 ffbd e939 8f3e 0b11 903e
00000200: 249a a5be fbb1 c93c af11 3bbe b037 a5bd
00000210: 9714 f1be 6bef a1bd ddc6 2d3e 05d5 2d3d
00000220: 3b31 e5bd b6b7 a4be bd8d 2fbe 4d69 96be
00000230: 1cd1 5ebd b654 93be 735a 003e c12d 053e
00000240: 4643 40be 86d0 683d 6aaf 00bf f932 073e
00000250: c169 0bbe 7fd9 033e 3b77 f3bd a779 143d
00000260: dc03 d73d 94f8 debd 4db7 2abe ca20 9bbd
00000270: 782e 5fbe 35ea 163e d8b8 b4bc 5cae 093e
00000280: 5be6 b4be 7744 283b a509 98be 080e 4bbe
00000290: 0bbc 49be 4888 5e3e 9827 f23d fbf5 e2bb
000002a0: 31bc 303e 4b76 12be c21a 27be 23eb 3fbe
000002b0: 51b2 69be 5739 80be e316 bebd 3451 a13d
000002c0: 8d01 cfbc b9ab 82bb 2a87 9a3b 9e65 633d
000002d0: 723b 0fbe 90b5 d6bd e5dc b7bd a3b2 d0bd
000002e0: aa24 55bb 3520 debd bad0 9fbe 4f0d 83be
000002f0: 2702 83be f8e7 483d 8da4 913d d491 e13d
00000300: 187c 673d 02cc 6a3e 28ad 46ba 2c70 ddbd
00000310: 932d 553e e061 ff3c 4997 cd3d 717d 43bb
00000320: 9232 853d a76b 633d 589b 393d 0eb1 0ebd
00000330: 1fff df3d 6da2 25be cc3a 5e3e 4b2c e13c
00000340: d0c5 18bc 1b4d 15bc 21f4 d1bd 3e76 413c
00000350: 75de a0bd d737 e2bd c997 63be d025 8f3d
00000360: 88e5 0cbe 937a 34be a070 22bd 58a0 9a3d
00000370: c9ad 31be cdc4 19bd 496a 0cbe 7e46 b93c
00000380: 7319 0f3e a41c 26be dbdd efbd 5089 b7bd
00000390: c715 133e de0b 0f3e cf02 233e 9ac7 07bd
000003a0: cdeb 06be 8180 b8bd e1be 1fbd 56eb 1cbd
000003b0: ad92 3a3d c59c 65bd 2dd1 50be 760e 95bd
000003c0: fcb0 e7bc d038 39bd 413e 9d3d 4d18 31bd
000003d0: 96fb b93d da07 00bd 3589 213e c7a5 b8bd
000003e0: 9f39 f93c 9aed 1b3d fab7 a53d f641 38bd
000003f0: 48aa 863d 51d6 50bc f9e9 d93c a067 30bd
-0.08730594 -0.41229403 -0.095406346 -0.18006852 -0.4124924 -0.18940987 0.09472724 0.0005809978
-0.09524722 -0.42947966 0.15495422 -0.17542414 0.0125480825 -0.16610378 0.17695998 0.2653721
0.13075471 -0.32734165 -0.11121053 0.061616007 0.04868314 0.06548855 0.03961909 -0.29591125
-0.11024038 -0.23396859 -0.2506919 -0.19506644 -0.12786283 -0.32836285 0.0768707 0.06479204
-0.13963282 0.023863392 -0.18124422 0.14428902 -0.17045684 -0.039389953 0.07893218 0.037037775
-0.05836419 -0.11913742 -0.30801356 -0.2760421 0.10640166 -0.1888846 0.09007196 -0.028537048
-0.07840174 -0.082891226 0.028826261 -0.24554652 -0.22582218 -0.04754393 -0.11546587 0.051537335
-0.110532664 -0.07146096 -0.2115991 -0.059777196 -0.2616333 0.25839087 0.10517046 0.10404539
-0.08542894 -0.009576713 -0.3113783 -0.25688037 0.0052445405 0.18006127 -0.030522974 -0.052498516
-0.08058759 -0.09913636 -0.19287123 -0.23977937 -0.0052862973 -0.026941974 0.2732262 0.060192227
-0.20631327 -0.20423901 -0.07157326 -0.0896616 -0.23387562 0.13891543 0.26984543 -0.05455036
0.0042175567 -0.17061585 -0.024901304 -0.25690004 -0.29161793 -0.019865453 0.06732076 0.10553732
0.021285675 -0.06496194 0.18928967 -0.12123256 -0.21453892 -0.0924754 0.04851443 0.14778882
0.0089630885 -0.051710185 -0.18531518 -0.050801013 -0.08946226 -0.1836499 -0.095393136 -0.07996904
-0.32102066 -0.2277603 -0.3918261 -0.18371412 -0.40383556 -0.01930986 -0.21800296 -0.033679992
-0.1282785 0.0005896367 -0.22913207 -0.17638732 0.014829402 -0.12479741 0.2797387 0.28138003
-0.32344162 0.024621 -0.18268465 -0.08067262 -0.4708602 -0.079069935 0.16970392 0.04243948
-0.111910306 -0.3217141 -0.17143913 -0.29377213 -0.05439864 -0.28775567 0.12534504 0.13005735
-0.18775663 0.05683949 -0.5026766 0.13203038 -0.1361456 0.12875937 -0.11887976 0.03624883
0.10498783 -0.10887256 -0.16671486 -0.075746134 -0.2179507 0.1473778 -0.022060797 0.13445419
-0.35331997 0.0025675574 -0.29694858 -0.19829571 -0.19700639 0.21731675 0.11823958 -0.006926296
0.1725929 -0.14302938 -0.16318801 -0.18742041 -0.22821929 -0.25043747 -0.09281709 0.078768164
-0.025269294 -0.003987756 0.00471582 0.05551683 -0.1398752 -0.10483849 -0.08977679 -0.10190322
-0.0032523074 -0.10845987 -0.31213933 -0.2559609 -0.2558758 0.049049348 0.07111464 0.11014143
0.05651483 0.22929385 -0.0007578903 -0.10812411 0.20818166 0.0311746 0.10038621 -0.0029829408
0.06503786 0.055522587 0.045314163 -0.03483682 0.10937332 -0.16175242 0.21702117 0.02748694
-0.009324506 -0.009112622 -0.10251642 0.011807976 -0.0785493 -0.11045807 -0.2222587 0.06989634
-0.13759434 -0.17624883 -0.03965819 0.075501144 -0.1735145 -0.0375412 -0.1371242 0.022616621
0.13974552 -0.16221863 -0.117122374 -0.08961737 0.14363776 0.1396937 0.1591904 -0.03314934
-0.13175888 -0.09008885 -0.039000396 -0.03831037 0.045550037 -0.05605771 -0.20392294 -0.07278149
-0.028282635 -0.045220196 0.076778896 -0.043236066 0.09081189 -0.031257488 0.15774997 -0.090159945
0.030422984 0.03806839 0.08091731 -0.04498478 0.06575447 -0.0127464095 0.026600825 -0.043067575

bias f4 [48]
00000000: 7439 07bd 5e19 d3bd e415 c03d c30c 4dbe
00000010: 368f 20be 72a8 24bc 34a0 61bd 454b 8dbc
00000020: ce3d 1d3d 6379 0e3e e5f7 513d 15e7 80bd
00000030: 29f8 19bc 1efc 8c3c 73cf 3ebe 90da ae3c
00000040: a805 aebc 675f a23d c8e9 dabd 1ada 253c
00000050: aaca d63c a079 9d3d 32a9 76bc 2267 d3bc
00000060: a229 96bd 55c0 30be 9dc5 93bd 7687 8bbb
00000070: da3e 9dbc 4523 71bc 91c5 b3bd 815f acbd
00000080: b62d 1bbe 3331 78be 81c2 393d e56c 39bd
00000090: 246b 5b3d 9383 30be 9880 1bbe ba6c e4bc
000000a0: 554d 9239 68ee 153e 690c 11be 08aa a1bd
000000b0: c7f3 90bc 85fc dc3d 08e6 62bd 08d4 7ebe
-0.033013776 -0.10307573 0.09379175 -0.200244 -0.1567963 -0.010049926 -0.055084422 -0.017247805
0.03838902 0.13913493 0.0512618 -0.062940754 -0.009397545 0.017210063 -0.18633823 0.021344453
-0.021242931 0.07928353 -0.106891215 0.0101228 0.026219685 0.07689214 -0.015054988 -0.025806013
-0.073321596 -0.17260869 -0.07215426 -0.0042580916 -0.019195009 -0.014717882 -0.08777917 -0.084166534
-0.15154156 -0.24237518 0.04535151 -0.045269866 0.053568974 -0.17237692 -0.15185773 -0.027883876
0.00027904907 0.14641726 -0.1416489 -0.07893759 -0.017694367 0.10790352 -0.055395156 -0.24885571

weight f4 [96, 48, 6]
00000000: 5f21 2bbe 2b48 1ebe 0bb5 70bd c041 20be
00000010: 361f 253d a6cc 09bd 2fe5 57be 6feb adba
00000020: 9fe9 dbbc 1edc 423e a1a5 043d e5f9 7e3e
00000030: 6897 2ebd 1eb2 c7bd 367f 173e 7f92 393d
00000040: 9cef 083e 810b 81bd 1cc5 f13d 7ad1 ddbb
00000050: 1bcc 53bd 9369 47bd d76b 3f3d 7649 a53a
00000060: 9fdc d8bc e911 e63c ea28 303e 0ade 933e
00000070: f848 b2bd 6791 caba 07ac c9bd 11c7 d33c
00000080: 2ddc 6bbe f8ae 5cbe 247e 66be 6e13 80be
00000090: 3026 a33d 927d acbd 371f 0a3c 594f acbc
000000a0: d4fe 223d a473 c2bd 0d08 6cbe 14e9 97bd
000000b0: 535b 69be a3da b5bc 5ba4 b0bd 7774 00bd
000000c0: bc4c a2bc ce33 3ebe 8906 babd 57d3 13be
000000d0: 7a50 98bd ca0c 12bd dff3 5cbd 3351 31be
000000e0: cf80 68be 8783 0fbe dab3 803d 0b07 a4be
000000f0: 0dc9 8ebb 799f 49be 7362 cc39 3594 6ebe
00000100: b6f0 c7bd 066b b43d 90e2 efbd 5f47 9f3e
00000110: 0b3b d33d d984 043d e8b2 1abe db11 313e
00000120: 9796 cebd 647c 8dbe 4fa8 4fbd 4e45 58be
00000130: a924 2ebe 513b a13d 0dd0 39bd 5bd1 f2bc
00000140: ee8d e63c 2236 e7bd fac7 c6bd a0af ecbc
00000150: 3934 6f3e a326 ecbd 4d4b 4d3c e092 193d
00000160: 0a09 80bc 859e 7a3e ae58 60be 0751 fcbd
00000170: 8dd0 b13d c0d0 e8bd b71d 593d 25eb 88be
00000180: e3ee 36be 697a 9bbd 1eb5 c0bd 6ab7 83bd
00000190: 8b07 bcbd a5eb 6f3d 559b abbd 42dc 3bbe
000001a0: bee4 14bd 0b5a 1f3d fcec d73d 419b c2bd
000001b0: 00fa 79bd 75d8 77bd dcf0 b3bc f9c6 943d
000001c0: e7b8 393d 5f22 5d3d e274 4b3e e77b 843d
000001d0: 857a 6bbd baac 43bd a168 703d 120b 063e
000001e0: bc84 88bd 95b2 4abe c47d 8cbc f6bd 61bd
000001f0: b9ea 2ebd e9cd 86bd 2985 26be 70f7 61be
00000200: 489a f6bd d83f 85bd bff8 3dbe a2fc fabc
00000210: 9b85 96be 97d6 85be 23ea 75be 1bf8 3ebe
00000220: 5a8a 1b3d b44a 39be 9573 8e3c 0056 25be
00000230: 0977 4d3d fc34 56bd 017f 67bd 5a3d 16be
00000240: e28f 243e ce3f 303d d230 3dbd a111 c63d
00000250: 293c aa3c ba8b 213c e84d 05be b5aa 18bd
00000260: 9c93 96bd 5003 f13d 743c d5bd 9eca 98bd
00000270: 5612 863e cc1a 35bd 36ad d4bd 2770 623d
00000280: 9458 54be 5ba6 673c 6466 d7bd 5733 55be
00000290: e71b 55bd 333f c2bd 752d 243e 22c4 0d3e
000002a0: 111f 243e f5c8 a53e c003 853d 5b06 1a3e
000002b0: c989 d63c 2d92 ca3d 64a6 823d 436a 0abd
000002c0: f216 0a3e 06fe 06bc a31e 80bd 0ef5 d4bc
000002d0: d9bb 2dbe a3df 243d d8e9 4bbd 26af 8eba
000002e0: c510 16be dfea fdbc 7427 3e3d f9ec 3b3c
000002f0: 715b a33c 17db 153d a7ad d43d 8093 31bd
00000300: 1aa0 913d 5b11 863d bf30 833d dec1 4d3d
00000310: d08d 353c 5d22 18bd 0075 b8bd f282 f4bd
00000320: db3d 47be 3a54 4a3d 971a 47be cf4f 283e
00000330: 8228 b2bd dd8c 683d d6f2 8e3d 520c d6bc
00000340: 56ff e3bd 4a1a 43bd 623f d93d 29e1 37be
00000350: 1b80 18be 3b8a 55be 3018 b1bd f943 69bd
00000360: 29e8 173e ebbb 18be 41c2 22be c693 13be
00000370: 0f8a b2bd eb77 b8be 88fb 223e 2969 e3bd
00000380: a021 7fbd 634c cc3c 9e3a f3bc abfa 963d
00000390: be8a e93c 8cf3 40bd 458d 52bd b8ba 6bbd
000003a0: 7453 ebbc 5fe8 643d 4e87 5f3e 7aab 27be
000003b0: 33aa 8c3d 6894 733e 9033 bfbd 4d00 b6bd
000003c0: 4749 8dbd c688 e5bd ba11 51bd d8eb 7ebd
000003d0: 9707 113d cf89 1ebe 0e1b 43be eea1 7fbd
000003e0: d655 a4be 6579 28bd e8c3 453e eabd 013e
000003f0: eff5 ea3d e392 333e 481a 043e fbdc 993d
-0.16711949 -0.15457217 -0.058766406 -0.15650082 0.04031297 -0.033642434 -0.2108352 -0.0013269017
-0.026844798 0.1902928 0.03238452 0.24900015 -0.04262486 -0.0975077 0.14794621 0.045305725
0.13372654 -0.06301022 0.11805174 -0.0067693563 -0.051708322 -0.048684668 0.046733703 0.0012610394
-0.026472388 0.028084712 0.17203107 0.2888034 -0.08705324 -0.001545471 -0.09847265 0.025851758
-0.23033209 -0.2155112 -0.22509056 -0.25014824 0.07966268 -0.08422388 0.008430294 -0.02103393
0.039793804 -0.09494713 -0.23049946 -0.07417503 -0.22788744 -0.02219898 -0.08625098 -0.03136107
-0.01981198 -0.1857445 -0.09083278 -0.14436089 -0.07437225 -0.035656728 -0.05394351 -0.17316131
-0.22705387 -0.14015017 0.06284304 -0.32036623 -0.004357463 -0.1968974 0.00038983262 -0.23298724
-0.09762709 0.088094756 -0.11713135 0.3110914 0.10313996 0.032353256 -0.1510731 0.17291968
-0.100873165 -0.27633965 -0.05069762 -0.21120188 -0.17006172 0.07872642 -0.04536443 -0.029640844
0.02814385 -0.11289622 -0.09706111 -0.028892338 0.23359765 -0.11530807 0.01253016 0.037493587
-0.01562931 0.24474533 -0.21908829 -0.12320142 0.08682356 -0.11367941 0.053006854 -0.267419
-0.17864566 -0.07591707 -0.09409545 -0.06431468 -0.09181126 0.058574338 -0.083792366 -0.1834574
-0.036350958 0.03890423 0.10543248 -0.095022686 -0.061029434 -0.060509164 -0.021965437 0.072645135
0.045342352 0.053987857 0.19868806 0.06468945 -0.05748989 -0.047772147 0.058693532 0.1309016
-0.06665942 -0.19794686 -0.017149813 -0.0551128 -0.042704318 -0.06582243 -0.16261734 -0.22067046
-0.120411456 -0.06506318 -0.1855192 -0.030638043 -0.29398808 -0.26140282 -0.24015097 -0.18649332
0.03797374 -0.18094903 0.017389098 -0.16146088 0.05016235 -0.052296624 -0.056517605 -0.14671841
0.16070512 0.0430296 -0.046189137 0.09671331 0.02078064 0.009859974 -0.13018 -0.037272174
-0.07352373 0.1176821 -0.10411921 -0.07460521 0.26185864 -0.04421501 -0.103846 0.055282738
-0.20736915 0.014138783 -0.10517576 -0.20820366 -0.052028563 -0.094847105 0.16032965 0.1384435
0.16027476 0.3237988 0.06494856 0.15041487 0.026188748 0.09891162 0.06379393 -0.033792745
0.13485315 -0.008239275 -0.062558435 -0.025995757 -0.1696619 0.04025234 -0.049783558 -0.0010885939
-0.14654835 -0.030995784 0.046424344 0.011470073 0.019941064 0.036585893 0.10384684 -0.043353558
0.07110615 0.06546279 0.06405782 0.050233714 0.011081174 -0.037142146 -0.09006691 -0.11939038
-0.1945719 0.04939673 -0.19443737 0.16436695 -0.086991325 0.056774963 0.06979911 -0.026128922
-0.11132686 -0.047632493 0.106077924 -0.17956986 -0.14892618 -0.20853512 -0.086471915 -0.05694959
0.14834656 -0.14915435 -0.15894414 -0.1441184 -0.08717739 -0.3602899 0.15916264 -0.11104042
-0.062287927 0.024938768 -0.029691037 0.0737203 0.02850854 -0.047107264 -0.051404256 -0.057551116
-0.028726317 0.05588567 0.21828958 -0.16374007 0.068684004 0.23787081 -0.09336007 -0.08886776
-0.06898742 -0.11207728 -0.051042296 -0.062236637 0.03540763 -0.15482257 -0.1905329 -0.062410288
-0.32096738 -0.041131396 0.19313014 0.12670103 0.11472689 0.17536502 0.1290065 0.07512852

bias f4 [96]
00000000: 3edb 82bd 3e7f 223d e52c efbc 430a e0bc
00000010: 0672 acbb 78e4 00be 2329 f2bd b532 d2bc
00000020: 5ab7 423d 0d4f 8dbb 8c8f b53b 033d 36be
00000030: 4ec8 efbd 9e3d edbd 81cc fc3b d407 14be
00000040: 5937 503b 5329 0cbe e726 c1bd a1e4 f5bd
00000050: 1a80 473d 579b 963d c6e7 26be a23c 2fbd
00000060: b219 86bd 4a4e 3abc 1dd2 78be 67f1 91bd
00000070: e616 3a3d 9a98 2d3e 293e 33be 3e82 0a3b
00000080: ee5c bfbd 2815 4e3e 744f 64be bf45 613d
00000090: 8f16 1fbe 2146 89bc 263e 403d d8f3 743b
000000a0: 3c80 ae3d 04a9 9dbd fc62 563e 733d bdbc
000000b0: cf34 16be e69a 9c3c 81e6 87bd c692 a5bd
000000c0: b6b3 883d 4f39 b2bd 4ee7 8abd a2f6 ed3d
000000d0: cf8b 84bc 6389 103e 5a77 f9bd be70 babd
000000e0: faa2 45bd 1dbb b93d b8bd dbbd 8828 c83c
000000f0: b31b f2bd 10f3 0ebd d911 053d 1658 e7bd
00000100: f512 7a3d 0495 16be d834 0bbe f461 55bd
00000110: ab2f 143b 8dfd 053d 752a a43d d787 aa3d
00000120: ac33 cc3c c8a1 d6bc 4728 96bd ce7b 8cbd
00000130: c0a9 2bbb 272c 32be 888b 123e e211 f1bd
00000140: 2b22 2ebe d5a0 1a3c c557 083d 39cf 883d
00000150: dd9f 10be 6aaf 3cba 85eb 37be 5b64 ad3d
00000160: 5cdc 16be fdb3 ffbd 8f9e 2cbc 50f1 d7bd
00000170: c3ab d3bd 61a3 eb3c 2a67 18bd 5720 6cbe
-0.063894734 0.03967213 -0.029196212 -0.027348643 -0.005262616 -0.12587154 -0.118242525 -0.025658945
0.04753814 -0.004312402 0.0055407938 -0.17796712 -0.11708127 -0.11584018 0.0077148085 -0.14456111
0.003177127 -0.13687639 -0.09431248 -0.12006498 0.04870615 0.073538475 -0.16299352 -0.042782433
-0.0654787 -0.011371205 -0.24298902 -0.07126122 0.045431994 0.16952744 -0.17504181 0.002113476
-0.09343897 0.20125258 -0.22295934 0.054998156 -0.15535949 -0.016757073 0.04693427 0.0037376788
0.085205525 -0.07698253 0.20936197 -0.02310059 -0.14668582 0.01911683 -0.06635762 -0.080846354
0.06674902 -0.08702337 -0.06782399 0.11619307 -0.016179947 0.14114909 -0.12180968 -0.09103535
-0.04825113 0.09068892 -0.10729545 0.02443339 -0.118216895 -0.03489977 0.032487724 -0.11296098
0.061053235 -0.14705282 -0.13594377 -0.05209537 0.002261142 0.032712508 0.080159105 0.08326691
0.024926983 -0.02620019 -0.07331901 -0.06859551 -0.0026193708 -0.17399655 0.1431104 -0.11770989
-0.17005222 0.009437759 0.03328683 0.066801496 -0.14123483 -0.00071977696 -0.17960937 0.08466407
-0.14732498 -0.12485502 -0.01053585 -0.105440736 -0.10335495 0.028764429 -0.03720776 -0.23059212

weight f4 [64, 2688]
00000000: c8dc 3dbd 2f50 ccbd 4c2a 13be cb85 22bd
00000010: 6485 563d 7716 623c 76c6 aebd a673 623e
00000020: 720a 743d a5fd 9cbb 7d50 85bd 6f08 86bd
00000030: 0269 4ebd 1eb5 873d f2c4 3a3d 8626 54bd
00000040: c282 e5bd 9a1f 29bd f606 e6bd bb28 c9bd
00000050: aa00 36bc 8a89 9b3d fcc3 6f3d ee64 c2bc
00000060: bac5 413d 5bfd d5bc 495e 0abd fb04 a2bd
00000070: f27a 053e 1ac1 e63d 8849 a5bd a4f6 f2bd
00000080: 5e07 91bd eeb6 08be d7aa e2bd e09b 30be
00000090: d342 11be b8cb a7bd cb55 30be 14d2 e7bd
000000a0: c0cb 9d3c e6b1 42bd 6e25 28bd f69e ebbd
000000b0: 6a06 b63c b59b 7cbc d47a 11bd 8ad5 c8bd
000000c0: 8b64 c2bd 9dcc d4bd b1d4 49bb 041d 223d
000000d0: 0c4a efbd 0b4f 03be 9e9f 1bbe c4d0 293c
000000e0: c790 2ebe 7d85 84be 89f0 c9bd 1faa c8bc
000000f0: d713 b63c 66e9 1ebe 72ff 72be 6518 54bd
00000100: 1076 b8bc 5d7f 07be b719 11be 8418 38be
00000110: 186c 85bb 7a7a efbc 9fc2 33bd 10bf d7bd
00000120: 5222 abbd 57ce a4bd bef9 f8bd 4ac5 bbbc
00000130: a030 e3bc 3d0b 31be ad94 50be df11 00be
00000140: d77b b73d 38ee 33be ee28 00bd ab24 bfbb
00000150: 37b5 2ebe 9d98 24be 0457 573d ee8a c53c
00000160: e92c 8dbd efa7 2cbd 6cad 48be 9206 1bbe
00000170: d752 643d e959 88bd 19ff 45be d97b a03b
00000180: 7db6 253e ad66 da3d 5183 613d 2694 033b
00000190: 4fe0 c03b cd08 dfbc 6716 a23d dc16 0dbe
000001a0: 4122 17be a0b4 b2bc 75c1 09bd f36e 3cbc
000001b0: 2330 3dbd 92ef 3bbe 933d 4ebd d0e5 92bd
000001c0: 4b7b 32be 1e80 1fbe 00dd 57bd 7664 bebd
000001d0: 7314 873d fa2d 08bd 9a91 f5bd 7183 67bd
000001e0: e394 d7bd be41 edbc b15a bcbd f773 e2bd
000001f0: 9f6f 0abe 3491 88ba 04bf 62bd 835e d9bd
00000200: 96a5 42be a39e a2bd e5b0 e7bc fa2f d3bc
00000210: df0f d1bc 9a25 7abe 797c b6bd 76e5 04be
00000220: 79b6 8ebd dbf9 40be 3e5f babd d99e 30bd
00000230: 5e11 dabb 823e b8bc 98a2 1b3b 067e c5bc
00000240: 4209 243c 4350 ccbb 443b b2b9 2701 54bc
00000250: 6d4c 153b b5a3 23bd ebc3 373c 887a 933c
00000260: 4e11 84bb 16ff 39bc 73ca 793c 4551 6dbc
00000270: b139 34bc d96f 01bc fb9c 8cba 5930 d0bc
00000280: e5e9 90bc a322 a1bb 7e11 dfbc 22f4 6abc
00000290: 289e 5f3b 4b45 92bc 3190 a0bc f76e 0e3b
000002a0: 75c7 07bd 64c8 333d 0b44 33be 6a56 c7bd
000002b0: f884 46be 8c6c 58bc 647b 10be f837 0f3e
000002c0: 3096 fc3b 38a9 a73d f76f fdbd df30 e43c
000002d0: aed5 02be fec1 ce3d f42e 15be 011b 973d
000002e0: d257 b7bd 59df 433e 79bc 0bbd d5a7 d8bc
000002f0: ad0c 7b3d 22bd 7d3e 0489 193b 24a2 863c
00000300: 08b1 503d 83ab 273d c14b d7bc 3946 1dbe
00000310: 6ed2 30be cd13 0cbe decd 71bd baed 04be
00000320: bfe6 583c bb22 f5bd d676 c6bd 02a3 7fbd
00000330: a1e9 d9bc 94e2 4fbd aef4 25bd 7374 a2bc
00000340: 0c41 913d 103f 0d3d 872a 893c be75 2abd
00000350: 8a6b 34be dc9c c8bd 7664 e1bc b061 1a3a
00000360: db6a 9a3c 1c3a 09be 6ea6 85bd 3438 01be
00000370: 0f8b 53bd 2271 f6bd 1dd5 b03d f8bc 983c
00000380: 9796 a9ba c3f6 52bc 8aa5 e63d c86c 103c
00000390: bd89 bb3c c43c 6c3d bb1f 603c 1023 553d
000003a0: 46f8 533e ea1d 8dbd 1da6 363d 5377 3c3e
000003b0: 5b67 7e3e 66c0 613d f7c6 373d 5698 ba3d
000003c0: 32c8 273d 57ff 6fbe ee0c c5b9 c212 373e
000003d0: 4259 783e 92e7 933d 18b6 8e3c 708c 3c3c
000003e0: 419f c53a 4ce0 0dbe 1973 293d 3977 24be
000003f0: 964e 073e ee0d a6bd 1a9e 2c3e a8c6 0abe
-0.04635313 -0.09976231 -0.14371604 -0.039678376 0.052373305 0.013799301 -0.08533947 0.22114429
0.059580274 -0.004790979 -0.065094925 -0.06544577 -0.050393112 0.06626342 0.045597978 -0.05179455
-0.11206581 -0.041289903 -0.112317964 -0.09822222 -0.011108557 0.07594593 0.058536515 -0.023729768
0.047307707 -0.026121786 -0.033781324 -0.07911106 0.13035181 0.112673 -0.080706656 -0.11863449
-0.07081483 -0.13351032 -0.11067741 -0.17246962 -0.14185648 -0.08193153 -0.17220227 -0.11319366
0.019262195 -0.04753294 -0.04105132 -0.11504929 0.022219855 -0.015417983 -0.03551753 -0.09806354
-0.09491833 -0.103905894 -0.003079694 0.039578453 -0.11684045 -0.12823121 -0.15197608 0.010364715
-0.17047416 -0.25883093 -0.098603316 -0.024495183 0.022226257 -0.15518722 -0.23730257 -0.051781077
-0.022517234 -0.13232179 -0.14169966 -0.17978102 -0.0040717237 -0.029233206 -0.043886777 -0.10534489
-0.083561555 -0.08047169 -0.121570095 -0.022921223 -0.027733147 -0.17289443 -0.20369215 -0.12506817
0.089591675 -0.17571342 -0.031289034 -0.0058332286 -0.17061315 -0.16073842 0.05257322 0.024114098
-0.068933316 -0.04215234 -0.19597405 -0.15139225 0.055743065 -0.06657774 -0.19335593 0.0048975763
0.16182895 0.10664115 0.055056874 0.0020077317 0.0058861147 -0.027225876 0.07914429 -0.13778251
-0.1475916 -0.021814644 -0.03363176 -0.011501062 -0.046188485 -0.18353108 -0.05035169 -0.071727395
-0.17429845 -0.15576217 -0.052700996 -0.09296505 0.06595697 -0.03324697 -0.11990662 -0.056521837
-0.10526445 -0.028962012 -0.091969855 -0.11057275 -0.13519143 -0.001041925 -0.055357948 -0.1061373
-0.19008479 -0.07940414 -0.028282592 -0.025779713 -0.025520263 -0.24428406 -0.0891046 -0.12978157
-0.06968398 -0.18845312 -0.09100197 -0.04312024 -0.0066549024 -0.022490744 0.0023748036 -0.024107944
0.010011973 -0.006235154 -0.00033994962 -0.012939728 0.002278115 -0.039951045 0.011216144 0.018002763
-0.004030383 -0.011352321 0.015246022 -0.014484708 -0.011000083 -0.007900202 -0.0010727936 -0.025413679
-0.017689655 -0.004917459 -0.02723002 -0.014340432 0.0034121368 -0.017855307 -0.019600006 0.002173362
-0.0331492 0.04389228 -0.17506425 -0.09733279 -0.19386661 -0.013209473 -0.1410957 0.13986194
0.0077083334 0.08186573 -0.12374871 0.027855335 -0.12776825 0.10095595 -0.14568692 0.073781975
-0.08952297 0.19128169 -0.03411529 -0.026447216 0.061291385 0.2477918 0.0023427615 0.016434737
0.05095008 0.04093505 -0.02628124 -0.15358819 -0.17267773 -0.13679428 -0.05903422 -0.1298131
0.013238608 -0.11969515 -0.09690635 -0.062411316 -0.02660066 -0.05075319 -0.040516548 -0.019830918
0.07092485 0.03448397 0.016743911 -0.041616194 -0.17619148 -0.097955436 -0.027513724 0.00058891904
0.01884978 -0.13401073 -0.065258846 -0.12619096 -0.05164629 -0.12033297 0.08634398 0.018644795
-0.0012938556 -0.012876215 0.11262043 0.008814998 0.022892827 0.057675138 0.01367944 0.05203539
0.20700178 -0.06890471 0.04459201 0.18404894 0.24844114 0.055115126 0.044867482 0.09111087
0.040962406 -0.23437248 -0.000375844 0.1787825 0.24252799 0.07221903 0.017420813 0.011508092
0.0015077369 -0.13855094 0.04136953 -0.16061105 0.13213572 -0.081081256 0.16857186 -0.13552344

bias f4 [64]
00000000: 97ed 1c3e f09a 013c a3e6 943b 2964 aebd
00000010: 6d2b fbbd 6689 0f3d 13d9 243d b44c 6abd
00000020: e9ab 4f3e 4b26 e4bc dba2 923e 0fc9 2abe
00000030: 2798 2e3e 88cf 673c c39a 02be 90ad c0bd
00000040: c914 3bbe a24a 2abc 2971 34be b498 c5bd
00000050: 10a0 14bd d1d3 d93a c5af 34be 726f c23d
00000060: 7f1b 5dbd 4303 343d c46a 133d 9b35 3bbe
00000070: cd82 143e 63e0 54be 25d4 c5be c1aa 57be
00000080: 8e14 60bd f9d7 c33d 52c9 853e 58c7 7e3d
00000090: afd7 f6bc 0863 60be bbfd 223e d485 213e
000000a0: 00ac 17be 95b3 523e b152 dbbd a901 cdbd
000000b0: e3f5 573d d4af 0b3e e6c5 07bc a1e8 91bd
000000c0: fd1e 8e3d 4718 ea3d 28c6 5c3e 4bd0 143d
000000d0: 76ce 7a3e a725 1e3e e42a 64be 1fb8 85bd
000000e0: 934e cbbd 3543 23be 87e1 9e39 4795 293d
000000f0: b8f1 433e 4781 00be 6d1e 5c3e f493 533d
0.15325008 0.007910475 0.0045440956 -0.08515198 -0.12264142 0.035043143 0.04024608 -0.057202056
0.20280422 -0.02785029 0.28639874 -0.1667826 0.17050229 0.0141486 -0.1275435 -0.094081044
-0.18269648 -0.01039377 -0.17621292 -0.096482664 -0.03628546 0.0016618912 -0.17645176 0.09493913
-0.0539813 0.043948423 0.03599049 -0.18282168 0.14503022 -0.20788722 -0.38638416 -0.21061231
-0.054707102 0.09562678 0.26130158 0.062201828 -0.030132143 -0.21912777 0.15917103 0.15773708
-0.14811707 0.20576318 -0.107091315 -0.10010082 0.05272473 0.13641292 -0.008286929 -0.071244486
0.06939504 0.11430412 0.21559966 0.036331456 0.24492821 0.1544405 -0.22281986 -0.06529259
-0.09927096 -0.15943606 0.0003030414 0.041402128 0.19135177 -0.12549315 0.21495982 0.05165477

weight f4 [25, 64]
00000000: 2206 723e 6a29 103d 14cd f2bd 22b0 0abe
00000010: 6e3a 2e3e fb8f 1abe 703e 203e 7f37 50bd
00000020: ec90 88bd 6b8f 013e 01ad 843c 0c6b 9b3d
00000030: 4e4a 00be 5619 843d b747 01be 0b5c d93c
00000040: 5a65 f23c b015 de3d 5e0d 0fbe 0f5f 1e3e
00000050: 6232 933d 2263 29bd 9d84 3ebd 802f 0a3e
00000060: d572 21bd f52b e63c ec49 513d 3033 acbc
00000070: 9a4f 243e b6c9 3db9 aafc 9fbc 4030 d8ba
00000080: eb56 4e3d 892b f4bd d219 723d fbf2 363d
00000090: 83fa 2ebe b143 8fbc a709 103c 0a5b de3d
000000a0: 979d 08be efcf 233c 85ea edbc 4673 c4bd
000000b0: 32a6 5bbd c315 d8bc dd85 1bbe 0712 2c3d
000000c0: f5d3 a23d d528 f63d 58f3 1fbe 0c6e fdbc
000000d0: 7bdd 3b3d 4d7e c7bd 5971 acbd 21bc ce3d
000000e0: d943 dbbd f70d 91bd bdfb 63be 67fa 16bc
000000f0: 3bee 2ebe 9410 d7ba 5966 f3bd d95f 6d3d
00000100: 29f8 02be ef9b 8ebe 0359 813e dd35 df3d
00000110: c54c ddbd feab 1e3e fc81 05be 3e98 24be
00000120: 6d29 19be 588c 20be 1822 62be a823 973d
00000130: ae0b 423e 5e6b c43d 1664 a13d 39c5 8b3c
00000140: 88ba 1e3e 19d2 0f3d 5f37 5a3e 35a5 51be
00000150: 2cfc f8bd 8473 fbbd 7740 e13d 25ea 8d3d
00000160: 1124 f53d ab63 2cbe 77c0 703d 4c58 2e3e
00000170: cb4b 3d3d 4af0 b33d 9d44 d03d 44ed d4bd
00000180: 4954 35be 1ec3 2cbe c2ee 32be 7a38 80be
00000190: 942d 9e3e 45ed 10be 1219 dd3d c5ea 20be
000001a0: 05fa 3c3e 8331 313e f8b3 6d3e d0e4 353e
000001b0: 993a 6e3e 2d50 bf3d 5917 f53b e850 0dbe
000001c0: 1f51 a6bd 3bd3 e83d 9f98 583e 52be 1e3e
000001d0: 64be 33be f30b 213e df6e 00bc d987 25be
000001e0: 8b8d 693e 5f0e 3abd 8983 2c3e ac40 683e
000001f0: b840 8a3d 1db5 1cbe 098a 633e 1f8c 9ebd
00000200: aa0d 063e cf36 19bd 217c 09be e88f 2cbe
00000210: 0dc4 023e 6d84 32be 26a0 9f3d 1a6e 55be
00000220: 65ba 79bd 89ec 6b3d e6e0 e1bd 6c67 1c3e
00000230: 1fdd 2a3d 1c89 1c3e adf6 19be c9e1 6d3d
00000240: 8205 d33d b446 febc 9519 2cbe bbab 113e
00000250: 5403 2f3e 5bb1 adbd 4368 463d 19d7 65bd
00000260: edd6 11be ae7e d3bd c1d6 59be 001d 42be
00000270: dc36 42be 583c 1d3d b30b febd 11f3 ac3c
00000280: ab5a 913a 656c acbd 0e36 22bc fb36 eb3d
00000290: 58bb f4bd ef5a 153e e87e 32be 7ed7 7ebd
000002a0: 2b37 e63d 3696 493d 650a 9fbd 936b bd3d
000002b0: 15f3 3dbe c692 07be bd93 d7bd 04d9 b0bc
000002c0: 7aa5 e33c fcc1 63bd 3721 10be 4d95 0abe
000002d0: 57ed a2bd eec3 bf3d 1936 cfbd 65fc 883e
000002e0: c863 3f3b c7a6 be3d 07b9 abbd 85fa f53d
000002f0: 6a25 a63c b200 663d b43f e63c a4e1 b1bc
00000300: ec85 88be c705 84be 5d86 403d edd4 03be
00000310: 9c86 15be 133b 593c 28d2 82be cb5c 55be
00000320: b85b 393d 2cc1 0f3e c65f 5dbe 2bfc 023e
00000330: 51c7 363c 372a cd3d eb84 703d 9c51 32bb
00000340: 7206 793e 6b95 7a3e 4fcc 953e 30e4 e6bc
00000350: cd65 fa3d 53de 76be 9b6e 0e3d 7fc5 023d
00000360: 084f 573e 677d 4fbe b393 38be 2fd3 e13d
00000370: 2450 c13d 602c ca3d bba1 8f3d 01de 073c
00000380: 3aa0 39be a473 babd 834a 0abe e6c8 183d
00000390: 3db6 cb3d 2efe 2ebe d7f1 133e dd12 efbd
000003a0: 29a5 98bd 19cc e13c 3b88 1e3e f7d8 703e
000003b0: 9806 0d3c e715 253d f173 f13d 9304 29be
000003c0: 4eae 39be a517 373e 65cb 1cbd 7bae 483e
000003d0: 742d 9ebe ceb2 2a3c 11b6 b3bd 3658 25bd
000003e0: 8fab 0d3d a572 653c 3c05 8abc 0cdb be3d
000003f0: 4b6a f3bd c69d 8dbe 870e aa3d 9934 023d
0.23635152 0.035195746 -0.11855522 -0.13543752 0.17014477 -0.15093987 0.15648818 -0.050834175
-0.06668267 0.12652366 0.016195776 0.07588777 -0.12528345 0.06450145 -0.12625013 0.026533147
0.029589344 0.1084398 -0.13969943 0.1546595 0.07187344 -0.041354306 -0.04651319 0.13494682
-0.039416153 0.028097132 0.051095888 -0.021020502 0.1604599 -0.00018099588 -0.01952966 -0.0016493872
0.05037586 -0.11922366 0.059106655 0.044665318 -0.1708775 -0.017488332 0.008791364 0.10857208
-0.13341366 0.009998306 -0.029042492 -0.09592299 -0.053625293 -0.026377564 -0.15187784 0.04200938
0.07950584 0.12019507 -0.15620172 -0.030936264 0.045865517 -0.09740887 -0.08420057 0.100944765
-0.107063 -0.07082742 -0.22264 -0.009214974 -0.17083065 -0.0016408139 -0.11884756 0.057952736
-0.12789978 -0.27853343 0.25263223 0.108989455 -0.10805658 0.15495297 -0.13037866 -0.16073701
-0.14957209 -0.15678537 -0.22083318 0.07379848 0.18949768 0.09590791 0.07880418 0.017061817
0.15500844 0.035112474 0.21310185 -0.20473178 -0.12157473 -0.12277892 0.10998624 0.06929425
0.1196977 -0.16834895 0.0587773 0.1702587 0.04621486 0.08786066 0.10169337 -0.10396817
-0.17707933 -0.16871306 -0.17473891 -0.25043088 0.30894148 -0.14153011 0.107957974 -0.15714557
0.1845475 0.17304043 0.23213184 0.17763066 0.2326454 0.09341464 0.00747959 -0.13800395
-0.08120941 0.11368414 0.2115197 0.15502289 -0.17553097 0.15727215 -0.007838934 -0.16165103
0.228079 -0.04542386 0.16847052 0.2268092 0.06750625 -0.15303464 0.22220625 -0.0774157
0.1309115 -0.037405785 -0.13426258 -0.16851771 0.127701 -0.17433329 0.07794218 -0.20842782
-0.060968775 0.057598624 -0.11029224 0.15273827 0.041714784 0.15286678 -0.15035506 0.058076654
0.10303785 -0.031039573 -0.16806634 0.14225666 0.17091113 -0.084810935 0.048439275 -0.056113336
-0.14242144 -0.103268966 -0.21273328 -0.18956375 -0.1896624 0.038387626 -0.12404575 0.021111997
0.0011089643 -0.08419112 -0.009900583 0.11485096 -0.119497955 0.1458547 -0.17431223 -0.062217228
0.11240991 0.049215518 -0.077656545 0.09249034 -0.1854976 -0.13239583 -0.10526226 -0.021587856
0.027788866 -0.05560492 -0.1407517 -0.13533516 -0.07955425 0.093635425 -0.1011774 0.26755062
0.0029203761 0.09309154 -0.083849005 0.120106734 0.020281512 0.056153007 0.028106548 -0.02171404
-0.26664674 -0.25785658 0.04700314 -0.12874193 -0.1460213 0.013258713 -0.25550961 -0.20836179
0.045253485 0.14038533 -0.21618566 0.12791507 0.011155919 0.100178175 0.05872051 -0.0027209288
0.24318865 0.24471061 0.29257438 -0.02818498 0.12226448 -0.24108247 0.03477345 0.03192663
0.21026242 -0.20262681 -0.18025093 0.11026608 0.09439114 0.09871745 0.070132695 0.008292676
-0.18127528 -0.09104088 -0.13504986 0.037300967 0.099468686 -0.1708915 0.14447723 -0.1167352
-0.07453377 0.027563142 0.15481655 0.23520266 0.008607529 0.04030409 0.11789692 -0.16505651
-0.18132898 0.17880113 -0.03827991 0.19597809 -0.30894053 0.010418607 -0.08774961 -0.040367328
0.03458744 0.014004384 -0.0168482 0.093191236 -0.11885508 -0.27659434 0.08303552 0.031788442

bias f4 [25]
00000000: c7ee 3fbe dbba 623e e1ca 103d 77b9 a83c
00000010: 58df a1be 36bb f63d 9456 c13e c0ac f9bd
00000020: 3dde 6c3e b347 74bd ba65 deba 13e5 653e
00000030: 6629 6b3c b204 d53d abe8 13bd 1b46 5ebd
00000040: 44bb 99bd 95ca f73d 1191 083d 1c59 bbbe
00000050: ced6 b53e 9881 d23b 4b39 c03d b1b7 163e
00000060: 3b9d 9ebf
-0.1874343 0.22141592 0.03534973 0.020596249 -0.3161571 0.120474264 0.37761366 -0.121911526
0.23131652 -0.05963869 -0.0016967573 0.22450666 0.014353132 0.10401286 -0.03611056 -0.054266077
-0.07506421 0.12099186 0.03334147 -0.36591423 0.35515445 0.00642414 0.09385928 0.1471851
-1.2391733
