result/config2_main/preliminary_model13.pt (torch_old, 874676 bytes, 10 tensors)

weight f4 [12, 2, 192]
0	0x3eeb4412	0.4595037
1	0x3e54dcda	0.20787373
2	0x3e279eae	0.16369125
3	0xbd2d0e58	-0.042250007
4	0xbe63d5c4	-0.22249514
5	0x3db2fb82	0.087393776
6	0x3eca4f14	0.39513457
7	0x3e37fed5	0.17968304
8	0x3d3ec9b8	0.046579093
9	0x3db653da	0.08902712
10	0x3cf24f5a	0.029578853
11	0xbdc12a62	-0.09431912
12	0xbd75ecd9	-0.06004033
13	0xbe2076ca	-0.15670314
14	0x3e0a1528	0.13484633
15	0x3dfe7c31	0.124260314
16	0xbdc20f52	-0.09475578
17	0x3af5ba3b	0.0018747518
18	0xbe0efefd	-0.13964458
19	0x3cd2fb3c	0.025754564
20	0x3d5d234b	0.053988736
21	0x3e164b92	0.14677265
22	0x3c575497	0.013142726
23	0xbd8faf6b	-0.0701588
24	0xbc7f0c97	-0.0155669665
25	0xbe501eec	-0.20324296
26	0x3dbae2d0	0.09125292
27	0xbe479537	-0.19490515
28	0xbe190d1b	-0.14946406
29	0x3c64b619	0.013959431
30	0x3d6d4d8c	0.057935283
31	0xbdf88657	-0.12134998
32	0x3d96db1a	0.07366009
33	0x3e87dc06	0.26535052
34	0x3d156f4b	0.03648309
35	0xbd408ef5	-0.047011334
36	0xbeb4b6d7	-0.35295746
37	0xbdf832d0	-0.12119067
38	0xbe65a5d4	-0.2242654
39	0xbdb4c3e8	-0.08826429
40	0x3ce15deb	0.027510604
41	0xbd255197	-0.040361013
42	0xbdb0fddd	-0.086421706
43	0xbd94cf31	-0.07266081
44	0xbe02c88b	-0.12771814
45	0x3de61405	0.11234287
46	0xbdc8f9a2	-0.09813239
47	0xbd8cabdb	-0.06868716
48	0x3cec5509	0.028849142
49	0xbdc080fb	-0.09399601
50	0x3dd21875	0.10258571
51	0x3de882c9	0.1135307
52	0xbdd18577	-0.102305345
53	0xbdd1953b	-0.102335416
54	0xbe8e71c7	-0.2782118
55	0xbe23010c	-0.15918368
56	0x3d98dc9d	0.07463954
57	0x3e3eb7b5	0.18624766
58	0x3dd6ba3c	0.1048474
59	0xbd9eb632	-0.07749595
60	0xbd847ad2	-0.064687386
61	0xbdafd00e	-0.08584605
62	0x3e66b6a2	0.22530606
63	0x3e3bb3fa	0.18330374
64	0x3b4251c0	0.0029650778
65	0xbe057ea0	-0.13036585
66	0x3db8b9ac	0.09019789
67	0x3e3006ab	0.17190044
68	0x3d0782bd	0.033083666
69	0x3dab4df3	0.08364477
70	0xbde4b8b0	-0.11168039
71	0x3ccf701b	0.02532201
72	0x3e90b771	0.28264955
73	0xbb08479a	-0.002079463
74	0x3d963b0c	0.07335481
75	0x3d7265a9	0.059178982
76	0xbdd5b5f1	-0.10435093
77	0x3e097263	0.13422541
78	0x3e118090	0.14209199
79	0x3df1f342	0.11813976
80	0xbd120592	-0.035649844
81	0xbd9e0851	-0.0771643
82	0x3d9724ce	0.07380067
83	0x3e1f19b2	0.15537146
84	0x3dc4fc9b	0.09618493
85	0xbd7d375e	-0.06182038
86	0x3d69a145	0.057038564
87	0x3e3ca4c9	0.18422236
88	0x3dd97b4a	0.10619219
89	0x3e971c8a	0.2951396
90	0xbd059685	-0.03261425
91	0x3ace87b9	0.0015757001
92	0xbc08b74b	-0.008344482
93	0x3de76610	0.11298764
94	0x3e6b2cea	0.22966352
95	0xbcd63256	-0.026147049
96	0x3da645ef	0.081188075
97	0x3d932b90	0.07186043
98	0x3c720333	0.014771271
99	0x3e2d3ed0	0.16918492
100	0x3e51b066	0.20477447
101	0xbd90871a	-0.070570186
102	0xbe50d734	-0.20394593
103	0x3e6b42b1	0.2297466
104	0x3dbd7d20	0.09252381
105	0x3e079c5d	0.13243242
106	0x3c895d16	0.01676802
107	0xbe752807	-0.2394105
108	0xbe5aea8a	-0.21378532
109	0xbdd5b560	-0.10434985
110	0x3db96fdb	0.09054538
111	0xbdd4b0d2	-0.10385288
112	0x3d8147bd	0.06312511
113	0xbdcc1b57	-0.09966152
114	0x3dc4dc35	0.09612314
115	0xbe2fffed	-0.17187472
116	0x3cc88c04	0.024480827
117	0x3b886f5e	0.0041636666
118	0xbd550a14	-0.052011564
119	0x3e4ed79f	0.2019944
120	0x3e34813b	0.17627423
121	0xbdc7513d	-0.09732292
122	0xbea0742b	-0.3133863
123	0xbdfcd6db	-0.12345668
124	0xbdd8bbca	-0.10582693
125	0xbe671b61	-0.22569038
126	0xbd08ef4c	-0.033431336
127	0xbd4e96ca	-0.050436772
128	0xbde823fc	-0.113349885
129	0x3c062991	0.008188621
130	0x3db0f01c	0.08639547
131	0x3d7e7b31	0.062129203
132	0xbe99cf35	-0.300409
133	0xbe55950a	-0.20857635
134	0x3d245538	0.040120333
135	0x3eaf05c8	0.34184098
136	0xbd9bb32d	-0.076025344
137	0x3dca6f06	0.09884457
138	0x3dc72aab	0.09724935
139	0xbdac8acd	-0.08424912
140	0xbc46bca1	-0.012129934
141	0x3e47d364	0.19514233
142	0x3e34f807	0.1767274
143	0x3d97c52e	0.07410656
144	0x3c2579a4	0.010099802
145	0xbdda4a76	-0.106587335
146	0x3daee52d	0.085398056
147	0xbd9ca4a8	-0.07648593
148	0x3d23aedc	0.03996168
149	0x3cc82db4	0.024435855
150	0x3d91d7a8	0.07121211
151	0xbd57935f	-0.05263078
152	0xbc911984	-0.017712362
153	0x3e0e6327	0.13905011
154	0x3d912fb0	0.07089174
155	0x3e98e6e4	0.29863656
156	0x3ce3f362	0.027826015
157	0xbded2d2a	-0.1158088
158	0xbea6f28e	-0.3260693
159	0xbe6056a7	-0.21908055
160	0x3d71ec78	0.059063405
161	0x3d528cad	0.05140369
162	0x3ce13326	0.02749021
163	0x3d8431dd	0.06454823
164	0x3e08a28e	0.1334326
165	0x3e249f25	0.16076334
166	0x3d53497a	0.051583745
167	0x3ea7685a	0.326968
168	0xbdcb7e5b	-0.0993621
169	0xbdd5d0c9	-0.10440213
170	0x3dd0962a	0.101848915
171	0xbd9a9f12	-0.075498715
172	0x3e8312e5	0.25600353
173	0x3ea1ec57	0.31625625
174	0x3e9a9cb5	0.30197683
175	0xbe4de158	-0.20105493
176	0xbe2eecc8	-0.17082512
177	0x3e5a634f	0.21326946
178	0x3ec1d24c	0.37855756
179	0x3eee85f1	0.46586564
180	0x3e4ae733	0.19814758
181	0xbdbcf342	-0.09226085
182	0xbe3faedb	-0.18719046
183	0x3dc61328	0.096716225
184	0x3e5f4996	0.21805415
185	0x3dac1681	0.0840273
186	0xbda9f76c	-0.08299145
187	0xbdf07c5b	-0.11742469
188	0x3ca86e49	0.0205604
189	0x3dc72458	0.09723729
190	0x3edcd918	0.4313438
191	0x3ddfd208	0.10928732
192	0x3e98304c	0.29724348
193	0xbdf9ea10	-0.12202847
194	0x3e194731	0.14968564
195	0x3dcc1f5f	0.09966921
196	0xbe9a34b1	-0.30118325
197	0xbc81fb77	-0.015866978
198	0x3ea82ed0	0.32848215
199	0x3e9b67fb	0.30352768
200	0xbe7bd88a	-0.24594322
201	0xbd9cb883	-0.0765238
202	0x3e2a90c1	0.16656782
203	0x3d0a7345	0.033801336
204	0x3e0ab720	0.13546419
205	0x3d057616	0.03258332
206	0x3c9bd0d5	0.019020477
207	0xbdd792de	-0.105260596
208	0xbc902fec	-0.017600976
209	0x3ebeb492	0.3724714
210	0xbd5829fd	-0.05277442
211	0xbda8bd62	-0.08239247
212	0xbe40e3cf	-0.18836902
213	0x3e2f674a	0.17129245
214	0x3e070180	0.13184166
215	0x3e9e53ba	0.30923253
216	0x3ec0fbfb	0.37692246
217	0xbd97ad90	-0.07406151
218	0x3d3b87da	0.045783855
219	0xbdde5ecf	-0.10857927
220	0x3dd50500	0.10401344
221	0x3c1ee79c	0.009698775
222	0xbe1d9b75	-0.15391333
223	0xbee79ecf	-0.4523835
224	0xbe6a78db	-0.22897665
225	0x3dc0837e	0.0940008
226	0xbd6a11db	-0.057145935
227	0xbe2b639e	-0.1673722
228	0xbe63daa6	-0.22251377
229	0xbe8e21ed	-0.27760258
230	0xbe1b4414	-0.15162688
231	0xbe829959	-0.2550762
232	0xbd16159d	-0.036641706
233	0xbeae3f4d	-0.3403267
234	0xbe4193d0	-0.18904042
235	0xbe7adcf3	-0.24498348
236	0xbe6b77ea	-0.22994962
237	0x3dcfbb66	0.10143165
238	0xbdcf9214	-0.10135284
239	0x3d5755de	0.052572124
240	0xbd0b56ca	-0.034018315
241	0xbdb29703	-0.087202094
242	0x3d952a0c	0.072834104
243	0x3e73b135	0.23798068
244	0xbe128b54	-0.14310962
245	0xbcb0db51	-0.021588953
246	0xbdb35c48	-0.087578356
247	0xbdd143b0	-0.102179885
248	0xbc86fada	-0.016477037
249	0x3e4272c9	0.189891
250	0x3d611611	0.054952685
251	0xbe418510	-0.18898416
252	0xb99d0edf	-0.00029956453
253	0xbbafbdc2	-0.005363197
254	0x3e4749d2	0.19461754
255	0x3ea97701	0.33098605

bias f4 [12]
0	0xbe67f3f0	-0.22651649
1	0xbea304cd	-0.318396
2	0xbe7f0be6	-0.24906883
3	0xbe29d03e	-0.16583344
4	0xbe6a02e2	-0.22852662
5	0xbe72807a	-0.23681822
6	0xbeb364f0	-0.35037947
7	0xbe989f81	-0.29809192
8	0xbe66712a	-0.22504106
9	0xbe0b819e	-0.13623664
10	0xbec78502	-0.38968664
11	0xbe4a0542	-0.19728568

weight f4 [48, 12, 16]
0	0xbea5c287	-0.32374975
1	0xbf20a5be	-0.627529
2	0xbe2003e8	-0.1562649
3	0xbca5ae72	-0.020224784
4	0xbecc3c65	-0.39889827
5	0xbe0d73aa	-0.13813654
6	0x3ddef491	0.10886491
7	0x3e69b26b	0.22821967
8	0xbea6c1fa	-0.32569867
9	0xbf32cb71	-0.69841677
10	0x3df49992	0.11943354
11	0xbe16445b	-0.14674513
12	0xbdcdb472	-0.10044183
13	0xbd575db5	-0.0525796
14	0x3e619fec	0.22033662
15	0x3ec85cfb	0.39133438
16	0x3e5f21e4	0.21790272
17	0xbea0aa2f	-0.3137984
18	0xbe867f2a	-0.26268893
19	0xbced98f8	-0.029003605
20	0xbdebea72	-0.11519326
21	0x3d897c22	0.067131296
22	0xbd585425	-0.05281462
23	0xbe96cd00	-0.29453278
24	0xbe3ee288	-0.18641102
25	0xbe843adc	-0.25826156
26	0xbe91754a	-0.28409797
27	0xbf03aa06	-0.5143131
28	0xbe9e054a	-0.3086341
29	0xbf05978d	-0.52184373
30	0x3e8aaa94	0.27083266
31	0x3e22da7a	0.15903655
32	0xbddd010c	-0.10791215
33	0xbd6f1cdd	-0.058377136
34	0xbdb5cbbc	-0.0887675
35	0xbc998c8e	-0.01874378
36	0xbddc57db	-0.107589446
37	0xbd8e20fe	-0.069398865
38	0x3e3fa2dc	0.1871447
39	0xbd99bbed	-0.07506547
40	0x3cd45ca9	0.02592309
41	0xbe0a28b8	-0.13492095
42	0xbf17891c	-0.5919359
43	0xbf1cd1a2	-0.61257374
44	0x3e2a3abb	0.16623966
45	0xbe9293a0	-0.28628254
46	0x3e554b72	0.20829561
47	0x3cbc6d0e	0.02300122
48	0xbdad797d	-0.08470438
49	0xbe6916f4	-0.22762662
50	0x3e1b885d	0.15188737
51	0xbe906f40	-0.28209877
52	0xbe2eaa2b	-0.17057101
53	0xbe216a79	-0.15763272
54	0xbdd33199	-0.103121944
55	0x3d2aa965	0.041665453
56	0x3e14c072	0.14526537
57	0xbe7e3d89	-0.24828161
58	0xbeb8ff7e	-0.36132425
59	0xbe5a4cf6	-0.21318421
60	0xbed9d38c	-0.4254421
61	0x3eb3054b	0.34964976
62	0x3d658ac4	0.05604054
63	0x3de997d5	0.11405913
64	0xbdcae55d	-0.09907029
65	0xbdeb6cb6	-0.11495344
66	0xbf043563	-0.5164396
67	0xbea5c7ed	-0.32379094
68	0xbdb5628f	-0.08856689
69	0xbbe323ce	-0.0069317585
70	0x3db6923c	0.08914611
71	0x3c6da642	0.014504971
72	0xbe116e50	-0.14202237
73	0xbe0f5b5e	-0.13999698
74	0xbe8a92e1	-0.27065185
75	0xbea8ad98	-0.32944942
76	0x3cd5e771	0.026111336
77	0x3e022ffb	0.12713616
78	0x3ed55e75	0.41673627
79	0x3e71d6a6	0.23617038
80	0xbe7638f9	-0.24045171
81	0xbde6744f	-0.11252653
82	0xbd8c9831	-0.06864966
83	0xbe10a58d	-0.14125653
84	0xbeb3042b	-0.34964117
85	0x3c1eb339	0.009686285
86	0x3eab7451	0.3348718
87	0x3be46f26	0.0069712577
88	0x3e56b8c4	0.2096892
89	0xbe40e90e	-0.18838903
90	0xbb66c22c	-0.003521095
91	0xbe28a7e0	-0.16470289
92	0xbef90d3a	-0.48642904
93	0xbe532a91	-0.20621707
94	0x3e287e1f	0.16454361
95	0x3d9db32a	0.077001885
96	0xbe2ca024	-0.16857964
97	0xbd91ba1a	-0.07115574
98	0x3ebd8991	0.37019017
99	0xbdbd947f	-0.09256839
100	0xbe218e42	-0.15776923
101	0x3de87966	0.1135128
102	0xbd3ca497	-0.046055403
103	0x3e8e7924	0.27826798
104	0xbe3c98d1	-0.1841767
105	0xbdb66523	-0.08906009
106	0xbce3fa85	-0.027829418
107	0xbe01e81c	-0.12686199
108	0x3d18b2d3	0.037279915
109	0xbddd169d	-0.10795329
110	0xbd9e2773	-0.07722368
111	0xbd915506	-0.07096295
112	0xbeec92f3	-0.46205863
113	0xbe462206	-0.19348916
114	0xbef8d48c	-0.4859966
115	0xbe2e4b45	-0.170209
116	0xbeb6e48c	-0.35721242
117	0x3d61721d	0.055040468
118	0xbe971e26	-0.2951519
119	0xbde194df	-0.11014723
120	0xbdadbd36	-0.08483355
121	0xbb673b29	-0.0035283065
122	0xbe979be3	-0.2961112
123	0xbe4dcf61	-0.2009864
124	0xbe358708	-0.17727292
125	0xbe4590d6	-0.19293532
126	0x3eec7064	0.46179497
127	0x3e305edb	0.17223684
128	0xbee76deb	-0.45201048
129	0x3e000a04	0.1250382
130	0xbeffb920	-0.49945927
131	0xbde51774	-0.11186114
132	0xbf1d7fd2	-0.61523163
133	0x3c775f40	0.015098393
134	0x3e54a661	0.20766594
135	0x3e3a62a3	0.1820169
136	0xbe70c2d1	-0.23511817
137	0xbebfb06b	-0.37439284
138	0xbe89b518	-0.26895976
139	0xbdbf87f8	-0.09352106
140	0xbe6c03d2	-0.23048332
141	0xbd68cbce	-0.05683499
142	0x3d8e2e39	0.0694241
143	0x3e94c0ae	0.29053253
144	0xbea9a5fb	-0.33134446
145	0x3d92097e	0.07130717
146	0xbf1aedb8	-0.6051898
147	0x3d5f7046	0.05455043
148	0xbde51123	-0.11184909
149	0x3e9d7a34	0.30757296
150	0x3e646ea6	0.22307834
151	0x3d8447dd	0.06459019
152	0x3eaf4f0d	0.34239998
153	0xbd5338a9	-0.051567707
154	0x3d3c4f1c	0.045973882
155	0xbd5bd7a7	-0.05367246
156	0xbe759e13	-0.23986082
157	0x3db30b15	0.08742348
158	0xbe03b9af	-0.12863801
159	0x3e964855	0.2935206
160	0xbe7970ae	-0.2435939
161	0x3d7de762	0.061988242
162	0xbeff9fae	-0.49926513
163	0xbd867c89	-0.06566722
164	0xbeaac308	-0.33351922
165	0x3dcc5092	0.09976305
166	0xba6cec71	-0.0009037918
167	0x3db87a9a	0.090077594
168	0xbd433893	-0.047661375
169	0xbe884e6c	-0.2662233
170	0xbccc065c	-0.024905376
171	0xbe21fa72	-0.15818194
172	0xbec22aa1	-0.37923148
173	0xbeaa96a1	-0.33318046
174	0xbe5841b9	-0.21118821
175	0x3de73758	0.11289853
176	0xbe35d384	-0.17756468
177	0x3e19e9b7	0.15030561
178	0x3e1ab769	0.15109028
179	0x3d497d3b	0.049191695
180	0xbe38cbd0	-0.18046498
181	0xbd4c00d8	-0.049805492
182	0xbb5b0ec3	-0.0033425547
183	0xbd118123	-0.035523545
184	0xbdcb6439	-0.09931225
185	0xbdb3acb5	-0.087731756
186	0xbe11471d	-0.14187284
187	0xbe57b349	-0.21064486
188	0x3c2e5bdb	0.010642017
189	0xbe7935ca	-0.24336925
190	0xbab444bb	-0.0013753393
191	0x3e102013	0.14074735
192	0x3dde5c67	0.10857468
193	0x3e77535b	0.24152891
194	0xbc5e42f3	-0.013565767
195	0xbe9a6197	-0.3015258
196	0x3e806202	0.25074774
197	0xbe133a93	-0.14377813
198	0x3d2c9dbe	0.042142622
199	0x3c4de574	0.012566913
200	0x3d8178bd	0.06321857
201	0x3d5de2cb	0.054171365
202	0x3e3b4397	0.18287502
203	0x3d86ee39	0.06588406
204	0x3e62b536	0.22139439
205	0xbdeea038	-0.11651653
206	0x3e88763b	0.26652703
207	0x3ca21a00	0.019787788
208	0x3e1ae7dc	0.1512751
209	0x3c827fec	0.015930139
210	0xbd7f83a9	-0.06238142
211	0x3d41127b	0.047136765
212	0xbe171c6d	-0.14756937
213	0xbe5bf41a	-0.21479836
214	0xbe2b1c43	-0.1671
215	0xbdff5d78	-0.124689996
216	0xbe2682e6	-0.16260871
217	0xbe7c3180	-0.24628258
218	0xbd90dce6	-0.07073383
219	0x3e17647b	0.14784424
220	0xbe12de5b	-0.14342634
221	0xbde4acf1	-0.111657985
222	0xbe05f46e	-0.13081524
223	0xbb40f908	-0.002944531
224	0x3d985bc8	0.07439381
225	0xbe5bd737	-0.21468817
226	0xbe0ccb3b	-0.13749401
227	0xbcdb6a7c	-0.026784174
228	0x3e2efd00	0.170887
229	0x3e622e59	0.22087993
230	0x3e390055	0.18066533
231	0xbc53d05e	-0.012928097
232	0xbe20e185	-0.15711029
233	0xbdfc070c	-0.123060316
234	0xbce4f969	-0.02795096
235	0x3c7b619f	0.015343099
236	0x3cce6331	0.025193783
237	0xbe210ecf	-0.15728305
238	0xbe561e40	-0.20909977
239	0xb9fde664	-0.00048427575
240	0xbdd5e5e6	-0.1044424
241	0xbd7059dc	-0.058679447
242	0x3d093a9c	0.03350316
243	0xbcd3e4a7	-0.025865866
244	0x3e0f02db	0.13965933
245	0xbca545d3	-0.020174896
246	0x3e384266	0.17994079
247	0xbdb8a191	-0.09015191
248	0x3dbcf52f	0.092264526
249	0x3e385c68	0.18004
250	0x3d602f19	0.054732416
251	0x3d10239b	0.035190206
252	0x3d304ce2	0.04304207
253	0xbd1b2948	-0.037881166
254	0x3d982b91	0.07430185
255	0xbcd2e1b2	-0.025742386

bias f4 [48]
0	0xbd004a3f	-0.031320807
1	0xbe67bd8d	-0.22630902
2	0x3dda5e97	0.10662573
3	0xbeb144c9	-0.3462279
4	0xbe345637	-0.17611013
5	0xbafb60ed	-0.0019178666
6	0x3d5dc4a4	0.05414261
7	0x3d088f69	0.03333989
8	0x3cb04b87	0.02152039
9	0x3e49c33c	0.19703382
10	0x3cf0a654	0.029376186
11	0xbd43c82b	-0.047798317
12	0xbbbdbce9	-0.005790342
13	0xbd8e7269	-0.06955416
14	0xbe8c91c0	-0.27454948
15	0x3d0ba793	0.034095358
16	0xbc2e2571	-0.010629044
17	0xbbe80eaa	-0.007081826
18	0xbe81369f	-0.25236985
19	0xbcde4e12	-0.027136836
20	0xbd982a5e	-0.07429956
21	0x3c946adb	0.018117359
22	0xbd24b453	-0.040211033
23	0x3d5d692d	0.05405538
24	0xbdaa24a4	-0.0830777
25	0xbe93248b	-0.28738818
26	0xbd384c31	-0.044994537
27	0x3ca28711	0.019839795
28	0x3d4db050	0.050216973
29	0xbd3a591b	-0.045495134
30	0xbe1aea59	-0.15128459
31	0xbe16aa02	-0.1471329
32	0xbe1b2db6	-0.15154156
33	0xbeb3ee07	-0.35142538
34	0x3d98428c	0.07434568
35	0xbb61b92c	-0.0034442646
36	0x3d6db984	0.05803825
37	0xbe570281	-0.20997049
38	0xbdea84f6	-0.114511415
39	0x3cd55ab8	0.026044235
40	0xbcacff08	-0.021117702
41	0x3dd701c3	0.10498383
42	0xbe1dc850	-0.15408444
43	0xbe21eb34	-0.15812379
44	0x3d2807f3	0.041023206
45	0x3df1856d	0.11793027
46	0x3c4ece90	0.0126224905
47	0xbe52da1d	-0.20591016

weight f4 [96, 48, 6]
0	0xbe661085	-0.22467239
1	0x3d398bcd	0.04529934
2	0xbda6e3bd	-0.081489064
3	0xbebaf93a	-0.3651827
4	0x3dfa4164	0.122195035
5	0xbd8628c2	-0.06550743
6	0xbf0a99be	-0.5414084
7	0x3de7b624	0.113140374
8	0xbe031cc4	-0.12803942
9	0x3e7794e2	0.24177888
10	0x3d9d226f	0.07672583
11	0x3ecbc7cd	0.39800873
12	0xbd6e0762	-0.05811251
13	0x3db18e9d	0.086697794
14	0x3e96b4bf	0.29434773
15	0xbe36f3e1	-0.1786647
16	0x3dd5d396	0.104407474
17	0xbea68576	-0.32523698
18	0x3d408969	0.047006045
19	0x3e274eb0	0.1633861
20	0xbd7670e4	-0.060166255
21	0x3c73a4b5	0.014870812
22	0xbe619a0a	-0.22031417
23	0xbd1b7caa	-0.037960686
24	0xbd786e06	-0.0606518
25	0x3d2b46d7	0.041815605
26	0x3d950c75	0.072777666
27	0x3e89bbb4	0.2690102
28	0xbe92569d	-0.28581706
29	0x3e589089	0.21148886
30	0x3e2495f0	0.16072822
31	0xbe1b2dc2	-0.15154174
32	0xbe72ee86	-0.23723802
33	0xbeb27775	-0.34856763
34	0xbea827cd	-0.32842866
35	0xbe9d4643	-0.30717668
36	0x3e73cac1	0.23807813
37	0xbdf60ed2	-0.120145455
38	0x3dd8beae	0.10583244
39	0x3dca35da	0.098735526
40	0xbe95eba1	-0.29281333
41	0xbed57c14	-0.41696227
42	0xbe8db977	-0.2768056
43	0xbe33b7e3	-0.17550616
44	0xbea4d9ff	-0.32197568
45	0xbdd3c165	-0.103396215
46	0x3d161c5d	0.036648143
47	0x3deafbe4	0.114738256
48	0xbe5eff02	-0.21776965
49	0xbe42ac96	-0.19011149
50	0x3db1328b	0.086522184
51	0xbe1dc90e	-0.15408728
52	0xbdbc5480	-0.091958046
53	0x39de2fcb	0.00042378748
54	0xbe929a35	-0.28633276
55	0xbd206e29	-0.039167557
56	0xbe02c505	-0.1277047
57	0xbd1fe5ca	-0.039037503
58	0x3d59bcf6	0.053158723
59	0xbe92fd6b	-0.28708968
60	0x3e85032c	0.25978982
61	0xbe5da419	-0.2164463
62	0xbd1ef414	-0.03880699
63	0xbe38d38d	-0.1804945
64	0xbe219e9c	-0.15783161
65	0xbe3020ba	-0.17199984
66	0xbe6fc9ce	-0.23416826
67	0xbdc4a18b	-0.096011244
68	0x3dd410cd	0.10354767
69	0xbdb97186	-0.09054856
70	0xbef38202	-0.47560126
71	0x3d1e2b7a	0.03861568
72	0xbe417484	-0.18892103
73	0xbeac8128	-0.33692288
74	0xbe560728	-0.20901167
75	0xbde89be0	-0.11357856
76	0xbea08b2c	-0.3135618
77	0x3d95ee52	0.073208466
78	0xbda971c8	-0.08273655
79	0xbdd3515f	-0.10318255
80	0x3e5a7a58	0.21335733
81	0xbe37cd4d	-0.1794941
82	0xbdd2aab6	-0.10286467
83	0xbe1aea15	-0.15128358
84	0x3ea111c5	0.3145887
85	0xbda76117	-0.08172815
86	0x3d8b454c	0.06800327
87	0x3ce8543a	0.028360475
88	0x3dabb4fb	0.08384129
89	0x3cd79784	0.026317365
90	0xbe9497f9	-0.29022196
91	0xbe6476a7	-0.22310887
92	0x3e059e9e	0.13048789
93	0xbddf0679	-0.108899064
94	0x3da9e262	0.08295132
95	0xbeb107f3	-0.34576377
96	0x3dcdf45c	0.100563735
97	0xbe6199b1	-0.22031285
98	0x3d7678d6	0.060173832
99	0xbe690949	-0.22757448
100	0xbe2a27e4	-0.1661678
101	0xbbfcb966	-0.007712531
102	0xbe20892b	-0.15677325
103	0xbedec210	-0.43507433
104	0x3c2bf1dc	0.0104946755
105	0xbe34c6e5	-0.17653997
106	0x3e8d6741	0.2761784
107	0x3a35ea06	0.0006939474
108	0xbe99064e	-0.29887623
109	0xbde82cfa	-0.113367036
110	0xbcc87e85	-0.024474392
111	0xbcc038d9	-0.023464607
112	0xbc29ae80	-0.010356545
113	0xbd9325e3	-0.07184961
114	0xbb2b5014	-0.002614026
115	0x3e949763	0.2902175
116	0xbe44cc08	-0.19218457
117	0xbe40ff3d	-0.18847366
118	0x3e10227e	0.14075658
119	0x3e4294a7	0.19002019
120	0x3c69d39e	0.014271645
121	0xbe0ddcc8	-0.13853753
122	0x3c88af24	0.016685076
123	0xbd976834	-0.07392922
124	0xbde6cc41	-0.11269427
125	0xbea6932d	-0.3253416
126	0xbef09f3f	-0.46996495
127	0xbe45c6c5	-0.19314106
128	0x3cdbb588	0.02681996
129	0xbde8a855	-0.11360232
130	0xbe0b231e	-0.13587615
131	0xbd81723c	-0.063206166
132	0xbe65d9e6	-0.22446403
133	0xbe02de13	-0.12780027
134	0xbe0d3d24	-0.13792855
135	0xbe518621	-0.20461322
136	0xbe405d89	-0.18785681
137	0xbe05e407	-0.13075267
138	0x3d27b601	0.040945057
139	0xbe9b2e27	-0.3030865
140	0x3e844188	0.25831246
141	0xbc356a0a	-0.011072645
142	0xbe1aa832	-0.15103224
143	0xbdd18570	-0.10230529
144	0x3e904aa2	0.2818194
145	0x3c3bb43f	0.011456548
146	0xbdc5492d	-0.09633098
147	0xbc22ea61	-0.009943576
148	0x3e12910f	0.14313148
149	0xbc974a61	-0.018468084
150	0xbb239439	-0.0024960174
151	0x3df8cb99	0.12148208
152	0x3cd68bb5	0.026189664
153	0x3e1ee18c	0.15515727
154	0xbda12077	-0.0786752
155	0xbe070ec9	-0.13189234
156	0x3e81d088	0.2535441
157	0xbdae3407	-0.08506017
158	0xbe9f56f4	-0.31121027
159	0x3dc00de2	0.09377648
160	0xbe65f778	-0.22457683
161	0xbd314843	-0.043281805
162	0x3e0bde18	0.13658941
163	0xbdf2e688	-0.118603766
164	0x3dd9972a	0.106245354
165	0xbe1aff8f	-0.1513655
166	0x3e865c74	0.2624241
167	0x3e86159e	0.26188368
168	0x3d8b4999	0.06801147
169	0x3ea95755	0.33074442
170	0x3dc3ef8e	0.09567176
171	0xbde8243e	-0.11335038
172	0xbd84b5d8	-0.064799964
173	0xbd002db5	-0.03129359
174	0xbd7df54b	-0.062001508
175	0xbbe11ce5	-0.0068698996
176	0x3e025b9c	0.12730259
177	0x3e7874bb	0.24263279
178	0xbe2d19b0	-0.1690433
179	0x3e3b8e90	0.18316102
180	0xbd9ea3db	-0.07746097
181	0x3e1b8f17	0.15191303
182	0x3de8afce	0.11361657
183	0xbbafa088	-0.005359713
184	0xbe44acb9	-0.19206513
185	0xbd615034	-0.05500813
186	0x3e202908	0.15640652
187	0x3dbb8d42	0.09157802
188	0x3da4c400	0.080451965
189	0xbde031c5	-0.10946993
190	0xbcbcd185	-0.023049125
191	0x3cce49b0	0.025181621
192	0x3d91a01a	0.07110615
193	0x3d86115b	0.06546279
194	0x3d8330bf	0.06405782
195	0x3d4dc1de	0.050233714
196	0x3c358dd0	0.011081174
197	0xbd18225d	-0.037142146
198	0xbe726a13	-0.23673277
199	0xbea9d5c2	-0.33170897
200	0xbe52dd08	-0.20592129
201	0xbd292be4	-0.041301623
202	0xbea23c36	-0.31686562
203	0x3eb3eca6	0.35141486
204	0x3d810b1a	0.063009456
205	0x3e694f6f	0.22784208
206	0x3dd2fa48	0.103016436
207	0xbcbcf2ee	-0.023065057
208	0xbe27c10a	-0.16382232
209	0xbe35578e	-0.1770918
210	0x3e5b3ca6	0.21409854
211	0xbedd78c8	-0.4325621
212	0xbe330a1e	-0.17484328
213	0xbd35225e	-0.04422223
214	0xbdea9041	-0.114532955
215	0x3e4ba161	0.1988578
216	0x3dd16b24	0.102255136
217	0xbd1e1429	-0.038593445
218	0xbea758e9	-0.3268502
219	0xbeba66de	-0.36406606
220	0x3da3e708	0.0800305
221	0xbf0d5a77	-0.55216163
222	0x3e3d36ff	0.1847801
223	0xbe245609	-0.16048445
224	0xbbcd34e2	-0.0062624076
225	0x3c28bd2c	0.010299008
226	0xbdcb946b	-0.09940418
227	0x3e0b8ff2	0.1362913
228	0x3de206f5	0.11036483
229	0x3d3bdc52	0.04586441
230	0xbdea1893	-0.114304684
231	0x3e283412	0.16426113
232	0xbe2e1893	-0.17001562
233	0x3e22df17	0.15905415
234	0x3dadcbf6	0.08486168
235	0xbd799e6d	-0.060942102
236	0x3e3ff0b1	0.1874416
237	0x3e1b07ac	0.15139645
238	0xbe496f02	-0.19671252
239	0xbeadd2f4	-0.33950007
240	0xbd740354	-0.059573486
241	0x3de8cd16	0.11367242
242	0xbd6583ed	-0.056034017
243	0x3d961eba	0.073300794
244	0xbd9c7875	-0.07640163
245	0xbd960475	-0.07325069
246	0xbe33a207	-0.17542277
247	0xbdf8139f	-0.121131174
248	0xbee2b7f8	-0.44280982
249	0xbedb49bb	-0.4282969
250	0x3df8b01b	0.121429645
251	0x3dbbb679	0.09165663
252	0x3e8bca62	0.27302843
253	0x3e46c47c	0.1941089
254	0x3e995efd	0.29955283
255	0xbd7f2828	-0.062294155

bias f4 [96]
0	0xbe151817	-0.14559971
1	0x3d8d2975	0.06892673
2	0xbd8f1ab9	-0.06987519
3	0x3a75617d	0.0009360535
4	0xbc95fc96	-0.018308919
5	0xbe25dea9	-0.1619822
6	0xbe472836	-0.19448933
7	0xbde18489	-0.11011607
8	0x3dbbc42c	0.09168276
9	0x3c4a9027	0.01236347
10	0x3d808808	0.06275946
11	0xbe5b8d22	-0.21440557
12	0xbd7abdd8	-0.061216205
13	0xbe4ace5b	-0.19805281
14	0xbd6a0b8c	-0.05713992
15	0xbe3def80	-0.18548393
16	0x3d943ea6	0.07238512
17	0xbe2f1b17	-0.17100178
18	0xbdadfa8d	-0.084950544
19	0xbdee71d9	-0.116428085
20	0x3d442aaf	0.04789227
21	0x3d95e07d	0.07318208
22	0xbeb1c9ff	-0.34724423
23	0x3c1b8c2c	0.009493869
24	0x3be14899	0.0068751094
25	0x3d1b0891	0.037849966
26	0xbe629afa	-0.22129431
27	0x3bc58bef	0.0060286443
28	0x3d9f47cf	0.07777368
29	0x3e75cf07	0.24004756
30	0xbe780427	-0.24220334
31	0xbcacd3d1	-0.021097096
32	0xbe68cf0e	-0.22735235
33	0x3e75f095	0.24017556
34	0xbe80bd60	-0.25144482
35	0x3d89dae8	0.06731206
36	0xbe0453ed	-0.1292264
37	0xbd1db25e	-0.038500182
38	0xbd02c3bc	-0.031924948
39	0xbcb0f547	-0.021601332
40	0x3dc828c2	0.09773399
41	0xbdc39603	-0.09550097
42	0x3e83e85b	0.2576321
43	0xbc9b5b15	-0.01896433
44	0xbe686e01	-0.22698213
45	0x3cda59fa	0.026654232
46	0xbb3b0101	-0.0028534534
47	0x3d0470e6	0.03233423
48	0x3d4f1943	0.0505612
49	0xbe36443a	-0.17799464
50	0x3d5c873a	0.0538399
51	0x3e67b8b3	0.22629051
52	0xbdb50a53	-0.0883986
53	0x3e40f93b	0.18845074
54	0xbda12f88	-0.07870394
55	0xbe1492d0	-0.1450913
56	0xbe237afb	-0.15964882
57	0x3e31e50d	0.17372532
58	0xbe4399cb	-0.19101636
59	0xbafc62c0	-0.0019255504
60	0xbe3fd37c	-0.18733019
61	0x3c86d0c0	0.016456962
62	0x3e3d6aac	0.18497723
63	0xbe229111	-0.15875651
64	0xbd4304d9	-0.047612045
65	0xbdde7dab	-0.10863813
66	0xbdd1546b	-0.102211796
67	0x3d106724	0.035254613
68	0x3e3a8a8d	0.18216915
69	0x3b20f9f2	0.0024563042
70	0x3ddf367f	0.10899066
71	0x3d85281e	0.06501792
72	0xbd294f8b	-0.041335624
73	0xbd94efdc	-0.07272312
74	0xbd9b2a9f	-0.07576489
75	0xbd9d1c43	-0.07671406
76	0xbd8cad26	-0.06868963
77	0xbe601180	-0.21881676
78	0x3e1bcdcf	0.15215228
79	0xbe65e4ff	-0.22450636
80	0xbe5067b5	-0.20352061
81	0xbd1c3c5d	-0.038143504
82	0x3d95866a	0.07301028
83	0x3d249c7a	0.04018829
84	0xbe382512	-0.17982891
85	0x3d13035a	0.03589187
86	0xbe8ace22	-0.27110392
87	0x3df26df1	0.11837376
88	0xbe10d172	-0.14142397
89	0xbe355549	-0.17708315
90	0xbd70643c	-0.05868934
91	0xbe553270	-0.20820022
92	0xbe464453	-0.19362001
93	0xbcbcaf8c	-0.023032926
94	0xbd9c30ba	-0.07626481
95	0xbe757353	-0.23969774

weight f4 [64, 2688]
0	0x3d862ee0	0.065519094
1	0x3b8509f8	0.0040600263
2	0xbe5c89f0	-0.21536994
3	0x3c85f308	0.016351238
4	0xbe18776a	-0.14889303
5	0x3b9e799a	0.0048362734
6	0xbe5709bf	-0.20999812
7	0x3e5bb545	0.21455868
8	0xbdf890c5	-0.121369876
9	0x3d4c0bbd	0.049815882
10	0x3cd05b1b	0.025434067
11	0x3d237ab9	0.03991196
12	0xbc5b3113	-0.013378399
13	0x3e59a237	0.21253286
14	0xbd277abf	-0.040888544
15	0xbd05805f	-0.032593127
16	0xbea42a72	-0.32063633
17	0xbe077797	-0.13229214
18	0xbe333181	-0.17499353
19	0x3e8ecaae	0.27889007
20	0xbd4343e5	-0.04767217
21	0x3d5435e4	0.051809207
22	0xbcb76829	-0.022388535
23	0x3dad6665	0.08466796
24	0x3e214d18	0.15752065
25	0xbe0780a6	-0.13232669
26	0xbdd4d75d	-0.1039264
27	0xbcb25b65	-0.021772096
28	0x3cc93bfc	0.024564736
29	0x3d54b138	0.05192682
30	0x3d01f192	0.03172452
31	0x3cc1c9e3	0.023655837
32	0x3d677f2b	0.05651776
33	0xbe191a79	-0.14951505
34	0xbe08210f	-0.13293861
35	0xbe86b69e	-0.263112
36	0xbdbe2ad0	-0.092855096
37	0xbdf81aee	-0.121145114
38	0xbdf4f634	-0.11961022
39	0xbd158def	-0.03651231
40	0x3e05e316	0.13074908
41	0xbe032343	-0.1280642
42	0xbcaf2397	-0.021379275
43	0xbe12e051	-0.14343382
44	0x3df59e34	0.119930655
45	0x3d8152ef	0.063146465
46	0xbb366e47	-0.0027836727
47	0xbe7b48c2	-0.24539474
48	0x3d3c2e3d	0.045942534
49	0xbd0f1a4e	-0.034937195
50	0xbc35ba04	-0.011091713
51	0xbbf3bcf5	-0.007438297
52	0xbddef9e7	-0.10887509
53	0x3d167b41	0.036738638
54	0xbdeee347	-0.116644435
55	0x3e14dd79	0.1453761
56	0xbe9dca29	-0.30818298
57	0xbeb15d19	-0.3464134
58	0xbe080181	-0.13281824
59	0xbd94b2fb	-0.072607
60	0xbccb6ca6	-0.024832081
61	0x3c77897c	0.015108462
62	0xbdd110b9	-0.10208268
63	0xbd119126	-0.035538815
64	0x3d299b65	0.04140796
65	0xbe56579e	-0.20931861
66	0xbe06bf09	-0.13158812
67	0xbe1166c3	-0.14199357
68	0xbd84ccc4	-0.064843684
69	0xbe9c4f98	-0.30529475
70	0xbe27e76a	-0.16396871
71	0xbda1d6b3	-0.07902279
72	0xbd72842d	-0.059208084
73	0xbdf7200e	-0.12066661
74	0xbe306f99	-0.17230071
75	0xbe1674b3	-0.14692955
76	0xbe76c33b	-0.24097912
77	0xbea438ac	-0.32074487
78	0xbedf6f9a	-0.43639833
79	0xbe0b8743	-0.13625817
80	0x3df18532	0.11792983
81	0xbe3388e4	-0.17532688
82	0xbd9266e6	-0.071485326
83	0xbd5558d6	-0.052086674
84	0xbecf886b	-0.40533766
85	0xbe4b2be0	-0.19840956
86	0x3e4947f8	0.1965636
87	0xbe7f0edc	-0.24908012
88	0xbd068ee1	-0.032851104
89	0xbdbe1ed4	-0.09283224
90	0xbdbbcd23	-0.09169986
91	0xbeb11d90	-0.34592867
92	0xbd94514e	-0.0724207
93	0xbe202c59	-0.15641917
94	0xbe19f809	-0.15036024
95	0xbebfdac7	-0.374716
96	0xbcda41f3	-0.026642775
97	0xbbdb26e1	-0.0066879843
98	0xbdb1f10f	-0.086885564
99	0xbe2047e0	-0.15652418
100	0xbdb8f0ff	-0.09030341
101	0xbd47565b	-0.04866634
102	0x3e1f4f60	0.15557623
103	0xbe9166d7	-0.28398773
104	0xbe9c6807	-0.30548117
105	0x3b819aa5	0.0039552026
106	0x3e1133c0	0.14179897
107	0xbd00276d	-0.0312876
108	0xbcf95727	-0.030437065
109	0xbd5be9c3	-0.05368973
110	0xbdae1440	-0.08499956
111	0x3d63b3cd	0.055591393
112	0xbe5729ea	-0.21012083
113	0xbe40f5a9	-0.18843712
114	0x3d339b58	0.04384932
115	0xbe3bb270	-0.18329787
116	0x3e3782ce	0.17920992
117	0x3d8bcd86	0.0682631
118	0x3d84b4d5	0.064798035
119	0xbe55b085	-0.20868118
120	0x3d667133	0.0562603
121	0x3de488f4	0.11158934
122	0xbdfd134b	-0.123571955
123	0xbd8cf93c	-0.06883475
124	0xbe58af76	-0.21160683
125	0xbdce3711	-0.10069097
126	0xbe30c71f	-0.17263459
127	0xbd85bbdd	-0.06529973
128	0xbe0c5e40	-0.13707829
129	0xbe0563f6	-0.13026413
130	0x3d90dc61	0.07073284
131	0xbe68cb21	-0.22733738
132	0xbdd16078	-0.10223478
133	0xbee81ac9	-0.45332935
134	0xbd98f2d9	-0.074681945
135	0xbddc1d92	-0.107478276
136	0xbc9de8bf	-0.019276021
137	0xbdbf130c	-0.09329805
138	0x3d261beb	0.04055397
139	0xbd8633b5	-0.06552831
140	0xbbda115e	-0.0066549024
141	0xbcb644d1	-0.022249611
142	0x3b1ba298	0.0023748036
143	0xbcc57e06	-0.024107944
144	0x3c240942	0.010011973
145	0xbbcc5043	-0.006235154
146	0xb9b23b44	-0.00033994962
147	0xbc540127	-0.012939728
148	0x3b154c6d	0.002278115
149	0xbd23a3b5	-0.039951045
150	0x3c37c3eb	0.011216144
151	0x3c937a88	0.018002763
152	0xbb84114e	-0.004030383
153	0xbc39ff16	-0.011352321
154	0x3c79ca73	0.015246022
155	0xbc6d5145	-0.014484708
156	0xbc3439b1	-0.011000083
157	0xbc8d54ff	-0.017252443
158	0xba8c9cfb	-0.0010727936
159	0xbcd03059	-0.025413679
160	0xbc90e9e5	-0.017689655
161	0xbb909443	-0.0044122054
162	0xbcdf117e	-0.02723002
163	0xbc6af422	-0.014340432
164	0x3b5f9e28	0.0034121368
165	0xbc92454b	-0.017855307
166	0x3c3604e0	0.011109561
167	0x3b0e6ef7	0.002173362
168	0xbd205a2e	-0.039148502
169	0xbdfee537	-0.12446063
170	0xbe1e8bd7	-0.15483032
171	0xbe4db34e	-0.2008793
172	0xbec94dea	-0.39317256
173	0x3cea7103	0.028618341
174	0xbe878cc3	-0.2647458
175	0x3d45049d	0.048100103
176	0xbe78891b	-0.24271052
177	0x3e05b79b	0.13058321
178	0xbe476607	-0.19472514
179	0x3d8acbaf	0.06777131
180	0xbed6b2ca	-0.4193328
181	0x3e43a9f5	0.19107802
182	0xbdd908fc	-0.10597417
183	0xbb2a312b	-0.0025969248
184	0xbe8e8edb	-0.27843365
185	0x3e972b0d	0.29525033
186	0xbe029438	-0.12751853
187	0xbe03cf4b	-0.12872045
188	0xbdd29c74	-0.10283747
189	0x3e93e459	0.28885153
190	0xbe6b4343	-0.22974877
191	0xbe4a9d8a	-0.19786659
192	0x3d2156de	0.039389484
193	0x3accd614	0.0015627765
194	0xbd99df1f	-0.0751326
195	0xbe8bb521	-0.27286628
196	0xbeb6a346	-0.35671443
197	0xbeb25cfd	-0.3483657
198	0xbbd309e8	-0.00644039
199	0xbe8d23c2	-0.27566344
200	0xbd6a2197	-0.05716094
201	0xbe5b83f7	-0.2143706
202	0xbcc29625	-0.023753235
203	0xbd38b78a	-0.04509691
204	0x3af03cb2	0.0018328635
205	0xbe02291b	-0.12710993
206	0xbdc79dc9	-0.09746892
207	0xbdec0bc9	-0.11525685
208	0x3e18794b	0.1489002
209	0x3c978cd1	0.018499764
210	0x3dfd60c8	0.12371975
211	0x3c20c83a	0.009813363
212	0xbdef8e20	-0.1169703
213	0x3e17be20	0.1481862
214	0xbbda280f	-0.0066576074
215	0x3b8b0f56	0.0042437715
216	0xbd12bba8	-0.035823494
217	0xbe41f056	-0.18939337
218	0x3d227253	0.03965981
219	0xbdb2b796	-0.087264225
220	0x3e427f72	0.18993929
221	0xbe570cb8	-0.21000946
222	0x3e708455	0.2348798
223	0x3df09989	0.117480345
224	0x3e2e2209	0.17005171
225	0x3d9dbd41	0.07702113
226	0x3e6c69d2	0.23087242
227	0x3e2e35e2	0.17012742
228	0x3e1b3f71	0.1516092
229	0x3e12cbdf	0.14335583
230	0x3c3e073a	0.011598403
231	0x3e8278af	0.254827
232	0x3ece295f	0.4026594
233	0x3dbcb07c	0.09213349
234	0x3e473f3d	0.19457717
235	0x3c5f11c5	0.013615076
236	0x3edf1405	0.4356996
237	0x3e0cd62d	0.13753577
238	0x3c77dace	0.015127851
239	0xbdd2ec6c	-0.10299
240	0x3d5cd7a6	0.053916596
241	0xbe556a85	-0.20841415
242	0x3e2e6c4c	0.170335
243	0x3e16110b	0.14654939
244	0x3e9edd46	0.31028193
245	0x3ddd8a6f	0.1081742
246	0x3e9046d8	0.2817905
247	0x3d9c2de7	0.07625943
248	0x3ea9a31f	0.33132264
249	0xbcec122b	-0.028817257
250	0xbdb0a98d	-0.08626089
251	0xbeabfde8	-0.33592153
252	0x3dd23090	0.10263169
253	0xbd826f02	-0.06368829
254	0x3e89297c	0.26789463
255	0xbd8dadc0	-0.06917906

bias f4 [64]
0	0x3e8a82a6	0.27052802
1	0xbcb93031	-0.022605987
2	0xbd409860	-0.047020316
3	0xbcd7c0f6	-0.026337128
4	0xbd4fc21a	-0.05072222
5	0x3cb02342	0.021501187
6	0x3d8fdb04	0.07024196
7	0xbd96dcf1	-0.0736636
8	0x3e98e626	0.2986309
9	0x3d783aea	0.06060306
10	0x3eee034b	0.46486887
11	0xbe739667	-0.23787843
12	0x3e77d772	0.2420328
13	0x3dd3d6ca	0.10343702
14	0xbe4b7f89	-0.1987287
15	0xbd2a6fa4	-0.041610375
16	0xbe46f8af	-0.19430803
17	0xbd03eb28	-0.032206684
18	0xbeac6374	-0.33669627
19	0x3c132b08	0.008982427
20	0xbdfe6e03	-0.12423327
21	0x3d5dbdc5	0.054136056
22	0xbe3370ad	-0.17523451
23	0x3dfc1b64	0.12309912
24	0xbe15d82d	-0.14633246
25	0xbaac51bd	-0.0013146918
26	0x3b2ca19c	0.0026341444
27	0xbea1b789	-0.3158534
28	0x3e18669c	0.14882892
29	0xbea732db	-0.32655987
30	0xbf228c80	-0.63495636
31	0xbe85362a	-0.26017886
32	0xbdc0b719	-0.09409923
33	0x3ded3e53	0.11584153
34	0x3ea9ff39	0.33202532
35	0x3e139adc	0.14414543
36	0x3d3da78d	0.046302367
37	0xbe994af7	-0.29940006
38	0x3de1a57b	0.11017891
39	0x3e88e562	0.26737505
40	0xbe5d57b4	-0.21615487
41	0x3ea99614	0.33122313
42	0xbe087a11	-0.13327815
43	0xbe185dbd	-0.14879508
44	0x3e0ff974	0.14060003
45	0x3df8643a	0.12128492
46	0x3c507cd4	0.012725074
47	0xbdbb9acd	-0.09160385
48	0x3dcdf3f2	0.100562945
49	0x3e50eab5	0.20402034
50	0x3e7f4330	0.24927974
51	0x3d87ab69	0.06624491
52	0x3e976a39	0.2957323
53	0x3e7efd0b	0.24901216
54	0xbeb40997	-0.35163566
55	0xbb3b0cd9	-0.0028541593
56	0xbdd75264	-0.10513762
57	0xbdee7c01	-0.116447456
58	0xbdc9b67f	-0.098492615
59	0x3c6fa0b7	0.01462572
60	0x3eb12d03	0.34604654
61	0xbe3116ec	-0.172939
62	0x3e4c5690	0.19954896
63	0x3e102464	0.14076382

weight f4 [25, 64]
0	0x3e8b3719	0.27190474
1	0xbc5cd2db	-0.013478006
2	0xbde34ef1	-0.11099041
3	0xbe404deb	-0.18779723
4	0x3e7b3958	0.24533594
5	0xbe15e22d	-0.1463706
6	0x3df82a0f	0.12117397
7	0xbdc59c03	-0.096488975
8	0xbd3d55ba	-0.046224333
9	0x3e481f31	0.19543149
10	0x3d5213df	0.05128848
11	0x3bd84894	0.006600449
12	0xbdfffaf8	-0.1249904
13	0x3de9aaee	0.114095554
14	0xbd964e2d	-0.073391296
15	0xbd160b3a	-0.0366318
16	0x3e1bc74d	0.15212746
17	0x3dc5856e	0.0964459
18	0xbe064a04	-0.13114172
19	0x3e00aa71	0.12565018
20	0x3de9f3e6	0.11423473
21	0xbd9fc9b7	-0.07802146
22	0xbddb7d34	-0.1071724
23	0x3dfef515	0.124490894
24	0xbd8a02d1	-0.067388184
25	0xbd9da635	-0.07697717
26	0x3a13dbb0	0.0005640341
27	0x3d5b309c	0.053513154
28	0x3e50f909	0.204075
29	0xbde9966a	-0.11405642
30	0xbd31e3c1	-0.043430094
31	0xbb51060d	-0.0031894476
32	0x3aed5e93	0.001810985
33	0xbe41da93	-0.18931036
34	0x3dd48425	0.10376767
35	0x3dee2faa	0.11630185
36	0xbe41be2f	-0.18920206
37	0xbda67d3b	-0.081293546
38	0xbbd28846	-0.0064249365
39	0x3d132674	0.035925344
40	0xbe20255c	-0.15639251
41	0xbd5f62b8	-0.054537505
42	0xbd70d811	-0.058799807
43	0x3b8c4792	0.004280993
44	0xbd8d2854	-0.068924576
45	0xbbab26d2	-0.0052231336
46	0xbe2e81a3	-0.1704164
47	0x3df4506c	0.11929402
48	0x3d82e391	0.06391061
49	0x3e46c84c	0.19412345
50	0xbe36c17c	-0.17847246
51	0xbdf3a250	-0.11896193
52	0x3d6e7869	0.0582203
53	0xbd0a8c25	-0.03382506
54	0xbde8063a	-0.113293126
55	0x3e070023	0.13183646
56	0xbdfdfb82	-0.12401487
57	0xbe15cd50	-0.14629102
58	0xbe526fc0	-0.20550442
59	0x3dad03cd	0.084479906
60	0xbe34de3b	-0.17662899
61	0xbdce44bf	-0.10071706
62	0xbdfce28f	-0.123479
63	0x3df7bf25	0.12097005
64	0xbd0bf1b5	-0.034166057
65	0xbe99c62d	-0.3003401
66	0x3e82dbac	0.2555822
67	0x3e739631	0.23787762
68	0xbd7edb2c	-0.062220737
69	0x3e2f424c	0.17115134
70	0xbcfc30d1	-0.030784996
71	0xbe296480	-0.16542244
72	0xbe8c1a12	-0.2736364
73	0xbe8f88e5	-0.2803413
74	0xbe53be64	-0.20678097
75	0x3d9afecc	0.0756813
76	0x3e5cc83d	0.2156076
77	0x3e484ed5	0.19561322
78	0x3c0c31c3	0.008556786
79	0xbd003a4d	-0.0313056
80	0x3e920056	0.2851588
81	0x3caf57af	0.021404115
82	0x3e1b8a4d	0.15189476
83	0xbe68f894	-0.22751075
84	0xbe730cba	-0.23735324
85	0xbde9189e	-0.113816485
86	0x3e17e17a	0.14832106
87	0x3d94a386	0.07257752
88	0x3e343013	0.17596464
89	0xbe62b3db	-0.22138922
90	0x3dbfd039	0.09365887
91	0x3e145951	0.14487197
92	0x3e0d2347	0.13782988
93	0xbd384749	-0.044989858
94	0x3ddbb91f	0.107286684
95	0xbeaf7e33	-0.3427597
96	0xbe335216	-0.17511782
97	0xbe305908	-0.17221463
98	0xbdd4573a	-0.103682
99	0xbea38bd5	-0.3194262
100	0x3ef67696	0.4813735
101	0xbe3231d0	-0.17401814
102	0x3df728c6	0.12068324
103	0xbe56a021	-0.20959522
104	0x3e8a10d2	0.26965958
105	0x3e88bc60	0.2670622
106	0x3e94012b	0.2890714
107	0x3e1a334f	0.15058635
108	0x3ed994dd	0.42496386
109	0x3e38d9b7	0.18051802
110	0xbd1874f8	-0.037220925
111	0xbe58bb0b	-0.21165101
112	0xbe1e8c33	-0.1548317
113	0x3e3e5197	0.18585812
114	0x3e7492d7	0.2388414
115	0x3e66336e	0.22480556
116	0xbe2a3b8c	-0.16624278
117	0x3e32a72e	0.17446586
118	0xbdf3c6f2	-0.1190318
119	0xbe207c9e	-0.15672538
120	0x3ebd721f	0.3700113
121	0xbe04d7b5	-0.1297291
122	0x3e345a24	0.17612511
123	0x3e820801	0.25396731
124	0x3d8e5242	0.06949283
125	0xbe29ed9e	-0.1659455
126	0x3e819fba	0.25317174
127	0xbdf1911c	-0.117952555
128	0x3e021df6	0.12706742
129	0xbd7a3471	-0.06108517
130	0xbeae6a5f	-0.3406553
131	0xbe5e8912	-0.21731976
132	0x3e3c4482	0.18385509
133	0xbe50cbfa	-0.20390311
134	0x3d6108f0	0.054940164
135	0xbe9e0825	-0.3086559
136	0xbe00c086	-0.12573442
137	0x3d9cee38	0.07662624
138	0xbe01ccb7	-0.12675749
139	0x3dfc3eb9	0.12316651
140	0x3e49c341	0.1970339
141	0x3e3ca7dd	0.1842341
142	0xbe845b09	-0.25850704
143	0xbc137358	-0.008999668
144	0x3e26f5d2	0.1630471
145	0xbd83b0c4	-0.064302
146	0xbe93fcd7	-0.2890384
147	0x3ea1bff3	0.31591758
148	0x3e8012e0	0.250144
149	0xbdfdd5f7	-0.12394326
150	0x3cbc4de4	0.02298636
151	0xbe0ad946	-0.13559446
152	0xbe1218ac	-0.14267224
153	0xbe5d41e0	-0.2160716
154	0xbe9bd2c6	-0.30434245
155	0xbe742b92	-0.23844746
156	0xbe8985e8	-0.26859975
157	0xbde9f520	-0.11423707
158	0xbe8f993c	-0.28046596
159	0xbd35ec15	-0.0444146
160	0xbd90c1d4	-0.0706822
161	0xbd75bc17	-0.05999383
162	0x3dabeebe	0.08395146
163	0x3eafeb9f	0.34359452
164	0xbe394005	-0.18090828
165	0x3e142938	0.14468849
166	0xbe8413b8	-0.25796294
167	0xbd5954bc	-0.053059325
168	0x3d8d6dd9	0.069057174
169	0xbe08ea53	-0.13370638
170	0xbd8d9459	-0.06913061
171	0x3ebcf965	0.36909023
172	0xbe6e5f64	-0.23278576
173	0xbdd7c176	-0.105349466
174	0xbdfdec65	-0.12398604
175	0x3e3be940	0.18350697
176	0xbdbe93a9	-0.09305508
177	0xbda9444a	-0.08264978
178	0xbe3d33b2	-0.18476751
179	0xbe0d4d92	-0.13799122
180	0xbde2b32b	-0.1106933
181	0x3e9b7e7f	0.30369946
182	0xbe1981c0	-0.14990902
183	0x3eb2e475	0.34939924
184	0x3d2a5ec2	0.041594274
185	0x3e231bc0	0.15928555
186	0xbd9c1fa4	-0.076232225
187	0x3e6fd817	0.23422275
188	0x3e04e44a	0.1297771
189	0x3d905aba	0.07048555
190	0x3e54f003	0.20794682
191	0xbd061618	-0.032735914
192	0xbed42137	-0.4143159
193	0xbea9223f	-0.3303394
194	0x3d9c1406	0.07621007
195	0xbe6c4923	-0.23074774
196	0xbe921bb2	-0.28536755
197	0xbbd0cd87	-0.006372157
198	0xbebaa093	-0.36450633
199	0xbe5eb1dd	-0.21747537
200	0x3e0279e8	0.12741816
201	0x3e8b25da	0.27177316
202	0xbeb7943c	-0.3585528
203	0x3e6df711	0.2323878
204	0xbd9e6319	-0.07733745
205	0x3e2cd1c3	0.16876893
206	0x3c81d244	0.015847333
207	0xbc8a58ab	-0.016887983
208	0x3ea7656f	0.32694575
209	0x3ec11a4a	0.3771537
210	0x3ebbd886	0.36688632
211	0xbcd2d701	-0.025737287
212	0x3e2121ba	0.15735522
213	0xbe7b7ef6	-0.2456015
214	0xbc39d633	-0.011342573
215	0xbe10c1c4	-0.14136416
216	0x3e8e14a7	0.2775013
217	0xbe6837e2	-0.22677568
218	0xbe8caa1e	-0.2747354
219	0x3d71993f	0.058984037
220	0x3e421a3e	0.18955323
221	0x3e660ee0	0.22466612
222	0x3e3f6155	0.18689473
223	0x3c969445	0.018381247
224	0xbe7766d7	-0.24160324
225	0xbd8cd6d7	-0.06876915
226	0xbddf6355	-0.10907618
227	0x3e67d1fc	0.22638696
228	0x3d62192a	0.05519978
229	0xbe83c3d1	-0.25735334
230	0x3e4a5cf4	0.19762021
231	0xbe3fcb07	-0.18729793
232	0xbcd54412	-0.026033435
233	0x3b8ba0e3	0.0042611226
234	0x3e4516f7	0.19247042
235	0x3ea6165d	0.32438937
236	0x3d9fa86d	0.077957965
237	0x3d919b7e	0.07109736
238	0x3c03cd13	0.008044499
239	0xbe35f6a8	-0.17769873
240	0xbeb1c132	-0.3471771
241	0x3e04b9a6	0.12961444
242	0xbe72d068	-0.23712313
243	0x3e47bc79	0.1950549
244	0xbed994e8	-0.4249642
245	0xbda18f58	-0.07888669
246	0xbdecfa5e	-0.11571191
247	0x3b868fc5	0.004106494
248	0x3dd5d05f	0.10440134
249	0xbe1a491f	-0.15066956
250	0xbe261815	-0.16220124
251	0x3d5bf832	0.053703494
252	0xbe7508ba	-0.2392911
253	0xbea8827a	-0.32912046
254	0x3e1f469e	0.15554282
255	0xbd8834ae	-0.06650673

bias f4 [25]
0	0xbe028707	-0.12746821
1	0x3e63ebc1	0.22257902
2	0x3e4446f6	0.19167694
3	0xbce03ab5	-0.027371744
4	0xbf045d63	-0.51704997
5	0x3dfc1475	0.12308589
6	0x3f08b5d1	0.5340243
7	0xbe4ce19f	-0.20007943
8	0x3e8a71e6	0.27040023
9	0xbd97fb42	-0.074209705
10	0x3d8e62f5	0.06952468
11	0x3e9141c5	0.2837049
12	0x3deb9f4b	0.11504992
13	0x3e126675	0.14296897
14	0xbd88b925	-0.066759385
15	0xbe2ea84a	-0.17056385
16	0xbe190f1b	-0.14947169
17	0x3e619195	0.22028191
18	0x3d93be05	0.07213978
19	0xbf0aa913	-0.54164237
20	0x3ee73ef7	0.45165226
21	0xbc0d744b	-0.008633683
22	0x3dc6d998	0.097094715
23	0x3e9fe86c	0.3123201
24	0xbfc0dadf	-1.5066794
