result/config6/preliminary_model48.pt (torch_old, 996807 bytes, 8 tensors)

weight f4 [24, 2, 192]
00000000: 4a3c 95be 11d1 313e b472 9d3e 36e2 913e
00000010: 4e80 673e 3ff6 94be 902a 0f3d d3c5 87be
00000020: 786e 36be 8771 ebbe aa16 f8bd 3a96 023e
00000030: 6e75 023b 9da7 14bf cd3f 47be 30b0 883e
00000040: e19e 7a3e 76ec 793e f52d 4fbe 9f29 56be
00000050: 8148 fdbd 9aea e13d 75fd e9be 0323 883d
00000060: f170 dd3e 2e73 b93e a6d4 183e 24b9 b23e
00000070: 5196 203f 4692 123f f154 043f 27a2 da3e
00000080: d183 643e c0ef c73e 24f2 e53e 3363 433f
00000090: 04f1 ac3e 75b0 3c3e f18b 8d3e 851e debd
000000a0: c7f8 ae3e a61a 963e 68db 49be 3d29 df3e
000000b0: ce26 f83e d705 7d3e 49c4 8a3d e761 b5be
000000c0: 0589 063e 0ea1 65bd 3a2c a0bc ae29 c03d
000000d0: a9f5 94bd 0c6d 193e 6f19 48bd d274 c4bd
000000e0: b89f bd3d b0bd 373e ee8d 303e 98a6 babe
000000f0: 99ff c3be b989 ddbd b095 5fbe 3549 6ebe
00000100: d68d 29be d334 3dbe 15b6 95be b74a 55be
00000110: 6679 703d 68c5 de3d fc5d d53e fde6 e63e
00000120: 8163 7a3e 302e ecbc 77e0 34be 891f edbe
00000130: 733a edbe 500a 863c 5ddf 44be 5628 23be
00000140: 2462 e43b e576 a3be 24df 82bd 8cf6 f13d
00000150: fceb 723c 0433 c0bd 64b8 d4bd 9601 6dbe
00000160: c013 fdbe 6aec a1be 81a0 71be b44c a0bd
00000170: c5f9 723d 4c80 be3d 1a96 0c3e b9e4 3d3f
00000180: 8194 ec3e 35d4 df3d d880 ffbd 08d5 12be
00000190: f872 183e c730 21be 2ad8 a73d a523 803e
000001a0: 38df 763e 5b67 a0bd 1176 9c3d 4478 013e
000001b0: 4283 b13c aa05 f0bb 7347 903e 5fe7 c03d
000001c0: 70e5 ed3d e45e d93d 43fe 953e 0270 a43e
000001d0: 74c8 0dbe 19b5 5cbd 0637 d8be 2ecf d3bc
000001e0: f9d4 73be b7c4 af3d d84d ff3e 5988 0c3f
000001f0: 32eb a73e d3e3 4dbe a202 083f 34d7 3a3e
00000200: 7ac8 883c d69e 153e 910f 2e3f cccf 213f
00000210: d282 063f 0eb3 2a3e af0b 543d 9ec8 633e
00000220: 16de 57be 218e 7e3e dfcd 3e3e 994a 123f
00000230: e018 39bd 554f 5bbc bc69 c13e 87c4 ff3d
00000240: 3255 80bd 190b 163e 975a 15bd 75e7 71be
00000250: 17da 1dbe 3a9b 9abe b799 45be 2171 153e
00000260: b16b a0bb a10d dabe 1a98 fbbe 9efb c2be
00000270: a137 36be 6ccd 31bf 5113 31be e1bf bcbe
00000280: ca2b fabd c835 1abe 5824 1cbf 328b e5be
00000290: caa3 b7be 0073 f33d 0032 803e ce72 a73e
000002a0: 95e7 d03d 9cf2 eb3d dc0f 6abd 9ec4 3cbd
000002b0: f58d 533d aa4a a3bd 6943 d83d d692 bd3e
000002c0: ccbe ce3e 404f cdbd 1cdd 6cbe 42df 45be
000002d0: 2458 dbbe 49ae 37be 2a17 c83c cd69 da3d
000002e0: 906c 5a3e b495 563d a99c 54be ef39 edbd
000002f0: 2a95 30be c51a 23be 7f57 163e 71cc 31be
00000300: f41c 8ebe 1cc3 bdbe 80e8 0cbf 1785 5a3e
00000310: d5ec c8be 2278 b0be d36e 0ebe fa33 15bf
00000320: 1fda 86be d5e3 4bbe 8146 66bb 0afb 85be
00000330: fb44 b6bd e9ce e23e 4ed1 cc3e d4de bd3e
00000340: c72a 273f e547 1c3f 02b3 cf3e 3163 243f
00000350: 75fc 033f 1b2e f23e bfca 083f a5db ea3e
00000360: edf8 933e fa58 1d3e 0aaf b33d e99b 663d
00000370: ca30 393f ca62 583e 244e c4bd 8459 ad3d
00000380: cab2 b43e 9b42 3d3f 9cd8 19bd d32e 4b3c
00000390: 07f4 6c3e 0206 833e 2e18 423e 03db afbe
000003a0: 4779 29be 98cc b3be 86da 6fbd b4df eb3e
000003b0: f6bc 62bd 0ed9 0a3d 0f82 7b3d 24fd 4abe
000003c0: 6564 28bf e621 113e 0437 babe 7200 20bf
000003d0: 1e05 82be b1ba 09bf e662 07be 2c88 2cbe
000003e0: 7907 a5be 01db e2be 6e5b c4be 612e dabe
000003f0: 70d1 0ebf c131 19bf b831 93be d042 32bf
-0.2914756 0.17364909 0.30751574 0.28492898 0.22607538 -0.2909412 0.0349527 -0.26518115
-0.17815578 -0.45985052 -0.12113698 0.1275262 0.001990642 -0.5806826 -0.19457932 0.2669692
0.2447467 0.24406609 -0.20232375 -0.20914315 -0.12367345 0.11031075 -0.45701185 0.06647303
0.4325023 0.36220688 0.14924869 0.34906876 0.62729365 0.57254446 0.5169211 0.42701837
0.22315909 0.39050102 0.449113 0.7632324 0.3377763 0.18426688 0.2764583 -0.10845665
0.34174177 0.29317206 -0.19712603 0.4358615 0.48467106 0.24709259 0.0677572 -0.35426256
0.13138206 -0.056061797 -0.019552339 0.0938295 -0.072734185 0.14983004 -0.04885238 -0.09592594
0.092589796 0.17943454 0.17241642 -0.36455226 -0.38280943 -0.10817284 -0.21834445 -0.23270114
-0.16558012 -0.18477182 -0.2924048 -0.20829283 0.058709525 0.10877496 0.41673267 0.45098105
0.2445202 -0.028830618 -0.17663752 -0.46313122 -0.46333656 0.01636234 -0.19225831 -0.15933356
0.006969707 -0.31926647 -0.06390217 0.11814603 0.014826771 -0.093847305 -0.10386732 -0.23145136
-0.4942913 -0.31625682 -0.23596384 -0.0782713 0.05932023 0.093018144 0.13729134 0.7417713
0.4620705 0.10929147 -0.12475747 -0.14339077 0.14887607 -0.15741263 0.08195527 0.25027195
0.24108589 -0.078322135 0.07639707 0.12643534 0.021669034 -0.007324894 0.2817951 0.094191305
0.11616027 0.10613802 0.2929555 0.32116705 -0.13845998 -0.053883646 -0.4222948 -0.025855627
-0.23811711 0.08582442 0.49864078 0.5489555 0.32796627 -0.2010644 0.5312902 0.18246156
0.016697157 0.14611372 0.679925 0.632077 0.52543366 0.16669866 0.051768955 0.22244498
-0.21080813 0.24858905 0.18633221 0.57145077 -0.04518974 -0.013385613 0.3777598 0.124886565
-0.0626625 0.14652671 -0.036463346 -0.2362345 -0.15415226 -0.30196553 -0.19296919 0.14593937
-0.0048956503 -0.42588523 -0.49139482 -0.38082594 -0.17794658 -0.69454074 -0.17292525 -0.36865142
-0.12215383 -0.15059578 -0.60992956 -0.4483276 -0.3586715 0.11887169 0.25038147 0.32704777
0.10200421 0.115208834 -0.05714403 -0.046085946 0.051649053 -0.079732254 0.105597325 0.3702609
0.4037994 -0.10024881 -0.23131222 -0.19323447 -0.42840683 -0.17937578 0.024425108 0.10664711
0.21330476 0.05238886 -0.20762886 -0.115833156 -0.17244402 -0.1592818 0.14681815 -0.17363144
-0.27756464 -0.3706292 -0.55042267 0.21339832 -0.39243189 -0.34466654 -0.13909464 -0.58282435
-0.26338288 -0.1991113 -0.0035137238 -0.2616809 -0.08899876 0.44298485 0.40003437 0.37084067
0.6529965 0.610472 0.4056626 0.64213854 0.51557094 0.473008 0.53434366 0.458707
0.28900853 0.15365973 0.087736204 0.05630103 0.7234007 0.21131435 -0.09585217 0.084643394
0.35292655 0.73929757 -0.03756009 0.0124013005 0.23139964 0.2559052 0.18954536 -0.3434678
-0.1655017 -0.3511703 -0.05855801 0.4606911 -0.05535599 0.033898406 0.06140333 -0.19823128
-0.6577819 0.14173087 -0.363701 -0.6250068 -0.2539453 -0.53800493 -0.1322132 -0.1684882
-0.32232264 -0.44307712 -0.38351005 -0.4261351 -0.55788326 -0.59841543 -0.2874887 -0.696332

bias f4 [24]
00000000: a795 26be f858 cebe b4ac 19bf 8b4f e2be
00000010: 2468 d1be 52ec c0be c5ca aebe 129d 00bf
00000020: 2b7f 39bf de91 99be 88f3 05bf 5ddc a4be
00000030: 0c4f 0ebf 6f7f c3be 45c9 fdbe bc9b dbbe
00000040: 0f66 08bf 1980 c8be dad5 dabe 0d4e 06bf
00000050: f185 cbbe af86 e6be 1b7f 7bbe 45e6 e7be
-0.16268025 -0.40302253 -0.6002915 -0.4420131 -0.40899765 -0.37680298 -0.34139076 -0.5023967
-0.7245967 -0.299941 -0.52324724 -0.32199374 -0.55589366 -0.38183162 -0.4956762 -0.42892253
-0.5328073 -0.3916023 -0.4274128 -0.52462846 -0.39750627 -0.4502463 -0.24560206 -0.4529287

weight f4 [96, 24, 16]
00000000: 3c6d fe3d e2d0 f4bd 10ad a13d abe2 5c3d
00000010: 0df7 583e 26c3 0cbf b149 6b3e 0101 9fbe
00000020: eeae 32bf b645 e13d c926 49be b65b b93d
00000030: 7f3c 06bf 5e43 7c3e 18a5 ce3d d6f1 23be
00000040: 60af 913e b07d 17be c8fc 06bd b64c 4fbe
00000050: 6b87 163f 77e8 90be 9cd4 cfbc fae3 12bf
00000060: 6675 4d3e 5d85 fcbe e50a a13e ef81 e6bb
00000070: 8fa5 c0bd 9507 d6bc 17a0 ce3e d314 8e3e
00000080: 064d 103f 7548 8fbe 4ef8 3d3e 1353 023f
00000090: 4d6d 05be 061a 823d 09da 443e be31 983c
000000a0: 3af8 57be 906b 973e 2ac9 87be df37 943e
000000b0: d14e 3fbf 735b f13e 4e21 75be d2ad 123f
000000c0: 8b5a eabe 034a b1bd 32be a7be f80c d4be
000000d0: 9fd3 48bd 2de7 48be 0c6f 7ebe b13f 1c3e
000000e0: aa56 9fbe 6dab 5abc 228a c0be a301 673d
000000f0: 3b82 b93d d2db fd3c 10dc 19bf a297 893e
00000100: 01c9 f9be 6f84 3b3d 9482 363e 185b 04bf
00000110: 74a6 0dbe 535d 963e b216 4dbe 8d5f b5be
00000120: b13f 83be 818b 68bd d3a3 03bf ae07 e63d
00000130: 7f48 8bbe d437 18bf 6c4e 97be fc6d a13e
00000140: c65e f2be 916f 4bbf bc58 8fbd 3acf aabe
00000150: 65fc 90be 7fcc f4be 6450 6f3c 90f2 33bf
00000160: 2766 0abf 9cde 19bf ba57 103e fbd7 9ebd
00000170: 21a3 f0be 5dc8 00be 9d18 9cbd aa55 aebe
00000180: f5bb 6f3d 0f74 b0be 0733 9fbe f0be 74be
00000190: 6450 07bf 49fe 0e3d 6b47 da3e 2d1f d5be
000001a0: 17a2 d4be c603 85bd b267 dbbe 1898 d8bd
000001b0: b87c d33d 66d5 5ebd e63f 15bf 7e40 e4be
000001c0: ae6b a5be f4e9 053f 0049 96be 755f c0be
000001d0: 1ed3 17bd e662 3b3e 493f 05bf f575 503e
000001e0: 03a0 c23d fa60 b9be d690 67be 5c26 50bd
000001f0: 9f69 09bc 42d2 e7be 9ecb 8dbb 0b9e 6fbe
00000200: adb4 ae3e 98c0 a73b 6f40 b73e 81e7 6abe
00000210: b785 a53e f1c5 c8bd 705c edbd b00d 20be
00000220: 33c7 0abf df53 84be 9349 8c3e fdef 923e
00000230: 7d6c f1bd c982 973d 7d8a a73e 7a24 323e
00000240: 9474 eb3c bc11 b1be 0e66 f5bd 866b 2fbf
00000250: 4148 79bd 13bc 0dbf b2d4 0abe 8c1f 06be
00000260: 1fb1 48bf 922c 1bbf 5417 44be fc60 febd
00000270: da72 5d3c f20c 40be 57f7 ac3d 0fd0 9bbd
00000280: 3a91 ef3e 6a0d 793e 1334 16be 89e8 933d
00000290: 2de7 c53e e551 313e e27a 9b3e b57a bcbe
000002a0: d1fe f7be e4e1 863e 6e9d 01be bb08 0f3f
000002b0: 155f 073e 4e4b ad3e e0f1 c83e f0b3 833e
000002c0: e7a2 09bf aa83 88be dd27 c83b 108e 65bf
000002d0: 71f2 b2bd 9d5c 80be f500 54be 1cea aabf
000002e0: 6f10 3abf 3f4b 053f 8a97 adbe 05b5 1e3d
000002f0: a7dc 30be 6cd6 01bf 7f6e b6bc 0124 6fbe
00000300: 62b2 44be a31b 5e3e 0d46 04bf 4a4c 3e3e
00000310: 0a7c bbbd a1a8 f43c dc88 fcbd 62d1 acbe
00000320: c308 cabe 4ed2 06be 0056 f8be d077 44be
00000330: 0480 c8be cf06 2b3e c8ca f3bd f855 f5bd
00000340: 3703 45bf ee28 0bbf 2eea ec3d b335 57be
00000350: 6b62 06bf 386d 4abf 1976 55bf e3b1 18bf
00000360: 6580 09bf 23a2 8cbe 9024 8cbd 6a3a e8bd
00000370: eff3 073e 8d93 efbe 311d 843d afda 9d3e
00000380: 1362 1d3f 0a67 dd3d 8121 1b3d 767c bd3d
00000390: 0b91 f63e 506a 1d3e f954 4c3e 85ba 22be
000003a0: 089b fa3d 3e86 13bf 1567 f5be 53d9 723e
000003b0: 7bab 343f 79c6 e3be d07d cdbe a9aa 8a3e
000003c0: e940 ca3e 5b3b 913d cf4c 5b3d 2e72 57be
000003d0: 1f1b 003f 6d14 533e b478 66bd 83f5 0f3e
000003e0: 7f95 91bd ba78 fdbd d327 a23e c4ab 923e
000003f0: 3ceb adbe 092a 75be 9f24 9a3e 7747 0c3f
0.124231786 -0.11953904 0.07894337 0.053927105 0.21187992 -0.5498527 0.2297733 -0.31055453
-0.6979817 0.109996244 -0.19643702 0.090506956 -0.5243606 0.24635074 0.10090083 -0.16010222
0.28454113 -0.1479404 -0.032955915 -0.20244107 0.5880038 -0.28302357 -0.025369935 -0.57379115
0.20064315 -0.49320498 0.31453624 -0.0070345323 -0.09406578 -0.026126662 0.40356514 0.27750263
0.5636753 -0.27984968 0.18551752 0.5090801 -0.13029976 0.0635262 0.19223799 0.018578406
-0.21090785 0.2957425 -0.26520663 0.28948876 -0.7472964 0.47140083 -0.23938486 0.5729648
-0.45772204 -0.08656695 -0.32762295 -0.41416144 -0.049029943 -0.19619437 -0.24847049 0.15258671
-0.31120807 -0.013346535 -0.37605387 0.056398045 0.090580426 0.030988608 -0.60101414 0.268735
-0.48786166 0.045780595 0.17823249 -0.517015 -0.13833028 0.29368076 -0.20028189 -0.35424462
-0.2563453 -0.056773666 -0.5142185 0.112319335 -0.27203748 -0.59460187 -0.2955202 0.31529224
-0.4733793 -0.7946711 -0.069993466 -0.33361226 -0.28317562 -0.47812268 0.014606569 -0.70291996
-0.5406212 -0.601053 0.14095965 -0.07756039 -0.46999457 -0.12576433 -0.07621882 -0.34049731
0.05852886 -0.34463546 -0.31093618 -0.23900962 -0.5285704 0.034910474 0.42632613 -0.41625348
-0.41529915 -0.0649486 -0.4285255 -0.105758846 0.103265226 -0.05440273 -0.58300626 -0.44580454
-0.32308716 0.5231011 -0.2935257 -0.37572828 -0.03706657 0.18299446 -0.5204969 0.20357497
0.09503176 -0.362068 -0.22613844 -0.050817832 -0.008386998 -0.452776 -0.0043272516 -0.23400132
0.3412222 0.0051193945 0.35791346 -0.22939874 0.3232858 -0.09803379 -0.11589897 -0.15630221
-0.54210204 -0.2584524 0.27399883 0.28698722 -0.117882706 0.07397992 0.32722846 0.17396727
0.028742112 -0.34583843 -0.11982356 -0.6852344 -0.060859922 -0.55365103 -0.135577 -0.13097972
-0.78395265 -0.60614884 -0.19149524 -0.12420842 0.013516152 -0.18754938 0.08445614 -0.076080434
0.46790487 0.24321523 -0.14668302 0.07222087 0.38652936 0.17316397 0.3036719 -0.36812368
-0.48436597 0.26344216 -0.12657711 0.55872697 0.13219865 0.33846515 0.39247036 0.2572322
-0.53764194 -0.26662952 0.0061082677 -0.89669895 -0.08737648 -0.25070658 -0.2070349 -1.3352695
-0.72681326 0.5206794 -0.33904678 0.038746852 -0.17271672 -0.50717807 -0.022269486 -0.23353578
-0.19208673 0.2169023 -0.5166939 0.1858379 -0.09154518 0.029865565 -0.12330791 -0.33753496
-0.3945981 -0.13166162 -0.48503113 -0.1918633 -0.39160168 0.16701816 -0.11903912 -0.11979288
-0.7695803 -0.5435933 0.11568104 -0.21016578 -0.52493924 -0.79072905 -0.8338333 -0.59646434
-0.5371154 -0.2746745 -0.06842911 -0.113392666 0.13276647 -0.4679226 0.0645088 0.30830905
0.61477774 0.10810669 0.03787375 0.09252255 0.48157534 0.15372586 0.1995429 -0.15891464
0.12236601 -0.5762671 -0.47930208 0.23715715 0.7057416 -0.4448736 -0.4013505 0.27083328
0.39502648 0.07091399 0.053540047 -0.2103965 0.50041384 0.2061326 -0.056267455 0.14058499
-0.07108592 -0.123765424 0.31671008 0.28646672 -0.33968532 -0.23941816 0.30106065 0.54796547

bias f4 [96]
00000000: 5eaa 70be 76c8 89bd 7de2 6bbe 4768 63be
00000010: ceac 98be 8d0c 1d3e 0d58 44bd d062 38be
00000020: a34b 19bf b50b 0b3e 0f8d 133e 496d cbbe
00000030: 448a 70be 75ce 4bbe 7200 0cbe eef2 b73d
00000040: a268 85be 4a5c 89be ba89 52be d196 90be
00000050: b201 793d 912c 51be 8dd9 61be b4e7 cd3e
00000060: 955e 16be 2586 95bd 994a bbbc f6a8 e4bd
00000070: a49a 7bbe aa6e d63b a336 afbd cbc6 17bf
00000080: ec35 eebb aeb2 30bd 834a bcbe a207 29be
00000090: 37d7 bfbe 4912 403d f3f9 aebe f909 12be
000000a0: 26d1 67be bcff 473e 2cd2 9ebe c7b7 0b3e
000000b0: e4b5 2ebe 88b6 66be 93fb ddbe 26df 65be
000000c0: 456f 653e d6a8 5ebd d058 70be 33eb 86be
000000d0: 04d5 553b 954a b03b a958 d0bd af5e 8f3e
000000e0: fc24 b43e 2e88 0d3e 063a a7bd 5f2c 08be
000000f0: 92c0 f4bd d181 5b3d 22af 1d3e 27f0 af3d
00000100: b456 63be 22f0 143f 44ff 1abe 63c5 2cbe
00000110: 6f59 89be dfcd 95be da54 ffbc 63ba 083e
00000120: 0d00 d5be 1521 3e3d 60c5 0fbf 72de 85bd
00000130: 1c3e 233e c483 6f3d bec0 c4bd f9a9 cabe
00000140: 1223 943a ca98 3fbe bf8e 90be 3882 eebc
00000150: a5de 9c3d 8871 66be 155b a8be bed9 c83e
00000160: 5a32 083e df90 20be a8b0 413e 0bff 8dbe
00000170: dd3b 09bf 3773 18bd 50bc a1bd f498 61be
-0.2350249 -0.06727688 -0.23035617 -0.22207747 -0.2981934 0.15336819 -0.047935534 -0.18006444
-0.5988104 0.13578685 0.14409278 -0.39731815 -0.23490244 -0.19902976 -0.13672045 0.08981882
-0.2605639 -0.26828223 -0.20560351 -0.28240064 0.060792632 -0.20427157 -0.22055645 0.40215838
-0.14684518 -0.07300977 -0.02286272 -0.11165039 -0.2457071 0.006543954 -0.08555343 -0.5928771
-0.0072696116 -0.043139152 -0.36775598 -0.16506818 -0.37468883 0.046892438 -0.3417507 -0.14261617
-0.22638378 0.19531149 -0.31019723 0.13644324 -0.17061573 -0.22530568 -0.43355998 -0.22448406
0.22405727 -0.054360233 -0.2347138 -0.26351318 0.0032628188 0.0053799846 -0.101731606 0.28001925
0.35184467 0.1382148 -0.08165364 -0.13298176 -0.11950792 0.0535906 0.15398839 0.08590727
-0.22201043 0.58178914 -0.15136439 -0.16872172 -0.26826045 -0.2925863 -0.03116839 0.13352351
-0.416016 0.04641827 -0.56160545 -0.06536569 0.15941662 0.05847527 -0.09607075 -0.39582804
0.0011301956 -0.18710628 -0.28233907 -0.029114828 0.076596536 -0.22504246 -0.3288199 0.39228624
0.13300458 -0.15680264 0.18915045 -0.27733645 -0.5360697 -0.037219252 -0.07897246 -0.22031003

weight f4 [64, 3072]
00000000: f25a 91bc a466 b7bc 1047 743c 375d 6ebc
00000010: 4d9d 2b3c a9cb 2cbb 0817 9bbc 846d c6bc
00000020: 8d7b 4a3c d9f7 4cbb d75d fabb 839a 713c
00000030: 2558 303c 0587 9dbc 2b2b 50bc eec2 25bb
00000040: 5766 9d3b 9107 2e3b fcb5 9ebc c095 d43b
00000050: e88a 1c3c 5e2c ce3b b6cd f13b 4937 683b
00000060: 5a86 77ba c729 4a3c 03c6 893c ec06 c23b
00000070: 3bfc 42bc 7529 0fbd c6c4 02bd bf96 a5bb
00000080: dd1f 203c 0225 5ebb 4573 523c be95 88bc
00000090: c227 eebb 69bd ae3b 5431 0ebc b9de c0bc
000000a0: 8f6e 183c 19a6 40bc 1dbb ccbc 91f0 d5bb
000000b0: d125 ab3b 5131 e4ba e002 87bc 0658 453b
000000c0: 66dd 2cbc ed5b 08bc aaca 8ab9 dd87 83bc
000000d0: e1da 9cbc dd13 cbbc 10d7 f5bb 0e68 a1bc
000000e0: 3b84 5a3a 2a96 66bb 1679 38bb 1ecc 59bc
000000f0: 30e0 0a3c c995 f8bc d59a 413b 0865 2b3b
00000100: cb56 80bc 7b39 f7bc b6e3 94bc b6b0 27bd
00000110: 760a b9bc 5869 54bc f564 a5bb 185b adbc
00000120: 1461 6fbc ed49 4c3b 10c9 9dbb 4777 c4bb
00000130: 7688 11bc d583 4cbd 21df a8bc 1cab 1bbb
00000140: d3b9 84bc c74f d5bc abc5 a1bc 8b6a 80bb
00000150: bdad ccbc 3d6e 78bc 4c19 a1bc 1170 9dbc
00000160: 3a42 d0bb 6e2e 2dbd a4c3 3ebd 4972 48bd
00000170: 0206 a0bc b849 51bc e596 84bc 65a9 05ba
00000180: ac00 263c 8359 4fbc 747b 1fbc 3c53 0abc
00000190: e005 48bc d90e d0bb 5af6 02bc 155b 413c
000001a0: 9236 24b9 7810 033c 4821 c7bb 4051 343c
000001b0: 44b8 c4bc c28b 79bc cae7 d1ba 8b5b 61bc
000001c0: 0fb1 b0bb 10bd 8fbc ca7c 3e3b 017b 4c3b
000001d0: b787 863c 49a0 513c 8f1d 45bb 98c6 85bc
000001e0: bfd2 403b 0fdd 09bc 3e09 5bbc d960 4d3c
000001f0: 0c02 96bc 26d9 b23b e3a9 8c3b 2925 933b
00000200: 6543 6ebb d08d 283c d9d8 1abc ef66 83bb
00000210: e94e b0b9 0198 63bb 14ea a6bc c5d8 2eb9
00000220: fe5b 953b 5a8e 0cbc 7351 9cbc ddd0 ee3b
00000230: f0ce bbbc 8d98 9fbc 2c3c 9dbc ee7e 2c3c
00000240: 80fa aabb 60fa c63a 4326 2e3c f8ed 84bb
00000250: fb97 54bc 2ff9 b2bb 10e0 76ba a572 45bc
00000260: 7c4f 143b 37f1 ea3a 1b86 0a3c 680f a9bc
00000270: 1a0d 903a 39fa 423c 1717 093b 0ed6 833b
00000280: 75d6 1f3c 1eff fa39 b618 143b 36a7 b6bc
00000290: 32cf 3fbc fab9 303c 1169 083c 9382 4839
000002a0: bf86 2bbc 2f05 7d3c 416a 3f3c a619 3dbc
000002b0: 5ba5 a0bc ce64 063b 7dfb 2cbc a7ee 383a
000002c0: 3b57 d8bb 8d33 70bc d2bf b33b 0294 01bb
000002d0: 8be0 d83b 85f0 84bb 0a1a 9fbc aff7 603c
000002e0: 6e32 153c 9bfd 91bc 66a7 823c df0f 55bb
000002f0: d0fc 00bd 20ce 12bd 8e25 96bb 9205 8c3b
00000300: 5c95 0a3c d25f a7bc 9493 843b d7b4 2dbc
00000310: 105b c1bc febb 98bb 7346 c8bc 9bc6 273c
00000320: 42b2 043c 425b 473c bfa6 223c 5c6c 0b3c
00000330: 4f5f ef3b 2d34 1abc c997 8bbc 0eae dcbb
00000340: f4e9 653c 9082 90b9 8f45 58bc 4803 57bc
00000350: 1c67 93bc a4f9 80bc 8543 36bc a5d2 b6bc
00000360: 60d8 85bc ed16 48bc 5205 6fbc 59a9 2ebb
00000370: a32e 5abc c879 54bb 6758 8abc 139f aebc
00000380: 206b a7bb 9c5b 0f3c 68c9 8bbc 8146 2fbb
00000390: 47e9 9aba b0c0 08ba 51c4 ae3c 0cfe 83bc
000003a0: 8dad a9bc d029 f2bb b113 05bc 02c5 973b
000003b0: 6168 ef3a 1623 043b f2bb 32bc 94c9 2bbc
000003c0: 0481 33bc fd9f 9cbc a50f 03bc 66d1 68bc
000003d0: da0e a3bc c46c 0ebc 844c 5db9 098a b4bb
000003e0: cb52 043c ace0 413b 33d9 a2bc 006b 69bb
000003f0: 41d8 5fbc f694 74bc 8aba a93a 3d0b baba
-0.017743561 -0.02238781 0.014909521 -0.014548591 0.010474515 -0.0026366508 -0.01893188 -0.024222143
0.012358558 -0.0031275658 -0.007640581 0.014746311 0.010763203 -0.019229421 -0.012705605 -0.002529319
0.0048034596 0.0026554803 -0.019373886 0.006487578 0.009554602 0.00629191 0.007379259 0.0035433343
-0.0009442322 0.012339062 0.016818052 0.0059212353 -0.011900957 -0.034951646 -0.03192594 -0.0050533707
0.009773222 -0.003389657 0.012844865 -0.016672965 -0.007267923 0.005332638 -0.008678753 -0.023543702
0.009303703 -0.011758351 -0.024991566 -0.006528922 0.005223014 -0.0017409717 -0.016480863 0.003011228
-0.010550832 -0.008322698 -0.00026472408 -0.016055996 -0.019147338 -0.024789745 -0.007502444 -0.019702937
0.0008335744 -0.003518472 -0.0028148345 -0.013293294 0.008476302 -0.03034486 0.002954175 0.0026152749
-0.015666386 -0.030178776 -0.018174987 -0.04094001 -0.022587996 -0.012964569 -0.0050474354 -0.021161601
-0.014610548 0.0031171993 -0.0048152283 -0.0059956643 -0.0088826325 -0.049930412 -0.020614209 -0.0023753112
-0.01620189 -0.026039017 -0.019747576 -0.003918951 -0.024985189 -0.015163002 -0.019665383 -0.019218476
-0.006355551 -0.042280607 -0.046573296 -0.048937116 -0.019534115 -0.012773924 -0.016185233 -0.0005098789
0.010131996 -0.012655619 -0.009734023 -0.008442696 -0.012208432 -0.006349426 -0.007993305 0.011801501
-0.00015660588 0.007999532 -0.0060769655 0.0110057 -0.024013646 -0.015231075 -0.0016014513 -0.013754736
-0.005392201 -0.017546207 0.002906608 0.0031201246 0.016422136 0.012794563 -0.0030077433 -0.016330048
0.002942249 -0.008414521 -0.013368903 0.012535297 -0.018311523 0.005458015 0.004292713 0.004490514
-0.0036356088 0.010287717 -0.009451115 -0.0040100734 -0.0003362813 -0.0034728053 -0.020375289 -0.00016674686
0.0045580855 -0.008578861 -0.019081807 0.007288082 -0.022925824 -0.019481922 -0.019193731 0.010528309
-0.00521785 0.0015180819 0.0106292395 -0.0040566884 -0.012975688 -0.005461834 -0.0009417543 -0.012051259
0.0022630384 0.0017924671 0.008454825 -0.02063723 0.0010990233 0.011900478 0.0020918304 0.00402332
0.00975572 0.00047873793 0.0022597737 -0.02229653 -0.011707114 0.010786528 0.008325831 0.00019122129
-0.010469138 0.01544313 0.011683048 -0.01154176 -0.019610098 0.0020506862 -0.010558006 0.0007054605
-0.0066021956 -0.014660728 0.0054855132 -0.0019772057 0.0066185645 -0.0040569925 -0.019421596 0.013730927
0.009106262 -0.017821124 0.015948962 -0.003251068 -0.0314911 -0.035841107 -0.0045821136 0.004273125
0.008458462 -0.020431433 0.004045913 -0.010602198 -0.023602992 -0.0046610823 -0.024447655 0.010240222
0.008099141 0.012167754 0.009927451 0.008509722 0.007305063 -0.009411854 -0.01704015 -0.006734616
0.01403283 -0.00027563097 -0.013200178 -0.013123341 -0.017993502 -0.015744038 -0.011124496 -0.02231724
-0.016338527 -0.012212497 -0.014588671 -0.0026651232 -0.013316783 -0.003242122 -0.016887857 -0.021316087
-0.005109206 0.008749869 -0.017063811 -0.0026744904 -0.001181879 -0.0005216701 0.021333845 -0.01611235
-0.020712638 -0.0073902383 -0.008122371 0.0046316395 0.001826536 0.0020162514 -0.0109090675 -0.010485072
-0.010956053 -0.019119257 -0.007999335 -0.014210081 -0.019904543 -0.008692924 -0.00021104707 -0.005509619
0.00807638 0.0029583378 -0.01987896 -0.0035616755 -0.013662399 -0.014928093 0.001294927 -0.0014194023

bias f4 [64]
00000000: 4b75 b3bb 6318 babc 7d43 aebc e07c 4cbd
00000010: eab6 233d e638 253f b10e e2bc 58f6 04bd
00000020: 9d5f e2bc fa5d 86bc 0e50 4c3d 77e9 59bd
00000030: ffec fcbb 7b1e aabd 32e1 4ebd 7c47 4d3f
00000040: 4029 cabb 6fe8 0cbc af7e edbb 0dbb 33bc
00000050: a9b5 e2b9 46ce d93a ed52 70bd 36a3 4b3f
00000060: 87cb 8e3e 84aa d4bb 1924 dabe f083 dabc
00000070: 0226 54bd 234e d63b d273 17bd 38bb 1cbc
00000080: 6ebe a43b 9b27 a8bc 4c15 14bd 9b78 c1be
00000090: 2a9f a1bd c050 223c 7a47 993d 4131 5fbe
000000a0: 7a83 cdbe f10f ae3e 851d eabc 9e8a 20bc
000000b0: 0e1c cf3d fb18 c3bc 053e b7bc 9fc9 16bd
000000c0: cce6 a23b 26c5 d1ba 337a 81bd 1ce1 9f3d
000000d0: 638c 5fbd d9da 46bd f14f bd3b c6b9 c6bb
000000e0: 48a4 e6bd d2d3 bbbc 57e7 803e 6fb8 d639
000000f0: 43e0 85bc 8acd 813d b7fb 3abd 38bd 9eb9
-0.005476629 -0.022716707 -0.021272415 -0.049923778 0.039969362 0.64539945 -0.027594896 -0.032461494
-0.027633483 -0.016402233 0.049881034 -0.053201165 -0.007718682 -0.08306595 -0.05050773 0.801872
-0.006169468 -0.008600338 -0.007247768 -0.010969889 -0.00043241426 0.001661726 -0.058672834 0.79545915
0.27889654 -0.0064900536 -0.42605665 -0.02667424 -0.05179406 0.0065400763 -0.03697569 -0.009566121
0.005027584 -0.020526698 -0.036153123 -0.37787327 -0.07891686 0.009906948 0.07484336 -0.21796133
-0.4013937 0.33996537 -0.02857853 -0.009798674 0.10112773 -0.023815623 -0.02236844 -0.036813375
0.004971361 -0.0016004189 -0.06322136 0.07806608 -0.054577243 -0.048548553 0.005777352 -0.0060646264
-0.11261803 -0.022928152 0.25176498 0.00040954674 -0.016342288 0.063380316 -0.04565021 -0.00030277087

weight f4 [25, 64]
00000000: 5ebb 783d cdee 4dbc 5648 aebd 6d52 f33c
00000010: 90a3 673d 2dd6 c03e bfee 69bc a041 303d
00000020: d182 5abd 109c d7bc eb19 a2bd b095 85be
00000030: 0b87 a0bd 5e97 03be 2a05 f23c 4553 a7be
00000040: 55fa 813d f8b5 b63d 0ff9 d3bd 4c9e bb3d
00000050: 07ac 7a3d 2d87 043e 85da d5ba 63f3 38bc
00000060: 8b81 f03e 5efb da3c b33c 64bc c086 893d
00000070: c197 763c 3fbb c7bd 10a0 abbd a2b6 8ebb
00000080: 416f b43d 29b3 a63c c33e 333c d2bf 53bf
00000090: e51b b8bd 01b9 86bc f958 8dbd 0c12 4dbf
000000a0: 2479 5cbe e80f 083e 324f 0b3d 5a99 96b9
000000b0: 6893 0ebe c4e0 88bd 8b60 ccbd cec8 2abe
000000c0: 1725 c63d f02c f03d 55b7 27bc 2145 5b3e
000000d0: 51b1 c2bd a7a4 be3c b779 803d 8e0f 8bbd
000000e0: 984e d3be de22 67bd 5599 6a3e 3bf9 9ebd
000000f0: 06e6 bcbd 0595 85be b416 ffba 1ef9 afbd
00000100: 53e7 40bd aa26 c43d acb8 c73d 5bf6 233d
00000110: 45b9 463e bc2c e3be 1f3d 7dbd 8875 8abd
00000120: aaf7 b23d 2772 903c 525b be3d 6269 ea3c
00000130: e9bf a2bd 5a61 83bd 7255 d13c b70f b0bd
00000140: b919 88bd 527f d9bd d53d 7c3c 863d c4bd
00000150: 3108 a13b e638 aebc 8850 c63c a1fd 91be
00000160: 59ae c63d 2570 da3d 7a46 8d3e 1575 d2bd
00000170: 967a b63d 434e 00be 7608 4c3c cf0f 39bd
00000180: 105a 01bf 1b17 a83d 9ac6 053c 84cf 1dbe
00000190: be5f 62bd c5a4 5abd 443e e73d 1e17 cbbe
000001a0: 8fc8 6abe 4d73 debe 2cc7 f43c 8c0e d4bd
000001b0: 50b2 8fbe 1e9f 8a3d 08ef 193c 1d39 39b9
000001c0: ec76 ca3d 8ecc ec3d 50db b93d 599a 0e3d
000001d0: ba93 49bd 17f0 b4bd 94f8 873d 0b59 cc3d
000001e0: 360e 213d a964 903d 1c4d c13e b2da ca3c
000001f0: 6adf 1e3d e91b d13e d36e 103d 606d cd3a
00000200: 4755 fb3d 16ac 7c3d cdbd ffba 8e75 fe3b
00000210: f851 613e b08f 01bd 93b7 e13c aef2 80bc
00000220: 7f34 013d 05fd 2e3d 42fd ddbe b5bc 233e
00000230: 31f6 50be 2eb1 cebc c236 463d da52 47bf
00000240: f138 d4bd b367 f1bc 1394 f7bd bbf0 afbc
00000250: 3be7 d4bd 6799 873d 2ead 40bd 5f6c b03d
00000260: ca97 033f 705e 4a3d fb1c a8be 0927 9bbc
00000270: 22ca 3f3d 772c efbd 4c17 15bd 8237 88bd
00000280: ea23 65be fee1 ca3d 2cf7 bc3d 17cc 963e
00000290: 09e8 d53e da7e b0bb 7649 7fbe ac35 f1be
000002a0: a5b5 bdbe 7aeb fb3e 7309 aabd bd29 8cbd
000002b0: aaf6 03bf 4aaf a93d b61b 79bd efbc 49be
000002c0: cc55 7cbd 4d93 e6bd 04df b3bd 49e6 01bf
000002d0: 6a7c a83d 0c9f ad3d d84d bebd 55d8 e73d
000002e0: a7e8 cdbe d4a7 e7bd 1a27 42be 8a43 363d
000002f0: 4649 443d e6ba f3be f201 c2bd e5e8 4dbd
00000300: 1462 933c 71df dcbc 28a1 bf3c a3ff 1fbd
00000310: e5ab 383e 45cb 03bf fee7 433d f54a e8bc
00000320: 4274 a33d e39c ff3d 6ec5 83bd 45b9 9fbe
00000330: e9ca 493d 8492 17be ba3a bfbd 513f 1ebf
00000340: af2c b3bd 98a5 bbbd 8ceb 92bd 6eab 95ba
00000350: 2ea8 97bd 6769 eebd 8f24 243d 711c 043d
00000360: 8171 853d 52ec 3abc 1630 e6be 162a 523d
00000370: b0a6 e0bd 2b08 ce3d 5aad 18be cd4f 253d
00000380: 7dda 38be fffc bebd 844a cdbc d23e b5be
00000390: e673 0b3e cdad cf3d 358b 2cbe c894 a53b
000003a0: 1b68 093f 8666 c7be 2ef5 b6bc 4919 d9bd
000003b0: 639c 943c b4f9 bcbd 9947 71bd 68ec 4f3e
000003c0: 7fc3 dabd 397a aebd 90d9 383d d755 d4be
000003d0: a69a f73c 2b2e 343c 9f02 babd 1af5 f23c
000003e0: f5d9 bd3d 0a8f 5d3d 6eef 01bf df55 403d
000003f0: ecd2 dc3d 7115 9cbe 3cd9 cf3d 3385 4cbc
0.060725562 -0.012569142 -0.08509891 0.02970239 0.05655247 0.37663403 -0.014278113 0.043031335
-0.053347412 -0.026319534 -0.079151 -0.26090765 -0.078382574 -0.12850711 0.029543478 -0.32680717
0.06346575 0.089214265 -0.103502385 0.09161052 0.061199214 0.1294219 -0.0016315734 -0.011288497
0.46973833 0.02673119 -0.013930487 0.06715155 0.015050829 -0.09752511 -0.08380139 -0.0043552676
0.088102825 0.020349102 0.0109402565 -0.8271457 -0.089896955 -0.016445639 -0.06901736 -0.8010566
-0.21530586 0.13287318 0.034011073 -0.00028724485 -0.13923419 -0.06683496 -0.099793516 -0.16678163
0.09675043 0.11727321 -0.010236581 0.2141309 -0.09506477 0.023271872 0.06273215 -0.06790076
-0.412709 -0.056429736 0.22910054 -0.07762381 -0.09223561 -0.26090255 -0.0019461722 -0.08592437
-0.047095608 0.09577687 0.0975202 0.040029865 0.19406612 -0.44370067 -0.061825868 -0.067606986
0.087386444 0.017632557 0.09294762 0.028614704 -0.0794676 -0.06415053 0.025553439 -0.08596747
-0.06645531 -0.106199875 0.015395601 -0.09582047 0.0049143066 -0.021267366 0.024208322 -0.28513816
0.09701223 0.10665921 0.27592832 -0.10276238 0.089101 -0.12529854 0.012453189 -0.045181092
-0.5052805 0.08207532 0.008165026 -0.15411192 -0.055267088 -0.053379793 0.11291173 -0.39666075
-0.2292807 -0.43447343 0.029880129 -0.10354337 -0.2806573 0.067686304 0.009395368 -0.00017664251
0.09885964 0.11562453 0.09075034 0.034815166 -0.04921315 -0.08834856 0.066392094 0.09977921
0.039320193 0.070504494 0.37754142 0.024762485 0.038787283 0.40841606 0.03526194 0.0015672855
0.12272125 0.06168755 -0.0019511521 0.0077654785 0.22003925 -0.03163117 0.027553355 -0.015740719
0.031544205 0.042721767 -0.43357283 0.15989955 -0.20406415 -0.02523097 0.048392065 -0.77860796
-0.10362423 -0.029468393 -0.1208879 -0.021477094 -0.10395666 0.06621056 -0.047040157 0.0861442
0.51403487 0.04940647 -0.3283461 -0.018939512 0.04682363 -0.11678403 -0.03639917 -0.06651212
-0.22376981 0.09906386 0.09226832 0.29452583 0.4177859 -0.0053862156 -0.24930367 -0.4711126
-0.37052646 0.49203092 -0.083025835 -0.068438984 -0.51548254 0.08285387 -0.060817443 -0.19700979
-0.06160526 -0.11258564 -0.08782771 -0.5074201 0.08226855 0.084776014 -0.09292191 0.11320559
-0.40216562 -0.113113075 -0.18960229 0.044498004 0.04792144 -0.4760353 -0.09473027 -0.050270934
0.017991103 -0.026962014 0.023392275 -0.039062154 0.18034323 -0.5148204 0.047828667 -0.028356055
0.07981159 0.12481096 -0.06434141 -0.31196037 0.049265776 -0.14801985 -0.09337373 -0.61815363
-0.08748757 -0.09162444 -0.07173833 -0.0011418888 -0.074051246 -0.11641198 0.040073927 0.032253686
0.0651579 -0.011408882 -0.44958562 0.051309668 -0.10969293 0.10060152 -0.14909878 0.040359307
-0.18052097 -0.09325599 -0.025059946 -0.3539949 0.1361843 0.10140572 -0.16849978 0.0050531365
0.5367448 -0.38945407 -0.022333708 -0.10600526 0.018140977 -0.092273146 -0.05890617 0.20305026
-0.10681819 -0.08519406 0.04512936 -0.4147174 0.03022511 0.010997335 -0.09082531 0.02965789
0.09270088 0.05409149 -0.50755966 0.046956893 0.10782418 -0.30485108 0.10148856 -0.012482929

bias f4 [25]
00000000: e426 0abe 5e25 f43d 224e 88bb 7c99 eabe
00000010: 3b04 9b3d 5a15 d8be f75a 6b3f b57f 86bd
00000020: d8ba 1e3c bd95 fd3e 1956 493f d5df 9c3f
00000030: f0ba cd3e bdc8 81be e95b 17bc ca04 923e
00000040: a050 ef3e 48b0 e2be b2dc 1fbf 5c65 fbbc
00000050: baee 123f 32b0 87bf 6d76 a63c d43c dabd
00000060: 308c adbe
-0.13491398 0.1192119 -0.004159705 -0.45820224 0.07569166 -0.4220379 0.91935676 -0.06567327
0.009688102 0.49528304 0.78647 1.2255808 0.40181684 -0.25348464 -0.009238222 0.2851928
0.467412 -0.44275117 -0.6244613 -0.03068798 0.5739552 -1.0600646 0.020320142 -0.10656133
-0.33896017
