result/config6/preliminary_model24.pt (torch_old, 996807 bytes, 8 tensors)

weight f4 [24, 2, 192]
-0.40110433 0.054661553 0.1381196 0.24778825 0.16362865 -0.12089235 -0.057573646 -0.23950158
-0.11410056 -0.32536143 -0.11928252 0.09351343 -0.028641904 -0.4769677 -0.06147785 0.31772935
0.18696651 0.14659506 -0.12931094 -0.10033383 0.010941869 -0.0022933811 -0.36647052 0.044758942
0.30924332 0.32868192 0.20121002 0.33672705 0.48849973 0.58607596 0.39478478 0.32980195
0.1439608 0.3029538 0.34883788 0.5180551 0.26888064 0.071675465 0.1525187 -0.081482574
0.20418228 0.08558423 -0.22865081 0.20669387 0.42197806 0.2585953 0.093905404 -0.3266257
0.0623311 -0.057274323 0.027333135 0.11665245 -0.029539455 0.15838596 -0.06264572 -0.051129457
0.08006859 0.2656705 0.11124649 -0.31571838 -0.39958903 -0.21551254 -0.27639326 -0.1945261
-0.2451605 -0.22084358 -0.25435832 -0.20154375 0.09959155 0.028854968 0.24780414 0.35764736
0.22499369 -0.005841981 -0.15475418 -0.40608722 -0.40323886 0.020280503 -0.024634559 -0.23195468
0.026357941 -0.26720703 -0.09024278 0.10988382 0.0027475955 -0.13175611 -0.12234033 -0.32411987
-0.3943496 -0.35309285 -0.3021715 0.060565613 0.11244704 0.21984556 0.10955685 0.5185263
0.28261682 0.09119521 -0.06679183 -0.004734459 0.13291134 0.03003305 0.09902738 0.17222746
0.25351262 -0.049923535 0.12600888 0.109976605 0.113682605 -0.008132899 0.18812533 0.15345958
0.046858683 0.06272383 0.4031164 0.32843706 -0.09652297 0.010084629 -0.31473985 -0.07093291
-0.062564194 0.07420407 0.28019923 0.47400028 0.19263437 -0.11855747 0.36999297 0.17198609
0.091890834 0.18406597 0.6573541 0.6474095 0.3863035 0.18699387 0.10235178 0.26423582
0.043595936 0.25674257 0.20509447 0.28454795 0.025491767 -0.068353005 0.3329153 0.15279704
-0.032028027 0.19614339 -0.0130422665 -0.15292874 -0.21019012 -0.2203724 -0.163624 -0.082453765
-0.08673782 -0.38496998 -0.29125917 -0.27990985 -0.17723802 -0.43147182 -0.22981048 -0.31459916
-0.19110712 -0.16861813 -0.49311298 -0.2832267 -0.19966085 0.08381355 0.16986366 0.19093499
0.15512845 0.07798204 -0.13668065 0.009672746 0.17377694 -0.024645356 0.028897896 0.26405588
0.27005166 -0.23780034 -0.3133312 -0.08603966 -0.19922617 -0.19160502 -0.06612812 0.07619999
0.05165902 0.05093297 -0.016944233 -0.11008079 -0.1645998 -0.19709684 0.006910578 -0.14324942
-0.015704934 -0.14536625 -0.44307396 0.22640312 -0.24127589 -0.33628497 -0.052389026 -0.41249186
-0.25631145 -0.10809422 0.05298981 -0.13635485 -0.15183948 0.26788837 0.38961998 0.30954674
0.5513728 0.41317505 0.39618626 0.46829632 0.3364786 0.48915887 0.545648 0.41449794
0.11371539 0.1339329 0.05487115 -0.04042436 0.45745003 0.11558811 -0.082603246 -0.017160982
0.2564473 0.6036052 0.024712186 -0.08438637 0.08789705 0.076387376 0.046110734 -0.2584767
-0.21812801 -0.17279169 0.13939945 0.24874115 -0.08228104 0.16055289 0.28464437 -0.05084173
-0.48424062 -0.019798223 -0.37361404 -0.5135004 -0.21404628 -0.33471337 -0.12184679 -0.121656485
-0.3460746 -0.3793409 -0.2798895 -0.34225833 -0.38464695 -0.4789874 -0.2598899 -0.5251336
00000000: 8c5d cdbe cbe4 5f3d 396f 0d3e 34bc 7d3e
00000010: 458e 273e 6996 f7bd 58d2 6bbd e73f 75be
00000020: 8ead e9bd c695 a6be 654a f4bd f883 bf3d
00000030: 6da2 eabc 1c35 f4be 33d0 7bbd 6cad a23e
00000040: 2674 3f3e 041d 163e 166a 04be d37b cdbd
00000050: 8645 333c 8d4c 16bb 06a2 bbbe 2755 373d
00000060: 2455 9e3e ff48 a83e 000a 4e3e 7d67 ac3e
00000070: a31c fa3e 1309 163f 3b21 ca3e cddb a83e
00000080: 766a 133e c31c 9b3e e19a b23e 429f 043f
00000090: b9aa 893e 96ca 923d dd2d 1c3e 56e0 a6bd
000000a0: 2915 513e c946 af3d 7023 6abe 8fa7 533e
000000b0: 820d d83e 9a66 843e 7a51 c03d 7c3b a7be
000000c0: e54e 7f3d 7b98 6abd bde9 df3c 7be7 ee3d
000000d0: bafc f1bc ee2f 223e 664c 80bd 1f6d 51bd
000000e0: 00fb a33d f705 883e 33d5 e33d d7a5 a1be
000000f0: ef96 ccbe 52af 5cbe 6b83 8dbe da31 47be
00000100: 5b0b 7bbe d224 62be 413b 82be 7c61 4ebe
00000110: a8f6 cb3d 4161 ec3c 5ec0 7d3e 8e1d b73e
00000120: bf64 663e 176e bfbb e177 1ebe aaea cfbe
00000130: 5375 cebe 4c23 a63c 6ace c9bc 8785 6dbe
00000140: 9cec d73c 5ccf 88be 35d1 b8bd c50a e13d
00000150: 0111 343b 13eb 06be 918d fabd 0af3 a5be
00000160: 31e8 c9be 96c8 b4be 39b6 9abe a613 783d
00000170: a24a e63d 321f 613e 575f e03d 24be 043f
00000180: 27b3 903e 8ec4 ba3d 28ca 88bd 8523 9bbb
00000190: e919 083e df07 f63c dece ca3d 655c 303e
000001a0: 68cc 813e 9f7c 4cbd 7908 013e 6a3b e13d
000001b0: 6dd2 e83d da3f 05bc eda3 403e 8224 1d3e
000001c0: e4ee 3f3d 5a75 803d 4665 ce3e e728 a83e
000001d0: d6ad c5bd 003a 253c 9525 a1be 4645 91bd
000001e0: a821 80bd 4ef8 973d 4676 8f3e 2ab0 f23e
000001f0: f241 453e 42ce f2bd b86f bd3e 1f1d 303e
00000200: 4331 bc3d ca7b 3c3e 5c48 283f a1bc 253f
00000210: 93c9 c53e 527b 3f3e cf9d d13d eb49 873e
00000220: a791 323d c373 833e 4904 523e 45b0 913e
00000230: 1cd4 d03c a9fc 8bbd e073 aa3e d476 1c3e
00000240: d22f 03bd d0d9 483e 3baf 55bc 5a99 1cbe
00000250: 143c 57be 4da9 61be 0d8d 27be 85dd a8bd
00000260: 99a3 b1bd c91a c5be ec1f 95be 5850 8fbe
00000270: e27d 35be e0e9 dcbe 7053 6bbe 2413 a1be
00000280: 96b1 43be 3baa 2cbe 4e79 fcbe 1703 91be
00000290: e573 4cbe 70a6 ab3d bdf0 2d3e 7684 433e
000002a0: fed9 1e3e 0cb5 9f3d 03f6 0bbe 707a 1e3c
000002b0: 95f2 313e 0fe5 c9bc 48bb ec3c 5532 873e
000002c0: 3644 8a3e ef81 73be f26c a0be 9035 b0bd
000002d0: f201 4cbe 1b34 44be 2e6e 87bd be0e 9c3d
000002e0: 6998 533d 179f 503d a2ce 8abc 0a72 e1bd
000002f0: da8c 28be c1d3 49be 2172 e23b faaf 12be
00000300: a2a7 80bc e4da 14be 97da e2be 38d6 673e
00000310: 0711 77be 8b2d acbe e095 56bd 2232 d3be
00000320: 413b 83be 8160 ddbd d80b 593d 9ba0 0bbe
00000330: cf7b 1bbe aa28 893e 457c c73e e97c 9e3e
00000340: c526 0d3f ae8b d33e edd8 ca3e 89c4 ef3e
00000350: ec46 ac3e 0873 fa3e 96af 0b3f 1339 d43e
00000360: 9de3 e83d b525 093e 92c0 603d 0494 25bd
00000370: e436 ea3e 76b9 ec3d e42b a9bd 3095 8cbc
00000380: 0f4d 833e df85 1a3f 3671 ca3c c3d2 acbd
00000390: 5e03 b43d fc70 9c3d 9cde 3c3d 0f57 84be
000003a0: f35c 5fbe 4ef0 30be bbbe 0e3e 00b6 7e3e
000003b0: f682 a8bd fa67 243e e8bc 913e 6b3f 50bd
000003c0: 63ee f7be e22f a2bc 574a bfbe c374 03bf
000003d0: f32e 5bbe 8d5f abbe cf8a f9bd 0927 f9bd
000003e0: b130 b1be f838 c2be ad4d 8fbe 7c3c afbe
000003f0: 72f0 c4be d63d f5be 4a10 85be 286f 06bf

bias f4 [24]
-0.14126678 -0.2985799 -0.43232214 -0.3166764 -0.33232325 -0.24019583 -0.24189782 -0.32455623
-0.52901745 -0.26602775 -0.38345623 -0.22198914 -0.41828755 -0.2650654 -0.38673356 -0.28519946
-0.35762072 -0.34519014 -0.29960904 -0.36881626 -0.3336487 -0.37316796 -0.1791865 -0.3485792
00000000: 3da8 10be 77df 98be 5459 ddbe 6923 a2be
00000010: 4626 aabe e5f5 75be 10b4 77be 3c2c a6be
00000020: b06d 07bf ca34 88be 6054 c4be 1f51 63be
00000030: c929 d6be a7b6 87be f101 c6be aa05 92be
00000040: 101a b7be c3bc b0be 5b66 99be 7cd5 bcbe
00000050: 01d4 aabe df0f bfbe aa7c 37be f978 b2be

weight f4 [96, 24, 16]
0.013018454 -0.23395622 0.026543716 0.069556296 0.18953046 -0.38616502 0.20586756 -0.100784376
-0.49011958 -0.044106115 -0.046516776 0.08306079 -0.2153072 0.18239115 0.044806845 -0.12708567
0.25906137 -0.11593704 0.10245457 -0.19359326 0.5369741 -0.18171427 -0.03411282 -0.34013394
-0.042875085 -0.15174785 0.2298483 -0.017306194 -0.04229546 0.1532031 0.2952523 0.26516688
0.46890336 -0.16911265 0.22346063 0.41745332 -0.011056739 0.090599224 0.1557056 0.007238303
-0.11727925 0.118835285 -0.25648785 0.17651626 -0.4946334 0.29429924 -0.2966521 0.52363956
-0.33346668 0.15693106 -0.18862115 -0.21271075 -0.23045687 -0.089979686 -0.26512066 0.11375373
-0.23995866 -0.00075651344 -0.05162512 -0.042777847 0.015474519 0.14670034 -0.48846638 0.14549349
-0.23240831 0.019218402 0.032080233 -0.10891054 -0.014850664 0.17910546 -0.21713957 -0.08882036
-0.2801281 -0.15054171 -0.48170987 0.056106877 -0.09259808 -0.37487975 -0.2339697 0.16719183
-0.39984548 -0.43862054 -0.015659433 -0.19119117 -0.21368289 -0.39441094 0.012044379 -0.38415882
-0.38192633 -0.40501818 -0.04358755 -0.08264165 -0.40025207 -0.15489298 -0.10720795 -0.14375797
0.08372546 -0.1324175 -0.18119176 -0.09627296 -0.2795444 0.023608876 0.32476637 -0.3249988
-0.423437 -0.09525559 -0.3031543 -0.08820318 0.15795796 0.042543758 -0.50538766 -0.26378107
-0.11669852 0.27908853 -0.240928 -0.40311012 -0.044265103 0.04799892 -0.36239493 -0.12562019
-0.031048521 -0.24307226 -0.15627673 -0.12303328 -0.009893243 -0.20060113 0.15068088 -0.20422792
0.09874159 -0.08241747 0.08477403 -0.08513311 0.16854176 -0.10087655 -0.018044148 -0.060524598
-0.2644515 -0.079798475 0.10936807 0.19488163 -0.09888231 0.20969367 0.26108903 0.14974041
0.07195969 -0.17900264 -0.12123521 -0.48312297 0.058900483 -0.41036734 -0.21015543 -0.21770953
-0.35319293 -0.46806842 -0.2896146 -0.14916219 -0.071443945 -0.031769753 0.19084188 -2.2755221e-05
0.31785068 0.20864066 -0.13083434 0.04313597 0.35564578 0.05621566 0.18538582 -0.2415573
-0.24032536 0.13001299 -0.0725144 0.53369015 -0.016406994 0.30689582 0.31459677 0.12132071
-0.4689024 -0.26285836 0.031716496 -0.6193124 -0.089522414 -0.3394773 -0.37964946 -0.8889576
-0.47562632 0.4333662 -0.19004022 0.18644722 -0.2505421 -0.24059042 -0.1770098 -0.3389881
0.03486612 0.2356935 -0.44489205 0.13500531 0.034731958 0.10499596 -0.273141 -0.32333383
-0.3326688 -0.012211856 -0.30486983 -0.19848031 -0.2253261 0.09967044 0.17089619 -0.054509994
-0.53010213 -0.3856779 -0.004639702 -0.15127788 -0.46906444 -0.69149303 -0.797179 -0.5074006
-0.33965066 -0.21734467 -0.24540429 -0.16009164 0.11254498 -0.31388512 0.04937049 0.16252755
0.51388955 0.15905525 -0.04785372 0.25502872 0.39193425 0.14161219 0.162688 -0.15801993
0.096127145 -0.5621717 -0.46581337 -0.027023735 0.4335424 -0.19640048 -0.35264528 0.09915181
0.1893892 0.07645199 0.11480955 -0.0557645 0.38558286 0.1526311 0.08328847 0.082837395
0.0669182 -0.105576284 0.27951777 0.30541775 -0.24536794 -0.17053832 0.35921535 0.4430192
00000000: 5b4b 553c 3892 6fbe 3572 d93c 8873 8e3d
00000010: 4614 423e 6cb7 c5be f2ce 523e 0a68 cebd
00000020: f4f0 fabe 9da8 34bd 6088 3ebd c71b aa3d
00000030: 7e79 5cbe bfc4 3a3e 6287 373d bf22 02be
00000040: b1a3 843e 6670 edbd b4d3 d13d 503d 46be
00000050: 2277 093f 4e13 3abe e2b9 0bbd 0926 aebe
00000060: c99d 2fbd ca63 1bbe 5a5d 6b3e b8c5 8dbc
00000070: 013e 2dbd 46e1 1c3e 4f2b 973e f4c3 873e
00000080: 1a14 f03e de2b 2dbe ddd2 643e 71bc d53e
00000090: 5327 35bc 168c b93d 4a71 1f3e 492f ed3b
000000a0: 1a30 f0bd ea5f f33d 6052 83be aec0 343e
000000b0: 9740 fdbe 64ae 963e c9e2 97be 3e0d 063f
000000c0: 25bc aabe 89b2 203e e725 41be d9d0 59be
000000d0: e3fc 6bbe 4547 b8bd e5bd 87be b7f7 e83d
000000e0: b9b7 75be c250 46ba dd74 53bd d337 2fbd
000000f0: d688 7d3c 9d38 163e 4418 fabe 3ffc 143e
00000100: 72fc 6dbe e96f 9d3c 9066 033d 7d0c dfbd
00000110: 3350 73bc 6c67 373e d659 5ebe 73e7 b5bd
00000120: f36c 8fbe 9b27 1abe ada2 f6be 53d0 653d
00000130: 10a4 bdbd 3df0 bfbe c195 6fbe 5634 2b3e
00000140: 8cb8 ccbe df92 e0be 3648 80bc 9ec7 43be
00000150: b0cf 5abe 3bf0 c9be c955 453c 77b0 c4be
00000160: d98b c3be 8b5e cfbe dc88 32bd 0740 a9bd
00000170: d7ed ccbe 449c 1ebe d78f dbbd 4a35 13be
00000180: 4178 ab3d 7498 07be 558a 39be c22a c5bd
00000190: 7220 8fbe 6767 c13c c747 a63e 3e66 a6be
000001a0: bccc d8be 5d15 c3bd 0a37 9bbe dea3 b4bd
000001b0: bbbf 213e 5d42 2e3d 1661 01bf 500e 87be
000001c0: a2ff eebd b1e4 8e3e d4b5 76be 7364 cebe
000001d0: 534f 35bd 849a 443d d48b b9be 94a2 00be
000001e0: 7859 febc efe7 78be 0207 20be dff8 fbbd
000001f0: 4517 22bc 626a 4dbe 174c 1a3e 2021 51be
00000200: 0839 ca3d 7eca a8bd 029e ad3d 455a aebd
00000210: 3696 2c3e 5d98 cebd 52d1 93bc a4e8 77bd
00000220: 3066 87be 626d a3bd 5efc df3d 0d8f 473e
00000230: cf82 cabd f0b9 563e 76ad 853e 8d55 193e
00000240: 9a5f 933d 784c 37be 2a4a f8bd e55b f7be
00000250: a241 713d ab1b d2be fc32 57be 3fef 5ebe
00000260: b4d5 b4be aaa6 efbe 5d48 94be f9bd 18be
00000270: 3451 92bd 0021 02bd 0e6c 433e 77e2 beb7
00000280: 53bd a23e e6a5 553e 70f9 05be 58af 303d
00000290: 3417 b63e 6442 663d c8d5 3d3e cc5a 77be
000002a0: da17 76be 2022 053e 6e82 94bd eb9f 083f
000002b0: f667 86bc 7321 9d3e d412 a13e fe76 f83d
000002c0: fa13 f0be 5f95 86be 28e9 013d 428b 1ebf
000002d0: 8757 b7bd f8cf adbe 6a61 c2be ba92 63bf
000002e0: 4b85 f3be 2de2 dd3e e799 42be 05ec 3e3e
000002f0: 0e47 80be 565d 76be 0f42 35be d98f adbe
00000300: c7cf 0e3d a359 713e e4c8 e3be d53e 0a3e
00000310: 1943 0e3d 1f08 d73d 23d9 8bbe 038c a5be
00000320: 9153 aabe 3d14 48bc e617 9cbe 6c3e 4bbe
00000330: e3bb 66be 0420 cc3d 69ff 2e3e df45 5fbd
00000340: c6b4 07bf 9377 c5be a408 98bb 97e8 1abe
00000350: 3729 f0be b005 31bf ec13 4cbf 01e5 01bf
00000360: b1e6 adbe 9a8f 5ebe 434b 7bbe 10ef 23be
00000370: fc7d e63d 8db5 a0be b638 4a3d 9f6d 263e
00000380: 448e 033f 61df 223e 4302 44bd 2093 823e
00000390: 9bab c83e c902 113e af97 263e facf 21be
000003a0: 4fde c43d 7cea 0fbf 177f eebe e160 ddbc
000003b0: 45f9 dd3e 351d 49be ec8d b4be 1b10 cb3d
000003c0: 3eef 413e dc92 9c3d 4521 eb3d 5169 64bd
000003d0: 1e6b c53e 544b 1c3e 2593 aa3d a7a6 a93d
000003e0: 690c 893d 6138 d8bd f41c 8f3e b75f 9c3e
000003f0: bc41 7bbe 99a1 2ebe 13eb b73e 6ad3 e23e

bias f4 [96]
-0.16703117 0.10161893 0.030191094 -0.14738373 -0.15651324 0.09906216 -0.05603992 -0.14219135
-0.33681774 0.08249092 0.0681691 -0.2013481 -0.124825984 -0.1664654 -0.13287567 0.05615386
-0.16881819 -0.05396217 -0.135683 -0.17041868 0.021221764 -0.15040332 -0.12200237 0.36778745
-0.120455146 -0.015972527 0.09100007 -0.0024123737 -0.12356265 -0.03003346 0.03642303 -0.32399413
0.025665542 -0.13803525 -0.1468679 -0.16324058 -0.34198925 0.16019617 -0.15986882 -0.09164174
-0.09155925 0.1543098 -0.084253676 0.10334854 0.029247008 -0.16719507 -0.33528435 -0.15948276
0.26859987 -0.084360555 -0.15101576 -0.054505195 -0.056166586 0.08563303 -0.055923037 0.14424248
0.18970603 0.14651787 -0.049627025 -0.22971237 -0.12965111 -0.025578922 0.26538292 -0.0027950665
-0.024461312 0.5208353 -0.17675175 0.050841145 -0.15171209 -0.07476666 -0.0013335358 0.07417897
-0.11164991 0.0695132 -0.30277002 -0.01290487 0.10062745 0.13247076 0.1148903 -0.06551347
-0.09404081 -0.018740177 -0.20613743 -0.086008295 0.047751516 0.12737875 -0.25012916 0.3597184
-0.106786005 -0.069142446 0.09777016 -0.14857963 -0.3212713 0.025428306 0.01901591 -0.18309717
00000000: 380a 2bbe 961d d03d 5053 f73c c3eb 16be
00000010: 0245 20be 1ae1 ca3d 1d8a 65bd 9c9a 11be
00000020: 6073 acbe 00f1 a83d 3e9c 8b3d 322e 4ebe
00000030: c4a4 ffbd e875 2abe 8f10 08be 9701 663d
00000040: adde 2cbe 7007 5dbd 7cf0 0abe 3c82 2ebe
00000050: 44d9 ad3c 5403 1abe 61dc f9bd a34e bc3e
00000060: 30b1 f6bd d1d8 82bc 3f5e ba3d ea18 1ebb
00000070: 6a0e fdbd bb08 f6bc 5130 153d 8fe2 a5be
00000080: 8b40 d23c 1d59 0dbe 8a64 16be 8a28 27be
00000090: 3719 afbe 770a 243e a7b4 23be aaae bbbd
000000a0: 6b83 bbbd 6303 1e3e 318d acbd 66a8 d33d
000000b0: 6c97 ef3c 2f35 2bbe 64aa abbe 734f 23be
000000c0: ec85 893e 3ac5 acbd e0a3 1abe d740 5fbd
000000d0: ef0e 66bd 5f60 af3d 8e0f 65bd 4db4 133e
000000e0: 4c42 423e c808 163e b545 4bbd b839 6bbe
000000f0: 43c3 04be e38a d1bc 45e0 873e 6f2d 37bb
00000100: 1763 c8bc 7655 053f 69fe 34be ce3e 503d
00000110: 6a5a 1bbe 431f 99bd 09ca aeba 25eb 973d
00000120: b5a8 e4bd f05c 8e3d ac04 9bbe f36e 53bc
00000130: c415 ce3d 6aa6 073e 9b4b eb3d ed2b 86bd
00000140: 7898 c0bd 0085 99bc b115 53be 1e25 b0bd
00000150: 1897 433d 936f 023e ee10 80be 032d b83e
00000160: 9fb2 dabd 8e9a 8dbd b93b c83d 4225 18be
00000170: ac7d a4be 064f d03c 41c7 9b3c d37d 3bbe

weight f4 [64, 3072]
-0.017743561 -0.02238781 0.014909521 -0.014548591 0.010474515 -0.0026366508 -0.01893188 -0.024222143
0.012358558 -0.0031275658 -0.007640581 0.014746311 0.010763203 -0.019229421 -0.012705605 -0.002529319
0.0048034596 0.0026554803 -0.019373886 0.006487578 0.009554602 0.00629191 0.007379259 0.0035433343
-0.0009442322 0.012339062 0.016818052 0.0059212353 -0.011900957 -0.034951646 -0.03192594 -0.0050533707
0.009773222 -0.003389657 0.012844865 -0.016672965 -0.007267923 0.005332638 -0.008678753 -0.023543702
0.009303703 -0.011758351 -0.024991566 -0.006528922 0.005223014 -0.0017409717 -0.016480863 0.003011228
-0.010550832 -0.008322698 -0.00026472408 -0.016055996 -0.019147338 -0.024789745 -0.007502444 -0.019702937
0.0008335744 -0.003518472 -0.0028148345 -0.013293294 0.008476302 -0.03034486 0.002954175 0.0026152749
-0.015666386 -0.030178776 -0.018174987 -0.04094001 -0.022587996 -0.012964569 -0.0050474354 -0.021161601
-0.014610548 0.0031171993 -0.0048152283 -0.0059956643 -0.0088826325 -0.049930412 -0.020614209 -0.0023753112
-0.01620189 -0.026039017 -0.019747576 -0.003918951 -0.024985189 -0.015163002 -0.019665383 -0.019218476
-0.006355551 -0.042280607 -0.046573296 -0.048937116 -0.019534115 -0.012773924 -0.016185233 -0.0005098789
0.010131996 -0.012655619 -0.009734023 -0.008442696 -0.012208432 -0.006349426 -0.007993305 0.011801501
-0.00015660588 0.007999532 -0.0060769655 0.0110057 -0.024013646 -0.015231075 -0.0016014513 -0.013754736
-0.005392201 -0.017546207 0.002906608 0.0031201246 0.016422136 0.012794563 -0.0030077433 -0.016330048
0.002942249 -0.008414521 -0.013368903 0.012535297 -0.018311523 0.005458015 0.004292713 0.004490514
-0.0036356088 0.010287717 -0.009451115 -0.0040100734 -0.0003362813 -0.0034728053 -0.020375289 -0.00016674686
0.0045580855 -0.008578861 -0.019081807 0.007288082 -0.022925824 -0.019481922 -0.019193731 0.010528309
-0.00521785 0.0015180819 0.0106292395 -0.0040566884 -0.012975688 -0.005461834 -0.0009417543 -0.012051259
0.0022630384 0.0017924671 0.008454825 -0.02063723 0.0010990233 0.011900478 0.0020918304 0.00402332
0.00975572 0.00047873793 0.0022597737 -0.02229653 -0.011707114 0.010786528 0.008325831 0.00019122129
-0.010469138 0.01544313 0.011683048 -0.01154176 -0.019610098 0.0020506862 -0.010558006 0.0007054605
-0.0066021956 -0.014660728 0.0054855132 -0.0019772057 0.0066185645 -0.0040569925 -0.019421596 0.013730927
0.009106262 -0.017821124 0.015948962 -0.003251068 -0.0314911 -0.035841107 -0.0045821136 0.004273125
0.008458462 -0.020431433 0.004045913 -0.010602198 -0.023602992 -0.0046610823 -0.024447655 0.010240222
0.008099141 0.012167754 0.009927451 0.008509722 0.007305063 -0.009411854 -0.01704015 -0.006734616
0.01403283 -0.00027563097 -0.013200178 -0.013123341 -0.017993502 -0.015744038 -0.011124496 -0.02231724
-0.016338527 -0.012212497 -0.014588671 -0.0026651232 -0.013316783 -0.003242122 -0.016887857 -0.021316087
-0.005109206 0.008749869 -0.017063811 -0.0026744904 -0.001181879 -0.0005216701 0.021333845 -0.01611235
-0.020712638 -0.0073902383 -0.008122371 0.0046316395 0.001826536 0.0020162514 -0.0109090675 -0.010485072
-0.010956053 -0.019119257 -0.007999335 -0.014210081 -0.019904543 -0.008692924 -0.00021104707 -0.005509619
0.00807638 0.0029583378 -0.01987896 -0.0035616755 -0.013662399 -0.014928093 0.001294927 -0.0014194023
00000000: f25a 91bc a466 b7bc 1047 743c 375d 6ebc
00000010: 4d9d 2b3c a9cb 2cbb 0817 9bbc 846d c6bc
00000020: 8d7b 4a3c d9f7 4cbb d75d fabb 839a 713c
00000030: 2558 303c 0587 9dbc 2b2b 50bc eec2 25bb
00000040: 5766 9d3b 9107 2e3b fcb5 9ebc c095 d43b
00000050: e88a 1c3c 5e2c ce3b b6cd f13b 4937 683b
00000060: 5a86 77ba c729 4a3c 03c6 893c ec06 c23b
00000070: 3bfc 42bc 7529 0fbd c6c4 02bd bf96 a5bb
00000080: dd1f 203c 0225 5ebb 4573 523c be95 88bc
00000090: c227 eebb 69bd ae3b 5431 0ebc b9de c0bc
000000a0: 8f6e 183c 19a6 40bc 1dbb ccbc 91f0 d5bb
000000b0: d125 ab3b 5131 e4ba e002 87bc 0658 453b
000000c0: 66dd 2cbc ed5b 08bc aaca 8ab9 dd87 83bc
000000d0: e1da 9cbc dd13 cbbc 10d7 f5bb 0e68 a1bc
000000e0: 3b84 5a3a 2a96 66bb 1679 38bb 1ecc 59bc
000000f0: 30e0 0a3c c995 f8bc d59a 413b 0865 2b3b
00000100: cb56 80bc 7b39 f7bc b6e3 94bc b6b0 27bd
00000110: 760a b9bc 5869 54bc f564 a5bb 185b adbc
00000120: 1461 6fbc ed49 4c3b 10c9 9dbb 4777 c4bb
00000130: 7688 11bc d583 4cbd 21df a8bc 1cab 1bbb
00000140: d3b9 84bc c74f d5bc abc5 a1bc 8b6a 80bb
00000150: bdad ccbc 3d6e 78bc 4c19 a1bc 1170 9dbc
00000160: 3a42 d0bb 6e2e 2dbd a4c3 3ebd 4972 48bd
00000170: 0206 a0bc b849 51bc e596 84bc 65a9 05ba
00000180: ac00 263c 8359 4fbc 747b 1fbc 3c53 0abc
00000190: e005 48bc d90e d0bb 5af6 02bc 155b 413c
000001a0: 9236 24b9 7810 033c 4821 c7bb 4051 343c
000001b0: 44b8 c4bc c28b 79bc cae7 d1ba 8b5b 61bc
000001c0: 0fb1 b0bb 10bd 8fbc ca7c 3e3b 017b 4c3b
000001d0: b787 863c 49a0 513c 8f1d 45bb 98c6 85bc
000001e0: bfd2 403b 0fdd 09bc 3e09 5bbc d960 4d3c
000001f0: 0c02 96bc 26d9 b23b e3a9 8c3b 2925 933b
00000200: 6543 6ebb d08d 283c d9d8 1abc ef66 83bb
00000210: e94e b0b9 0198 63bb 14ea a6bc c5d8 2eb9
00000220: fe5b 953b 5a8e 0cbc 7351 9cbc ddd0 ee3b
00000230: f0ce bbbc 8d98 9fbc 2c3c 9dbc ee7e 2c3c
00000240: 80fa aabb 60fa c63a 4326 2e3c f8ed 84bb
00000250: fb97 54bc 2ff9 b2bb 10e0 76ba a572 45bc
00000260: 7c4f 143b 37f1 ea3a 1b86 0a3c 680f a9bc
00000270: 1a0d 903a 39fa 423c 1717 093b 0ed6 833b
00000280: 75d6 1f3c 1eff fa39 b618 143b 36a7 b6bc
00000290: 32cf 3fbc fab9 303c 1169 083c 9382 4839
000002a0: bf86 2bbc 2f05 7d3c 416a 3f3c a619 3dbc
000002b0: 5ba5 a0bc ce64 063b 7dfb 2cbc a7ee 383a
000002c0: 3b57 d8bb 8d33 70bc d2bf b33b 0294 01bb
000002d0: 8be0 d83b 85f0 84bb 0a1a 9fbc aff7 603c
000002e0: 6e32 153c 9bfd 91bc 66a7 823c df0f 55bb
000002f0: d0fc 00bd 20ce 12bd 8e25 96bb 9205 8c3b
00000300: 5c95 0a3c d25f a7bc 9493 843b d7b4 2dbc
00000310: 105b c1bc febb 98bb 7346 c8bc 9bc6 273c
00000320: 42b2 043c 425b 473c bfa6 223c 5c6c 0b3c
00000330: 4f5f ef3b 2d34 1abc c997 8bbc 0eae dcbb
00000340: f4e9 653c 9082 90b9 8f45 58bc 4803 57bc
00000350: 1c67 93bc a4f9 80bc 8543 36bc a5d2 b6bc
00000360: 60d8 85bc ed16 48bc 5205 6fbc 59a9 2ebb
00000370: a32e 5abc c879 54bb 6758 8abc 139f aebc
00000380: 206b a7bb 9c5b 0f3c 68c9 8bbc 8146 2fbb
00000390: 47e9 9aba b0c0 08ba 51c4 ae3c 0cfe 83bc
000003a0: 8dad a9bc d029 f2bb b113 05bc 02c5 973b
000003b0: 6168 ef3a 1623 043b f2bb 32bc 94c9 2bbc
000003c0: 0481 33bc fd9f 9cbc a50f 03bc 66d1 68bc
000003d0: da0e a3bc c46c 0ebc 844c 5db9 098a b4bb
000003e0: cb52 043c ace0 413b 33d9 a2bc 006b 69bb
000003f0: 41d8 5fbc f694 74bc 8aba a93a 3d0b baba

bias f4 [64]
-0.005476629 -0.022716707 -0.021272415 -0.049923778 -0.057711072 0.38516575 -0.027594896 -0.032461494
-0.027633483 -0.016402233 -0.05661084 -0.023803275 -0.06721764 -0.08306595 -0.05050773 0.63029504
-0.006169468 -0.008600338 -0.007247768 -0.010969889 -0.00043241426 0.001661726 -0.058672834 0.57020205
0.31160572 -0.006496473 -0.27335852 -0.02667424 -0.05179406 0.0065400763 -0.03697569 -0.009566121
0.0042611 -0.020526698 -0.036153123 -0.27136084 -0.052716434 0.009906948 0.00849561 -0.13107207
-0.31706202 0.1818454 -0.02857853 -0.009798674 0.004510283 -0.023815634 -0.02236844 -0.0147886155
0.004971361 -0.0016004189 -0.06322136 0.021934867 -0.025535563 -0.048548553 0.005777352 -0.0060646264
0.053041022 -0.022928152 -0.027037656 0.00040954674 -0.016342288 -0.061941613 -0.04565021 -0.00030277087
00000000: 4b75 b3bb 6318 babc 7d43 aebc e07c 4cbd
00000010: 7262 6cbd 7234 c53e b10e e2bc 58f6 04bd
00000020: 9d5f e2bc fa5d 86bc c5e0 67bd 16ff c2bc
00000030: 67a9 89bd 7b1e aabd 32e1 4ebd 045b 213f
00000040: 4029 cabb 6fe8 0cbc af7e edbb 0dbb 33bc
00000050: a9b5 e2b9 46ce d93a ed52 70bd c3f8 113f
00000060: c98a 9f3e 5ee0 d4bb a6f5 8bbe f083 dabc
00000070: 0226 54bd 234e d63b d273 17bd 38bb 1cbc
00000080: b3a0 8b3b 9b27 a8bc 4c15 14bd cfef 8abe
00000090: 30ed 57bd c050 223c 2c31 0b3c c237 06be
000000a0: f455 a2be ae35 3a3e 851d eabc 9e8a 20bc
000000b0: ffca 933b 0119 c3bc 053e b7bc f34b 72bc
000000c0: cce6 a23b 26c5 d1ba 337a 81bd c0b0 b33c
000000d0: f52f d1bc d9da 46bd f14f bd3b c6b9 c6bb
000000e0: 8b41 593d d2d3 bbbc 137e ddbc 6fb8 d639
000000f0: 43e0 85bc 7db6 7dbd b7fb 3abd 38bd 9eb9

weight f4 [25, 64]
0.060725562 -0.012569142 -0.08509891 0.02970239 -0.05119986 0.28038213 -0.014278113 0.043031335
-0.053347412 -0.026319534 0.01846058 -0.11469089 -0.07907106 -0.12850711 0.029543478 -0.312679
0.06346575 0.089214265 -0.103502385 0.09161052 0.061199214 0.1294219 -0.0016315734 -0.0067793424
0.37866768 0.026673269 0.021878751 0.06715155 0.015050829 -0.09752511 -0.08380139 -0.0043552676
0.08038157 0.020349102 0.0109402565 -0.6989216 0.0011832573 -0.016445639 -0.070325434 -0.6230364
-0.17498119 -0.015959883 0.034011073 -0.00028724485 -0.04832455 -0.06683496 -0.099793516 -0.09245651
0.09675043 0.11727321 -0.010236581 0.06396522 -0.07835677 0.023271872 0.06273215 -0.06790076
-0.38707027 -0.056429736 0.097196974 -0.07762381 -0.09223561 -0.13920724 -0.0019461722 -0.08592437
-0.047095608 0.09577687 0.0975202 0.040029865 -0.005205112 -0.54229707 -0.061825868 -0.067606986
0.087386444 0.017632557 -0.016142396 -0.14476626 -0.03162779 -0.06415053 0.025553439 -0.06533782
-0.06645531 -0.106199875 0.015395601 -0.09582047 0.0049143066 -0.021267366 0.024208322 -0.37358677
0.024256345 0.10665921 0.1472993 -0.10276238 0.089101 -0.12529854 0.012453189 -0.045181092
-0.08661633 0.08207532 0.008165026 0.0787593 0.0679945 -0.053379793 0.06789249 -0.26128337
-0.01912617 -0.6691122 0.029880129 -0.10354337 -0.37858844 0.067686304 0.009395368 -0.020831415
0.09885964 0.11562453 0.09075034 0.025460115 -0.02208428 -0.08834856 0.066392094 0.09977921
-0.021273682 0.070504494 -0.022652017 0.024762485 0.038787283 0.14079545 0.03526194 0.0015672855
0.12272125 0.06168755 -0.0019511521 0.0077654785 0.11085552 -0.04120834 0.027553355 -0.015740719
0.031544205 0.042721767 -0.011237433 0.042516477 -0.19967599 -0.02523097 0.048392065 -0.60899603
-0.10362423 -0.029468393 -0.1208879 -0.021477094 -0.10395666 0.06621056 -0.047040157 0.1359851
0.41471523 0.049406443 -0.329328 -0.018939512 0.04682363 -0.11678403 -0.03639917 -0.06651212
-0.0002656106 0.09906386 0.09226832 0.20864117 0.19330303 -0.0053862156 0.08166448 -0.2602444
-0.29567918 0.4270399 -0.083025835 -0.068438984 -0.25587946 0.08285387 -0.060817443 0.008448275
-0.06160526 -0.11258564 -0.08782771 -0.13642137 0.08226768 0.084776014 -0.09292191 0.11320559
-0.31268966 -0.113113075 -0.016493578 0.044498004 0.04792144 -0.038116712 -0.09473027 -0.050270934
0.017991103 -0.026962014 0.023392275 -0.039062154 0.017532533 -0.43131503 0.047828667 -0.028356055
0.07981159 0.12481096 -0.06906696 -0.2707996 0.04408585 -0.14801985 -0.09337373 -0.5616461
-0.08748757 -0.09162444 -0.07173833 -0.0011418888 -0.074051246 -0.11641198 0.040073927 0.014697978
0.04120704 -0.011408922 -0.29133525 0.051309668 -0.10969293 0.10060152 -0.14909878 0.040359307
0.061433453 -0.09325599 -0.025059946 -0.25055614 0.0270025 0.10140572 0.044622548 -0.11128193
0.40399817 -0.23803677 -0.022333708 -0.10600526 -0.015550765 -0.092273146 -0.05890617 0.004463098
-0.10681819 -0.08519406 0.04512936 -0.1151126 0.028909251 0.010997335 -0.09082531 0.02965789
0.0826248 0.05409149 -0.09151828 0.046956893 0.10782418 -0.18045892 0.10148856 -0.012482929
00000000: 5ebb 783d cdee 4dbc 5648 aebd 6d52 f33c
00000010: f2b6 51bd 3f8e 8f3e bfee 69bc a041 303d
00000020: d182 5abd 109c d7bc a43a 973c 0fe3 eabd
00000030: 02f0 a1bd 5e97 03be 2a05 f23c 7617 a0be
00000040: 55fa 813d f8b5 b63d 0ff9 d3bd 4c9e bb3d
00000050: 07ac 7a3d 2d87 043e 85da d5ba 3f25 debb
00000060: bbe0 c13e e681 da3c 113b b33c c086 893d
00000070: c197 763c 3fbb c7bd 10a0 abbd a2b6 8ebb
00000080: 189f a43d 29b3 a63c c33e 333c 87ec 32bf
00000090: 8717 9b3a 01b9 86bc c806 90bd 507f 1fbf
000000a0: 452e 33be 4dbe 82bc 324f 0b3d 5a99 96b9
000000b0: f7ef 45bd c4e0 88bd 8b60 ccbd d759 bdbd
000000c0: 1725 c63d f02c f03d 55b7 27bc 3200 833d
000000d0: 8479 a0bd a7a4 be3c b779 803d 8e0f 8bbd
000000e0: 132e c6be de22 67bd 350f c73d 3bf9 9ebd
000000f0: 06e6 bcbd 588c 0ebe b416 ffba 1ef9 afbd
00000100: 53e7 40bd aa26 c43d acb8 c73d 5bf6 233d
00000110: a58f aabb fbd3 0abf 1f3d 7dbd 8875 8abd
00000120: aaf7 b23d 2772 903c 0f3d 84bc 9b3d 14be
00000130: 248c 01bd 5a61 83bd 7255 d13c d6cf 85bd
00000140: b919 88bd 527f d9bd d53d 7c3c 863d c4bd
00000150: 3108 a13b e638 aebc 8850 c63c c446 bfbe
00000160: 3eb5 c63c 2570 da3d a1d5 163e 1575 d2bd
00000170: 967a b63d 434e 00be 7608 4c3c cf0f 39bd
00000180: e763 b1bd 1b17 a83d 9ac6 053c 8e4c a13d
00000190: b340 8b3d c5a4 5abd 380b 8b3d efc6 85be
000001a0: 7cae 9cbc f04a 2bbf 2cc7 f43c 8c0e d4bd
000001b0: 58d6 c1be 1e9f 8a3d 08ef 193c a5a6 aabc
000001c0: ec76 ca3d 8ecc ec3d 50db b93d bb91 d03c
000001d0: 18ea b4bc 17f0 b4bd 94f8 873d 0b59 cc3d
000001e0: 2546 aebc a964 903d b990 b9bc b2da ca3c
000001f0: 6adf 1e3d af2c 103e d36e 103d 606d cd3a
00000200: 4755 fb3d 16ac 7c3d cdbd ffba 8e75 fe3b
00000210: 3808 e33d 14ca 28bd 93b7 e13c aef2 80bc
00000220: 7f34 013d 05fd 2e3d 361d 38bc c225 2e3d
00000230: dd77 4cbe 2eb1 cebc c236 463d 2ae7 1bbf
00000240: f138 d4bd b367 f1bc 1394 f7bd bbf0 afbc
00000250: 3be7 d4bd 6799 873d 2ead 40bd ae3f 0b3e
00000260: 8e55 d43e 695e 4a3d ae9d a8be 0927 9bbc
00000270: 22ca 3f3d 772c efbd 4c17 15bd 8237 88bd
00000280: a741 8bb9 fee1 ca3d 2cf7 bc3d 08a6 553e
00000290: 3bf1 453e da7e b0bb b53f a73d c13e 85be
000002a0: 4363 97be f9a4 da3e 7309 aabd bd29 8cbd
000002b0: a202 83be 4aaf a93d b61b 79bd a26a 0a3c
000002c0: cc55 7cbd 4d93 e6bd 04df b3bd 0bb2 0bbe
000002d0: f57b a83d 0c9f ad3d d84d bebd 55d8 e73d
000002e0: dc18 a0be d4a7 e7bd 8a1d 87bc 8a43 363d
000002f0: 4649 443d 4520 1cbd f201 c2bd e5e8 4dbd
00000300: 1462 933c 71df dcbc 28a1 bf3c a3ff 1fbd
00000310: 63a0 8f3c 53d5 dcbe fee7 433d f54a e8bc
00000320: 4274 a33d e39c ff3d fa72 8dbd 3fa6 8abe
00000330: 5d93 343d 8492 17be ba3a bfbd 0ac8 0fbf
00000340: af2c b3bd 98a5 bbbd 8ceb 92bd 6eab 95ba
00000350: 2ea8 97bd 6769 eebd 8f24 243d cacf 703c
00000360: b7c8 283d 7dec 3abc e529 95be 162a 523d
00000370: b0a6 e0bd 2b08 ce3d 5aad 18be cd4f 253d
00000380: a5a1 7b3d fffc bebd 844a cdbc e548 80be
00000390: 5934 dd3c cdad cf3d 22c6 363d c8e7 e3bd
000003a0: d9d8 ce3e e9bf 73be 2ef5 b6bc 4919 d9bd
000003b0: a3c8 7ebc b4f9 bcbd 9947 71bd 2e3f 923b
000003c0: 7fc3 dabd 397a aebd 90d9 383d 28c0 ebbd
000003d0: 18d3 ec3c 2b2e 343c 9f02 babd 1af5 f23c
000003e0: 3137 a93d 0a8f 5d3d f06d bbbd df55 403d
000003f0: ecd2 dc3d 39ca 38be 3cd9 cf3d 3385 4cbc

bias f4 [25]
-0.0943421 0.02402648 0.050714597 -0.22699118 0.12081879 -0.1895746 0.6490763 0.0991016
0.13712911 0.29234374 0.5321511 0.80666167 0.3433661 -0.21188092 0.07203805 0.22968674
0.16046503 -0.15010028 -0.47972974 -0.09273657 0.23060325 -0.83972776 -0.083516225 -0.20378186
-0.33564192
00000000: 6e36 c1bd 2ed3 c43c 1cba 4f3d 6070 68be
00000010: d76f f73d d81f 42be dd29 263f c8f5 ca3d
00000020: 936b 0c3e 14ae 953e 0e3b 083f 6181 4e3f
00000030: aecd af3e 50f7 58be af88 933d 0033 6b3e
00000040: f250 243e e3b3 19be 239f f5be acec bdbd
00000050: 4223 6c3e 66f8 56bf 8e0a abbd 31ac 50be
00000060: 42d9 abbe
