result/config6/preliminary_model34.pt (torch_old, 996807 bytes, 8 tensors)

weight f4 [24, 2, 192]
0	0xbebf9f07	-0.37426016
1	0x3daae36c	0.083441585
2	0x3e69bbcc	0.22825545
3	0x3e8521ab	0.2600225
4	0x3dc0a903	0.094072364
5	0xbe586549	-0.21132387
6	0xbd2cbb33	-0.042170715
7	0xbe3b0d4b	-0.1826679
8	0xbda890ea	-0.08230765
9	0xbed8e9b9	-0.42365816
10	0xbde2e4d9	-0.110788055
11	0x3e08bf0a	0.13354126
12	0x3d24ccc8	0.040234357
13	0xbf030f88	-0.51195574
14	0xbdcc7b23	-0.09984424
15	0x3eb1690c	0.34650457
16	0x3ea48b84	0.32137692
17	0x3e4ad06c	0.19806069
18	0xbdee72ae	-0.11642967
19	0xbdb68556	-0.089121506
20	0xbd4282e4	-0.04748811
21	0x3d954190	0.07287896
22	0xbed54826	-0.41656607
23	0x3d1345d1	0.035955254
24	0x3e929ec2	0.28636748
25	0x3e9f2fcf	0.31091163
26	0x3e8168d4	0.2527529
27	0x3ea8e377	0.32986042
28	0x3efada85	0.48994842
29	0x3f11c1ed	0.5693653
30	0x3edff4bb	0.43741402
31	0x3ed736cc	0.42033994
32	0x3e403047	0.18768416
33	0x3e9e8cd4	0.30966818
34	0x3ebe5fd6	0.37182492
35	0x3f2fa918	0.6861739
36	0x3ea5e006	0.3239748
37	0x3e3fcd97	0.1873077
38	0x3e8f5789	0.27996472
39	0xbdcfd57d	-0.101481415
40	0x3e6d4c9b	0.23173754
41	0x3e27ab72	0.16373995
42	0xbe8fed5c	-0.28110778
43	0x3e9b459f	0.30326554
44	0x3f081715	0.5316022
45	0x3e98c293	0.29835948
46	0x3d767fac	0.06018035
47	0xbe9e2cb7	-0.3089349
48	0x3de89915	0.11357323
49	0xbe0a40dc	-0.13501304
50	0x3c795c58	0.01521977
51	0x3da8f9b1	0.0825075
52	0xbd45d318	-0.048297018
53	0x3e05a330	0.13050532
54	0x3ce008a5	0.027347872
55	0xbd54bb9f	-0.051936742
56	0x3e078e7c	0.13237947
57	0x3e83017d	0.25587073
58	0x3e06017b	0.13086502
59	0xbeb16751	-0.34649137
60	0xbee54e3c	-0.4478625
61	0xbe3189f6	-0.17337784
62	0xbeabbcac	-0.33542383
63	0xbe618d0b	-0.2202646
64	0xbe6350a0	-0.22198725
65	0xbe26c938	-0.16287696
66	0xbe906adf	-0.28206536
67	0xbe4225e0	-0.1895976
68	0x3e2e0090	0.16992402
69	0xbc16fd59	-0.009215676
70	0x3e8fa6ad	0.2805685
71	0x3ecc60c7	0.39917585
72	0x3e6e46aa	0.23269144
73	0xbd84dd4a	-0.0648752
74	0xbe339bd9	-0.1753992
75	0xbeaaacdb	-0.33335003
76	0xbed3a127	-0.41333887
77	0x3d31d4aa	0.043415703
78	0xbd0b2968	-0.033975035
79	0xbe798b33	-0.24369507
80	0x3d4b5375	0.049640138
81	0xbe451e22	-0.19249776
82	0xbd28726a	-0.04112474
83	0x3d914cde	0.070947394
84	0xbd38046a	-0.044926085
85	0xbe41eacd	-0.18937226
86	0xbe4d72ed	-0.20063372
87	0xbe9e72ac	-0.30946863
88	0xbf052711	-0.52012736
89	0xbec46218	-0.3835609
90	0xbea3e6a2	-0.32011896
91	0xbdbdda91	-0.09270204
92	0x3daba45f	0.08380961
93	0x3e3a1aab	0.18174236
94	0x3c75ae6b	0.014995198
95	0x3f0e30ac	0.5554302
96	0x3eb6ed0c	0.35727727
97	0x3d8c8c56	0.068627045
98	0xbde4746d	-0.11155019
99	0xbddd25fd	-0.10798261
100	0x3de02935	0.109453596
101	0xbbabda7f	-0.0052445526
102	0x3e3d687c	0.18496889
103	0x3e3eb053	0.1862195
104	0x3e433926	0.19064769
105	0xbd5f0819	-0.054451082
106	0x3de52471	0.11188591
107	0x3e02267e	0.12709996
108	0x3e08eb20	0.13370943
109	0x3cfb4715	0.030673543
110	0x3ea65e54	0.32493842
111	0x3e35ee5b	0.17766707
112	0x3d8377b1	0.06419314
113	0x3e07b68c	0.1325323
114	0x3ec54b03	0.38533792
115	0x3eadb9d5	0.3393084
116	0xbdbd1915	-0.092333
117	0x3b724fe2	0.0036973883
118	0xbedd313a	-0.4320162
119	0xbd58e4e0	-0.052952647
120	0xbe09e06d	-0.13464518
121	0x3ca13cd1	0.01968232
122	0x3eb34b4c	0.35018384
123	0x3f10b7f4	0.5653069
124	0x3ea40103	0.32032022
125	0xbe12fe29	-0.14354767
126	0x3ef0217d	0.4690055
127	0x3e76a17b	0.24085037
128	0x3e23697a	0.15958205
129	0x3e3ebda2	0.18627027
130	0x3f2d7064	0.6774962
131	0x3f18e1ee	0.5971974
132	0x3ee54fa1	0.44787315
133	0x3e1e7aa9	0.15476479
134	0x3d5f486e	0.054512434
135	0x3e5cf7ae	0.21578857
136	0xbe0648cc	-0.13113707
137	0x3e805e9d	0.25072184
138	0x3e55a5e2	0.2086406
139	0x3ed5fbdd	0.4179372
140	0xbcd4abbf	-0.025960801
141	0x3b409f70	0.0029391907
142	0x3e9e7edc	0.3095616
143	0x3e16be1e	0.14720961
144	0xbba1c96c	-0.0049373414
145	0x3e4f2a73	0.20231037
146	0x3c90878d	0.01764276
147	0xbe34dc0b	-0.17662065
148	0xbe3f111e	-0.18658873
149	0xbe730642	-0.23732856
150	0xbe1bc26c	-0.15210885
151	0x3d93c733	0.072157286
152	0xbd85ee64	-0.0653961
153	0xbeea4f63	-0.45763692
154	0xbeb2662d	-0.3484358
155	0xbe92a0b6	-0.28638238
156	0xbde3416f	-0.11096465
157	0xbf143b28	-0.57902765
158	0xbe91e01e	-0.284913
159	0xbea78949	-0.32721928
160	0xbe203f28	-0.15649092
161	0xbddac90c	-0.10682878
162	0xbef91462	-0.48648363
163	0xbed7ec68	-0.4217255
164	0xbe801d81	-0.2502251
165	0x3dc301eb	0.0952185
166	0x3e591db0	0.21202731
167	0x3e83965e	0.2570066
168	0x3e087974	0.1332758
169	0x3da7b64e	0.08189069
170	0xbde25530	-0.110514045
171	0xbb9d90c4	-0.004808517
172	0x3e19568e	0.14974424
173	0xbcdc9d9a	-0.026930619
174	0x3d2c4e1d	0.042066682
175	0x3e9be0d5	0.3044497
176	0x3e87704d	0.26452866
177	0xbe1bffcb	-0.15234296
178	0xbe932852	-0.287417
179	0xbdf20a53	-0.118183754
180	0xbe998d18	-0.29990458
181	0xbe1d21cb	-0.15344922
182	0x3cfc5c9c	0.030805878
183	0x3d98f62d	0.07468829
184	0x3e0cb458	0.1374067
185	0x3d218dd0	0.039441884
186	0xbe4f5331	-0.20246579
187	0xbe4f809e	-0.20263907
188	0xbe384f82	-0.1799908
189	0xbe5d283a	-0.21597376
190	0x3de27acf	0.1105858
191	0xbe07dbb7	-0.13267408
192	0xbde4bfb6	-0.111693785
193	0xbe25e7da	-0.16201726
194	0xbee08c45	-0.43857017
195	0x3ea100f1	0.3144603
196	0xbe98c4ed	-0.29837742
197	0xbe913a9b	-0.28365025
198	0xbd0b550b	-0.03401665
199	0xbed959db	-0.42451367
200	0xbe3c3bc2	-0.18382171
201	0xbde17abb	-0.11009737
202	0x3de6dfbc	0.11273143
203	0xbe5eaff7	-0.21746813
204	0xbdf7b86b	-0.12095722
205	0x3e91329f	0.28358933
206	0x3eaa189c	0.332219
207	0x3e912269	0.28346565
208	0x3f0fa9d1	0.56118494
209	0x3effd14b	0.49964365
210	0x3edfe76f	0.43731257
211	0x3f1c75f2	0.6111747
212	0x3eccaac6	0.3997404
213	0x3ee88078	0.45410514
214	0x3f0c148f	0.5471887
215	0x3ed8cb49	0.42342594
216	0x3db7d687	0.08976465
217	0x3e474351	0.19459273
218	0x3dc86661	0.09785152
219	0x3ce96434	0.028490163
220	0x3f17d7c0	0.59313583
221	0x3e306b25	0.17228372
222	0x3cca7e08	0.0247183
223	0xbba8ed97	-0.005155276
224	0x3e8e5298	0.2779739
225	0x3f3d2d09	0.73896843
226	0x3c510783	0.012758139
227	0xbd9da19d	-0.07696841
228	0x3e2b2e3f	0.1671686
229	0x3e4a4a84	0.19754988
230	0x3e7346d8	0.23757493
231	0xbe2e93d6	-0.17048582
232	0xbe578a88	-0.21048939
233	0xbe9b71e8	-0.3036034
234	0x3d0eacb9	0.03483269
235	0x3ebde00d	0.37085
236	0xbd5d4cb4	-0.054028228
237	0x3d5c48d6	0.0537804
238	0x3dcff592	0.10154261
239	0xbe181fa9	-0.14855827
240	0xbf18a059	-0.5961967
241	0x3c84491b	0.01614814
242	0xbea61e2f	-0.32444903
243	0xbf052e6d	-0.52023965
244	0xbe6d113c	-0.23151106
245	0xbec8e03a	-0.3923357
246	0xbd9e3833	-0.07725563
247	0xbe252071	-0.16125657
248	0xbec680e3	-0.38770208
249	0xbeeac77a	-0.45855314
250	0xbe831304	-0.25600445
251	0xbe6981b7	-0.22803389
252	0xbed9164d	-0.42399827
253	0xbf11dfe5	-0.5698226
254	0xbe927541	-0.28605083
255	0xbf270bfb	-0.65252656

bias f4 [24]
0	0xbe2fd1aa	-0.17169824
1	0xbebd1730	-0.36931753
2	0xbf05e7d2	-0.52306855
3	0xbec72349	-0.38894108
4	0xbeb87e80	-0.36034012
5	0xbe97e111	-0.296639
6	0xbe8c21af	-0.2736945
7	0xbed861ee	-0.42262214
8	0xbf1fefcc	-0.62475276
9	0xbe95c2e9	-0.29250267
10	0xbefcaee7	-0.4935219
11	0xbe9119bb	-0.28339943
12	0xbf03df82	-0.5151292
13	0xbe95eb6a	-0.2928117
14	0xbee98d0d	-0.45615426
15	0xbeb68775	-0.3565022
16	0xbee4363c	-0.44572628
17	0xbebe5e0f	-0.37181136
18	0xbeb4b1d5	-0.35291925
19	0xbee5a9df	-0.44856164
20	0xbeae64cf	-0.34061286
21	0xbed10eb3	-0.40831527
22	0xbe5cebcc	-0.21574324
23	0xbed3741b	-0.4129952

weight f4 [96, 24, 16]
0	0x3c9ca0ec	0.019119702
1	0xbe278325	-0.16358621
2	0x3d975584	0.07389358
3	0x3dd9152b	0.105997406
4	0x3e2aa582	0.16664699
5	0xbf09c48a	-0.5381552
6	0x3e7962c9	0.2435409
7	0xbe64539d	-0.22297521
8	0xbeebae6f	-0.4603152
9	0xbd4abef9	-0.049498532
10	0xbd87c502	-0.06629373
11	0x3d94bd6e	0.07262693
12	0xbe991eff	-0.2990646
13	0x3e3b89f1	0.18314339
14	0x3db7049e	0.089364275
15	0xbe2668ef	-0.16250966
16	0x3e875ebd	0.26439467
17	0xbe196871	-0.14981247
18	0xbcf252cb	-0.029580494
19	0xbe67038c	-0.22559947
20	0x3f05253a	0.5200993
21	0xbdfd401a	-0.12365742
22	0xbdd148b0	-0.10218942
23	0xbec2bace	-0.38033146
24	0x3d4dc3ff	0.050235745
25	0xbe913e64	-0.28367913
26	0x3e94d37e	0.29067606
27	0x3c89577e	0.016765352
28	0x3b91cbd7	0.0044493484
29	0x3c181eac	0.0092846565
30	0x3ebbab8b	0.36654314
31	0x3e736c9a	0.23771897
32	0x3edff4d8	0.43741488
33	0xbe61c007	-0.22045909
34	0x3e1e8d1f	0.15483521
35	0x3ed47322	0.4149409
36	0xbd2036f4	-0.039114907
37	0x3ca0b7ba	0.019618858
38	0x3e18b9c5	0.14914615
39	0xbd39b29c	-0.04533635
40	0xbe2cbba6	-0.16868457
41	0x3e60c931	0.21951748
42	0xbe8a7075	-0.27038923
43	0x3ea06c6c	0.3133272
44	0xbf271975	-0.6527322
45	0x3eb3d82a	0.35125858
46	0xbe997c85	-0.29977813
47	0x3f1b3f3d	0.6064337
48	0xbef45f8c	-0.47729146
49	0x3dc455da	0.095866874
50	0xbe727ca3	-0.23680358
51	0xbe9dd32b	-0.3082517
52	0xb9a662eb	-0.00031735687
53	0xbe30f92d	-0.17282553
54	0xbe9a9073	-0.3018833
55	0x3e6489ff	0.22318266
56	0xbe839d3d	-0.257059
57	0x39931ef9	0.000280611
58	0xbde1e164	-0.11029318
59	0x3b651169	0.0034953004
60	0x3ddb8e24	0.107204705
61	0x3dcf27d1	0.10115016
62	0xbf2172fc	-0.6306608
63	0x3e3ca643	0.18422799
64	0xbe9c67db	-0.30547985
65	0x3cca4247	0.024689807
66	0x3e00b0a6	0.12567386
67	0xbea34a65	-0.31892696
68	0x3d2eb8cf	0.042656716
69	0x3e37488a	0.17898765
70	0xbe30639b	-0.17225496
71	0xbe5878b2	-0.21139792
72	0xbe8b0170	-0.27149534
73	0xbe3a238c	-0.18177623
74	0xbefde34b	-0.49587473
75	0x3d593cc6	0.053036474
76	0xbe42a9c3	-0.19010071
77	0xbf02bd73	-0.51070327
78	0xbea4a26d	-0.3215517
79	0x3e6f3b75	0.23362525
80	0xbf14e088	-0.5815511
81	0xbf075bed	-0.5287464
82	0xbd3aa73c	-0.045569643
83	0xbebb9e57	-0.3664424
84	0xbeabdb44	-0.33565724
85	0xbf18336e	-0.59453475
86	0x3d5df65b	0.05419002
87	0xbed6ebee	-0.41976875
88	0xbeef0533	-0.46683654
89	0xbeeb1338	-0.459131
90	0x3d864f42	0.06558086
91	0xbe083ab7	-0.13303648
92	0xbee818e2	-0.45331484
93	0xbe0ad49a	-0.13557664
94	0xbe09a49a	-0.13441697
95	0xbe139c1d	-0.14415021
96	0x3d8c114f	0.06839239
97	0xbea4bc15	-0.32174745
98	0xbe8bc9d9	-0.27302435
99	0xbe0c707c	-0.13714784
100	0xbedab0fc	-0.42713153
101	0xbcba78c4	-0.022762664
102	0x3ebf5338	0.37368178
103	0xbe8aa7b8	-0.27081084
104	0xbf05e16f	-0.5229711
105	0xbd8569fe	-0.06514357
106	0xbef4b472	-0.4779392
107	0xbcf377e0	-0.029720247
108	0x3deac70f	0.11463749
109	0x3c35ee26	0.011104142
110	0xbf009ba8	-0.5023751
111	0xbea6825a	-0.32521325
112	0xbe72dd24	-0.23717171
113	0x3ec9ca75	0.39412275
114	0xbe807e90	-0.2509656
115	0xbeb6586b	-0.35614333
116	0xbd74bea0	-0.059752107
117	0x3df50a4c	0.119648546
118	0xbee71376	-0.45132035
119	0xbdf0dac9	-0.1176048
120	0x3e826522	0.25467783
121	0xbeb9b633	-0.3627182
122	0xbd6f8645	-0.05847766
123	0xbddf9202	-0.10916521
124	0x3d248f75	0.040175874
125	0xbec48ee8	-0.3839028
126	0x3df13d2d	0.117792465
127	0xbe79492c	-0.24344319
128	0x3e550910	0.20804238
129	0xbd8b801c	-0.06811544
130	0x3e086a9c	0.13321918
131	0xbe19f39d	-0.15034337
132	0x3e6ada7e	0.2293491
133	0x3c8f4292	0.017487798
134	0xbde8d7fd	-0.113693215
135	0xbd21bbf4	-0.039485887
136	0xbec0a5fb	-0.37626633
137	0xbe69e354	-0.22840625
138	0x3e9392d3	0.28822955
139	0x3e93a562	0.28837115
140	0xbde7c542	-0.11316921
141	0x3e88d6c7	0.26726362
142	0x3ea32da4	0.3187076
143	0x3e8092b7	0.25111935
144	0xbc2bb566	-0.0104802605
145	0xbe8745a1	-0.2642031
146	0x3d9634dc	0.07334301
147	0xbf07cdb7	-0.5304827
148	0x3d57148f	0.05250984
149	0xbf0184e4	-0.505934
150	0xbdbff9d7	-0.09373825
151	0xbe24bc7d	-0.16087528
152	0xbef79481	-0.48355487
153	0xbf06c1ad	-0.52639276
154	0xbea41515	-0.32047334
155	0xbe3e782e	-0.18600532
156	0xbdb6a64a	-0.08918436
157	0xbe2dad11	-0.16960551
158	0x3ddec97c	0.10878274
159	0xbd91a969	-0.071123905
160	0x3ed25f67	0.4108841
161	0x3e62abc9	0.22135843
162	0xbe479ce7	-0.19493447
163	0x3d62772c	0.055289432
164	0x3ea6a310	0.32546282
165	0x3bc3e332	0.0059780115
166	0x3e72f7b4	0.23727304
167	0xbe4953d6	-0.19660887
168	0xbe990aab	-0.29890952
169	0x3e1487f3	0.14504986
170	0xbde257a2	-0.11051871
171	0x3f0f6284	0.560097
172	0x3dee7db3	0.11645069
173	0x3e9dd513	0.30826625
174	0x3e9cd6e7	0.30632707
175	0x3e4d8fe4	0.20074421
176	0xbee6dad8	-0.4508884
177	0xbe418533	-0.18898468
178	0x3ae62385	0.0017558193
179	0xbf3162f1	-0.692916
180	0xbdaae86f	-0.083451144
181	0xbe99c63c	-0.30034053
182	0xbe39fcff	-0.18162917
183	0xbf820d97	-1.0160397
184	0xbf19efb1	-0.60131365
185	0x3ec3c6ae	0.38237518
186	0xbe737c9c	-0.23778003
187	0x3cd44f25	0.025916645
188	0xbe97f535	-0.29679266
189	0xbec049b1	-0.37556222
190	0xbe24bbf3	-0.16087322
191	0xbeb15e3b	-0.34642205
192	0xbd8076c7	-0.06272655
193	0x3e8a98c6	0.27069682
194	0xbee4e6bd	-0.4470729
195	0x3de302c3	0.11084511
196	0xbd340796	-0.043952547
197	0x3d0779f0	0.033075273
198	0xbe0f90e9	-0.14020123
199	0xbe9bf506	-0.30460376
200	0xbe8f77bb	-0.28021035
201	0xbd627fa8	-0.055297524
202	0xbeeca750	-0.462214
203	0xbe46425d	-0.19361253
204	0xbea53a4d	-0.32271042
205	0x3e8d5f68	0.27611852
206	0x3e2f7d5b	0.17137663
207	0x3ccd60b4	0.025070526
208	0xbf308ad6	-0.68961847
209	0xbf09da35	-0.5384858
210	0xbd0ec0e3	-0.03485192
211	0xbde8e4a6	-0.11371736
212	0xbef89395	-0.48550096
213	0xbf3dc995	-0.74135715
214	0xbf7926f3	-0.97325057
215	0xbf0fd8f4	-0.5619042
216	0xbee6194f	-0.44941184
217	0xbe5d28d0	-0.215976
218	0xbde2799a	-0.1105835
219	0xbda67b9b	-0.081290446
220	0x3e2352fa	0.15949622
221	0xbed77400	-0.42080688
222	0x3dad5662	0.08463742
223	0x3e0c71bd	0.13715263
224	0x3edd152c	0.43180215
225	0x3dce5554	0.10074869
226	0xbd94c2af	-0.072636954
227	0x3e9a206d	0.30102864
228	0x3ed99253	0.4249445
229	0x3e414647	0.18874465
230	0x3e92c2dc	0.2866429
231	0xbcda69e2	-0.026661817
232	0x3e123efc	0.14281839
233	0xbf124ff3	-0.5715324
234	0xbf1327f6	-0.5748285
235	0x3e0bd6fb	0.13656227
236	0x3f0c04a1	0.54694563
237	0xbeaadc3b	-0.33371148
238	0xbea409ab	-0.32038626
239	0x3e45ffa7	0.19335805
240	0x3e847da3	0.25877103
241	0x3da2e486	0.07953744
242	0x3d648528	0.05579105
243	0xbe36ac5e	-0.1783919
244	0x3ef47afb	0.47750077
245	0x3e20b851	0.15695311
246	0x3dc31b6f	0.09526717
247	0x3cb46303	0.022019869
248	0xbd2c1a72	-0.042017408
249	0xbdb773cb	-0.08957633
250	0x3eb207a9	0.3477147
251	0x3ea9e0a9	0.33179215
252	0xbe659175	-0.22418769
253	0xbdc28889	-0.09498698
254	0x3e71d026	0.23614559
255	0x3ef73a5d	0.48286715

bias f4 [96]
0	0xbe3dfff9	-0.18554677
1	0x3c095dd9	0.008384191
2	0xbe023981	-0.12717248
3	0xbe3a8e9a	-0.1821846
4	0xbe309e42	-0.1724787
5	0x3e21591c	0.15756649
6	0xbd029211	-0.03187758
7	0xbe3439fa	-0.17600241
8	0xbedf0fb4	-0.43566668
9	0x3dfb1aee	0.12260996
10	0x3da1e906	0.07905774
11	0xbe76222d	-0.24036475
12	0xbe40f574	-0.18843633
13	0xbe0e4c07	-0.1389619
14	0xbe097c3d	-0.134263
15	0x3cff8734	0.0311924
16	0xbe41888e	-0.18899748
17	0xbe33f541	-0.17574026
18	0xbe5b072c	-0.21389455
19	0xbe3b2609	-0.18276228
20	0x3cf9efc8	0.030509844
21	0xbe1506cd	-0.14553376
22	0xbe19512e	-0.14972374
23	0x3eab8b76	0.33504838
24	0xbdeab642	-0.11460544
25	0xbd12c4bd	-0.035832155
26	0x3d214e77	0.03938147
27	0xbd015012	-0.0315705
28	0xbe4094b7	-0.1880673
29	0x3d90da5e	0.070729
30	0xbb933bc4	-0.0044932086
31	0xbf02242e	-0.50836456
32	0x3ce2c0c9	0.027679818
33	0xbd8d92fc	-0.06912801
34	0xbe3fd257	-0.18732582
35	0xbdd87461	-0.105690725
36	0xbe9fb5e1	-0.3119345
37	0x3e0b3395	0.13593896
38	0xbe783370	-0.24238372
39	0xbdfef98f	-0.12449943
40	0xbe4c28ae	-0.19937393
41	0x3e1ac49c	0.15114063
42	0xbe1652dc	-0.14680046
43	0x3dcfb0fc	0.10141179
44	0xbd8d955b	-0.06913253
45	0xbe4db48d	-0.20088406
46	0xbee908d6	-0.45514554
47	0xbe7338c2	-0.2375212
48	0x3e8753d1	0.26431134
49	0xbdfe7bfd	-0.12425993
50	0xbe5b1e37	-0.21398245
51	0xbe3f6014	-0.18688995
52	0xbc84f022	-0.016227785
53	0x3d8e0ef4	0.06936446
54	0xbd753247	-0.0598624
55	0x3e82c6db	0.2554234
56	0x3e185e27	0.14879666
57	0x3e4e3875	0.20138724
58	0xbd19aafe	-0.037516586
59	0xbdb46120	-0.088075876
60	0xbd9efde0	-0.077632666
61	0xbc364815	-0.011125584
62	0x3e29a7cc	0.16567916
63	0xbbc671f6	-0.0060560657
64	0xbd93e3f9	-0.07221217
65	0x3f0ba0cb	0.54542226
66	0xbe29289f	-0.16519402
67	0xbd904857	-0.07045048
68	0xbe4a8927	-0.19778882
69	0xbe27ada4	-0.16374832
70	0x3d108641	0.035284285
71	0x3e0a0c34	0.13481218
72	0xbe2258ac	-0.15854138
73	0x3e05219d	0.13001104
74	0xbeb60440	-0.35550117
75	0xbd8294db	-0.06376048
76	0x3e0c8bc4	0.13725191
77	0x3dbd8110	0.09253132
78	0xbc64d93b	-0.013967807
79	0xbe3d75f3	-0.18502025
80	0xbc5a8840	-0.013338149
81	0xbdb65cb2	-0.08904399
82	0xbe824a47	-0.25447294
83	0xbd0a2a29	-0.033731613
84	0x3e0a5464	0.13508755
85	0xbd642d2a	-0.055707134
86	0xbe649e4a	-0.22326007
87	0x3ed0e533	0.40799865
88	0x3b05e8d0	0.0020432957
89	0xbdc4806f	-0.09594809
90	0x3e03987e	0.1285114
91	0xbe9121f1	-0.28346208
92	0xbebf03e3	-0.37307653
93	0xbd87c584	-0.0662947
94	0x3c1d5688	0.00960315
95	0xbe38e93a	-0.18057719

weight f4 [64, 3072]
0	0xbc915af2	-0.017743561
1	0xbcb766a4	-0.02238781
2	0x3c744710	0.014909521
3	0xbc6e5d37	-0.014548591
4	0x3c2b9d4d	0.010474515
5	0xbb2ccba9	-0.0026366508
6	0xbc9b1708	-0.01893188
7	0xbcc66d84	-0.024222143
8	0x3c4a7b8d	0.012358558
9	0xbb4cf7d9	-0.0031275658
10	0xbbfa5dd7	-0.007640581
11	0x3c719a83	0.014746311
12	0x3c305825	0.010763203
13	0xbc9d8705	-0.019229421
14	0xbc502b2b	-0.012705605
15	0xbb25c2ee	-0.002529319
16	0x3b9d6657	0.0048034596
17	0x3b2e0791	0.0026554803
18	0xbc9eb5fc	-0.019373886
19	0x3bd495c0	0.006487578
20	0x3c1c8ae8	0.009554602
21	0x3bce2c5e	0.00629191
22	0x3bf1cdb6	0.007379259
23	0x3b683749	0.0035433343
24	0xba77865a	-0.0009442322
25	0x3c4a29c7	0.012339062
26	0x3c89c603	0.016818052
27	0x3bc206ec	0.0059212353
28	0xbc42fc3b	-0.011900957
29	0xbd0f2975	-0.034951646
30	0xbd02c4c6	-0.03192594
31	0xbba596bf	-0.0050533707
32	0x3c201fdd	0.009773222
33	0xbb5e2502	-0.003389657
34	0x3c527345	0.012844865
35	0xbc8895be	-0.016672965
36	0xbbee27c2	-0.007267923
37	0x3baebd69	0.005332638
38	0xbc0e3154	-0.008678753
39	0xbcc0deb9	-0.023543702
40	0x3c186e8f	0.009303703
41	0xbc40a619	-0.011758351
42	0xbcccbb1d	-0.024991566
43	0xbbd5f091	-0.006528922
44	0x3bab25d1	0.005223014
45	0xbae43151	-0.0017409717
46	0xbc8702e0	-0.016480863
47	0x3b455806	0.003011228
48	0xbc2cdd66	-0.010550832
49	0xbc085bed	-0.008322698
50	0xb98acaaa	-0.00026472408
51	0xbc8387dd	-0.016055996
52	0xbc9cdae1	-0.019147338
53	0xbccb13dd	-0.024789745
54	0xbbf5d710	-0.007502444
55	0xbca1680e	-0.019702937
56	0x3a5a843b	0.0008335744
57	0xbb66962a	-0.003518472
58	0xbb387916	-0.0028148345
59	0xbc59cc1e	-0.013293294
60	0x3c0ae030	0.008476302
61	0xbcf895c9	-0.03034486
62	0x3b419ad5	0.002954175
63	0x3b2b6508	0.0026152749
64	0xbc8056cb	-0.015666386
65	0xbcf7397b	-0.030178776
66	0xbc94e3b6	-0.018174987
67	0xbd27b0b6	-0.04094001
68	0xbcb90a76	-0.022587996
69	0xbc546958	-0.012964569
70	0xbba564f5	-0.0050474354
71	0xbcad5b18	-0.021161601
72	0xbc6f6114	-0.014610548
73	0x3b4c49ed	0.0031171993
74	0xbb9dc910	-0.0048152283
75	0xbbc47747	-0.0059956643
76	0xbc118876	-0.0088826325
77	0xbd4c83d5	-0.049930412
78	0xbca8df21	-0.020614209
79	0xbb1bab1c	-0.0023753112
80	0xbc84b9d3	-0.01620189
81	0xbcd54fc7	-0.026039017
82	0xbca1c5ab	-0.019747576
83	0xbb806a8b	-0.003918951
84	0xbcccadbd	-0.024985189
85	0xbc786e3d	-0.015163002
86	0xbca1194c	-0.019665383
87	0xbc9d7011	-0.019218476
88	0xbbd0423a	-0.006355551
89	0xbd2d2e6e	-0.042280607
90	0xbd3ec3a4	-0.046573296
91	0xbd487249	-0.048937116
92	0xbca00602	-0.019534115
93	0xbc5149b8	-0.012773924
94	0xbc8496e5	-0.016185233
95	0xba05a965	-0.0005098789
96	0x3c2600ac	0.010131996
97	0xbc4f5983	-0.012655619
98	0xbc1f7b74	-0.009734023
99	0xbc0a533c	-0.008442696
100	0xbc4805e0	-0.012208432
101	0xbbd00ed9	-0.006349426
102	0xbc02f65a	-0.007993305
103	0x3c415b15	0.011801501
104	0xb9243692	-0.00015660588
105	0x3c031078	0.007999532
106	0xbbc72148	-0.0060769655
107	0x3c345140	0.0110057
108	0xbcc4b844	-0.024013646
109	0xbc798bc2	-0.015231075
110	0xbad1e7ca	-0.0016014513
111	0xbc615b8b	-0.013754736
112	0xbbb0b10f	-0.005392201
113	0xbc8fbd10	-0.017546207
114	0x3b3e7cca	0.002906608
115	0x3b4c7b01	0.0031201246
116	0x3c8687b7	0.016422136
117	0x3c51a049	0.012794563
118	0xbb451d8f	-0.0030077433
119	0xbc85c698	-0.016330048
120	0x3b40d2bf	0.002942249
121	0xbc09dd0f	-0.008414521
122	0xbc5b093e	-0.013368903
123	0x3c4d60d9	0.012535297
124	0xbc96020c	-0.018311523
125	0x3bb2d926	0.005458015
126	0x3b8ca9e3	0.004292713
127	0x3b932529	0.004490514
128	0xbb6e4365	-0.0036356088
129	0x3c288dd0	0.010287717
130	0xbc1ad8d9	-0.009451115
131	0xbb8366ef	-0.0040100734
132	0xb9b04ee9	-0.0003362813
133	0xbb639801	-0.0034728053
134	0xbca6ea14	-0.020375289
135	0xb92ed8c5	-0.00016674686
136	0x3b955bfe	0.0045580855
137	0xbc0c8e5a	-0.008578861
138	0xbc9c5173	-0.019081807
139	0x3beed0dd	0.007288082
140	0xbcbbcef0	-0.022925824
141	0xbc9f988d	-0.019481922
142	0xbc9d3c2c	-0.019193731
143	0x3c2c7eee	0.010528309
144	0xbbaafa80	-0.00521785
145	0x3ac6fa60	0.0015180819
146	0x3c2e2643	0.0106292395
147	0xbb84edf8	-0.0040566884
148	0xbc5497fb	-0.012975688
149	0xbbb2f92f	-0.005461834
150	0xba76e010	-0.0009417543
151	0xbc4572a5	-0.012051259
152	0x3b144f7c	0.0022630384
153	0x3aeaf137	0.0017924671
154	0x3c0a861b	0.008454825
155	0xbca90f68	-0.02063723
156	0x3a900d1a	0.0010990233
157	0x3c42fa39	0.011900478
158	0x3b091717	0.0020918304
159	0x3b83d60e	0.00402332
160	0x3c1fd675	0.00975572
161	0x39faff1e	0.00047873793
162	0x3b1418b6	0.0022597737
163	0xbcb6a736	-0.02229653
164	0xbc3fcf32	-0.011707114
165	0x3c30b9fa	0.010786528
166	0x3c086911	0.008325831
167	0x39488293	0.00019122129
168	0xbc2b86bf	-0.010469138
169	0x3c7d052f	0.01544313
170	0x3c3f6a41	0.011683048
171	0xbc3d19a6	-0.01154176
172	0xbca0a55b	-0.019610098
173	0x3b0664ce	0.0020506862
174	0xbc2cfb7d	-0.010558006
175	0x3a38eea7	0.0007054605
176	0xbbd8573b	-0.0066021956
177	0xbc70338d	-0.014660728
178	0x3bb3bfd2	0.0054855132
179	0xbb019402	-0.0019772057
180	0x3bd8e08b	0.0066185645
181	0xbb84f085	-0.0040569925
182	0xbc9f1a0a	-0.019421596
183	0x3c60f7af	0.013730927
184	0x3c15326e	0.009106262
185	0xbc91fd9b	-0.017821124
186	0x3c82a766	0.015948962
187	0xbb550fdf	-0.003251068
188	0xbd00fcd0	-0.0314911
189	0xbd12ce20	-0.035841107
190	0xbb96258e	-0.0045821136
191	0x3b8c0592	0.004273125
192	0x3c0a955c	0.008458462
193	0xbca75fd2	-0.020431433
194	0x3b849394	0.004045913
195	0xbc2db4d7	-0.010602198
196	0xbcc15b10	-0.023602992
197	0xbb98bbfe	-0.0046610823
198	0xbcc84673	-0.024447655
199	0x3c27c69b	0.010240222
200	0x3c04b242	0.008099141
201	0x3c475b42	0.012167754
202	0x3c22a6bf	0.009927451
203	0x3c0b6c5c	0.008509722
204	0x3bef5f4f	0.007305063
205	0xbc1a342d	-0.009411854
206	0xbc8b97c9	-0.01704015
207	0xbbdcae0e	-0.006734616
208	0x3c65e9f4	0.01403283
209	0xb9908290	-0.00027563097
210	0xbc58458f	-0.013200178
211	0xbc570348	-0.013123341
212	0xbc93671c	-0.017993502
213	0xbc80f9a4	-0.015744038
214	0xbc364385	-0.011124496
215	0xbcb6d2a5	-0.02231724
216	0xbc85d860	-0.016338527
217	0xbc4816ed	-0.012212497
218	0xbc6f0552	-0.014588671
219	0xbb2ea959	-0.0026651232
220	0xbc5a2ea3	-0.013316783
221	0xbb5479c8	-0.003242122
222	0xbc8a5867	-0.016887857
223	0xbcae9f13	-0.021316087
224	0xbba76b20	-0.005109206
225	0x3c0f5b9c	0.008749869
226	0xbc8bc968	-0.017063811
227	0xbb2f4681	-0.0026744904
228	0xba9ae947	-0.001181879
229	0xba08c0b0	-0.0005216701
230	0x3caec451	0.021333845
231	0xbc83fe0c	-0.01611235
232	0xbca9ad8d	-0.020712638
233	0xbbf229d0	-0.0073902383
234	0xbc0513b1	-0.008122371
235	0x3b97c502	0.0046316395
236	0x3aef6861	0.001826536
237	0x3b042316	0.0020162514
238	0xbc32bbf2	-0.0109090675
239	0xbc2bc994	-0.010485072
240	0xbc338104	-0.010956053
241	0xbc9c9ffd	-0.019119257
242	0xbc030fa5	-0.007999335
243	0xbc68d166	-0.014210081
244	0xbca30eda	-0.019904543
245	0xbc0e6cc4	-0.008692924
246	0xb95d4c84	-0.00021104707
247	0xbbb48a09	-0.005509619
248	0x3c0452cb	0.00807638
249	0x3b41e0ac	0.0029583378
250	0xbca2d933	-0.01987896
251	0xbb696b00	-0.0035616755
252	0xbc5fd841	-0.013662399
253	0xbc7494f6	-0.014928093
254	0x3aa9ba8a	0.001294927
255	0xbaba0b3d	-0.0014194023

bias f4 [64]
0	0xbbb3754b	-0.005476629
1	0xbcba1863	-0.022716707
2	0xbcae437d	-0.021272415
3	0xbd4c7ce0	-0.049923778
4	0x3cde8d55	0.027167002
5	0x3ef941ac	0.48682916
6	0xbce20eb1	-0.027594896
7	0xbd04f658	-0.032461494
8	0xbce25f9d	-0.027633483
9	0xbc865dfa	-0.016402233
10	0xbd87ba1c	-0.066272944
11	0xbd80e639	-0.062939115
12	0xbcf651b1	-0.03006825
13	0xbdaa1e7b	-0.08306595
14	0xbd4ee132	-0.05050773
15	0x3f33369e	0.70005214
16	0xbbca2940	-0.006169468
17	0xbc0ce86f	-0.008600338
18	0xbbed7eaf	-0.007247768
19	0xbc33bb0d	-0.010969889
20	0xb9e2b5a9	-0.00043241426
21	0x3ad9ce46	0.001661726
22	0xbd7052ed	-0.058672834
23	0x3f29aad2	0.66276276
24	0x3eaab9f5	0.33345
25	0xbbd4e05e	-0.006496473
26	0xbebbe065	-0.36694637
27	0xbcda83f0	-0.02667424
28	0xbd542602	-0.05179406
29	0x3bd64e23	0.0065400763
30	0xbd1773d2	-0.03697569
31	0xbc1cbb38	-0.009566121
32	0xbc1919b9	-0.009344512
33	0xbca8279b	-0.020526698
34	0xbd14154c	-0.036153123
35	0xbe920cd1	-0.28525403
36	0xbd2a35db	-0.041555267
37	0x3c2250c0	0.009906948
38	0x3c21277d	0.009836075
39	0xbe243a81	-0.16037942
40	0xbeb17482	-0.346592
41	0x3e663a72	0.22483233
42	0xbcea1d85	-0.02857853
43	0xbc208a9e	-0.009798674
44	0x3db1f25e	0.08688806
45	0xbcc31901	-0.023815634
46	0xbcb73e05	-0.02236844
47	0xbcfbccab	-0.030737242
48	0x3ba2e6cc	0.004971361
49	0xbad1c526	-0.0016004189
50	0xbd817a33	-0.06322136
51	0x3d401046	0.04689052
52	0xbcd12ff5	-0.025535563
53	0xbd46dad9	-0.048548553
54	0x3bbd4ff1	0.005777352
55	0xbbc6b9c6	-0.0060646264
56	0xbcdc4d8c	-0.026892446
57	0xbcbbd3d2	-0.022928152
58	0x3df45ff4	0.11932364
59	0x39d6b86f	0.00040954674
60	0xbc85e043	-0.016342288
61	0x3bc3b6a5	0.0059727007
62	0xbd3afbb7	-0.04565021
63	0xb99ebd38	-0.00030277087

weight f4 [25, 64]
0	0x3d78bb5e	0.060725562
1	0xbc4deecd	-0.012569142
2	0xbdae4856	-0.08509891
3	0x3cf3526d	0.02970239
4	0xbdbbdf47	-0.09173446
5	0x3e981b10	0.29708147
6	0xbc69eebf	-0.014278113
7	0x3d3041a0	0.043031335
8	0xbd5a82d1	-0.053347412
9	0xbcd79c10	-0.026319534
10	0xbd045440	-0.03230691
11	0xbe3ec574	-0.1863001
12	0xbdf380ea	-0.11889823
13	0xbe03975e	-0.12850711
14	0x3cf2052a	0.029543478
15	0xbe8665a8	-0.26249433
16	0x3d81fa55	0.06346575
17	0x3db6b5f8	0.089214265
18	0xbdd3f90f	-0.103502385
19	0x3dbb9e4c	0.09161052
20	0x3d7aac07	0.061199214
21	0x3e04872d	0.1294219
22	0xbad5da85	-0.0016315734
23	0xbc1c8270	-0.009552583
24	0x3ed8c43b	0.42337212
25	0x3cda81e6	0.026673269
26	0xbd334b90	-0.043773234
27	0x3d8986c0	0.06715155
28	0x3c7697c1	0.015050829
29	0xbdc7bb3f	-0.09752511
30	0xbdaba010	-0.08380139
31	0xbb8eb6a2	-0.0043552676
32	0x3dd61d7c	0.104548424
33	0x3ca6b329	0.020349102
34	0x3c333ec3	0.0109402565
35	0xbf46b6ab	-0.7762248
36	0xbcfa8464	-0.030580707
37	0xbc86b901	-0.016445639
38	0x3ce69e30	0.028151602
39	0xbf36e732	-0.71446526
40	0xbe410f45	-0.18853481
41	0x3dfcb787	0.123396926
42	0x3d0b4f32	0.034011073
43	0xb996995a	-0.00028724485
44	0xbe20d666	-0.15706787
45	0xbd88e0c4	-0.06683496
46	0xbdcc608b	-0.099793516
47	0xbe14c6e7	-0.14529
48	0x3dc62517	0.09675043
49	0x3df02cf0	0.11727321
50	0xbc27b755	-0.010236581
51	0x3e230714	0.15920669
52	0xbda07984	-0.07835677
53	0x3cbea4a7	0.023271872
54	0x3d8079b7	0.06273215
55	0xbd8b0f8e	-0.06790076
56	0xbed1fb60	-0.41012096
57	0xbd6722de	-0.056429736
58	0x3e16687c	0.14688295
59	0xbd9ef93b	-0.07762381
60	0xbdbce606	-0.09223561
61	0xbe824ce6	-0.25449294
62	0xbaff16b4	-0.0019461722
63	0xbdaff91e	-0.08592437
64	0xbd40e753	-0.047095608
65	0x3dc426aa	0.09577687
66	0x3dc7b8ac	0.0975202
67	0x3d23f65b	0.040029865
68	0x3d2b8d4c	0.041882798
69	0xbf021ccf	-0.5082521
70	0xbd7d3d1f	-0.061825868
71	0xbd8a7588	-0.067606986
72	0x3db2f7aa	0.087386444
73	0x3c907227	0.017632557
74	0x3dbedbd0	0.0931927
75	0xbdf395f1	-0.118938334
76	0xbd427b23	-0.047480714
77	0xbd83615a	-0.06415053
78	0x3cd15572	0.025553439
79	0xbd38c389	-0.04510835
80	0xbd8819b9	-0.06645531
81	0xbdd97f52	-0.106199875
82	0x3c7c3dd5	0.015395601
83	0xbdc43d86	-0.09582047
84	0x3ba10831	0.0049143066
85	0xbcae38e6	-0.021267366
86	0x3cc65088	0.024208322
87	0xbe554a4b	-0.20829122
88	0x3d5369ee	0.051614694
89	0x3dda7025	0.10665921
90	0x3e7aeac9	0.24503626
91	0xbdd27515	-0.10276238
92	0x3db67a96	0.089101
93	0xbe004e43	-0.12529854
94	0x3c4c0876	0.012453189
95	0xbd390fcf	-0.045181092
96	0xbe82d841	-0.25555614
97	0x3da8171b	0.08207532
98	0x3c05c69a	0.008165026
99	0x3c2cf206	0.01055575
100	0xbd6b5684	-0.057455555
101	0xbd5aa4c5	-0.053379793
102	0x3d2fe885	0.042946357
103	0xbe751189	-0.2393247
104	0xbdc48c41	-0.09597064
105	0xbf14bf4a	-0.58104384
106	0x3cf4c72c	0.029880129
107	0xbdd40e8c	-0.10354337
108	0xbe8da42e	-0.27664322
109	0x3d8a9f1e	0.067686304
110	0x3c19ef08	0.009395368
111	0xbcdc9b69	-0.026929574
112	0x3dca76ec	0.09885964
113	0x3deccc8e	0.11562453
114	0x3db9db50	0.09075034
115	0x3d532187	0.051545646
116	0xbcb4ea18	-0.02208428
117	0xbdb4f017	-0.08834856
118	0x3d87f894	0.066392094
119	0x3dcc590b	0.09977921
120	0x3c89b3e9	0.01680942
121	0x3d9064a9	0.070504494
122	0x3d9fd66c	0.078045696
123	0x3ccadab2	0.024762485
124	0x3d1edf6a	0.038787283
125	0x3eabd196	0.3355834
126	0x3d106ed3	0.03526194
127	0x3acd6d60	0.0015672855
128	0x3dfb5547	0.12272125
129	0x3d7cac16	0.06168755
130	0xbaffbdcd	-0.0019511521
131	0x3bfe758e	0.0077654785
132	0x3dcc7460	0.09983134
133	0xbb767ac0	-0.0037609786
134	0x3ce1b793	0.027553355
135	0xbc80f2ae	-0.015740719
136	0x3d01347f	0.031544205
137	0x3d2efd05	0.042721767
138	0xbe7884e3	-0.24269442
139	0x3d5a530d	0.05330186
140	0xbe5fa431	-0.21839978
141	0xbcceb12e	-0.02523097
142	0x3d4636c2	0.048392065
143	0xbf2aaeb8	-0.6667285
144	0xbdd438f1	-0.10362423
145	0xbcf167b3	-0.029468393
146	0xbdf79413	-0.1208879
147	0xbcaff0bb	-0.021477094
148	0xbdd4e73b	-0.10395666
149	0x3d879967	0.06621056
150	0xbd40ad2e	-0.047040157
151	0x3df85ce5	0.12127093
152	0x3eee8abb	0.46590218
153	0x3d4a5e69	0.049406443
154	0xbea770d6	-0.32703274
155	0xbc9b2709	-0.018939512
156	0x3d3fca22	0.04682363
157	0xbdef2c77	-0.11678403
158	0xbd15174c	-0.03639917
159	0xbd883782	-0.06651212
160	0xbe23ec95	-0.16008218
161	0x3dcae1fe	0.09906386
162	0x3dbcf72c	0.09226832
163	0x3e862074	0.26196635
164	0x3ea8036c	0.3281511
165	0xbbb07eda	-0.0053862156
166	0xbd83974d	-0.06425343
167	0xbeb63bb7	-0.35592434
168	0xbea68687	-0.3252451
169	0x3eeb8d6c	0.46006334
170	0xbdaa0973	-0.083025835
171	0xbd8c29bd	-0.068438984
172	0xbefc0be1	-0.49227813
173	0x3da9af4a	0.08285387
174	0xbd791bb6	-0.060817443
175	0x3ba2ac57	0.004964392
176	0xbd7c55cc	-0.06160526
177	0xbde6934d	-0.11258564
178	0xbdb3df04	-0.08782771
179	0xbe50d7a2	-0.20394757
180	0x3da87bf5	0.08226768
181	0x3dad9f0c	0.084776014
182	0xbdbe4dd8	-0.09292191
183	0x3de7d855	0.11320559
184	0xbeb7982f	-0.35858294
185	0xbde7a7d4	-0.113113075
186	0xbe3365e7	-0.17519341
187	0x3d36438a	0.044498004
188	0x3d444946	0.04792144
189	0xbe36a8b1	-0.17837788
190	0xbdc201f2	-0.09473027
191	0xbd4de8e5	-0.050270934
192	0x3c936214	0.017991103
193	0xbcdcdf71	-0.026962014
194	0x3cbfa128	0.023392275
195	0xbd1fffa3	-0.039062154
196	0xbc583fd2	-0.01319881
197	0xbef25c5c	-0.4733609
198	0x3d43e7fe	0.047828667
199	0xbce84af5	-0.028356055
200	0x3da37442	0.07981159
201	0x3dff9ce3	0.12481096
202	0xbdb9b163	-0.09067037
203	0xbea88b4e	-0.3291878
204	0x3d91a717	0.07111948
205	0xbe179284	-0.14801985
206	0xbdbf3aba	-0.09337373
207	0xbf229fd9	-0.6352516
208	0xbdb32caf	-0.08748757
209	0xbdbba598	-0.09162444
210	0xbd92eb8c	-0.07173833
211	0xba95ab6e	-0.0011418888
212	0xbd97a82e	-0.074051246
213	0xbdee6967	-0.11641198
214	0x3d24248f	0.040073927
215	0x3d13cdb7	0.036084857
216	0x3d47f9f6	0.048822366
217	0xbc3aec7d	-0.011408922
218	0xbea3cac7	-0.31990644
219	0x3d522a16	0.051309668
220	0xbde0a6b0	-0.10969293
221	0x3dce082b	0.10060152
222	0xbe18ad5a	-0.14909878
223	0x3d254fcd	0.040359307
224	0xbe15cc43	-0.14628701
225	0xbdbefcff	-0.09325599
226	0xbccd4a84	-0.025059946
227	0xbe9dbad8	-0.30806613
228	0x3e164d16	0.14677843
229	0x3dcfadcd	0.10140572
230	0xbc8113ab	-0.015756449
231	0xbc43e88c	-0.011957299
232	0x3eee37bf	0.46526906
233	0xbed5b569	-0.41739967
234	0xbcb6f52e	-0.022333708
235	0xbdd91949	-0.10600526
236	0x3cb8098a	0.022465486
237	0xbdbcf9b4	-0.092273146
238	0xbd714799	-0.05890617
239	0x3d78aee4	0.060713664
240	0xbddac37f	-0.10681819
241	0xbdae7a39	-0.08519406
242	0x3d38d990	0.04512936
243	0xbeba80d9	-0.36426428
244	0x3cecd318	0.028909251
245	0x3c342e2b	0.010997335
246	0xbdba029f	-0.09082531
247	0x3cf2f51a	0.02965789
248	0x3db4276b	0.08796581
249	0x3d5d8f0a	0.05409149
250	0xbe9986a9	-0.2998555
251	0x3d4055df	0.046956893
252	0x3ddcd2ec	0.10782418
253	0xbe13771c	-0.14400905
254	0x3dcfd93c	0.10148856
255	0xbc4c8533	-0.012482929

bias f4 [25]
0	0xbdca5ebf	-0.09881353
1	0x3dcaa345	0.098944224
2	0x3d17ee3c	0.037092432
3	0xbea4a9e8	-0.32160878
4	0x3ddd4fc0	0.10806227
5	0xbe97e97c	-0.29670322
6	0x3f4cce70	0.800025
7	0xbc54e5ba	-0.012994224
8	0x3d64768e	0.055777125
9	0x3ec9d2b7	0.39418575
10	0x3f210a89	0.629067
11	0x3f84c952	1.0373938
12	0x3ed3b169	0.4134629
13	0xbe8190b7	-0.2530572
14	0x3cfe992c	0.031078897
15	0x3e6bb017	0.23016392
16	0x3e7365ea	0.23769346
17	0xbe880022	-0.265626
18	0xbf129b88	-0.5726857
19	0xbd770f1b	-0.06031714
20	0x3edac3a6	0.42727393
21	0xbf70a640	-0.9400368
22	0xbd97431a	-0.073858455
23	0xbdda452e	-0.10657726
24	0xbeac87f6	-0.3369748
