result/config6/preliminary_model17.pt (torch_old, 996807 bytes, 8 tensors)

weight f4 [24, 2, 192]
0	0xbebed4ef	-0.3727183
1	0x3d835152	0.06411995
2	0x3deca3b1	0.11554659
3	0x3e38a83b	0.18032925
4	0x3d70ff71	0.058837358
5	0xbe26c764	-0.16286999
6	0xbcbc9a2d	-0.023022735
7	0xbe2e01cd	-0.16992874
8	0xbd9f6c5b	-0.07784339
9	0xbe8c4af3	-0.27400932
10	0xbda7a023	-0.081848405
11	0x3d8122e6	0.063054845
12	0xbe11e723	-0.14248328
13	0xbeda007c	-0.42578495
14	0xbdb8c3be	-0.0902171
15	0x3e55cf10	0.2087977
16	0x3e3fd192	0.18732288
17	0x3e309196	0.17243037
18	0xbdb5cc9a	-0.08876915
19	0xbdf23091	-0.118256696
20	0xbc586977	-0.0132087385
21	0xbd89e61f	-0.06733345
22	0xbea5a663	-0.32353505
23	0x3bff1fb1	0.0077857603
24	0x3e5c2670	0.21499038
25	0x3e8fb3e1	0.28066924
26	0x3dc88782	0.09791471
27	0x3ea121d3	0.31471118
28	0x3ee53647	0.44767973
29	0x3f04673e	0.51720035
30	0x3eb08846	0.34478968
31	0x3eb3dd6f	0.35129878
32	0x3db35250	0.08755934
33	0x3e560841	0.20901586
34	0x3eaf1c3c	0.3420123
35	0x3edfe17e	0.43726724
36	0x3e5cfac7	0.21580039
37	0x3df19658	0.11796254
38	0x3e4cbeea	0.19994703
39	0xbc660ed5	-0.014041622
40	0x3e2f635e	0.1712775
41	0x3d8a010b	0.0673848
42	0xbe3a4d43	-0.18193536
43	0x3e3b1130	0.18268275
44	0x3ed6b7b2	0.41937023
45	0x3ea366b3	0.3191429
46	0x3dcfa71b	0.10139295
47	0xbeb7af95	-0.35876146
48	0x3dff8162	0.1247585
49	0xbdb60244	-0.08887151
50	0xbcbaebcf	-0.02281752
51	0x3dc6c001	0.097045906
52	0xbbbaccea	-0.005700697
53	0x3e0a016e	0.13477108
54	0xbd40898b	-0.04700617
55	0xbd222c4d	-0.03959303
56	0x3d9c9f12	0.07647528
57	0x3e7abcd5	0.24486096
58	0x3e20c9f2	0.15702036
59	0xbe817720	-0.25286198
60	0xbed63e5f	-0.4184446
61	0xbe56d872	-0.20981005
62	0xbe24b537	-0.16084753
63	0xbdbbe524	-0.091745645
64	0xbe82fc09	-0.25582913
65	0xbe2a760f	-0.16646598
66	0xbdf15e34	-0.11785546
67	0xbd09acb2	-0.03361196
68	0x3e0ebc4b	0.13939016
69	0x3cccca23	0.02499873
70	0x3e6780ab	0.22607677
71	0x3ea04afa	0.31307203
72	0x3e0f9b5b	0.14024107
73	0x3d46ae85	0.04850628
74	0xbdda0148	-0.10644776
75	0xbebcba79	-0.36861017
76	0xbebc6ba4	-0.36800873
77	0xbbb02877	-0.0053759175
78	0xbd650234	-0.055910304
79	0xbe8e78fd	-0.27826682
80	0x3b5db2e8	0.003382856
81	0xbe3f96ce	-0.18709871
82	0xbd99ef32	-0.07516326
83	0x3dd40f45	0.10354475
84	0x3d0df2a8	0.034655243
85	0xbd8e7527	-0.06955939
86	0xbdbb45f4	-0.09144202
87	0xbe97bd31	-0.2963653
88	0xbea1ff7e	-0.31640238
89	0xbebda78d	-0.37041894
90	0xbe85ecf6	-0.2615735
91	0x3d731648	0.05934742
92	0x3d6d252a	0.05789677
93	0x3e20f6a8	0.15719092
94	0x3de98089	0.11401469
95	0x3ee83e43	0.45360002
96	0x3e7020dd	0.23450036
97	0x3db0e660	0.086376905
98	0xbd523f53	-0.051329922
99	0xbc9a22d2	-0.018815432
100	0x3e2013a0	0.15632486
101	0x3d6081ca	0.054811276
102	0x3d7c4bec	0.061595842
103	0x3e2b3756	0.16720328
104	0x3e48b3f8	0.19599903
105	0xbdd4feb4	-0.10400143
106	0x3da5824b	0.08081492
107	0x3e088911	0.13333537
108	0x3e3339fb	0.17502587
109	0x3daba883	0.083817504
110	0x3e108a78	0.14115322
111	0x3d81dfa7	0.063414864
112	0x3d18795d	0.037225116
113	0x3dc8cc6e	0.09804617
114	0x3ea8bd39	0.32956865
115	0x3e64b542	0.2233477
116	0xbd2e67dd	-0.04257952
117	0xbd08a761	-0.03336275
118	0xbe9ddce1	-0.3083258
119	0xbdb7600a	-0.08953865
120	0xbde8bb6b	-0.11363872
121	0x3d2d1df8	0.04226491
122	0x3e8b9405	0.27261367
123	0x3ec696a7	0.38786814
124	0x3e389348	0.18024933
125	0xbdc58ec5	-0.09646372
126	0x3eab7e64	0.33494866
127	0x3e5de910	0.21670938
128	0x3d9dac08	0.07698828
129	0x3e4b5987	0.1985837
130	0x3f16ad1a	0.5885788
131	0x3f07f331	0.53105456
132	0x3ea92ec1	0.33043483
133	0x3e3a6d84	0.1820584
134	0xba10ad5e	-0.0005518998
135	0x3e07c219	0.13257636
136	0xbcc5751c	-0.024103694
137	0x3e61b7f6	0.22042832
138	0x3e512987	0.20425998
139	0x3e94884e	0.29010242
140	0x3cb259c9	0.021771329
141	0xbcecc4b0	-0.028902382
142	0x3e82f96f	0.25580928
143	0x3da01ae6	0.078176305
144	0xbd09184e	-0.033470444
145	0x3e238820	0.15969896
146	0xbc8c9b91	-0.017164024
147	0xbe12fa19	-0.14353217
148	0xbde9d04d	-0.11416683
149	0xbe4cb098	-0.1998924
150	0xbdfba7c6	-0.122878596
151	0xbd982d1c	-0.07430479
152	0xbdc914ce	-0.09818421
153	0xbeba47a9	-0.36382797
154	0xbeaec58c	-0.3413509
155	0xbe8f6507	-0.28006765
156	0xbe0c296e	-0.13687679
157	0xbea68d68	-0.3252976
158	0xbe885af4	-0.26631892
159	0xbe62dbf6	-0.22154221
160	0xbe1a9d5a	-0.15099087
161	0xbe1489cb	-0.14505689
162	0xbea7b0dc	-0.3275212
163	0xbe81bc19	-0.2533882
164	0xbe2c9386	-0.1685315
165	0xbcab20a1	-0.020889582
166	0x3d9ad78f	0.07560646
167	0x3e17a3a8	0.14808524
168	0x3dfefa1e	0.1245005
169	0x3d91a7ce	0.07112084
170	0xbddd63d6	-0.10810058
171	0xbd6838f6	-0.056694947
172	0x3e193ac0	0.14963818
173	0x3b1c609d	0.0023861297
174	0x3d9106bb	0.07081362
175	0x3e73ea1d	0.23819776
176	0x3e2f0a67	0.17093812
177	0xbe436167	-0.19080125
178	0xbe8a3d65	-0.26999965
179	0xbd8966c0	-0.06709051
180	0xbe2a58ed	-0.16635485
181	0xbe3ee364	-0.1864143
182	0xbd94bbe0	-0.07262397
183	0x3dbe988d	0.093064405
184	0x3cecf582	0.028925661
185	0xbc8ea4a7	-0.017412497
186	0xbcdce60e	-0.026965167
187	0xbdc7d915	-0.09758202
188	0xbdc52390	-0.09625924
189	0xbe27c69a	-0.16384354
190	0xbd945f28	-0.07244712
191	0xbe1ba7d9	-0.15200748
192	0xbd066d4e	-0.032819085
193	0xbe19f9fc	-0.15036768
194	0xbebf4c2d	-0.37362805
195	0x3e482c9d	0.19548269
196	0xbe6b8b2f	-0.23002313
197	0xbe86a4c3	-0.26297578
198	0xbd1b2cd2	-0.03788454
199	0xbed9e38c	-0.42556417
200	0xbe339683	-0.17537884
201	0xbd33877e	-0.043830387
202	0x3d638246	0.05554416
203	0xbdebe2a8	-0.115178406
204	0xbe1ad6c3	-0.15120988
205	0x3e4432d6	0.19160017
206	0x3e96b403	0.29434213
207	0x3e939f25	0.28832355
208	0x3f04d78b	0.5189139
209	0x3ec71236	0.3888108
210	0x3ebb9596	0.36637563
211	0x3ecd24bb	0.40067086
212	0x3e987c56	0.2978236
213	0x3ef4c87d	0.4780921
214	0x3f08fe17	0.5351271
215	0x3ee78295	0.45216814
216	0x3e302c2d	0.17204352
217	0x3e50ff24	0.20409828
218	0x3d379779	0.04482219
219	0xbd539e03	-0.051664364
220	0x3ec36208	0.3816073
221	0x3e1cfb75	0.15330298
222	0xbd9b99f4	-0.075977236
223	0xbcfba0dc	-0.030716352
224	0x3e58fb95	0.21189721
225	0x3efc7891	0.49310735
226	0x3d9cd4ac	0.076577514
227	0xbd914539	-0.07093281
228	0x3dc70f3e	0.09719704
229	0x3e34bfe7	0.1765133
230	0x3df7fdc4	0.12108949
231	0xbe7c7119	-0.24652518
232	0xbde60705	-0.112318076
233	0xbe216a42	-0.1576319
234	0x3dd0c9c4	0.10194734
235	0x3e62c024	0.22143608
236	0xbde646c6	-0.11243968
237	0x3d5ea3cf	0.05435544
238	0x3e308b64	0.17240673
239	0xbde204d3	-0.110360764
240	0xbed8256c	-0.4221605
241	0xbdccbd9d	-0.09997103
242	0xbec09ba9	-0.3761876
243	0xbebeaa7d	-0.37239447
244	0xbe3aa9f8	-0.182289
245	0xbe9283fb	-0.28616318
246	0xbd0d80bd	-0.034546603
247	0xbd9dcbc9	-0.077048846
248	0xbe7aba3d	-0.24485107
249	0xbe8389c0	-0.25691032
250	0xbe7a298c	-0.24429911
251	0xbeb6f079	-0.3573034
252	0xbecfa0d7	-0.405524
253	0xbeb46971	-0.35236695
254	0xbe59319d	-0.21210332
255	0xbefe269b	-0.4963883

bias f4 [24]
0	0xbe0d5a9a	-0.13804093
1	0xbe7f5197	-0.24933468
2	0xbec176c4	-0.37785923
3	0xbe7378a6	-0.23776492
4	0xbe978b5b	-0.29598507
5	0xbe5d6ee5	-0.21624334
6	0xbe420515	-0.18947251
7	0xbe9701f9	-0.29493693
8	0xbef5d49d	-0.48013774
9	0xbe6873f0	-0.22700477
10	0xbe9e960b	-0.3097385
11	0xbe48a22a	-0.1959311
12	0xbeb44e0b	-0.35215792
13	0xbe6014e0	-0.21882963
14	0xbeb8bb56	-0.36080426
15	0xbe89358a	-0.2679866
16	0xbeaf8ede	-0.34288687
17	0xbe893690	-0.2679944
18	0xbe81221f	-0.25221345
19	0xbead64f5	-0.33866087
20	0xbe8449d2	-0.2583757
21	0xbea3201a	-0.3186043
22	0xbe138900	-0.1440773
23	0xbe97aa85	-0.29622284

weight f4 [96, 24, 16]
0	0x3d0c3f62	0.034240134
1	0xbe185599	-0.14876403
2	0x3d84346f	0.064553134
3	0x3cbbc8de	0.02292293
4	0x3e4153d5	0.18879636
5	0xbe830ba2	-0.25594813
6	0x3e165e2f	0.14684366
7	0x3a92ffd1	0.0011215155
8	0xbeff93a9	-0.49917343
9	0xbc88f58a	-0.016718645
10	0x3d67f1c2	0.056627043
11	0xbbd0b8ab	-0.0063696704
12	0xbe74dec6	-0.23913106
13	0x3e434b9d	0.19071813
14	0x3dabc069	0.08386309
15	0xbd6fc4a2	-0.058537133
16	0x3e7090c4	0.23492724
17	0xbddaa4d5	-0.106759705
18	0x3dde0d0e	0.10842334
19	0xbe8d8d1f	-0.2764673
20	0x3eec575f	0.4616041
21	0xbddceaf3	-0.107870005
22	0xbcfd1167	-0.030892087
23	0xbe8fb19e	-0.280652
24	0xbdb32ca9	-0.087487526
25	0xbe185d9a	-0.14879456
26	0x3ebc39cd	0.36762848
27	0xbcbf2230	-0.023331732
28	0xbbb25063	-0.0054417117
29	0x3e4c9f62	0.19982675
30	0x3e5e25dd	0.21694131
31	0x3e938314	0.28810942
32	0x3ed42283	0.4143258
33	0xbde63dea	-0.11242278
34	0x3e8fbe95	0.2807509
35	0x3eba9308	0.364403
36	0xbda43613	-0.08018126
37	0x3dcc3dfb	0.09972759
38	0x3e129608	0.14315045
39	0xbccd3ebc	-0.025054328
40	0xbe004b31	-0.12528683
41	0x3da646be	0.08118962
42	0xbe839c83	-0.25705346
43	0x3e21d78a	0.15804878
44	0xbe9512d7	-0.29115936
45	0x3e5dd91b	0.2166485
46	0xbe51ecd0	-0.20500493
47	0x3ee33825	0.44378772
48	0xbe82c993	-0.25544414
49	0x3d49cbdd	0.049266685
50	0xbe841ebd	-0.258047
51	0xbea2ac7b	-0.31772217
52	0xbe062106	-0.13098535
53	0xbdeb0b7d	-0.114768006
54	0xbe1ae9a4	-0.1512819
55	0x3d3b50f2	0.045731492
56	0xbe35e687	-0.1776372
57	0x3d954bee	0.07289873
58	0xbd8966a1	-0.06709028
59	0xbc9ce524	-0.019152232
60	0xbbebba90	-0.007193871
61	0x3e2b9253	0.16755037
62	0xbef83d9c	-0.48484504
63	0x3e1ee666	0.15517578
64	0xbe38c294	-0.18042976
65	0x3b9b59a3	0.00474091
66	0x3e1a107b	0.1504535
67	0xbe1a223a	-0.15052119
68	0x3d8f4fe5	0.069976605
69	0x3e5325e5	0.20619924
70	0xbd70758f	-0.058705863
71	0xbcfe2e73	-0.031028008
72	0xbe8b18fd	-0.27167502
73	0xbda4dbee	-0.08049761
74	0xbeabe852	-0.33575684
75	0x3cdd58c9	0.027019875
76	0x3cdcc834	0.026950933
77	0xbebb8f73	-0.3663288
78	0xbe966961	-0.29377273
79	0x3d859bec	0.0652388
80	0xbe9911db	-0.29896435
81	0xbeded6fe	-0.435234
82	0xbd17a17e	-0.037019245
83	0xbdf45223	-0.11929729
84	0xbe4c3033	-0.19940262
85	0xbeb5576b	-0.35418257
86	0x3c3c4fb7	0.011493615
87	0xbec3c962	-0.3823958
88	0xbeb43544	-0.35196888
89	0xbeb9829c	-0.3623246
90	0xbe71fd8c	-0.23631877
91	0xbdec51c8	-0.11539036
92	0xbec29c5f	-0.38009927
93	0xbc8c50c7	-0.017128361
94	0xbdf4af23	-0.11947467
95	0xbe890a72	-0.26765782
96	0xbd4ab507	-0.049489047
97	0xbdf44098	-0.11926383
98	0xbe2fc2da	-0.17164174
99	0xbd6a8004	-0.05725099
100	0xbe5314dd	-0.20613427
101	0x3b17eae1	0.002318077
102	0x3e82c608	0.2554171
103	0xbe929a87	-0.2863352
104	0xbed1f051	-0.4100366
105	0x3ce34e91	0.027747424
106	0xbe5c5381	-0.21516229
107	0xbdd1b65a	-0.10239859
108	0x3d8cc04b	0.068726145
109	0x3b6844c2	0.0035441373
110	0xbeea2f2c	-0.45739114
111	0xbe49bf9f	-0.19702004
112	0xbda3dbb5	-0.0800089
113	0x3ea7ccab	0.32773337
114	0xbe450099	-0.19238509
115	0xbeca9184	-0.39564145
116	0xbc9981a0	-0.018738568
117	0x3d52ff89	0.05151323
118	0xbe98c0ce	-0.29834598
119	0xbd93806d	-0.0720223
120	0x3c7e999d	0.015539554
121	0xbe884489	-0.26614788
122	0xbe3761d1	-0.17908408
123	0xbdbeae38	-0.09310573
124	0x3d50c9b0	0.050973594
125	0xbe7f648a	-0.24940696
126	0x3d6fea66	0.05857315
127	0xbe0bb8fa	-0.13644782
128	0x3e016d7a	0.12639418
129	0x3ca8fc86	0.020628225
130	0x3c8b9827	0.017040325
131	0xbccf1a50	-0.025281101
132	0x3e49befc	0.19701761
133	0xbcbc4cec	-0.022985898
134	0x3c70d23b	0.01469856
135	0xbb5f0feb	-0.0034036587
136	0xbe06a9b6	-0.13150677
137	0xbccc226c	-0.024918757
138	0x3dcd55ba	0.10026117
139	0x3e36b3f4	0.17842084
140	0xbdf9ddcb	-0.12200507
141	0x3dd39658	0.1033141
142	0x3e87590f	0.26435134
143	0x3deea84c	0.11653194
144	0xbe002560	-0.12514257
145	0xbdd69a1f	-0.10478615
146	0xbe1a8fe6	-0.15093955
147	0xbf095ce3	-0.5365736
148	0x3e0de997	0.13858639
149	0xbe8cfb21	-0.27535346
150	0xbe450fe5	-0.19244345
151	0xbe5f7ed7	-0.2182573
152	0xbe5a0c03	-0.21293645
153	0xbec04630	-0.3755355
154	0xbe81f725	-0.2538387
155	0xbdc27f85	-0.09496979
156	0xbcd5ef00	-0.02611494
157	0xbd81db88	-0.063407004
158	0x3e74aafa	0.23893347
159	0xbdb19993	-0.0867187
160	0x3e71f83b	0.23629849
161	0x3e2339fc	0.15940088
162	0xbe33511c	-0.1751141
163	0x3d4d7c28	0.050167233
164	0x3eadd2ad	0.33949795
165	0x3e0fbc82	0.14036754
166	0x3d76ae31	0.060224716
167	0xbe6cf8f5	-0.23141845
168	0xbe6e6aa3	-0.23282866
169	0x3d6acf8d	0.057326842
170	0xbd96b58b	-0.07358845
171	0x3efab869	0.4896882
172	0x3c8ad0a9	0.0169452
173	0x3e5df467	0.21675263
174	0x3e9e0c12	0.30868584
175	0x3de0538f	0.109534375
176	0xbe8e3e8b	-0.27782091
177	0xbe634e24	-0.22197777
178	0xbdc83f04	-0.09777644
179	0xbf106444	-0.56402993
180	0xbdfed413	-0.12442794
181	0xbe5d368d	-0.2160284
182	0xbecc2596	-0.39872426
183	0xbf3c1f8f	-0.73485655
184	0xbe9e9370	-0.3097186
185	0x3e8a055b	0.2695721
186	0xbe67cf44	-0.2263766
187	0x3e04c3b3	0.12965278
188	0xbe4190b7	-0.1890286
189	0xbe576208	-0.2103349
190	0xbead415d	-0.3383893
191	0xbe498b8b	-0.19682138
192	0x3e35318a	0.17694679
193	0x3e91f787	0.2850916
194	0xbec86985	-0.39143005
195	0x3e0b6125	0.13611276
196	0x3dd6cf0d	0.104887106
197	0x3dfcd4a3	0.12345245
198	0xbe41070b	-0.18850343
199	0xbe79273f	-0.24331377
200	0xbd936424	-0.07196835
201	0xbdca2243	-0.09869816
202	0xbe638033	-0.22216873
203	0xbd375d7a	-0.04476688
204	0xbdb1fbfb	-0.086906396
205	0x3e237eb7	0.15966307
206	0x3e058138	0.13037574
207	0xbd8587f6	-0.06520073
208	0xbeebf01b	-0.46081623
209	0xbe97f333	-0.29677734
210	0xbe453dfb	-0.19261925
211	0xbe4fd3d5	-0.20295651
212	0xbec7028a	-0.38869125
213	0xbf17a03b	-0.5922887
214	0xbf340f88	-0.703362
215	0xbed80d6a	-0.42197734
216	0xbead9222	-0.33900553
217	0xbe55ebdc	-0.20890754
218	0xbe81a412	-0.25320488
219	0xbe18a4d5	-0.14906628
220	0x3cac924f	0.02106586
221	0xbeab6bb1	-0.334806
222	0x3d1635a1	0.03667224
223	0x3d94618f	0.0724517
224	0x3ef32791	0.47491124
225	0x3da3a92f	0.079912536
226	0xbb43bf3c	-0.0029868623
227	0x3e34a5da	0.17641392
228	0x3e6f1574	0.23348027
229	0x3db60a10	0.08888638
230	0x3dbd9b4d	0.09258137
231	0xbe187066	-0.14886627
232	0x3df4d3fa	0.11954494
233	0xbece47f2	-0.40289265
234	0xbef8d9bb	-0.48603615
235	0x3d34b3c8	0.044116765
236	0x3ec5dfe7	0.38647386
237	0xbd6b1014	-0.05738838
238	0xbeb4e7c5	-0.35333076
239	0x3e29aaba	0.16569033
240	0x3e91192d	0.2833952
241	0x3d4a5249	0.04939488
242	0x3d1db7fd	0.038505543
243	0xbe358151	-0.17725112
244	0x3ecad504	0.39615643
245	0x3dba5fd6	0.091003105
246	0x3db44f27	0.088041596
247	0x3d833dc7	0.064082675
248	0x3dcdc6cf	0.10047685
249	0xbdf28d4f	-0.11843359
250	0x3e79c52a	0.24391618
251	0x3e88c914	0.2671591
252	0xbe92e154	-0.28687537
253	0xbe1c4008	-0.15258801
254	0x3ea5b5ba	0.3236521
255	0x3ec89fb6	0.3918435

bias f4 [96]
0	0xbdfb803b	-0.122803174
1	0x3dc0d0b9	0.09414811
2	0x3d87e41c	0.06635305
3	0xbd7e9c3c	-0.062160715
4	0xbde13881	-0.109971054
5	0x3d8c87c3	0.06861832
6	0xbd83e796	-0.06440656
7	0xbe1b9e3f	-0.15197085
8	0xbe90661b	-0.282029
9	0x3d530a4f	0.051523503
10	0x3d3ee58e	0.04660564
11	0xbe1ee727	-0.15517865
12	0xbd79b89f	-0.060967084
13	0xbe282a74	-0.16422445
14	0xbddf6034	-0.10907021
15	0x3d1bdcd7	0.038052406
16	0xbe25990b	-0.16171663
17	0xbd1adae8	-0.03780642
18	0xbde8eab6	-0.113728926
19	0xbe1b4be9	-0.15165676
20	0x3d9b4318	0.075811565
21	0xbde462f5	-0.11151687
22	0xbe42b185	-0.19013031
23	0x3ea5f0c1	0.32410243
24	0xbdc6c59e	-0.09705661
25	0x3c4e71ba	0.012600357
26	0x3d8c4aa5	0.06850175
27	0xbbb95e98	-0.0056570284
28	0xbda5cdb9	-0.08095879
29	0xbe00185d	-0.12509294
30	0x3c84e3eb	0.016221961
31	0xbe583100	-0.21112442
32	0x3d0b9976	0.0340819
33	0xbdcda0b4	-0.10040417
34	0xbe0e04e2	-0.1386905
35	0xbe139410	-0.1441195
36	0xbe934896	-0.28766316
37	0x3e2a7386	0.16645631
38	0xbdab5486	-0.08365731
39	0xbd7a9f08	-0.06118682
40	0xbd484a9b	-0.048899274
41	0x3dda23c8	0.10651356
42	0x3cf0d53e	0.029398557
43	0x3da9037c	0.08252618
44	0x3c313896	0.010816714
45	0xbdbabdfd	-0.09118269
46	0xbe87672b	-0.26445898
47	0xbe390772	-0.18069246
48	0x3e6b040f	0.22950767
49	0xbd3ae948	-0.04563263
50	0xbe13b32f	-0.14423822
51	0xbd7f5b04	-0.06234266
52	0xbdd6b549	-0.10483796
53	0x3ddac6e0	0.10682464
54	0xbd57428b	-0.052553695
55	0x3e09e796	0.1346725
56	0x3e25085d	0.16116472
57	0x3e1acfcb	0.15118329
58	0x3cf6efec	0.0301437
59	0xbe656295	-0.22400887
60	0xbe0f1a96	-0.13974985
61	0xbcc396e3	-0.02387566
62	0x3e74dcfc	0.23912424
63	0xbce5b92c	-0.028042398
64	0x3ba79049	0.0051136357
65	0x3ef8da95	0.48604265
66	0xbda92b76	-0.08260243
67	0xbc274017	-0.010208151
68	0xbe05c912	-0.13064983
69	0xbd439d39	-0.04775736
70	0xbc626b83	-0.013819578
71	0x3dcdce07	0.10049062
72	0xbd4c03f6	-0.049808465
73	0x3d859c1f	0.06523918
74	0xbe7186e1	-0.23586608
75	0xbc321558	-0.010869347
76	0x3e0ae809	0.13565077
77	0x3e1efec6	0.15526876
78	0x3de6db5f	0.112723105
79	0x3d34ac5b	0.044109683
80	0xbd29ca87	-0.04145291
81	0xbc41c74b	-0.0118273
82	0xbe1528b1	-0.14566304
83	0xbddc9f2f	-0.10772549
84	0x3d8ffab7	0.07030242
85	0x3e08f179	0.13373365
86	0xbe3faa92	-0.18717411
87	0x3ea6909d	0.32532206
88	0xbdee039d	-0.11621783
89	0xbd875b67	-0.066092305
90	0x3df635e3	0.12021997
91	0xbd42cec2	-0.04756046
92	0xbe5e2b5e	-0.21696231
93	0x3d90d485	0.07071785
94	0xbd1fe136	-0.039033137
95	0xbd5bbcf7	-0.053647008

weight f4 [64, 3072]
0	0xbc915af2	-0.017743561
1	0xbcb766a4	-0.02238781
2	0x3c744710	0.014909521
3	0xbc6e5d37	-0.014548591
4	0x3c2b9d4d	0.010474515
5	0xbb2ccba9	-0.0026366508
6	0xbc9b1708	-0.01893188
7	0xbcc66d84	-0.024222143
8	0x3c4a7b8d	0.012358558
9	0xbb4cf7d9	-0.0031275658
10	0xbbfa5dd7	-0.007640581
11	0x3c719a83	0.014746311
12	0x3c305825	0.010763203
13	0xbc9d8705	-0.019229421
14	0xbc502b2b	-0.012705605
15	0xbb25c2ee	-0.002529319
16	0x3b9d6657	0.0048034596
17	0x3b2e0791	0.0026554803
18	0xbc9eb5fc	-0.019373886
19	0x3bd495c0	0.006487578
20	0x3c1c8ae8	0.009554602
21	0x3bce2c5e	0.00629191
22	0x3bf1cdb6	0.007379259
23	0x3b683749	0.0035433343
24	0xba77865a	-0.0009442322
25	0x3c4a29c7	0.012339062
26	0x3c89c603	0.016818052
27	0x3bc206ec	0.0059212353
28	0xbc42fc3b	-0.011900957
29	0xbd0f2975	-0.034951646
30	0xbd02c4c6	-0.03192594
31	0xbba596bf	-0.0050533707
32	0x3c201fdd	0.009773222
33	0xbb5e2502	-0.003389657
34	0x3c527345	0.012844865
35	0xbc8895be	-0.016672965
36	0xbbee27c2	-0.007267923
37	0x3baebd69	0.005332638
38	0xbc0e3154	-0.008678753
39	0xbcc0deb9	-0.023543702
40	0x3c186e8f	0.009303703
41	0xbc40a619	-0.011758351
42	0xbcccbb1d	-0.024991566
43	0xbbd5f091	-0.006528922
44	0x3bab25d1	0.005223014
45	0xbae43151	-0.0017409717
46	0xbc8702e0	-0.016480863
47	0x3b455806	0.003011228
48	0xbc2cdd66	-0.010550832
49	0xbc085bed	-0.008322698
50	0xb98acaaa	-0.00026472408
51	0xbc8387dd	-0.016055996
52	0xbc9cdae1	-0.019147338
53	0xbccb13dd	-0.024789745
54	0xbbf5d710	-0.007502444
55	0xbca1680e	-0.019702937
56	0x3a5a843b	0.0008335744
57	0xbb66962a	-0.003518472
58	0xbb387916	-0.0028148345
59	0xbc59cc1e	-0.013293294
60	0x3c0ae030	0.008476302
61	0xbcf895c9	-0.03034486
62	0x3b419ad5	0.002954175
63	0x3b2b6508	0.0026152749
64	0xbc8056cb	-0.015666386
65	0xbcf7397b	-0.030178776
66	0xbc94e3b6	-0.018174987
67	0xbd27b0b6	-0.04094001
68	0xbcb90a76	-0.022587996
69	0xbc546958	-0.012964569
70	0xbba564f5	-0.0050474354
71	0xbcad5b18	-0.021161601
72	0xbc6f6114	-0.014610548
73	0x3b4c49ed	0.0031171993
74	0xbb9dc910	-0.0048152283
75	0xbbc47747	-0.0059956643
76	0xbc118876	-0.0088826325
77	0xbd4c83d5	-0.049930412
78	0xbca8df21	-0.020614209
79	0xbb1bab1c	-0.0023753112
80	0xbc84b9d3	-0.01620189
81	0xbcd54fc7	-0.026039017
82	0xbca1c5ab	-0.019747576
83	0xbb806a8b	-0.003918951
84	0xbcccadbd	-0.024985189
85	0xbc786e3d	-0.015163002
86	0xbca1194c	-0.019665383
87	0xbc9d7011	-0.019218476
88	0xbbd0423a	-0.006355551
89	0xbd2d2e6e	-0.042280607
90	0xbd3ec3a4	-0.046573296
91	0xbd487249	-0.048937116
92	0xbca00602	-0.019534115
93	0xbc5149b8	-0.012773924
94	0xbc8496e5	-0.016185233
95	0xba05a965	-0.0005098789
96	0x3c2600ac	0.010131996
97	0xbc4f5983	-0.012655619
98	0xbc1f7b74	-0.009734023
99	0xbc0a533c	-0.008442696
100	0xbc4805e0	-0.012208432
101	0xbbd00ed9	-0.006349426
102	0xbc02f65a	-0.007993305
103	0x3c415b15	0.011801501
104	0xb9243692	-0.00015660588
105	0x3c031078	0.007999532
106	0xbbc72148	-0.0060769655
107	0x3c345140	0.0110057
108	0xbcc4b844	-0.024013646
109	0xbc798bc2	-0.015231075
110	0xbad1e7ca	-0.0016014513
111	0xbc615b8b	-0.013754736
112	0xbbb0b10f	-0.005392201
113	0xbc8fbd10	-0.017546207
114	0x3b3e7cca	0.002906608
115	0x3b4c7b01	0.0031201246
116	0x3c8687b7	0.016422136
117	0x3c51a049	0.012794563
118	0xbb451d8f	-0.0030077433
119	0xbc85c698	-0.016330048
120	0x3b40d2bf	0.002942249
121	0xbc09dd0f	-0.008414521
122	0xbc5b093e	-0.013368903
123	0x3c4d60d9	0.012535297
124	0xbc96020c	-0.018311523
125	0x3bb2d926	0.005458015
126	0x3b8ca9e3	0.004292713
127	0x3b932529	0.004490514
128	0xbb6e4365	-0.0036356088
129	0x3c288dd0	0.010287717
130	0xbc1ad8d9	-0.009451115
131	0xbb8366ef	-0.0040100734
132	0xb9b04ee9	-0.0003362813
133	0xbb639801	-0.0034728053
134	0xbca6ea14	-0.020375289
135	0xb92ed8c5	-0.00016674686
136	0x3b955bfe	0.0045580855
137	0xbc0c8e5a	-0.008578861
138	0xbc9c5173	-0.019081807
139	0x3beed0dd	0.007288082
140	0xbcbbcef0	-0.022925824
141	0xbc9f988d	-0.019481922
142	0xbc9d3c2c	-0.019193731
143	0x3c2c7eee	0.010528309
144	0xbbaafa80	-0.00521785
145	0x3ac6fa60	0.0015180819
146	0x3c2e2643	0.0106292395
147	0xbb84edf8	-0.0040566884
148	0xbc5497fb	-0.012975688
149	0xbbb2f92f	-0.005461834
150	0xba76e010	-0.0009417543
151	0xbc4572a5	-0.012051259
152	0x3b144f7c	0.0022630384
153	0x3aeaf137	0.0017924671
154	0x3c0a861b	0.008454825
155	0xbca90f68	-0.02063723
156	0x3a900d1a	0.0010990233
157	0x3c42fa39	0.011900478
158	0x3b091717	0.0020918304
159	0x3b83d60e	0.00402332
160	0x3c1fd675	0.00975572
161	0x39faff1e	0.00047873793
162	0x3b1418b6	0.0022597737
163	0xbcb6a736	-0.02229653
164	0xbc3fcf32	-0.011707114
165	0x3c30b9fa	0.010786528
166	0x3c086911	0.008325831
167	0x39488293	0.00019122129
168	0xbc2b86bf	-0.010469138
169	0x3c7d052f	0.01544313
170	0x3c3f6a41	0.011683048
171	0xbc3d19a6	-0.01154176
172	0xbca0a55b	-0.019610098
173	0x3b0664ce	0.0020506862
174	0xbc2cfb7d	-0.010558006
175	0x3a38eea7	0.0007054605
176	0xbbd8573b	-0.0066021956
177	0xbc70338d	-0.014660728
178	0x3bb3bfd2	0.0054855132
179	0xbb019402	-0.0019772057
180	0x3bd8e08b	0.0066185645
181	0xbb84f085	-0.0040569925
182	0xbc9f1a0a	-0.019421596
183	0x3c60f7af	0.013730927
184	0x3c15326e	0.009106262
185	0xbc91fd9b	-0.017821124
186	0x3c82a766	0.015948962
187	0xbb550fdf	-0.003251068
188	0xbd00fcd0	-0.0314911
189	0xbd12ce20	-0.035841107
190	0xbb96258e	-0.0045821136
191	0x3b8c0592	0.004273125
192	0x3c0a955c	0.008458462
193	0xbca75fd2	-0.020431433
194	0x3b849394	0.004045913
195	0xbc2db4d7	-0.010602198
196	0xbcc15b10	-0.023602992
197	0xbb98bbfe	-0.0046610823
198	0xbcc84673	-0.024447655
199	0x3c27c69b	0.010240222
200	0x3c04b242	0.008099141
201	0x3c475b42	0.012167754
202	0x3c22a6bf	0.009927451
203	0x3c0b6c5c	0.008509722
204	0x3bef5f4f	0.007305063
205	0xbc1a342d	-0.009411854
206	0xbc8b97c9	-0.01704015
207	0xbbdcae0e	-0.006734616
208	0x3c65e9f4	0.01403283
209	0xb9908290	-0.00027563097
210	0xbc58458f	-0.013200178
211	0xbc570348	-0.013123341
212	0xbc93671c	-0.017993502
213	0xbc80f9a4	-0.015744038
214	0xbc364385	-0.011124496
215	0xbcb6d2a5	-0.02231724
216	0xbc85d860	-0.016338527
217	0xbc4816ed	-0.012212497
218	0xbc6f0552	-0.014588671
219	0xbb2ea959	-0.0026651232
220	0xbc5a2ea3	-0.013316783
221	0xbb5479c8	-0.003242122
222	0xbc8a5867	-0.016887857
223	0xbcae9f13	-0.021316087
224	0xbba76b20	-0.005109206
225	0x3c0f5b9c	0.008749869
226	0xbc8bc968	-0.017063811
227	0xbb2f4681	-0.0026744904
228	0xba9ae947	-0.001181879
229	0xba08c0b0	-0.0005216701
230	0x3caec451	0.021333845
231	0xbc83fe0c	-0.01611235
232	0xbca9ad8d	-0.020712638
233	0xbbf229d0	-0.0073902383
234	0xbc0513b1	-0.008122371
235	0x3b97c502	0.0046316395
236	0x3aef6861	0.001826536
237	0x3b042316	0.0020162514
238	0xbc32bbf2	-0.0109090675
239	0xbc2bc994	-0.010485072
240	0xbc338104	-0.010956053
241	0xbc9c9ffd	-0.019119257
242	0xbc030fa5	-0.007999335
243	0xbc68d166	-0.014210081
244	0xbca30eda	-0.019904543
245	0xbc0e6cc4	-0.008692924
246	0xb95d4c84	-0.00021104707
247	0xbbb48a09	-0.005509619
248	0x3c0452cb	0.00807638
249	0x3b41e0ac	0.0029583378
250	0xbca2d933	-0.01987896
251	0xbb696b00	-0.0035616755
252	0xbc5fd841	-0.013662399
253	0xbc7494f6	-0.014928093
254	0x3aa9ba8a	0.001294927
255	0xbaba0b3d	-0.0014194023

bias f4 [64]
0	0xbbb3754b	-0.005476629
1	0xbcba1863	-0.022716707
2	0xbcae437d	-0.021272415
3	0xbc957a78	-0.018246874
4	0xbd696183	-0.05697776
5	0x3e930316	0.28713292
6	0xbce20eb1	-0.027594896
7	0xbd04f658	-0.032461494
8	0xbce25f9d	-0.027633483
9	0xbc865dfa	-0.016402233
10	0xbd68a8fb	-0.056801777
11	0xbd0a2469	-0.03372613
12	0xbdb87dfb	-0.09008404
13	0xbdaa1e7b	-0.08306595
14	0xbd4ee132	-0.05050773
15	0x3f0898eb	0.53358334
16	0xbbca2940	-0.006169468
17	0xbc0ce86f	-0.008600338
18	0xbbed7eaf	-0.007247768
19	0xbc33bb0d	-0.010969889
20	0xb9e2b5a9	-0.00043241426
21	0x3ad9ce46	0.001661726
22	0xbd7052ed	-0.058672834
23	0x3f008b4b	0.50212544
24	0x3ea9640b	0.3308414
25	0xbbd4e05e	-0.006496473
26	0xbe7ee4ce	-0.2489197
27	0xbcda83f0	-0.02667424
28	0xbd542602	-0.05179406
29	0x3bd64e23	0.0065400763
30	0xbd1773d2	-0.03697569
31	0xbc1cbb38	-0.009566121
32	0x3b8ba0b3	0.0042611
33	0xbca8279b	-0.020526698
34	0xbd14154c	-0.036153123
35	0xbe778678	-0.2417239
36	0xbd741c42	-0.05959726
37	0x3c2250c0	0.009906948
38	0x3c0b312c	0.00849561
39	0xbdbdb85c	-0.092636794
40	0xbe900016	-0.28125066
41	0x3dc7c7d7	0.09754913
42	0xbcea1d85	-0.02857853
43	0xbc208a9e	-0.009798674
44	0xbc3cc733	-0.011522102
45	0xbcc31901	-0.023815634
46	0xbcb73e05	-0.02236844
47	0xbc724bf3	-0.0147886155
48	0x3ba2e6cc	0.004971361
49	0xbad1c526	-0.0016004189
50	0xbd817a33	-0.06322136
51	0xbc8cdceb	-0.017195186
52	0xbcd12ff5	-0.025535563
53	0xbd46dad9	-0.048548553
54	0x3bbd4ff1	0.005777352
55	0xbbc6b9c6	-0.0060646264
56	0x3d12978c	0.035789058
57	0xbcbbd3d2	-0.022928152
58	0xbcb592ca	-0.022164721
59	0x39d6b86f	0.00040954674
60	0xbc85e043	-0.016342288
61	0xbd53703e	-0.051620714
62	0xbd3afbb7	-0.04565021
63	0xb99ebd38	-0.00030277087

weight f4 [25, 64]
0	0x3d78bb5e	0.060725562
1	0xbc4deecd	-0.012569142
2	0xbdae4856	-0.08509891
3	0x3cf50802	0.029911045
4	0xbd842c1b	-0.06453725
5	0x3e6ce24d	0.23133202
6	0xbc69eebf	-0.014278113
7	0x3d3041a0	0.043031335
8	0xbd5a82d1	-0.053347412
9	0xbcd79c10	-0.026319534
10	0xbc965054	-0.01834885
11	0xbdadb66d	-0.084820606
12	0xbdaafd84	-0.083491355
13	0xbe03975e	-0.12850711
14	0x3cf2052a	0.029543478
15	0xbe73ee6c	-0.2382142
16	0x3d81fa55	0.06346575
17	0x3db6b5f8	0.089214265
18	0xbdd3f90f	-0.103502385
19	0x3dbb9e4c	0.09161052
20	0x3d7aac07	0.061199214
21	0x3e04872d	0.1294219
22	0xbad5da85	-0.0016315734
23	0x3ca5d266	0.020241927
24	0x3eb64f47	0.3560736
25	0x3cda81e6	0.026673269
26	0xbc19b902	-0.009382488
27	0x3d8986c0	0.06715155
28	0x3c7697c1	0.015050829
29	0xbdc7bb3f	-0.09752511
30	0xbdaba010	-0.08380139
31	0xbb8eb6a2	-0.0043552676
32	0x3da49f18	0.08038157
33	0x3ca6b329	0.020349102
34	0x3c333ec3	0.0109402565
35	0xbf1d9dca	-0.6156889
36	0xbd4ba9ca	-0.04972247
37	0xbc86b901	-0.016445639
38	0xbd9006c8	-0.070325434
39	0xbf0474c4	-0.5174067
40	0xbe08dccc	-0.13365477
41	0xbd179d43	-0.03701521
42	0x3d0b4f32	0.034011073
43	0xb996995a	-0.00028724485
44	0xbd1d0ef9	-0.038344357
45	0xbd88e0c4	-0.06683496
46	0xbdcc608b	-0.099793516
47	0xbdbd59d7	-0.09245651
48	0x3dc62517	0.09675043
49	0x3df02cf0	0.11727321
50	0xbc27b755	-0.010236581
51	0x3ccb5775	0.024821976
52	0xbda07984	-0.07835677
53	0x3cbea4a7	0.023271872
54	0x3d8079b7	0.06273215
55	0xbd8b0f8e	-0.06790076
56	0xbeb46077	-0.35229847
57	0xbd6722de	-0.056429736
58	0x3cf1683b	0.029468646
59	0xbd9ef93b	-0.07762381
60	0xbdbce606	-0.09223561
61	0xbdc5a06e	-0.0964974
62	0xbaff16b4	-0.0019461722
63	0xbdaff91e	-0.08592437
64	0xbd40e753	-0.047095608
65	0x3dc426aa	0.09577687
66	0x3dc7b8ac	0.0975202
67	0x3d23f65b	0.040029865
68	0xbdf0bfa5	-0.11755303
69	0xbf089e4f	-0.5336656
70	0xbd7d3d1f	-0.061825868
71	0xbd8a7588	-0.067606986
72	0x3db2f7aa	0.087386444
73	0x3c907227	0.017632557
74	0xbdae0836	-0.0849766
75	0xbe097d7c	-0.13426775
76	0x3ba2121e	0.0049460074
77	0xbd83615a	-0.06415053
78	0x3cd15572	0.025553439
79	0xbd18c77c	-0.037299618
80	0xbd8819b9	-0.06645531
81	0xbdd97f52	-0.106199875
82	0x3c7c3dd5	0.015395601
83	0xbdc43d86	-0.09582047
84	0x3ba10831	0.0049143066
85	0xbcae38e6	-0.021267366
86	0x3cc65088	0.024208322
87	0xbe808586	-0.2510187
88	0x3ba540c4	0.005043121
89	0x3dda7025	0.10665921
90	0x3e0c6cc0	0.1371336
91	0xbdd27515	-0.10276238
92	0x3db67a96	0.089101
93	0xbe004e43	-0.12529854
94	0x3c4c0876	0.012453189
95	0xbd390fcf	-0.045181092
96	0xbdb163e7	-0.08661633
97	0x3da8171b	0.08207532
98	0x3c05c69a	0.008165026
99	0x3e031f5a	0.12804928
100	0x3d7d656d	0.061864305
101	0xbd5aa4c5	-0.053379793
102	0x3d8b0b38	0.06789249
103	0xbea5c34c	-0.32375562
104	0xbc5938bd	-0.013258156
105	0xbf1d4b70	-0.61443233
106	0x3cf4c72c	0.029880129
107	0xbdd40e8c	-0.10354337
108	0xbea356d3	-0.3190218
109	0x3d8a9f1e	0.067686304
110	0x3c19ef08	0.009395368
111	0xbcaaa6a5	-0.020831415
112	0x3dca76ec	0.09885964
113	0x3deccc8e	0.11562453
114	0x3db9db50	0.09075034
115	0x3cecd289	0.028908985
116	0xbcb4ea18	-0.02208428
117	0xbdb4f017	-0.08834856
118	0x3d87f894	0.066392094
119	0x3dcc590b	0.09977921
120	0xbcbf2be0	-0.02333635
121	0x3d9064a9	0.070504494
122	0xbce68f8c	-0.02814462
123	0x3ccadab2	0.024762485
124	0x3d1edf6a	0.038787283
125	0xbc8843db	-0.016633919
126	0x3d106ed3	0.03526194
127	0x3acd6d60	0.0015672855
128	0x3dfb5547	0.12272125
129	0x3d7cac16	0.06168755
130	0xbaffbdcd	-0.0019511521
131	0x3c05bc39	0.008162552
132	0x3ded6ecb	0.11593398
133	0xbc3101a8	-0.010803618
134	0x3ce1b793	0.027553355
135	0xbc80f2ae	-0.015740719
136	0x3d01347f	0.031544205
137	0x3d2efd05	0.042721767
138	0x3cbde7ae	0.023181763
139	0x3d83f15b	0.06442519
140	0xbe6145d6	-0.21999297
141	0xbcceb12e	-0.02523097
142	0x3d4636c2	0.048392065
143	0xbf106c3c	-0.5641515
144	0xbdd438f1	-0.10362423
145	0xbcf167b3	-0.029468393
146	0xbdf79413	-0.1208879
147	0xbcaff0bb	-0.021477094
148	0xbdd4e73b	-0.10395666
149	0x3d879967	0.06621056
150	0xbd40ad2e	-0.047040157
151	0x3e01fdd3	0.12694483
152	0x3ebe255d	0.3713788
153	0x3d4a5e69	0.049406443
154	0xbe69f31e	-0.22846648
155	0xbc9b2709	-0.018939512
156	0x3d3fca22	0.04682363
157	0xbdef2c77	-0.11678403
158	0xbd15174c	-0.03639917
159	0xbd883782	-0.06651212
160	0xb98b41a7	-0.0002656106
161	0x3dcae1fe	0.09906386
162	0x3dbcf72c	0.09226832
163	0x3e0b9f34	0.1363495
164	0x3dc28b7a	0.09499259
165	0xbbb07eda	-0.0053862156
166	0x3da73fb5	0.08166448
167	0xbe556180	-0.20837975
168	0xbe8528d4	-0.26007712
169	0x3eaf3944	0.34223378
170	0xbdaa0973	-0.083025835
171	0xbd8c29bd	-0.068438984
172	0xbe2b39de	-0.16721293
173	0x3da9af4a	0.08285387
174	0xbd791bb6	-0.060817443
175	0x3c0a6aa2	0.008448275
176	0xbd7c55cc	-0.06160526
177	0xbde6934d	-0.11258564
178	0xbdb3df04	-0.08782771
179	0xbdb2fd4b	-0.08739718
180	0x3da87bf5	0.08226768
181	0x3dad9f0c	0.084776014
182	0xbdbe4dd8	-0.09292191
183	0x3de7d855	0.11320559
184	0xbe9ceb5e	-0.3064832
185	0xbde7a7d4	-0.113113075
186	0x3cf224b5	0.029558519
187	0x3d36438a	0.044498004
188	0x3d444946	0.04792144
189	0x3d65be11	0.056089465
190	0xbdc201f2	-0.09473027
191	0xbd4de8e5	-0.050270934
192	0x3c936214	0.017991103
193	0xbcdcdf71	-0.026962014
194	0x3cbfa128	0.023392275
195	0xbd1fffa3	-0.039062154
196	0x3c877218	0.016533896
197	0xbed2692d	-0.41095868
198	0x3d43e7fe	0.047828667
199	0xbce84af5	-0.028356055
200	0x3da37442	0.07981159
201	0x3dff9ce3	0.12481096
202	0xbcedcbe9	-0.029027896
203	0xbe4e8dbb	-0.20171253
204	0x3d881149	0.06643922
205	0xbe179284	-0.14801985
206	0xbdbf3aba	-0.09337373
207	0xbf072caf	-0.52802557
208	0xbdb32caf	-0.08748757
209	0xbdbba598	-0.09162444
210	0xbd92eb8c	-0.07173833
211	0xba95ab6e	-0.0011418888
212	0xbd97a82e	-0.074051246
213	0xbdee6967	-0.11641198
214	0x3d24248f	0.040073927
215	0xbb4b882d	-0.003105651
216	0x3c445adc	0.011984553
217	0xbc3aec7d	-0.011408922
218	0xbe1b58c4	-0.1517058
219	0x3d522a16	0.051309668
220	0xbde0a6b0	-0.10969293
221	0x3dce082b	0.10060152
222	0xbe18ad5a	-0.14909878
223	0x3d254fcd	0.040359307
224	0x3d7ba1a5	0.061433453
225	0xbdbefcff	-0.09325599
226	0xbccd4a84	-0.025059946
227	0xbe313f88	-0.17309391
228	0x3d950184	0.0727568
229	0x3dcfadcd	0.10140572
230	0x3d36c622	0.044622548
231	0xbd8bd28a	-0.068272665
232	0x3eb3fd10	0.3515401
233	0xbea3c39e	-0.31985182
234	0xbcb6f52e	-0.022333708
235	0xbdd91949	-0.10600526
236	0xbc8921a3	-0.016739672
237	0xbdbcf9b4	-0.092273146
238	0xbd714799	-0.05890617
239	0x3b923f2e	0.004463098
240	0xbddac37f	-0.10681819
241	0xbdae7a39	-0.08519406
242	0x3d38d990	0.04512936
243	0xbd91474b	-0.07093676
244	0x3cecd318	0.028909251
245	0x3c342e2b	0.010997335
246	0xbdba029f	-0.09082531
247	0x3cf2f51a	0.02965789
248	0x3d95f490	0.07322037
249	0x3d5d8f0a	0.05409149
250	0xbde664dd	-0.11249707
251	0x3d4055df	0.046956893
252	0x3ddcd2ec	0.10782418
253	0x3be8ad84	0.007100763
254	0x3dcfd93c	0.10148856
255	0xbc4c8533	-0.012482929

bias f4 [25]
0	0xbdb6fbb4	-0.08934727
1	0x3d49b05b	0.04924045
2	0x3dad9ce9	0.08477194
3	0xbe5e19ed	-0.21689577
4	0x3e029918	0.12753713
5	0xbd594043	-0.0530398
6	0x3f11c62f	0.5694303
7	0x3e0ebde1	0.1393962
8	0x3dd35f1a	0.103208736
9	0x3e80be10	0.25145006
10	0x3efabe6e	0.4897341
11	0x3f17ef4a	0.593495
12	0x3eb9ee9c	0.36314857
13	0xbe1e6a97	-0.15470348
14	0x3d6b4c0c	0.05744557
15	0x3e2233ae	0.15840027
16	0x3d606da6	0.05479207
17	0xbd39e380	-0.045382977
18	0xbed81abd	-0.422079
19	0xbe2c9711	-0.16854502
20	0x3e435d86	0.19078645
21	0xbf401150	-0.75026417
22	0xbd82aca3	-0.06380584
23	0xbe772f8f	-0.24139236
24	0xbeaac3e8	-0.3335259
