result/config6/preliminary_model9.pt (torch_old, 996807 bytes, 8 tensors)

weight f4 [24, 2, 192]
000000 e6 db 8b be a8 8a b3 3c 43 55 bb 3d 9d 0a 2a 3e
       -0.27316207 0.021916702 0.09147122 0.16605611
000010 fe 64 f6 3d b0 6e 15 be 7c bf e1 3a f1 0f cc bd
       0.120309815 -0.14593005 0.0017223204 -0.09963978
000020 f7 0b fb bd e0 d9 5a be 07 2d e1 bd a4 c2 e7 3c
       -0.122581415 -0.21372175 -0.109949164 0.028291054
000030 01 7b 00 be 9b cc b5 be 0b 06 b8 bd 6e 6b 12 3e
       -0.12546922 -0.35507664 -0.089855276 0.14298794
000040 9b 36 d8 3d b0 23 0a 3e 06 47 47 bd 81 6a 9d bd
       0.1055729 0.13490176 -0.048651718 -0.0768633
000050 2f f9 2b 3d a6 e4 2a bc f6 a3 52 be bb 9a 3d 3c
       0.041985687 -0.010430491 -0.20570359 0.011572535
000060 24 f6 07 3e 4a fc 27 3e d6 35 c9 3d 3c bd 83 3e
       0.13277489 0.16404834 0.098247215 0.25730312
000070 75 26 95 3e c9 db bf 3e 8f fc 8f 3e b5 ce 82 3e
       0.29130903 0.3747237 0.28122374 0.2554833
000080 ee f3 80 3c 09 5e a3 3d f1 76 68 3e 73 0a af 3e
       0.015741315 0.0797692 0.22701623 0.3418766
000090 9c a8 3b 3e 15 06 00 3e 06 0d 46 3d 1b e6 48 bd
       0.18326038 0.1250232 0.048352264 -0.04904757
0000a0 6e f1 a2 3d 02 bc 7f bd e6 3e 39 be b0 30 d5 3d
       0.07956205 -0.062435158 -0.180904 0.10409677
0000b0 e0 19 d1 3e b2 14 af 3e f1 e1 50 3d bd 3e 77 be
       0.40840054 0.34195477 0.050996725 -0.24145027
0000c0 90 95 e9 3d e4 5b 84 bd f1 46 e0 bc c8 27 26 3d
       0.1140548 -0.06462839 -0.027377577 0.040565282
0000d0 fb 60 ac 3c d9 df 69 3d c6 28 d4 bd 35 59 b1 bd
       0.021042338 0.057098243 -0.103593394 -0.08659593
0000e0 0c c6 74 3c f2 65 36 3e 3a b4 cf 3d a4 cd 12 be
       0.014939796 0.17812327 0.10141797 -0.14336258
0000f0 60 55 8e be dc fd 30 be 1b 05 d7 bd a5 ff 91 bd
       -0.2779951 -0.1728434 -0.10499021 -0.071288384
000100 8b ac 89 be 42 84 04 be 94 3c ed 3c c2 5f c8 3c
       -0.26889452 -0.12941077 0.02895955 0.024459723
000110 ae d9 cf 3d a7 0d 36 bd 54 e5 04 3e b9 90 3c 3e
       0.10148941 -0.044446614 0.12978107 0.18414582
000120 e9 aa df bc b0 7e 3c bd 53 e2 0c be 74 d4 97 be
       -0.027303176 -0.046019256 -0.13758211 -0.29654276
000130 2c 58 93 be 14 ae 73 3c 43 70 b4 bc 3d d3 b2 be
       -0.28778207 0.014873046 -0.022026187 -0.34926787
000140 35 6a 8d bc bd 1d 6a bd 51 58 1f bd ca 61 c7 3d
       -0.017262558 -0.057157267 -0.038902584 0.09735449
000150 80 fd 23 3c 6d 23 f8 bd aa 74 b4 bd 45 27 40 be
       0.01000917 -0.12116132 -0.088113144 -0.1876498
000160 0e bf 56 be 44 bb 74 be 83 fa 60 be 2f 4d 2d 3d
       -0.20971319 -0.23899561 -0.21970563 0.042309936
000170 79 6e 20 3d a6 08 10 3e 78 cb d5 3d d1 61 8e 3e
       0.039167855 0.14065799 0.10439199 0.27809003
000180 81 7b d3 3d be 6c 50 3d 52 d5 ac 37 e1 c0 54 bd
       0.10326291 0.050884955 2.0603333e-05 -0.051941756
000190 cf 8b 87 3d c5 c0 48 3d a9 89 c6 3c a3 0f 23 3e
       0.06618463 0.049011964 0.024235563 0.15923934
0001a0 ad 45 88 3e 69 44 21 3c a8 3c d1 3d c8 76 bc 3d
       0.26615658 0.00984297 0.102166474 0.09202343
0001b0 57 f3 1a 3e e4 2c b2 3d 0f 38 c3 3d 47 ed aa bb
       0.1513189 0.086999685 0.09532177 -0.005216274
0001c0 f1 7b be 3d 68 ec 25 3e 38 31 3e 3e 04 63 0c 3e
       0.09300984 0.16203463 0.18573463 0.13709646
0001d0 66 15 4d 3d 2c 58 2f bb 14 9b 63 be 4c 57 8a 3b
       0.050069235 -0.0026755435 -0.22227126 0.0042218324
0001e0 71 04 d1 bc 2f 41 cb 3c 70 4c 86 3e 45 1c a2 3e
       -0.025514813 0.024811355 0.26230192 0.31662193
0001f0 4b 9f 1d 3e 5f 12 33 bd 7e bd 89 3e 71 09 61 3e
       0.15392797 -0.043718692 0.26902384 0.21976258
000200 57 97 45 3d ae 04 2e 3e a4 26 e7 3e c0 b7 ef 3e
       0.048240032 0.16993973 0.45146668 0.46819878
000210 3c 7a 8f 3e fd 5b c7 3d 81 af ec 3b 7e 17 0e 3e
       0.28022945 0.09734342 0.00722307 0.13876149
000220 58 5f 2c bc 3a c3 0f 3e 02 13 af 3d 85 8c 1b 3e
       -0.010520779 0.14039317 0.08548547 0.15190323
000230 43 02 f7 3b 99 52 04 bd f9 db 50 3e 67 3b e2 3d
       0.0075381114 -0.032305334 0.20396413 0.11046486
000240 0c 81 50 3c 40 34 be 3d 7a b5 18 3d 67 2f e0 bd
       0.01272608 0.0928731 0.037282445 -0.10946541
000250 52 1d 9f bd 48 44 05 be 47 b8 ab bd 46 ac e4 bd
       -0.07769264 -0.13014328 -0.083847575 -0.11165671
000260 c3 09 00 be 47 a9 43 be a1 4c 52 be 79 6e 4b be
       -0.12503724 -0.19107543 -0.20537044 -0.1986636
000270 e9 cd 38 be 2c 6b 99 be 2e 1f 68 be c4 83 36 be
       -0.18047298 -0.29964578 -0.22668144 -0.17823702
000280 5f 76 11 be ab 7e db bd f6 76 68 be d5 a9 80 be
       -0.14205311 -0.107175194 -0.2270163 -0.25129572
000290 55 df 1f be b8 4f 8c bb f3 18 be 3d d3 52 69 3d
       -0.15612538 -0.004281964 0.092821024 0.056963753
0002a0 f6 09 82 3d b3 e1 8d 3d c9 6d 74 bd c6 05 ac bc
       0.06349556 0.06927814 -0.05967501 -0.020998847
0002b0 7e c6 26 3e e8 ed 93 bc 1b 2b d4 bb a1 da 88 3e
       0.16286656 -0.018057778 -0.006474865 0.267293
0002c0 ca 8f 56 3e 40 a6 49 bd 97 96 d6 bd 90 8e 9f bd
       0.20953289 -0.049230814 -0.104779415 -0.077908635
0002d0 9e ea 3e be b7 f2 eb bd ea 30 ab bd 16 fe 70 3c
       -0.18644187 -0.115209036 -0.08358939 0.014709016
0002e0 27 38 20 3d 11 84 17 bd 3a 9c 4e 3c 20 0a b7 bc
       0.03911605 -0.036991183 0.0126104895 -0.022343695
0002f0 f8 e2 bf bd a7 96 15 be fe 17 1b be 84 90 1d be
       -0.09369463 -0.1460825 -0.15145871 -0.1538716
000300 50 b9 5c bd 10 c5 8a bd c3 68 6c be 4e 77 54 3e
       -0.053887665 -0.06775868 -0.23086838 0.20748636
000310 45 90 13 be 89 3d 76 be 87 26 b6 bd a9 3b 81 be
       -0.14410503 -0.24046911 -0.08894067 -0.2524083
000320 cf 27 02 be 57 5d 0b be 2b 62 9d bd 9f 05 d0 bd
       -0.12710498 -0.13609825 -0.0768474 -0.10157322
000330 16 3c 0a be fd b9 43 3e 77 98 82 3e a9 c9 53 3e
       -0.13499483 0.19113918 0.25506946 0.20682396
000340 cb 4a c9 3e a0 a3 8a 3e 41 96 9b 3e d0 51 cb 3e
       0.39314875 0.2707796 0.30388072 0.39710855
000350 b6 ab 91 3e d5 5c c2 3e d8 eb eb 3e 16 99 ca 3e
       0.28451318 0.3796145 0.46078372 0.3956992
000360 94 0c 4f 3e bf 3d 28 3e c8 f3 cc 3a 76 ad ff bc
       0.20219642 0.16429804 0.0015636617 -0.031210642
000370 97 c7 96 3e 1b f1 9d 3d ed 0a fd 3b d2 64 92 3c
       0.2944915 0.07712003 0.0077222497 0.01787034
000380 42 13 cb 3d 22 b0 d7 3e 21 85 e1 3d c3 f4 cb bd
       0.099157825 0.42126566 0.110117204 -0.09958794
000390 9d b8 31 3d 84 84 86 3e 21 95 2b 3e cc 5b 11 be
       0.04338895 0.26272976 0.16756107 -0.14195174
0003a0 6c f6 9c bd 7f b6 7a be b7 c4 b5 3d e7 f8 46 3e
       -0.07664189 -0.24483679 0.08875411 0.19430886
0003b0 d3 89 7e bc 42 58 2e 3e 09 c9 62 3e 69 db 9f bd
       -0.01553579 0.17025855 0.22147001 -0.07805521
0003c0 be 49 76 be 8b a9 13 be b0 b6 98 be 44 85 79 be
       -0.24051568 -0.14420144 -0.2982688 -0.24367243
0003d0 4d 74 53 be fe 97 94 be b5 e7 9a bd 4b b4 73 bd
       -0.20649834 -0.2902221 -0.07563726 -0.059498113
0003e0 d8 7d 7e be d8 44 47 be be aa 39 be 29 be 7a be
       -0.24852693 -0.19459856 -0.18131539 -0.24486603
0003f0 81 55 b2 be 76 15 97 be a6 4b 9a be 8f 89 d2 be
       -0.3483086 -0.2950856 -0.3013584 -0.41120574

bias f4 [24]
000000 d2 13 0d be 4e f7 3f be 30 bc 99 be 12 6d 3d be
       -0.13777092 -0.18746683 -0.30026388 -0.18498638
000010 98 44 51 be a7 60 38 be d4 6e 13 be de 88 48 be
       -0.20436323 -0.1800562 -0.14397746 -0.1958346
000020 af 4a c0 be c4 40 39 be 94 3d 51 be f4 c7 12 be
       -0.3755698 -0.18091112 -0.20433646 -0.14334089
000030 1f 22 84 be 6c 67 06 be 10 a7 95 be 35 a1 45 be
       -0.25807282 -0.1312539 -0.2922902 -0.19299777
000040 5b bd 5e be b1 d1 50 be 8e a0 75 be 78 6f 78 be
       -0.21751921 -0.20392491 -0.23987028 -0.24261272
000050 3b f1 6f be 63 6a 84 be 1c 93 f2 bd b5 4e 84 be
       -0.23431866 -0.25862417 -0.11844465 -0.258413

weight f4 [96, 24, 16]
000000 e3 14 3b 3d 2c 59 00 be 9e c7 0a 3e dd 8b 7b ba
       0.045674216 -0.12534016 0.1355271 -0.00095957314
000010 55 73 b1 3d 59 ee 17 be fe ad f3 3d 7c ca 82 bd
       0.08664576 -0.14837016 0.11898421 -0.06386277
000020 b9 b9 a4 be 9f ad 7f 3b fd f9 01 3d 55 6c 47 3c
       -0.32172945 0.0039013398 0.031732548 0.012171824
000030 bf 89 f9 bd 4f c8 23 3e 26 18 42 3e 5c 79 ad bd
       -0.12184476 0.1599438 0.18954524 -0.08470413
000040 88 5f 29 3e 9a 9b 0b be f9 7a a0 3d 2f be e4 bd
       0.16540349 -0.13633576 0.07835955 -0.11169087
000050 b4 b8 8d 3e 76 dc 41 bd 9e f9 1f 3d e1 ed 32 be
       0.2767998 -0.04732939 0.039056413 -0.17473556
000060 3a cb a3 bd e6 4e 5d bc 65 eb 41 3e e8 50 58 3d
       -0.07997747 -0.01350758 0.18937452 0.052811533
000070 eb aa b5 bc c6 cb 20 3e d0 9c 25 3e 4b 78 4f 3e
       -0.022176227 0.15702733 0.161731 0.20260732
000080 6d 31 97 3e cc cc 05 3c 43 d8 7c 3e 7f a8 b7 3e
       0.29529896 0.008166503 0.24691872 0.3587074
000090 2a e9 e9 bc ec 57 34 3e bf c6 79 3c ae 8c 72 b8
       -0.028553564 0.17611665 0.015245139 -5.7828314e-05
0000a0 77 59 86 bd a6 40 41 ba 15 5d 78 be 34 9d e8 3d
       -0.06560033 -0.0007371999 -0.24254258 0.11358109
0000b0 46 a5 12 be 63 1d d0 3d d5 45 5d be e3 45 a9 3e
       -0.1432086 0.10161855 -0.2160867 0.33061132
0000c0 ed 28 16 be 47 75 c1 3d 4e da 70 be ba 1c 2c be
       -0.1466405 0.09446197 -0.23520777 -0.16807833
0000d0 ec 44 48 be 26 a6 39 bd 32 c3 83 bd a6 24 85 bd
       -0.19557542 -0.045324467 -0.06433715 -0.06501131
0000e0 25 c8 de bd 88 4d f6 3d f9 79 ad bd 9b 3b 1d 3b
       -0.10878018 0.12026507 -0.0847053 0.0023991826
0000f0 3b 18 a4 3c fa ed d1 3d 2a 1a a9 be 0f 21 01 3e
       0.020031085 0.102504686 -0.33027774 0.12610267
000100 7c b4 28 be 18 0a 02 3d 4c ef 47 bc c8 22 50 bd
       -0.164751 0.031747907 -0.012203049 -0.05081442
000110 f3 c5 de 3c 3c e8 4b 3d a1 ec 53 3d bc ae 0d be
       0.027193999 0.049782023 0.05173934 -0.13836187
000120 82 7e 9e be dd c8 04 be 77 e1 25 be cc ad 36 bd
       -0.30955893 -0.12967248 -0.1619929 -0.04459934
000130 a8 87 ef bc 83 be 95 bd e3 bb 06 be 43 07 dc 3d
       -0.02923949 -0.07311728 -0.1315761 0.107435726
000140 14 81 7d be 8b ea b3 be 82 8e 0b be 20 7a d0 bc
       -0.2475627 -0.3513988 -0.13628581 -0.025448859
000150 fc 4f 3b be be 45 c5 bd e0 f7 25 bd 08 fc 42 be
       -0.1829223 -0.09632443 -0.040519595 -0.19041455
000160 97 b3 8d be 79 bc 86 be 2f f6 d1 bd a9 f0 66 3c
       -0.2767608 -0.26315668 -0.10252034 0.014095464
000170 d5 d5 92 be 49 fc 57 3c 9c 55 25 be 0e 48 0e be
       -0.28678766 0.013182708 -0.16145939 -0.13894674
000180 f3 2d 8e bd ff a4 14 be 15 50 01 be c6 8d a9 bd
       -0.06942358 -0.14516066 -0.12628205 -0.08278994
000190 3e a6 90 bd ed 96 66 bd a7 a3 ba 3d 85 9e 77 be
       -0.07062958 -0.056296278 0.091132455 -0.24181564
0001a0 28 49 a9 be 83 b6 02 3d b4 af 43 be ec fc 48 be
       -0.33063626 0.031912338 -0.19109994 -0.19627732
0001b0 48 59 b5 3d 33 ea fb 3c 56 4c 9f be 7b 95 24 be
       0.0885492 0.030751323 -0.31112927 -0.16072647
0001c0 d0 12 0b 3e e7 8d 06 3e 01 8f 18 be 8c be 82 be
       0.13581395 0.13140069 -0.14898302 -0.25536
0001d0 85 75 d1 3c eb 09 0b be be 82 67 be 65 9b ed bd
       0.025568733 -0.13578002 -0.22608468 -0.11601905
0001e0 55 02 ff 3c fb 08 5a be a0 94 0b be 76 63 f4 3c
       0.031129042 -0.21292488 -0.13630915 0.029832583
0001f0 a2 0b eb 3d 8a 53 7a be f5 32 1d 3e fe 79 e2 bd
       0.11476828 -0.2444593 0.1535147 -0.110584244
000200 20 64 ff 3d 11 1f 81 3d 93 fa 60 3d 7d bb 25 3d
       0.12470269 0.063047536 0.054926466 0.040462006
000210 0b 1a 6d 3e 2b b2 0f be e2 67 af 3d 70 df 65 bd
       0.23154466 -0.1403281 0.08564736 -0.05612129
000220 95 4a 30 be c0 68 81 bc 0b ff 8e 3d f5 be 37 3e
       -0.17215951 -0.015797019 0.06982239 0.17943938
000230 2a fa 96 bd d3 32 00 3e b4 e5 ac 3e b9 00 bf 3c
       -0.07371934 0.12519388 0.33769 0.023315774
000240 e8 8a cb bd 91 7e 3c bd 93 8a 9b bd 89 a2 ea be
       -0.09938604 -0.04601914 -0.0759479 -0.4582713
000250 54 80 2a bd dc 2f e9 bd fd d2 3a be cf 75 dd bd
       -0.04162629 -0.113860816 -0.18244548 -0.10813486
000260 20 73 2a be 56 b7 4a be 3b 98 1e be a4 65 f2 bc
       -0.16645479 -0.197965 -0.15487759 -0.029589482
000270 0b 9b 90 3d 2a 7c 9f bc ae 9a 2b 3e 83 1f 14 be
       0.07060822 -0.019468386 0.16758224 -0.14465146
000280 ff ef 06 3e e0 26 70 3d 30 37 51 bd 78 1d 55 bd
       0.13177489 0.058630824 -0.05107802 -0.052030057
000290 ed 19 7f 3e de 01 60 3d 7f a1 eb bc 00 f6 f3 bd
       0.24912234 0.05468928 -0.02876353 -0.11912155
0002a0 e5 48 9b be cb cf 53 bd 16 bc d3 3b 05 f0 b8 3e
       -0.30329052 -0.05171184 0.0064616306 0.3612062
0002b0 ce a8 3f bd c4 3c 5f 3e 49 99 79 3e d7 09 61 3d
       -0.046791844 0.21800524 0.2437488 0.054941025
0002c0 7d a5 21 be 29 29 ee bd 77 a4 ee bd 40 03 b4 be
       -0.15785785 -0.116289444 -0.11652463 -0.3515873
0002d0 57 7b 36 3c 2f 26 8c be 7d 2e a2 be d4 d0 0b bf
       0.011137805 -0.27372882 -0.31676093 -0.5461552
0002e0 81 c1 3a be a8 ed f1 3c 60 3e 4b be 68 ef 77 3d
       -0.18237878 0.029532269 -0.19848013 0.06053105
0002f0 4b 96 3a be 54 6c 6a be 21 cf 83 be 5b b3 32 be
       -0.18221395 -0.22892886 -0.25743964 -0.17451231
000300 96 4c 9d 3e cb ad 76 3e b9 74 73 be e1 f2 bd 3d
       0.30722493 0.24089734 -0.23774995 0.09274841
000310 de 80 82 3e 89 75 35 bd a5 46 32 be f9 f7 3c bd
       0.25488943 -0.044301543 -0.17409761 -0.046134923
000320 1e dd e0 bd 67 82 9f bc 24 d3 52 3c f9 35 89 bd
       -0.10979675 -0.01947136 0.012867723 -0.066997476
000330 82 f3 26 3c 04 4d 10 3e 81 f3 4c 3e 3e c2 06 3d
       0.010189893 0.14091879 0.20014764 0.032900088
000340 81 e6 8f be 48 95 7e be 48 92 5d be ca b7 59 be
       -0.28105548 -0.24861634 -0.21637833 -0.21261516
000350 e3 72 99 be bb 6e fc be 7c f8 08 bf d9 04 b1 be
       -0.29970464 -0.4930323 -0.5350416 -0.3457401
000360 70 08 6e be d2 d9 75 be cb be d6 be f4 bb 3b be
       -0.23245406 -0.24008873 -0.41942438 -0.18333417
000370 9a 64 c8 3c dc 30 a0 be 8d 19 23 3d b3 36 44 bd
       0.024462033 -0.31287277 0.03981929 -0.047903728
000380 65 2f bc 3e 22 20 a8 3d 4a fb 73 bd 9c 51 1f 3e
       0.3675491 0.08209254 -0.05956582 0.15558475
000390 30 af 79 3e 7e cf 2c 3e 85 d0 ff 3c ce 3e 80 bd
       0.24383235 0.16876027 0.03122736 -0.06261979
0003a0 49 69 31 3d e6 de 39 be af f0 00 bf 36 cd 48 3c
       0.0433133 -0.18151435 -0.50367254 0.012255957
0003b0 34 10 a9 3e 89 d1 46 3b eb 90 94 be 35 e3 1e 3e
       0.33020175 0.0030337295 -0.29016814 0.1551636
0003c0 48 9c 89 3e ac 4b d1 3c 1e 56 66 3c 67 38 47 bd
       0.26877046 0.025548778 0.014058618 -0.048637774
0003d0 6a fb a9 3e b7 97 82 3c 57 5b ce 3b 25 ff 09 bc
       0.33199626 0.015941484 0.0062975097 -0.008422648
0003e0 12 f1 f9 3d 98 c7 9d 3c af e3 40 3e 64 02 a1 3e
       0.12204184 0.019260213 0.18836854 0.31447136
0003f0 43 b8 5c be 53 27 85 bd de ee 4a 3e bb ae b1 3e
       -0.21554665 -0.06501641 0.19817683 0.3470362

bias f4 [96]
000000 86 84 bf bc a9 6d 05 3e 4c 5d aa 3d cf 33 34 bd
       -0.023378622 0.13030113 0.08318576 -0.04399472
000010 35 ef a4 bd 10 92 64 3d 8a 69 a7 bb a4 5b 6f bd
       -0.080534376 0.05580336 -0.005109017 -0.058437005
000020 06 28 35 be 62 92 d2 3d 1b 09 81 3d 4c 13 a7 bd
       -0.17691049 0.102818266 0.06300565 -0.081579775
000030 15 d9 36 bd 47 56 ad bd a2 65 aa bd aa 92 34 3d
       -0.04464062 -0.08463722 -0.08320166 0.044085182
000040 97 ed e7 bd 77 3f be bc 37 61 5d bd e2 41 c4 bd
       -0.113246135 -0.023223622 -0.05404779 -0.09582879
000050 f2 b3 07 3e da 93 76 bd 20 7e 05 be 05 a0 a4 3e
       0.13252237 -0.060199596 -0.13036394 0.32153335
000060 42 59 79 bd 66 38 73 3d 79 95 99 bb bc c0 54 bd
       -0.06087614 0.059379958 -0.004687008 -0.05194162
000070 44 2d 94 bc 04 1a aa bd 54 5e 8c bb a8 65 f1 bd
       -0.01808799 -0.08305743 -0.0042837057 -0.117869675
000080 bf 88 e8 3d 1f 38 95 bd a5 89 c6 bd 89 9e 42 bd
       0.11354207 -0.07286095 -0.09694222 -0.047514472
000090 66 34 34 be 5e 32 1a 3e 2b 4e 10 bd 06 af 43 bc
       -0.17598113 0.15058276 -0.035230797 -0.011943584
0000a0 a5 15 4f bd 33 1a cb 3d 7c df 30 3e 4c ca 12 3e
       -0.05055775 0.099171065 0.17272753 0.14334983
0000b0 96 67 e5 3c ae a3 a8 bd a3 88 04 be 09 95 56 bd
       0.028003495 -0.082343444 -0.12942748 -0.052388225
0000c0 aa 9b 13 3d 0f 23 95 bd 4c 8c ce bc f1 28 b3 bb
       0.036037125 -0.072820775 -0.025213383 -0.005467527
0000d0 90 c0 42 bd a5 ef 0c 3d 9e 87 02 bd 17 e6 e2 3d
       -0.047546923 0.03440823 -0.031867616 0.110790424
0000e0 b4 00 26 3e d5 38 df 3d e5 91 ee 3b ec 32 21 be
       0.16211206 0.10899512 0.0072805756 -0.15742081
0000f0 61 4d 87 bc 75 09 4a 3b 6c bc 57 3e 44 19 4d bd
       -0.01651639 0.003082839 0.21067971 -0.050072923
000100 6c e2 01 bd ab ea ac 3e 79 8e 24 bd 59 bc 05 3d
       -0.031710073 0.33772787 -0.040174935 0.032650325
000110 0e 16 90 bd 5c 71 89 bc e9 6b e9 bc 4a 71 cb bb
       -0.070354566 -0.016777687 -0.028493838 -0.0062085735
000120 72 8b ea 3b 28 f6 e5 3b c1 5c df bd d6 97 55 3d
       0.0071577365 0.0070178695 -0.10906363 0.052146755
000130 bf 1b a6 3d fa 03 41 3e 68 e9 ba 3d 9a 48 0c 3e
       0.08110761 0.18849173 0.0912655 0.1369957
000140 fc 75 d7 bd b1 0c 69 3d 88 e9 c8 bd a2 70 90 bd
       -0.105205506 0.05689687 -0.098101676 -0.07052733
000150 32 86 87 3c 96 ac 32 3e 47 aa b4 bd ad 21 83 3e
       0.016543481 0.17448649 -0.0882154 0.2561163
000160 89 16 d9 bd bf 54 68 bc 23 4a b0 3d b0 ac 9b 3b
       -0.10600001 -0.014180361 0.086078905 0.0047508106
000170 3d 9a 86 bd 8b 01 d3 3d d1 8f 2a bd 32 ae 1f 3b
       -0.06572387 0.10303029 -0.04164106 0.0024365303

weight f4 [64, 3072]
000000 f2 5a 91 bc a4 66 b7 bc 10 47 74 3c 37 5d 6e bc
       -0.017743561 -0.02238781 0.014909521 -0.014548591
000010 4d 9d 2b 3c a9 cb 2c bb 08 17 9b bc 84 6d c6 bc
       0.010474515 -0.0026366508 -0.01893188 -0.024222143
000020 8d 7b 4a 3c d9 f7 4c bb d7 5d fa bb 83 9a 71 3c
       0.012358558 -0.0031275658 -0.007640581 0.014746311
000030 25 58 30 3c 05 87 9d bc 2b 2b 50 bc ee c2 25 bb
       0.010763203 -0.019229421 -0.012705605 -0.002529319
000040 57 66 9d 3b 91 07 2e 3b fc b5 9e bc c0 95 d4 3b
       0.0048034596 0.0026554803 -0.019373886 0.006487578
000050 e8 8a 1c 3c 5e 2c ce 3b b6 cd f1 3b 49 37 68 3b
       0.009554602 0.00629191 0.007379259 0.0035433343
000060 5a 86 77 ba c7 29 4a 3c 03 c6 89 3c ec 06 c2 3b
       -0.0009442322 0.012339062 0.016818052 0.0059212353
000070 3b fc 42 bc 75 29 0f bd c6 c4 02 bd bf 96 a5 bb
       -0.011900957 -0.034951646 -0.03192594 -0.0050533707
000080 dd 1f 20 3c 02 25 5e bb 45 73 52 3c be 95 88 bc
       0.009773222 -0.003389657 0.012844865 -0.016672965
000090 c2 27 ee bb 69 bd ae 3b 54 31 0e bc b9 de c0 bc
       -0.007267923 0.005332638 -0.008678753 -0.023543702
0000a0 8f 6e 18 3c 19 a6 40 bc 1d bb cc bc 91 f0 d5 bb
       0.009303703 -0.011758351 -0.024991566 -0.006528922
0000b0 d1 25 ab 3b 51 31 e4 ba e0 02 87 bc 06 58 45 3b
       0.005223014 -0.0017409717 -0.016480863 0.003011228
0000c0 66 dd 2c bc ed 5b 08 bc aa ca 8a b9 dd 87 83 bc
       -0.010550832 -0.008322698 -0.00026472408 -0.016055996
0000d0 e1 da 9c bc dd 13 cb bc 10 d7 f5 bb 0e 68 a1 bc
       -0.019147338 -0.024789745 -0.007502444 -0.019702937
0000e0 3b 84 5a 3a 2a 96 66 bb 16 79 38 bb 1e cc 59 bc
       0.0008335744 -0.003518472 -0.0028148345 -0.013293294
0000f0 30 e0 0a 3c c9 95 f8 bc d5 9a 41 3b 08 65 2b 3b
       0.008476302 -0.03034486 0.002954175 0.0026152749
000100 cb 56 80 bc 7b 39 f7 bc b6 e3 94 bc b6 b0 27 bd
       -0.015666386 -0.030178776 -0.018174987 -0.04094001
000110 76 0a b9 bc 58 69 54 bc f5 64 a5 bb 18 5b ad bc
       -0.022587996 -0.012964569 -0.0050474354 -0.021161601
000120 14 61 6f bc ed 49 4c 3b 10 c9 9d bb 47 77 c4 bb
       -0.014610548 0.0031171993 -0.0048152283 -0.0059956643
000130 76 88 11 bc d5 83 4c bd 21 df a8 bc 1c ab 1b bb
       -0.0088826325 -0.049930412 -0.020614209 -0.0023753112
000140 d3 b9 84 bc c7 4f d5 bc ab c5 a1 bc 8b 6a 80 bb
       -0.01620189 -0.026039017 -0.019747576 -0.003918951
000150 bd ad cc bc 3d 6e 78 bc 4c 19 a1 bc 11 70 9d bc
       -0.024985189 -0.015163002 -0.019665383 -0.019218476
000160 3a 42 d0 bb 6e 2e 2d bd a4 c3 3e bd 49 72 48 bd
       -0.006355551 -0.042280607 -0.046573296 -0.048937116
000170 02 06 a0 bc b8 49 51 bc e5 96 84 bc 65 a9 05 ba
       -0.019534115 -0.012773924 -0.016185233 -0.0005098789
000180 ac 00 26 3c 83 59 4f bc 74 7b 1f bc 3c 53 0a bc
       0.010131996 -0.012655619 -0.009734023 -0.008442696
000190 e0 05 48 bc d9 0e d0 bb 5a f6 02 bc 15 5b 41 3c
       -0.012208432 -0.006349426 -0.007993305 0.011801501
0001a0 92 36 24 b9 78 10 03 3c 48 21 c7 bb 40 51 34 3c
       -0.00015660588 0.007999532 -0.0060769655 0.0110057
0001b0 44 b8 c4 bc c2 8b 79 bc ca e7 d1 ba 8b 5b 61 bc
       -0.024013646 -0.015231075 -0.0016014513 -0.013754736
0001c0 0f b1 b0 bb 10 bd 8f bc ca 7c 3e 3b 01 7b 4c 3b
       -0.005392201 -0.017546207 0.002906608 0.0031201246
0001d0 b7 87 86 3c 49 a0 51 3c 8f 1d 45 bb 98 c6 85 bc
       0.016422136 0.012794563 -0.0030077433 -0.016330048
0001e0 bf d2 40 3b 0f dd 09 bc 3e 09 5b bc d9 60 4d 3c
       0.002942249 -0.008414521 -0.013368903 0.012535297
0001f0 0c 02 96 bc 26 d9 b2 3b e3 a9 8c 3b 29 25 93 3b
       -0.018311523 0.005458015 0.004292713 0.004490514
000200 65 43 6e bb d0 8d 28 3c d9 d8 1a bc ef 66 83 bb
       -0.0036356088 0.010287717 -0.009451115 -0.0040100734
000210 e9 4e b0 b9 01 98 63 bb 14 ea a6 bc c5 d8 2e b9
       -0.0003362813 -0.0034728053 -0.020375289 -0.00016674686
000220 fe 5b 95 3b 5a 8e 0c bc 73 51 9c bc dd d0 ee 3b
       0.0045580855 -0.008578861 -0.019081807 0.007288082
000230 f0 ce bb bc 8d 98 9f bc 2c 3c 9d bc ee 7e 2c 3c
       -0.022925824 -0.019481922 -0.019193731 0.010528309
000240 80 fa aa bb 60 fa c6 3a 43 26 2e 3c f8 ed 84 bb
       -0.00521785 0.0015180819 0.0106292395 -0.0040566884
000250 fb 97 54 bc 2f f9 b2 bb 10 e0 76 ba a5 72 45 bc
       -0.012975688 -0.005461834 -0.0009417543 -0.012051259
000260 7c 4f 14 3b 37 f1 ea 3a 1b 86 0a 3c 68 0f a9 bc
       0.0022630384 0.0017924671 0.008454825 -0.02063723
000270 1a 0d 90 3a 39 fa 42 3c 17 17 09 3b 0e d6 83 3b
       0.0010990233 0.011900478 0.0020918304 0.00402332
000280 75 d6 1f 3c 1e ff fa 39 b6 18 14 3b 36 a7 b6 bc
       0.00975572 0.00047873793 0.0022597737 -0.02229653
000290 32 cf 3f bc fa b9 30 3c 11 69 08 3c 93 82 48 39
       -0.011707114 0.010786528 0.008325831 0.00019122129
0002a0 bf 86 2b bc 2f 05 7d 3c 41 6a 3f 3c a6 19 3d bc
       -0.010469138 0.01544313 0.011683048 -0.01154176
0002b0 5b a5 a0 bc ce 64 06 3b 7d fb 2c bc a7 ee 38 3a
       -0.019610098 0.0020506862 -0.010558006 0.0007054605
0002c0 3b 57 d8 bb 8d 33 70 bc d2 bf b3 3b 02 94 01 bb
       -0.0066021956 -0.014660728 0.0054855132 -0.0019772057
0002d0 8b e0 d8 3b 85 f0 84 bb 0a 1a 9f bc af f7 60 3c
       0.0066185645 -0.0040569925 -0.019421596 0.013730927
0002e0 6e 32 15 3c 9b fd 91 bc 66 a7 82 3c df 0f 55 bb
       0.009106262 -0.017821124 0.015948962 -0.003251068
0002f0 d0 fc 00 bd 20 ce 12 bd 8e 25 96 bb 92 05 8c 3b
       -0.0314911 -0.035841107 -0.0045821136 0.004273125
000300 5c 95 0a 3c d2 5f a7 bc 94 93 84 3b d7 b4 2d bc
       0.008458462 -0.020431433 0.004045913 -0.010602198
000310 10 5b c1 bc fe bb 98 bb 73 46 c8 bc 9b c6 27 3c
       -0.023602992 -0.0046610823 -0.024447655 0.010240222
000320 42 b2 04 3c 42 5b 47 3c bf a6 22 3c 5c 6c 0b 3c
       0.008099141 0.012167754 0.009927451 0.008509722
000330 4f 5f ef 3b 2d 34 1a bc c9 97 8b bc 0e ae dc bb
       0.007305063 -0.009411854 -0.01704015 -0.006734616
000340 f4 e9 65 3c 90 82 90 b9 8f 45 58 bc 48 03 57 bc
       0.01403283 -0.00027563097 -0.013200178 -0.013123341
000350 1c 67 93 bc a4 f9 80 bc 85 43 36 bc a5 d2 b6 bc
       -0.017993502 -0.015744038 -0.011124496 -0.02231724
000360 60 d8 85 bc ed 16 48 bc 52 05 6f bc 59 a9 2e bb
       -0.016338527 -0.012212497 -0.014588671 -0.0026651232
000370 a3 2e 5a bc c8 79 54 bb 67 58 8a bc 13 9f ae bc
       -0.013316783 -0.003242122 -0.016887857 -0.021316087
000380 20 6b a7 bb 9c 5b 0f 3c 68 c9 8b bc 81 46 2f bb
       -0.005109206 0.008749869 -0.017063811 -0.0026744904
000390 47 e9 9a ba b0 c0 08 ba 51 c4 ae 3c 0c fe 83 bc
       -0.001181879 -0.0005216701 0.021333845 -0.01611235
0003a0 8d ad a9 bc d0 29 f2 bb b1 13 05 bc 02 c5 97 3b
       -0.020712638 -0.0073902383 -0.008122371 0.0046316395
0003b0 61 68 ef 3a 16 23 04 3b f2 bb 32 bc 94 c9 2b bc
       0.001826536 0.0020162514 -0.0109090675 -0.010485072
0003c0 04 81 33 bc fd 9f 9c bc a5 0f 03 bc 66 d1 68 bc
       -0.010956053 -0.019119257 -0.007999335 -0.014210081
0003d0 da 0e a3 bc c4 6c 0e bc 84 4c 5d b9 09 8a b4 bb
       -0.019904543 -0.008692924 -0.00021104707 -0.005509619
0003e0 cb 52 04 3c ac e0 41 3b 33 d9 a2 bc 00 6b 69 bb
       0.00807638 0.0029583378 -0.01987896 -0.0035616755
0003f0 41 d8 5f bc f6 94 74 bc 8a ba a9 3a 3d 0b ba ba
       -0.013662399 -0.014928093 0.001294927 -0.0014194023

bias f4 [64]
000000 4b 75 b3 bb 63 18 ba bc 7d 43 ae bc 78 7a 95 bc
       -0.005476629 -0.022716707 -0.021272415 -0.018246874
000010 8a 9f d1 bd 8e 8f 78 3e b1 0e e2 bc 58 f6 04 bd
       -0.10235508 0.24273512 -0.027594896 -0.032461494
000020 9d 5f e2 bc fa 5d 86 bc fb a8 68 bd e4 60 95 bd
       -0.027633483 -0.016402233 -0.056801777 -0.07293871
000030 ed 03 05 be 46 b3 89 bd 32 e1 4e bd a6 dd c8 3e
       -0.12989779 -0.06723647 -0.05050773 0.39231604
000040 40 29 ca bb 6f e8 0c bc af 7e ed bb d8 60 31 bc
       -0.006169468 -0.008600338 -0.007247768 -0.010826312
000050 a9 b5 e2 b9 46 ce d9 3a ed 52 70 bd 1a cc ba 3e
       -0.00043241426 0.001661726 -0.058672834 0.36483842
000060 41 cb 94 3e 5e e0 d4 bb 66 e0 52 be f0 83 da bc
       0.2906132 -0.006496473 -0.20593414 -0.02667424
000070 02 26 54 bd 23 4e d6 3b d2 73 17 bd 38 bb 1c bc
       -0.05179406 0.0065400763 -0.03697569 -0.009566121
000080 b3 a0 8b 3b 9b 27 a8 bc 4c 15 14 bd ef 8a 29 be
       0.0042611 -0.020526698 -0.036153123 -0.16556905
000090 21 0d 42 bd c0 50 22 3c 2c 31 0b 3c ac 20 a9 bd
       -0.047375802 0.009906948 0.00849561 -0.08258185
0000a0 9f c1 74 be 53 14 c1 3d 85 1d ea bc 9e 8a 20 bc
       -0.23901986 0.09427705 -0.02857853 -0.009798674
0000b0 79 eb 2b bd 01 19 c3 bc 05 3e b7 bc f3 4b 72 bc
       -0.04197261 -0.023815634 -0.02236844 -0.0147886155
0000c0 cc e6 a2 3b 26 c5 d1 ba 33 7a 81 bd ff d5 86 bd
       0.004971361 -0.0016004189 -0.06322136 -0.06583785
0000d0 f5 2f d1 bc d9 da 46 bd f1 4f bd 3b c6 b9 c6 bb
       -0.025535563 -0.048548553 0.005777352 -0.0060646264
0000e0 23 3c 9d 3d d2 d3 bb bc ca 92 b5 bc 6f b8 d6 39
       0.07677486 -0.022928152 -0.022164721 0.00040954674
0000f0 43 e0 85 bc 79 00 24 bc 45 30 78 bc 38 bd 9e b9
       -0.016342288 -0.010009878 -0.015148227 -0.00030277087

weight f4 [25, 64]
000000 5e bb 78 3d cd ee 4d bc 56 48 ae bd 02 08 f5 3c
       0.060725562 -0.012569142 -0.08509891 0.029911045
000010 ac e4 fa ba 4f e9 16 3e bf ee 69 bc a0 41 30 3d
       -0.0019141636 0.14737438 -0.014278113 0.043031335
000020 d1 82 5a bd 10 9c d7 bc 54 50 96 bc cf ef 9a bd
       -0.053347412 -0.026319534 -0.01834885 -0.07565271
000030 01 0f 2d bd 5e 97 03 be 2a 05 f2 3c e7 10 7d be
       -0.042250637 -0.12850711 0.029543478 -0.24713479
000040 55 fa 81 3d f8 b5 b6 3d 0f f9 d3 bd 5b 91 bb 3d
       0.06346575 0.089214265 -0.103502385 0.09158584
000050 07 ac 7a 3d 2d 87 04 3e 85 da d5 ba 9f 6d 3b 3d
       0.061199214 0.1294219 -0.0016315734 0.04575884
000060 58 58 84 3e e6 81 da 3c 52 04 b4 3c c0 86 89 3d
       0.2584865 0.026673269 0.021974716 0.06715155
000070 c1 97 76 3c 3f bb c7 bd 10 a0 ab bd a2 b6 8e bb
       0.015050829 -0.09752511 -0.08380139 -0.0043552676
000080 18 9f a4 3d 29 b3 a6 3c c3 3e 33 3c d7 3f b7 be
       0.08038157 0.020349102 0.0109402565 -0.35790893
000090 a8 17 ed 3a 01 b9 86 bc c8 06 90 bd 4d 1b 8a be
       0.0018088715 -0.016445639 -0.070325434 -0.26973954
0000a0 96 e5 95 bd b4 94 ea bb 32 4f 0b 3d 5a 99 96 b9
       -0.07319181 -0.00715884 0.034011073 -0.00028724485
0000b0 79 b5 81 bc c4 e0 88 bd 8b 60 cc bd d7 59 bd bd
       -0.015833603 -0.06683496 -0.099793516 -0.09245651
0000c0 17 25 c6 3d f0 2c f0 3d 55 b7 27 bc f0 06 c9 bd
       0.09675043 0.11727321 -0.010236581 -0.09815776
0000d0 84 79 a0 bd a7 a4 be 3c b7 79 80 3d 8e 0f 8b bd
       -0.07835677 0.023271872 0.06273215 -0.06790076
0000e0 61 ca 93 be de 22 67 bd 3b 68 f1 3c 3b f9 9e bd
       -0.2886534 -0.056429736 0.029468646 -0.07762381
0000f0 06 e6 bc bd fb e5 e7 bd fc 31 10 bb 1e f9 af bd
       -0.09223561 -0.11323162 -0.002200245 -0.08592437
000100 53 e7 40 bd aa 26 c4 3d ac b8 c7 3d 5b f6 23 3d
       -0.047095608 0.09577687 0.0975202 0.040029865
000110 da f4 ca bd 50 4e eb be 1f 3d 7d bd 88 75 8a bd
       -0.09909983 -0.45958185 -0.061825868 -0.067606986
000120 aa f7 b2 3d 27 72 90 3c 36 08 ae bd 1b b2 29 be
       0.087386444 0.017632557 -0.0849766 -0.16571848
000130 ee 69 38 3b 5a 61 83 bd 72 55 d1 3c e6 0d 98 bd
       0.002813931 -0.06415053 0.025553439 -0.07424526
000140 b9 19 88 bd 52 7f d9 bd d5 3d 7c 3c 86 3d c4 bd
       -0.06645531 -0.106199875 0.015395601 -0.09582047
000150 31 08 a1 3b e6 38 ae bc 88 50 c6 3c b0 cb 62 be
       0.0049143066 -0.021267366 0.024208322 -0.22148013
000160 cf 5b 24 bd 25 70 da 3d cd 34 a0 3d 15 75 d2 bd
       -0.040126618 0.10665921 0.07822571 -0.10276238
000170 96 7a b6 3d 43 4e 00 be 76 08 4c 3c cf 0f 39 bd
       0.089101 -0.12529854 0.012453189 -0.045181092
000180 e7 63 b1 bd 1b 17 a8 3d 9a c6 05 3c 30 28 23 3e
       -0.08661633 0.08207532 0.008165026 0.15933299
000190 5b d0 43 bd c5 a4 5a bd 38 0b 8b 3d 92 44 19 be
       -0.047806125 -0.053379793 0.06789249 -0.14967564
0001a0 8c 1e 32 3d 39 53 0f bf 2c c7 f4 3c 8c 0e d4 bd
       0.043486163 -0.5598636 0.029880129 -0.10354337
0001b0 0f b6 0c be 1e 9f 8a 3d 08 ef 19 3c a5 a6 aa bc
       -0.13741325 0.067686304 0.009395368 -0.020831415
0001c0 ec 76 ca 3d 8e cc ec 3d 50 db b9 3d f6 04 bc 3c
       0.09885964 0.11562453 0.09075034 0.022951584
0001d0 18 ea b4 bc 17 f0 b4 bd 94 f8 87 3d 0b 59 cc 3d
       -0.02208428 -0.08834856 0.066392094 0.09977921
0001e0 76 c6 ee bc a9 64 90 3d 8c 8f e6 bc b2 da ca 3c
       -0.029147368 0.070504494 -0.02814462 0.024762485
0001f0 6a df 1e 3d 43 7d 4b bd d3 6e 10 3d 60 6d cd 3a
       0.038787283 -0.049680006 0.03526194 0.0015672855
000200 47 55 fb 3d 16 ac 7c 3d cd bd ff ba 39 bc 05 3c
       0.12272125 0.06168755 -0.0019511521 0.008162552
000210 8e 4c 49 3d 23 f8 5e 3c 93 b7 e1 3c ae f2 80 bc
       0.049145274 0.013608965 0.027553355 -0.015740719
000220 7f 34 01 3d 05 fd 2e 3d ae e7 bd 3c 7b 88 11 3e
       0.031544205 0.042721767 0.023181763 0.1421222
000230 ab aa 34 be 2e b1 ce bc c2 36 46 3d 9e a3 d5 be
       -0.1764323 -0.02523097 0.048392065 -0.41726393
000240 f1 38 d4 bd b3 67 f1 bc 13 94 f7 bd c0 f0 af bc
       -0.10362423 -0.029468393 -0.1208879 -0.021477103
000250 3b e7 d4 bd 67 99 87 3d 2e ad 40 bd 47 27 1b 3e
       -0.10395666 0.06621056 -0.047040157 0.15151702
000260 ff cc 9a 3e 69 5e 4a 3d 75 b6 63 be 09 27 9b bc
       0.30234525 0.049406443 -0.2223757 -0.018939512
000270 22 ca 3f 3d 77 2c ef bd 4c 17 15 bd 82 37 88 bd
       0.04682363 -0.11678403 -0.03639917 -0.06651212
000280 a7 41 8b b9 fe e1 ca 3d 2c f7 bc 3d 94 57 e3 3c
       -0.0002656106 0.09906386 0.09226832 0.027751721
000290 e2 53 03 3e da 7e b0 bb b5 3f a7 3d 2c 4a 5c be
       0.12824968 -0.0053862156 0.08166448 -0.2151267
0002a0 05 ba 3e be b0 f1 3b 3e 73 09 aa bd bd 29 8c bd
       -0.18625648 0.18353915 -0.083025835 -0.068438984
0002b0 4c 5a 0e bd 4a af a9 3d b6 1b 79 bd a2 6a 0a 3c
       -0.034754083 0.08285387 -0.060817443 0.008448275
0002c0 cc 55 7c bd 4d 93 e6 bd 04 df b3 bd 10 fa 97 bd
       -0.06160526 -0.11258564 -0.08782771 -0.074207425
0002d0 f5 7b a8 3d 0c 9f ad 3d d8 4d be bd 55 d8 e7 3d
       0.08226768 0.084776014 -0.09292191 0.11320559
0002e0 0a d5 82 be d4 a7 e7 bd b5 24 f2 3c 8a 43 36 3d
       -0.2555316 -0.113113075 0.029558519 0.044498004
0002f0 46 49 44 3d 08 51 e1 3d 98 98 ed bd e5 e8 4d bd
       0.04792144 0.110017836 -0.116013706 -0.050270934
000300 14 62 93 3c 71 df dc bc 28 a1 bf 3c a3 ff 1f bd
       0.017991103 -0.026962014 0.023392275 -0.039062154
000310 36 8e 40 bd 8b b7 a7 be fe e7 43 3d f5 4a e8 bc
       -0.047010623 -0.3275722 0.047828667 -0.028356055
000320 42 74 a3 3d e3 9c ff 3d e9 cb ed bc 49 69 31 be
       0.07981159 0.12481096 -0.029027896 -0.1732532
000330 e1 ec 6f 3d 84 92 17 be ba 3a bf bd 44 14 e1 be
       0.058575515 -0.14801985 -0.09337373 -0.43960774
000340 af 2c b3 bd 98 a5 bb bd 8c eb 92 bd 6e ab 95 ba
       -0.08748757 -0.09162444 -0.07173833 -0.0011418888
000350 2e a8 97 bd 67 69 ee bd 8f 24 24 3d fa b9 f5 bb
       -0.074051246 -0.11641198 0.040073927 -0.007498977
000360 33 6c ba 3c 7d ec 3a bc ef c3 95 bd 16 2a 52 3d
       0.022756672 -0.011408922 -0.07312762 0.051309668
000370 b0 a6 e0 bd 2b 08 ce 3d 5a ad 18 be cd 4f 25 3d
       -0.10969293 0.10060152 -0.14909878 0.040359307
000380 a5 a1 7b 3d ff fc be bd 84 4a cd bc 9a e8 83 bd
       0.061433453 -0.09325599 -0.025059946 -0.064408496
000390 40 84 d5 3d cd ad cf 3d 22 c6 36 3d 39 b9 d5 bd
       0.10425615 0.10140572 0.044622548 -0.10435719
0003a0 30 c1 66 3e 26 d2 31 be 2e f5 b6 bc 49 19 d9 bd
       0.22534633 -0.17365322 -0.022333708 -0.10600526
0003b0 27 5f 68 3c b4 f9 bc bd 99 47 71 bd 2e 3f 92 3b
       0.014182842 -0.092273146 -0.05890617 0.004463098
0003c0 7f c3 da bd 39 7a ae bd 90 d9 38 3d b5 96 77 3d
       -0.10681819 -0.08519406 0.04512936 0.06044646
0003d0 18 d3 ec 3c 2b 2e 34 3c 9f 02 ba bd 1a f5 f2 3c
       0.028909251 0.010997335 -0.09082531 0.02965789
0003e0 14 ea 8c 3d 0a 8f 5d 3d dd 64 e6 bd df 55 40 3d
       0.06880584 0.05409149 -0.11249707 0.046956893
0003f0 ec d2 dc 3d 7a 89 01 bc fc d8 cf 3d 33 85 4c bc
       0.10782418 -0.007906312 0.10148808 -0.012482929

bias f4 [25]
000000 9c 56 ef bd ec d4 f6 3c 1c a7 33 3e f8 09 86 be
       -0.11686441 0.030130826 0.17544216 -0.2617948
000010 f9 69 d6 3d 5a 8a b3 3d 73 1f c6 3e 26 57 5b 3e
       0.104694314 0.08766623 0.3869587 0.21419963
000020 18 f9 e4 3d 46 55 3b 3e 49 4a c8 3e f9 a7 b1 3e
       0.11180323 0.18294248 0.39119175 0.34698465
000030 52 69 c8 3e f1 9c f4 bd 3d be 80 3d b1 0c b2 3d
       0.39142853 -0.11943997 0.06286285 0.08693827
000040 66 38 b6 3c f9 7a 9b bc a4 c2 9c be f6 50 e1 bd
       0.02224369 -0.018979536 -0.3061725 -0.1100177
000050 5a 8c a6 3d f0 46 0d bf be 3c 58 bd 85 4b 29 be
       0.08132239 -0.5518637 -0.052792303 -0.16532715
000060 12 3d 9f be
       -0.3110128
