result/config6/preliminary_model38.pt (torch_old, 996807 bytes, 8 tensors)

weight f4 [24, 2, 192]
-0.34314978 0.1347114 0.24415079 0.28545853 0.13928702 -0.25718725 -0.042661123 -0.24684906
-0.12694232 -0.4622646 -0.12685533 0.14366277 -0.01635019 -0.52418035 -0.12404809 0.3263106
0.35000446 0.17519149 -0.17513233 -0.15828986 -0.059069548 0.016540343 -0.45248353 0.012146039
0.34943768 0.39889428 0.25630954 0.38365948 0.5540353 0.59029084 0.44813994 0.33458254
0.06407221 0.32887572 0.40896735 0.680723 0.24067885 0.16822185 0.2427603 -0.14560314
0.30779696 0.23106743 -0.23668021 0.30949727 0.5203536 0.28782484 0.1479019 -0.24303581
0.12543859 -0.06301708 0.06797512 0.09967031 -0.095608726 0.15630892 0.0066700154 -0.13837379
0.07481861 0.1320237 0.058886796 -0.4483507 -0.49111685 -0.16894227 -0.37797782 -0.23589863
-0.2162433 -0.17661881 -0.22158328 -0.1750385 0.034231495 0.013820805 0.32333854 0.43615445
0.2687554 -0.03924745 -0.18154463 -0.42347226 -0.4873507 0.021781046 -0.05690647 -0.21698791
0.03704734 -0.3135333 -0.14095819 0.084146895 0.0010315201 -0.08495606 -0.08685825 -0.31295252
-0.50394446 -0.38499457 -0.2776803 -0.054612484 0.111100286 0.16758108 0.08437477 0.66356087
0.44938156 0.17579402 -0.06992521 -0.109458014 0.15331845 0.026322333 0.22414614 0.20969035
0.25288588 -0.05265199 0.08049815 0.15865414 0.10955517 0.04224446 0.3131875 0.17826341
0.049275488 0.16563259 0.36482537 0.34532046 -0.05277609 0.00927364 -0.45439354 -0.07026155
-0.17078567 0.07931553 0.45878223 0.5901575 0.32072508 -0.1341883 0.53413063 0.23069505
0.124123715 0.23249419 0.75046813 0.6303884 0.46146703 0.11068097 0.098355606 0.29077482
-0.10717458 0.23479164 0.19356823 0.40040225 -0.085202485 -0.0028070915 0.32335624 0.14846198
-0.0118944645 0.19921558 0.048779693 -0.18669932 -0.21416648 -0.2422828 -0.135312 0.11025301
-0.07275915 -0.4722508 -0.40242302 -0.33663896 -0.20862317 -0.63493943 -0.23866543 -0.3254464
-0.14274028 -0.09378226 -0.47984812 -0.46584633 -0.35751817 0.08202546 0.2002797 0.20056643
0.08107023 0.05016403 -0.02402614 -0.009969799 0.08732672 0.021514222 0.095941745 0.3676401
0.29238778 -0.11294856 -0.22172642 -0.123514116 -0.32163402 -0.19499786 -0.008816602 -0.028957097
0.12912132 0.08726669 -0.22216474 -0.15806442 -0.17596708 -0.16517453 0.13023716 -0.18335631
-0.10653476 -0.27134082 -0.5209943 0.2726569 -0.33244562 -0.32742852 -0.096996054 -0.39757535
-0.12667546 -0.103567325 0.11772557 -0.20069912 -0.115655586 0.34490833 0.33099073 0.26771933
0.59561 0.4952813 0.36021766 0.59516156 0.4061757 0.40642717 0.5569934 0.45361552
0.18986538 0.2011524 0.06028669 0.026105428 0.64169425 0.16790468 -0.07999406 -0.09876175
0.20025457 0.6501868 -0.04797917 -0.13350157 0.12814035 0.26512498 0.27562138 -0.2554646
-0.2501069 -0.29074895 0.028850116 0.40580562 -0.108871415 -0.009539143 0.14036001 -0.103990376
-0.6157419 0.1357301 -0.27865034 -0.5934523 -0.29717994 -0.47345865 -0.02620509 -0.18284848
-0.3222954 -0.431711 -0.33472 -0.26617342 -0.518371 -0.5127132 -0.2333102 -0.60837084
00000000: 54b1 afbe c9f1 093e aa02 7a3e 9f27 923e
00000010: 42a1 0e3e 0cae 83be 6ebd 2ebd 00c6 7cbe
00000020: 2bfd 01be f2ad ecbe 5de6 01be 551c 133e
00000030: d5f0 85bc af30 06bf ed0c febd 2f12 a73e
00000040: c933 b33e 6665 333e e455 33be bd16 22be
00000050: e9f2 71bd 9d7f 873c ecab e7be 2e00 473c
00000060: 7fe9 b23e df3b cc3e 013b 833e 046f c43e
00000070: 42d5 0d3f 4d1d 173f 9972 e53e 674e ab3e
00000080: 4a38 833d 6662 a83e 2b64 d13e dd43 2e3f
00000090: 8474 763e 5942 2c3e 2896 783e fd18 15be
000000a0: 9097 9d3e f19c 6c3e 4c5c 72be 6d76 9e3e
000000b0: e535 053f c75d 933e 9873 173e 61de 78be
000000c0: f972 003e 190f 81bd 8a36 8b3d f31f cc3d
000000d0: 82ce c3bd 720f 203e 2590 da3b dcb1 0dbe
000000e0: 803a 993d 3931 073e 4833 713d 398e e5be
000000f0: ab73 fbbe 34ff 2cbe 4f86 c1be 698f 71be
00000100: e26e 5dbe 90db 34be bae6 62be 4b3d 33be
00000110: 5336 0c3d a870 623c a18c a53e a34f df3e
00000120: 4f9a 893e efc1 20bd d6e6 39be 5bd1 d8be
00000130: 0886 f9be 2a6e b23c c216 69bd 1432 5ebe
00000140: f4be 173d 7087 a0be 5857 10be 3555 ac3d
00000150: 1234 873a 71fd adbd bde2 b1bd 503b a0be
00000160: 8102 01bf 021e c5be 1d2c 8ebe 57b1 5fbd
00000170: 8c88 e33d 609a 2b3e aecc ac3d 20df 293f
00000180: 5715 e63e 5903 343e f334 8fbd 862b e0bd
00000190: 83ff 1c3e efa1 d73c 9186 653e 11b9 563e
000001a0: 427a 813e 9da9 57bd 37dc a43d 3b76 223e
000001b0: 765e e03d 8708 2d3d 1d5a a03e af8a 363e
000001c0: 18d5 493d 979b 293e 64ca ba3e d8cd b03e
000001d0: be2b 58bd 77f0 173c 45a6 e8be 4ae5 8fbd
000001e0: 70e2 2ebe 2e70 a23d 81e5 ea3e 9014 173f
000001f0: 1436 a43e a868 09be c9bc 083f 533b 6c3e
00000200: 9334 fe3d f512 6e3e ae1e 403f 2261 213f
00000210: 6845 ec3e b4ac e23d aa6e c93d 70e0 943e
00000220: 597e dbbd 386d 703e c036 463e 8601 cd3e
00000230: a47e aebd 2ef7 37bb f38e a53e 6b06 183e
00000240: 00e1 42bc 2bff 4b3e 37cd 473d 1b2e 3fbe
00000250: 754e 5bbe fb18 78be 3b8f 0abe 55cc e13d
00000260: c002 95bd dbca f1be 640a cebe f15b acbe
00000270: 50a1 55be 648b 22bf b664 74be e9a0 a6be
00000280: 822a 12be ea10 c0bd a7ae f5be 6983 eebe
00000290: 9f0c b7be f7fc a73d 1f16 4d3e 4961 4d3e
000002a0: 2608 a63d cc78 4d3d 78d2 c4bc 5e58 23bc
000002b0: 5ad8 b23d 983e b03c 1b7d c43d 533b bc3e
000002c0: dab3 953e 9351 e7bd 400c 63be f8f4 fcbd
000002d0: 37ad a4be 85ad 47be 8273 10bc 6f37 edbc
000002e0: 6138 043e e1b8 b23d 277f 63be a4db 21be
000002f0: b730 34be 8323 29be e45c 053e c2c1 3bbe
00000300: e52e dabd 2fed 8abe e25f 05bf af99 8b3e
00000310: 5036 aabe b6a4 a7be dea5 c6bd ff8e cbbe
00000320: 36b7 01be 1b1b d4bd 1b1a f13d 1284 4dbe
00000330: d6dc ecbd d397 b03e 9e77 a93e 8212 893e
00000340: e679 183f 8395 fd3e 736e b83e 825c 183f
00000350: 43f6 cf3e 3917 d03e 1f97 0e3f 4b40 e83e
00000360: 126c 423e e5fa 4d3e 2def 763d 0ddb d53c
00000370: 1346 243f 34ef 2b3e edd3 a3bd 9a43 cabd
00000380: 890f 4d3e a472 263f ce85 44bd a3b4 08be
00000390: 3937 033e 76be 873e 3f1e 8d3e 42cc 82be
000003a0: 030e 80be 0cdd 94be 1457 ec3c c1c5 cf3e
000003b0: faf7 debd 114a 1cbc 89ba 0f3e e8f8 d4bd
000003c0: 43a1 1dbf d5fc 0a3e 42ab 8ebe 7dec 17bf
000003d0: f827 98be 2c69 f2be 0fac d6bc a23c 3bbe
000003e0: e703 a5be 3909 ddbe 6b60 abbe e247 88be
000003f0: f6b3 04bf 2c41 03bf dee8 6ebe 31be 1bbf

bias f4 [24]
-0.1634239 -0.38709164 -0.5175919 -0.41354495 -0.36117506 -0.32357302 -0.28339803 -0.42047507
-0.636765 -0.2884421 -0.4667508 -0.28542876 -0.54662544 -0.35673693 -0.48707885 -0.3735066
-0.48263022 -0.37548143 -0.38530123 -0.48848477 -0.38686195 -0.45277885 -0.2275018 -0.41176745
00000000: 9858 27be e030 c6be e780 04bf 2abc d3be
00000010: f0eb b8be 5dab a5be 8c19 91be 8248 d7be
00000020: 0803 23bf afae 93be f6f9 eebe b823 92be
00000030: a5ef 0bbf 39a6 b6be 6662 f9be 423c bfbe
00000040: 4f1b f7be 1a3f c0be 3446 c5be ad1a fabe
00000050: c512 c6be a1d2 e7be 3bf6 68be 2fd3 d2be

weight f4 [96, 24, 16]
0.022394465 -0.24192531 0.05614036 0.107556574 0.1280075 -0.5553684 0.21460927 -0.19248667
-0.5776834 0.07250373 -0.105123036 0.098339915 -0.3445361 0.25681743 0.16690417 -0.2634757
0.223889 -0.22134711 0.0132652 -0.2095948 0.562351 -0.21932657 -0.04373654 -0.487012
0.15056473 -0.2907601 0.28955147 0.08865323 -0.05594064 0.013845225 0.4242363 0.30749872
0.4968132 -0.15801504 0.3085951 0.40587795 0.002063539 0.041633733 0.22716634 -0.007197446
-0.14891146 0.22913173 -0.23950519 0.27776974 -0.625908 0.4055649 -0.32443142 0.68415076
-0.48139414 0.033526648 -0.2917361 -0.31329352 -0.043221094 -0.12378106 -0.40514252 0.13213797
-0.22165447 0.038371995 -0.110371985 0.072168164 0.14870396 0.1296468 -0.56483656 0.27129346
-0.2549198 -0.030276904 0.08580151 -0.3557593 -0.08964899 0.23479751 -0.31535766 -0.2580268
-0.3094871 -0.090018146 -0.48278058 0.11274487 -0.17630565 -0.4692278 -0.2840249 0.33836198
-0.4687205 -0.52129686 -0.046154108 -0.31275263 -0.3225907 -0.5087945 0.035525996 -0.41487542
-0.5557904 -0.48501763 0.1438605 -0.08888304 -0.40918875 -0.17743452 -0.10103546 -0.14041848
0.0736035 -0.32866746 -0.27231354 -0.20606954 -0.42863622 -0.060224168 0.47479945 -0.3486776
-0.33210784 -0.08859455 -0.41710716 -0.08298448 0.0863693 -0.011807723 -0.63086814 -0.43755868
-0.26777282 0.37128928 -0.3636084 -0.3136668 -0.086424515 0.16090341 -0.5457278 -0.023734873
0.18253377 -0.38998064 -0.20613079 -0.12714021 0.069986016 -0.47479922 0.15734878 -0.2388782
0.13647905 0.008414139 0.18029134 -0.18195923 0.24116364 0.010067764 -0.14240924 0.009225501
-0.45994595 -0.1324233 0.22694683 0.28728205 -0.110546954 0.123548776 0.40148467 0.26282984
-0.025985533 -0.2850232 0.058518693 -0.5205563 -0.002944071 -0.58595395 -0.043500427 -0.16731186
-0.60294867 -0.50396353 -0.33048734 -0.26717806 -0.05296379 -0.18006678 0.22654825 -0.005720355
0.40697685 0.2390546 -0.18934825 0.015643902 0.32804692 0.013472311 0.27367195 -0.3071224
-0.39888936 0.26101822 -0.1243943 0.46697876 0.12987003 0.32709983 0.4095337 0.20540386
-0.49161634 -0.18649384 -0.03679343 -0.7215706 -0.074538745 -0.20798984 -0.24679404 -1.06933
-0.6626372 0.41954875 -0.28367618 0.08489085 -0.2101786 -0.35898075 -0.056544136 -0.36542597
-0.094050534 0.26261124 -0.52743244 0.20585552 0.0413689 0.035175577 -0.17170994 -0.24339697
-0.3303408 0.009040109 -0.4905268 -0.1973743 -0.3403195 0.2234018 0.080064215 -0.040395632
-0.8032171 -0.599864 -0.053746812 -0.13435829 -0.48108128 -0.7039678 -0.8273556 -0.5107573
-0.43397567 -0.25972602 -0.12486799 -0.09371147 0.12562856 -0.45413828 0.0709858 0.18746242
0.5343232 0.039188072 -0.083157435 0.2311636 0.4560532 0.07842274 0.2955643 -0.11243864
0.17468935 -0.7011948 -0.54818434 0.15977338 0.52841204 -0.35127312 -0.3483814 0.23727424
0.28560746 0.050057974 0.047251783 -0.06711746 0.47678947 0.21907872 0.03318225 0.030840443
-0.070515834 -0.07732027 0.3763722 0.30055937 -0.18231596 -0.1253776 0.26836652 0.5130838
00000000: 9974 b73c 45bb 77be 6ff3 653d 9f46 dc3d
00000010: 6614 033e a02c 0ebf 88c2 5b3e 3a1b 45be
00000020: 0fe3 13bf d67c 943d bf4a d7bd 7066 c93d
00000030: 0967 b0be 937d 833e ede8 2a3e 49e6 86be
00000040: 2843 653e d1a8 62be 4856 593c 05a0 56be
00000050: 3cf6 0f3f 2597 60be 1625 33bd a359 f9be
00000060: a42d 1a3e 82de 94be 1740 943e d38f b53d
00000070: 0322 65bd 15d7 623c 8035 d93e 7970 9d3e
00000080: 4d5e fe3e b2ce 21be 2d00 9e3e 3ccf cf3e
00000090: 713c 073b 2288 2a3d 4b9e 683e 8ed8 ebbb
000000a0: 3f7c 18be 82a1 6a3e d940 75be d637 8e3e
000000b0: 823b 20bf 34a6 cf3e e01b a6be 8124 2f3f
000000c0: 4b79 f6be 3d53 093d 6f5e 95be 0268 a0be
000000d0: 9a08 31bd ed80 fdbd d76e cfbe 2d4f 073e
000000e0: 64f9 62be f42b 1d3d b50a e2bd e7cc 933d
000000f0: da45 183e 21c2 043e 2199 10bf fae6 8a3e
00000100: d984 82be 4507 f8bc b4b8 af3d 1526 b6be
00000110: e499 b7bd c26e 703e 8f76 a1be 171c 84be
00000120: 1875 9ebe 6f5b b8bd 042f f7be c8e6 e63d
00000130: 7889 34be a03e f0be b66b 91be c83d ad3e
00000140: 22fc efbe b673 05bf 170c 3dbd 1d21 a0be
00000150: 9c2a a5be 5b40 02bf b583 113d 8d6a d4be
00000160: 4848 0ebf 3b54 f8be 2b50 133e 5008 b6bd
00000170: 3081 d1be 65b1 35be aeeb cebd ddc9 0fbe
00000180: 6fbd 963d 1a47 a8be ae6c 8bbe e503 53be
00000190: 3576 dbbe 9ead 76bd ea18 f33e df85 b2be
000001a0: 0a0a aabe 0f71 b5bd 128f d5be c4f3 a9bd
000001b0: 63e2 b03d 2e75 41bc 9380 21bf b107 e0be
000001c0: 8519 89be a119 be3e e12a babe ef98 a0be
000001d0: 56ff b0bd ddc3 243e d1b4 0bbf a36f c2bc
000001e0: 22ea 3a3e 8bab c7be f313 53be 0b31 02be
000001f0: d454 8f3d e218 f3be 0a20 213e 7d9c 74be
00000200: 2ac1 0b3e 75db 093c 4b9e 383e 8553 3abe
00000210: 9af3 763e 43f3 243c bad3 11be 8e26 173c
00000220: 097e ebbe f999 07be c064 683e a216 933e
00000230: 7166 e2bd 2407 fd3d 668f cd3e a291 863e
00000240: 9ddf d4bc 90ee 91be 4cb1 6f3d 2d43 05bf
00000250: 51f1 40bb 1401 16bf 812d 32bd cd53 2bbe
00000260: d85a 1abf c103 01bf a335 a9be 90cb 88be
00000270: 8ff0 58bd 6d63 38be 44fc 673e d171 bbbb
00000280: 455f d03e bbca 743e 82e4 41be a427 803c
00000290: c4f5 a73e f8ba 5c3c bb1e 8c3e 263f 9dbe
000002a0: 3a3b ccbe 2ea4 853e 70c2 febd d717 ef3e
000002b0: a6fc 043e a179 a73e 67ae d13e 6455 523e
000002c0: 23b5 fbbe 3ef8 3ebe b5b4 16bd dab8 38bf
000002d0: c5a7 98bd 4afb 54be 94b7 7cbe cedf 88bf
000002e0: 97a2 29bf 18cf d63e 013e 91be 41db ad3d
000002f0: 0f39 57be 53cc b7be d39a 67bd 1d19 bbbe
00000300: 919d c0bd fb74 863e d005 07bf cacb 523e
00000310: 7072 293d 4414 103d bbd4 2fbe 0e3d 79be
00000320: 6e22 a9be f71c 143c 5426 fbbe 7d1c 4abe
00000330: 5c3e aebe 71c3 643e b5f8 a33d e475 25bd
00000340: a39f 4dbf b090 19bf 9e25 5cbd 3895 09be
00000350: 4950 f6be 3c37 34bf 94cd 53bf fec0 02bf
00000360: 0f32 debe cffa 84be caba ffbd cdeb bfbd
00000370: c6a4 003e d084 e8be 0161 913d 26f6 3f3e
00000380: 68c9 083f ac83 203d 724e aabd 27b6 6c3e
00000390: ce7f e93e 1a9c a03d 3454 973e 3b46 e6bd
000003a0: c4e1 323e 8181 33bf cf55 0cbf a29b 233e
000003b0: 0346 073f 12da b3be 0c5f b2be 05f8 723e
000003c0: 243b 923e 9709 4d3d 168b 413d e174 89bd
000003d0: c01d f43e 2c56 603e 1cea 073d 19a5 fc3c
000003e0: 9b6a 90bd 175a 9ebd dbb3 c03e ebe2 993e
000003f0: 09b1 3abe fc62 00be 5667 893e 7659 033f

bias f4 [96]
-0.20059946 -0.06822637 -0.13427386 -0.18041779 -0.19221982 0.17011696 -0.010278078 -0.15648274
-0.5139393 0.115717605 0.08948173 -0.28794473 -0.20203498 -0.14063269 -0.20078464 0.047834706
-0.22833553 -0.16884446 -0.22345845 -0.18578927 -0.009024561 -0.17190254 -0.14948495 0.3496309
-0.17832026 -0.07098627 0.032621577 -0.028671086 -0.17127511 0.028664196 -0.03557604 -0.5399741
0.01580955 -0.008360934 -0.28201887 -0.12151736 -0.3547148 0.07812832 -0.28064322 -0.12525445
-0.21972348 0.14107883 -0.208493 0.09814652 -0.11490699 -0.20588186 -0.45362687 -0.20816278
0.25752968 -0.0903882 -0.21835735 -0.2040334 -0.0458685 0.015920648 -0.09376001 0.24809244
0.19920878 0.18818137 -0.08304525 -0.056352343 -0.09282769 0.024978023 0.13654399 0.08509133
-0.1146875 0.55013084 -0.13431455 -0.11819027 -0.19809014 -0.2201259 -0.019904064 0.15790461
-0.2578953 0.11372687 -0.39818817 -0.05885768 0.14232661 0.03506671 -0.060575027 -0.24292709
-0.014188985 -0.13025744 -0.2728105 -0.028276348 0.12720868 -0.15928155 -0.24868275 0.4356609
0.03974168 -0.10669417 0.16471273 -0.26722753 -0.44135368 -0.060273353 -0.012480424 -0.19743274
00000000: f269 4dbe 44ba 8bbd 167f 09be 71bf 38be
00000010: 46d5 44be 2433 2e3e 6265 28bc 033d 20be
00000020: 8791 03bf 5afd ec3d 3242 b73d 7e6d 93be
00000030: 42e2 4ebe 0402 10be 7d9a 4dbe 53ee 433d
00000040: cad0 69be 90e5 2cbe 4bd2 64be 8b3f 3ebe
00000050: c1db 13bc 3807 30be 9512 19be d202 b33e
00000060: 9699 36be 4061 91bd 349e 053d a0df eabc
00000070: be62 2fbe 2dd1 ea3c 2fb8 11bd be3b 0abf
00000080: 0883 813c 4dfc 08bc c764 90be 18de f8bd
00000090: 2e9d b5be be01 a03d 78b0 8fbe b442 00be
000000a0: 31ff 60be f876 103e 307f 55be 0b01 c93d
000000b0: 5b54 ebbd b2d2 52be c841 e8be a028 55be
000000c0: eeda 833e 731d b9bd 1299 5fbe 22ee 50be
000000d0: 9ce0 3bbd 056c 823c 4005 c0bd f20b 7e3e
000000e0: 63fd 4b3e 9eb2 403e a113 aabd b7d1 66bd
000000f0: 721c bebd b69e cc3c 30d2 0b3e 5d44 ae3d
00000100: 48e1 eabd 60d5 0c3f c189 09be be0d f2bd
00000110: 24d8 4abe af68 61be d90d a3bc bfb1 213e
00000120: da0a 84be a2e9 e83d 52df cbbe c014 71bd
00000130: 11be 113e 1ca2 0f3d 851d 78bd e1c1 78be
00000140: eb78 68bc 3562 05be d1ad 8bbe cda3 e7bc
00000150: fe42 023e b41a 23be b1a6 7ebe f20e df3e
00000160: 2cc8 223d 7982 dabd 74aa 283e 0cd2 88be
00000170: 1cf9 e1be 31e1 76bd b17a 4cbc cf2b 4abe

weight f4 [64, 3072]
-0.017743561 -0.02238781 0.014909521 -0.014548591 0.010474515 -0.0026366508 -0.01893188 -0.024222143
0.012358558 -0.0031275658 -0.007640581 0.014746311 0.010763203 -0.019229421 -0.012705605 -0.002529319
0.0048034596 0.0026554803 -0.019373886 0.006487578 0.009554602 0.00629191 0.007379259 0.0035433343
-0.0009442322 0.012339062 0.016818052 0.0059212353 -0.011900957 -0.034951646 -0.03192594 -0.0050533707
0.009773222 -0.003389657 0.012844865 -0.016672965 -0.007267923 0.005332638 -0.008678753 -0.023543702
0.009303703 -0.011758351 -0.024991566 -0.006528922 0.005223014 -0.0017409717 -0.016480863 0.003011228
-0.010550832 -0.008322698 -0.00026472408 -0.016055996 -0.019147338 -0.024789745 -0.007502444 -0.019702937
0.0008335744 -0.003518472 -0.0028148345 -0.013293294 0.008476302 -0.03034486 0.002954175 0.0026152749
-0.015666386 -0.030178776 -0.018174987 -0.04094001 -0.022587996 -0.012964569 -0.0050474354 -0.021161601
-0.014610548 0.0031171993 -0.0048152283 -0.0059956643 -0.0088826325 -0.049930412 -0.020614209 -0.0023753112
-0.01620189 -0.026039017 -0.019747576 -0.003918951 -0.024985189 -0.015163002 -0.019665383 -0.019218476
-0.006355551 -0.042280607 -0.046573296 -0.048937116 -0.019534115 -0.012773924 -0.016185233 -0.0005098789
0.010131996 -0.012655619 -0.009734023 -0.008442696 -0.012208432 -0.006349426 -0.007993305 0.011801501
-0.00015660588 0.007999532 -0.0060769655 0.0110057 -0.024013646 -0.015231075 -0.0016014513 -0.013754736
-0.005392201 -0.017546207 0.002906608 0.0031201246 0.016422136 0.012794563 -0.0030077433 -0.016330048
0.002942249 -0.008414521 -0.013368903 0.012535297 -0.018311523 0.005458015 0.004292713 0.004490514
-0.0036356088 0.010287717 -0.009451115 -0.0040100734 -0.0003362813 -0.0034728053 -0.020375289 -0.00016674686
0.0045580855 -0.008578861 -0.019081807 0.007288082 -0.022925824 -0.019481922 -0.019193731 0.010528309
-0.00521785 0.0015180819 0.0106292395 -0.0040566884 -0.012975688 -0.005461834 -0.0009417543 -0.012051259
0.0022630384 0.0017924671 0.008454825 -0.02063723 0.0010990233 0.011900478 0.0020918304 0.00402332
0.00975572 0.00047873793 0.0022597737 -0.02229653 -0.011707114 0.010786528 0.008325831 0.00019122129
-0.010469138 0.01544313 0.011683048 -0.01154176 -0.019610098 0.0020506862 -0.010558006 0.0007054605
-0.0066021956 -0.014660728 0.0054855132 -0.0019772057 0.0066185645 -0.0040569925 -0.019421596 0.013730927
0.009106262 -0.017821124 0.015948962 -0.003251068 -0.0314911 -0.035841107 -0.0045821136 0.004273125
0.008458462 -0.020431433 0.004045913 -0.010602198 -0.023602992 -0.0046610823 -0.024447655 0.010240222
0.008099141 0.012167754 0.009927451 0.008509722 0.007305063 -0.009411854 -0.01704015 -0.006734616
0.01403283 -0.00027563097 -0.013200178 -0.013123341 -0.017993502 -0.015744038 -0.011124496 -0.02231724
-0.016338527 -0.012212497 -0.014588671 -0.0026651232 -0.013316783 -0.003242122 -0.016887857 -0.021316087
-0.005109206 0.008749869 -0.017063811 -0.0026744904 -0.001181879 -0.0005216701 0.021333845 -0.01611235
-0.020712638 -0.0073902383 -0.008122371 0.0046316395 0.001826536 0.0020162514 -0.0109090675 -0.010485072
-0.010956053 -0.019119257 -0.007999335 -0.014210081 -0.019904543 -0.008692924 -0.00021104707 -0.005509619
0.00807638 0.0029583378 -0.01987896 -0.0035616755 -0.013662399 -0.014928093 0.001294927 -0.0014194023
00000000: f25a 91bc a466 b7bc 1047 743c 375d 6ebc
00000010: 4d9d 2b3c a9cb 2cbb 0817 9bbc 846d c6bc
00000020: 8d7b 4a3c d9f7 4cbb d75d fabb 839a 713c
00000030: 2558 303c 0587 9dbc 2b2b 50bc eec2 25bb
00000040: 5766 9d3b 9107 2e3b fcb5 9ebc c095 d43b
00000050: e88a 1c3c 5e2c ce3b b6cd f13b 4937 683b
00000060: 5a86 77ba c729 4a3c 03c6 893c ec06 c23b
00000070: 3bfc 42bc 7529 0fbd c6c4 02bd bf96 a5bb
00000080: dd1f 203c 0225 5ebb 4573 523c be95 88bc
00000090: c227 eebb 69bd ae3b 5431 0ebc b9de c0bc
000000a0: 8f6e 183c 19a6 40bc 1dbb ccbc 91f0 d5bb
000000b0: d125 ab3b 5131 e4ba e002 87bc 0658 453b
000000c0: 66dd 2cbc ed5b 08bc aaca 8ab9 dd87 83bc
000000d0: e1da 9cbc dd13 cbbc 10d7 f5bb 0e68 a1bc
000000e0: 3b84 5a3a 2a96 66bb 1679 38bb 1ecc 59bc
000000f0: 30e0 0a3c c995 f8bc d59a 413b 0865 2b3b
00000100: cb56 80bc 7b39 f7bc b6e3 94bc b6b0 27bd
00000110: 760a b9bc 5869 54bc f564 a5bb 185b adbc
00000120: 1461 6fbc ed49 4c3b 10c9 9dbb 4777 c4bb
00000130: 7688 11bc d583 4cbd 21df a8bc 1cab 1bbb
00000140: d3b9 84bc c74f d5bc abc5 a1bc 8b6a 80bb
00000150: bdad ccbc 3d6e 78bc 4c19 a1bc 1170 9dbc
00000160: 3a42 d0bb 6e2e 2dbd a4c3 3ebd 4972 48bd
00000170: 0206 a0bc b849 51bc e596 84bc 65a9 05ba
00000180: ac00 263c 8359 4fbc 747b 1fbc 3c53 0abc
00000190: e005 48bc d90e d0bb 5af6 02bc 155b 413c
000001a0: 9236 24b9 7810 033c 4821 c7bb 4051 343c
000001b0: 44b8 c4bc c28b 79bc cae7 d1ba 8b5b 61bc
000001c0: 0fb1 b0bb 10bd 8fbc ca7c 3e3b 017b 4c3b
000001d0: b787 863c 49a0 513c 8f1d 45bb 98c6 85bc
000001e0: bfd2 403b 0fdd 09bc 3e09 5bbc d960 4d3c
000001f0: 0c02 96bc 26d9 b23b e3a9 8c3b 2925 933b
00000200: 6543 6ebb d08d 283c d9d8 1abc ef66 83bb
00000210: e94e b0b9 0198 63bb 14ea a6bc c5d8 2eb9
00000220: fe5b 953b 5a8e 0cbc 7351 9cbc ddd0 ee3b
00000230: f0ce bbbc 8d98 9fbc 2c3c 9dbc ee7e 2c3c
00000240: 80fa aabb 60fa c63a 4326 2e3c f8ed 84bb
00000250: fb97 54bc 2ff9 b2bb 10e0 76ba a572 45bc
00000260: 7c4f 143b 37f1 ea3a 1b86 0a3c 680f a9bc
00000270: 1a0d 903a 39fa 423c 1717 093b 0ed6 833b
00000280: 75d6 1f3c 1eff fa39 b618 143b 36a7 b6bc
00000290: 32cf 3fbc fab9 303c 1169 083c 9382 4839
000002a0: bf86 2bbc 2f05 7d3c 416a 3f3c a619 3dbc
000002b0: 5ba5 a0bc ce64 063b 7dfb 2cbc a7ee 383a
000002c0: 3b57 d8bb 8d33 70bc d2bf b33b 0294 01bb
000002d0: 8be0 d83b 85f0 84bb 0a1a 9fbc aff7 603c
000002e0: 6e32 153c 9bfd 91bc 66a7 823c df0f 55bb
000002f0: d0fc 00bd 20ce 12bd 8e25 96bb 9205 8c3b
00000300: 5c95 0a3c d25f a7bc 9493 843b d7b4 2dbc
00000310: 105b c1bc febb 98bb 7346 c8bc 9bc6 273c
00000320: 42b2 043c 425b 473c bfa6 223c 5c6c 0b3c
00000330: 4f5f ef3b 2d34 1abc c997 8bbc 0eae dcbb
00000340: f4e9 653c 9082 90b9 8f45 58bc 4803 57bc
00000350: 1c67 93bc a4f9 80bc 8543 36bc a5d2 b6bc
00000360: 60d8 85bc ed16 48bc 5205 6fbc 59a9 2ebb
00000370: a32e 5abc c879 54bb 6758 8abc 139f aebc
00000380: 206b a7bb 9c5b 0f3c 68c9 8bbc 8146 2fbb
00000390: 47e9 9aba b0c0 08ba 51c4 ae3c 0cfe 83bc
000003a0: 8dad a9bc d029 f2bb b113 05bc 02c5 973b
000003b0: 6168 ef3a 1623 043b f2bb 32bc 94c9 2bbc
000003c0: 0481 33bc fd9f 9cbc a50f 03bc 66d1 68bc
000003d0: da0e a3bc c46c 0ebc 844c 5db9 098a b4bb
000003e0: cb52 043c ace0 413b 33d9 a2bc 006b 69bb
000003f0: 41d8 5fbc f694 74bc 8aba a93a 3d0b baba

bias f4 [64]
-0.005476629 -0.022716707 -0.021272415 -0.049923778 0.0632489 0.558818 -0.027594896 -0.032461494
-0.027633483 -0.016402233 -0.019835899 -0.043514583 -0.022303546 -0.08306595 -0.05050773 0.7244139
-0.006169468 -0.008600338 -0.007247768 -0.010969889 -0.00043241426 0.001661726 -0.058672834 0.69913834
0.32276824 -0.006496473 -0.3280323 -0.02667424 -0.05179406 0.0065400763 -0.03697569 -0.009566121
-0.01901055 -0.020526698 -0.036153123 -0.33040488 -0.057006024 0.009906948 0.024485447 -0.16081916
-0.3638426 0.27483478 -0.02857853 -0.009798674 0.10149327 -0.023815634 -0.02236844 -0.012669626
0.004971361 -0.0016004189 -0.06322136 0.035831533 -0.054577243 -0.048548553 0.005777352 -0.0060646264
-0.06890738 -0.022928152 0.16088758 0.00040954674 -0.016342288 0.036508325 -0.04565021 -0.00030277087
00000000: 4b75 b3bb 6318 babc 7d43 aebc e07c 4cbd
00000010: a488 813d b20e 0f3f b10e e2bc 58f6 04bd
00000020: 9d5f e2bc fa5d 86bc e57e a2bc 593c 32bd
00000030: edb5 b6bc 7b1e aabd 32e1 4ebd 3073 393f
00000040: 4029 cabb 6fe8 0cbc af7e edbb 0dbb 33bc
00000050: a9b5 e2b9 46ce d93a ed52 70bd bbfa 323f
00000060: e141 a53e 5ee0 d4bb daf3 a7be f083 dabc
00000070: 0226 54bd 234e d63b d273 17bd 38bb 1cbc
00000080: 03bc 9bbc 9b27 a8bc 4c15 14bd d42a a9be
00000090: 267f 69bd c050 223c b495 c83c c7ad 24be
000000a0: 9449 babe 25b7 8c3e 851d eabc 9e8a 20bc
000000b0: b4db cf3d 0119 c3bc 053e b7bc 4394 4fbc
000000c0: cce6 a23b 26c5 d1ba 337a 81bd 16c4 123d
000000d0: 638c 5fbd d9da 46bd f14f bd3b c6b9 c6bb
000000e0: 501f 8dbd d2d3 bbbc b7bf 243e 6fb8 d639
000000f0: 43e0 85bc c189 153d b7fb 3abd 38bd 9eb9

weight f4 [25, 64]
0.060725562 -0.012569142 -0.08509891 0.02970239 0.018733999 0.30587745 -0.014278113 0.043031335
-0.053347412 -0.026319534 -0.09936134 -0.14223583 -0.1215418 -0.12850711 0.029543478 -0.30517435
0.06346575 0.089214265 -0.103502385 0.09161052 0.061199214 0.1294219 -0.0016315734 -0.004697732
0.45369306 0.026673269 -0.0048374 0.06715155 0.015050829 -0.09752511 -0.08380139 -0.0043552676
0.12022292 0.020349102 0.0109402565 -0.829413 -0.03633297 -0.016445639 0.04294258 -0.7593515
-0.22053926 0.10862893 0.034011073 -0.00028724485 -0.03603022 -0.06683496 -0.099793516 -0.08189509
0.09675043 0.11727321 -0.010236581 0.15850224 -0.09506477 0.023271872 0.06273215 -0.06790076
-0.39527854 -0.056429736 0.09207812 -0.07762381 -0.09223561 -0.29972678 -0.0019461722 -0.08592437
-0.047095608 0.09577687 0.0975202 0.040029865 0.08097023 -0.49895528 -0.061825868 -0.067606986
0.087386444 0.017632557 0.104905516 -0.12450485 -0.06852485 -0.06415053 0.025553439 -0.057248265
-0.06645531 -0.106199875 0.015395601 -0.09582047 0.0049143066 -0.021267366 0.024208322 -0.3089999
0.033829834 0.10665921 0.26427868 -0.10276238 0.089101 -0.12529854 0.012453189 -0.045181092
-0.3922583 0.08207532 0.008165026 -0.05400184 -0.07213882 -0.053379793 0.02254371 -0.22310129
-0.13677171 -0.5635471 0.029880129 -0.10354337 -0.26873824 0.067686304 0.009395368 -0.0099712135
0.09885964 0.11562453 0.09075034 0.113396265 -0.04921315 -0.08834856 0.066392094 0.09977921
0.02837118 0.070504494 0.13558881 0.024762485 0.038787283 0.38483378 0.03526194 0.0015672855
0.12272125 0.06168755 -0.0019511521 0.0077654785 0.1644116 -0.011852709 0.027553355 -0.015740719
0.031544205 0.042721767 -0.25395232 0.07032768 -0.20091236 -0.02523097 0.048392065 -0.5739788
-0.10362423 -0.029468393 -0.1208879 -0.021477094 -0.10395666 0.06621056 -0.047040157 0.106419854
0.4806899 0.049406443 -0.31814036 -0.018939512 0.04682363 -0.11678403 -0.03639917 -0.06651212
-0.1961544 0.09906386 0.09226832 0.29018936 0.4006771 -0.0053862156 -0.09900727 -0.3584734
-0.31203136 0.5475554 -0.083025835 -0.068438984 -0.53106695 0.08285387 -0.060817443 -0.098605156
-0.06160526 -0.11258564 -0.08782771 -0.31066734 0.08226855 0.084776014 -0.09292191 0.11320559
-0.37658218 -0.113113075 -0.16526964 0.044498004 0.04792144 -0.23511146 -0.09473027 -0.050270934
0.017991103 -0.026962014 0.023392275 -0.039062154 -0.0486456 -0.48140705 0.047828667 -0.028356055
0.07981159 0.12481096 -0.17394833 -0.34130135 0.050215498 -0.14801985 -0.09337373 -0.5993173
-0.08748757 -0.09162444 -0.07173833 -0.0011418888 -0.074051246 -0.11641198 0.040073927 0.025808394
0.02744025 -0.011408922 -0.3796102 0.051309668 -0.10969293 0.10060152 -0.14909878 0.040359307
-0.06743245 -0.09325599 -0.025059946 -0.3393488 0.2634686 0.10140572 0.008124058 -0.09145274
0.48770317 -0.444669 -0.022333708 -0.10600526 0.08894381 -0.092273146 -0.05890617 0.113523185
-0.10681819 -0.08519406 0.04512936 -0.48510084 0.03022511 0.010997335 -0.09082531 0.02965789
0.105471954 0.05409149 -0.3524974 0.046956893 0.10782418 -0.22044124 0.10148856 -0.012482929
00000000: 5ebb 783d cdee 4dbc 5648 aebd 6d52 f33c
00000010: 0b78 993c f89b 9c3e bfee 69bc a041 303d
00000020: d182 5abd 109c d7bc f57d cbbd 45a6 11be
00000030: e8ea f8bd 5e97 03be 2a05 f23c d03f 9cbe
00000040: 55fa 813d f8b5 b63d 0ff9 d3bd 4c9e bb3d
00000050: 07ac 7a3d 2d87 043e 85da d5ba 6fef 99bb
00000060: 754a e83e e681 da3c 0d83 9ebb c086 893d
00000070: c197 763c 3fbb c7bd 10a0 abbd a2b6 8ebb
00000080: 6f37 f63d 29b3 a63c c33e 333c 6954 54bf
00000090: e1d1 14bd 01b9 86bc 8fe4 2f3d dc64 42bf
000000a0: 0bd5 61be d878 de3d 324f 0b3d 5a99 96b9
000000b0: 6d94 13bd c4e0 88bd 8b60 ccbd 9db8 a7bd
000000c0: 1725 c63d f02c f03d 55b7 27bc 694e 223e
000000d0: 51b1 c2bd a7a4 be3c b779 803d 8e0f 8bbd
000000e0: f361 cabe de22 67bd 7493 bc3d 3bf9 9ebd
000000f0: 06e6 bcbd ca75 99be b416 ffba 1ef9 afbd
00000100: 53e7 40bd aa26 c43d acb8 c73d 5bf6 233d
00000110: b8d3 a53d 1177 ffbe 1f3d 7dbd 8875 8abd
00000120: aaf7 b23d 2772 903c b4d8 d63d 66fc febd
00000130: c256 8cbd 5a61 83bd 7255 d13c 287d 6abd
00000140: b919 88bd 527f d9bd d53d 7c3c 863d c4bd
00000150: 3108 a13b e638 aebc 8850 c63c 3c35 9ebe
00000160: 2791 0a3d 2570 da3d 894f 873e 1575 d2bd
00000170: 967a b63d 434e 00be 7608 4c3c cf0f 39bd
00000180: 14d6 c8be 1b17 a83d 9ac6 053c 0931 5dbd
00000190: 85bd 93bd c5a4 5abd 96ad b83c aa74 64be
000001a0: e20d 0cbe 9f44 10bf 2cc7 f43c 8c0e d4bd
000001b0: 0f98 89be 1e9f 8a3d 08ef 193c 4d5e 23bc
000001c0: ec76 ca3d 8ecc ec3d 50db b93d 4d3c e83d
000001d0: ba93 49bd 17f0 b4bd 94f8 873d 0b59 cc3d
000001e0: ad6a e83c a964 903d cbd7 0a3e b2da ca3c
000001f0: 6adf 1e3d ef08 c53e d36e 103d 606d cd3a
00000200: 4755 fb3d 16ac 7c3d cdbd ffba 8e75 fe3b
00000210: 845b 283e dd31 42bc 93b7 e13c aef2 80bc
00000220: 7f34 013d 05fd 2e3d 0a06 82be f507 903d
00000230: f8bb 4dbe 2eb1 cebc c236 463d 46f0 12bf
00000240: f138 d4bd b367 f1bc 1394 f7bd bbf0 afbc
00000250: 3be7 d4bd 6799 873d 2ead 40bd a7f2 d93d
00000260: fd1c f63e 695e 4a3d 4be3 a2be 0927 9bbc
00000270: 22ca 3f3d 772c efbd 4c17 15bd 8237 88bd
00000280: b3dc 48be fee1 ca3d 2cf7 bc3d b393 943e
00000290: 8d25 cd3e da7e b0bb 53c4 cabd d389 b7be
000002a0: 93c2 9fbe 972c 0c3f 7309 aabd bd29 8cbd
000002b0: 01f4 07bf 4aaf a93d b61b 79bd 80f1 c9bd
000002c0: cc55 7cbd 4d93 e6bd 04df b3bd ca0f 9fbe
000002d0: 6a7c a83d 0c9f ad3d d84d bebd 55d8 e73d
000002e0: 61cf c0be d4a7 e7bd 723c 29be 8a43 363d
000002f0: 4649 443d 0fc1 70be f201 c2bd e5e8 4dbd
00000300: 1462 933c 71df dcbc 28a1 bf3c a3ff 1fbd
00000310: 9c40 47bd fc7a f6be fee7 433d f54a e8bc
00000320: 4274 a33d e39c ff3d 831f 32be 0dbf aebe
00000330: c4ae 4d3d 8492 17be ba3a bfbd dc6c 19bf
00000340: af2c b3bd 98a5 bbbd 8ceb 92bd 6eab 95ba
00000350: 2ea8 97bd 6769 eebd 8f24 243d 206c d33c
00000360: 60ca e03c 7dec 3abc 455c c2be 162a 523d
00000370: b0a6 e0bd 2b08 ce3d 5aad 18be cd4f 253d
00000380: 061a 8abd fffc bebd 844a cdbc 20bf adbe
00000390: 5be5 863e cdad cf3d c51a 053c 934b bbbd
000003a0: 3bb4 f93e a8ab e3be 2ef5 b6bc 4919 d9bd
000003b0: 2c28 b63d b4f9 bcbd 9947 71bd d87e e83d
000003c0: 7fc3 dabd 397a aebd 90d9 383d 235f f8be
000003d0: a69a f73c 2b2e 343c 9f02 babd 1af5 f23c
000003e0: ae01 d83d 0a8f 5d3d 8a7a b4be df55 403d
000003f0: ecd2 dc3d 59bb 61be 3cd9 cf3d 3385 4cbc

bias f4 [25]
-0.08955393 0.049521495 0.050738886 -0.36776873 0.09644002 -0.35330647 0.8617625 -0.05662279
0.028529307 0.40778494 0.67581517 1.0881346 0.3899253 -0.24879988 0.002294464 0.23297599
0.34448507 -0.27585152 -0.6214626 -0.047806274 0.47879162 -0.97401136 -0.061048437 -0.11643579
-0.33824426
00000000: 0d68 b7bd 0dd7 4a3d 94d3 4f3d 2f4c bcbe
00000010: 5882 c53d 96e4 b4be 789c 5c3f 4ced 67bd
00000020: 4bb6 e93c 30c9 d03e 3902 2d3f ff47 8b3f
00000030: 4aa4 c73e 65c5 7ebe b85e 163b 4291 6e3e
00000040: 5960 b03e 693c 8dbe 2c18 1fbf 83d0 43bd
00000050: 2d24 f53e cf58 79bf ed0d 7abd e375 eebd
00000060: 5a2e adbe
