result/config6/preliminary_model8.pt (torch_old, 996807 bytes, 8 tensors)

weight f4 [24, 2, 192]
0	0xbe8ef8a7	-0.27924082
1	0xbbf6f738	-0.007536795
2	0x3d6b3548	0.05742386
3	0x3e0c6e28	0.13713896
4	0x3de2977d	0.1106405
5	0xbe1e38cd	-0.15451355
6	0xbcb1773c	-0.0216633
7	0xbda5ce4c	-0.08095989
8	0xbdd1a406	-0.10236363
9	0xbe4973e7	-0.1967312
10	0xbd98d8b5	-0.074632086
11	0x3d67f2f2	0.056628175
12	0xbdc33e1e	-0.09533332
13	0xbeab931b	-0.3351067
14	0xbd1a4dbc	-0.03767179
15	0x3e4264dd	0.18983789
16	0x3e0606a3	0.13088469
17	0x3e47097d	0.19437213
18	0xbc802f19	-0.015647458
19	0xbd6feecc	-0.058577344
20	0x3d05bd9b	0.032651525
21	0x3c49199e	0.012274174
22	0xbe620b85	-0.22074707
23	0xb864cd3e	-5.4550583e-05
24	0x3e04f9ea	0.1298596
25	0x3e2dade1	0.16960861
26	0x3dd80d3b	0.105493985
27	0x3e662507	0.22475062
28	0x3e9775c4	0.29582036
29	0x3ec3c84b	0.3823875
30	0x3e96fcfd	0.2948989
31	0x3e7f4149	0.24927248
32	0x3cc294d1	0.023752602
33	0x3dbd9c79	0.092583604
34	0x3e83c67a	0.25737363
35	0x3ebc4850	0.3677392
36	0x3e701c1d	0.23448224
37	0x3e2b9dae	0.16759369
38	0x3d8a0bef	0.067405574
39	0xbcd82fd7	-0.02639
40	0x3dad7b03	0.08470728
41	0xbd2edc7f	-0.04269075
42	0xbe12d662	-0.14339593
43	0x3ddaac78	0.10677427
44	0x3ec31b85	0.38106933
45	0x3eb0295d	0.34406558
46	0x3ccb0589	0.024782913
47	0xbe6a6905	-0.22891624
48	0x3dc7754e	0.09739171
49	0xbd67e78e	-0.056617312
50	0xbc904900	-0.017612934
51	0x3d40059c	0.04688035
52	0x3d90e264	0.070744306
53	0x3d374058	0.044739097
54	0xbe0cf369	-0.13764729
55	0xbd9f4db2	-0.07778491
56	0x3cb1be24	0.021697111
57	0x3e41f50e	0.18941137
58	0x3e02f4e8	0.12788737
59	0xbe0e6cfc	-0.13908762
60	0xbe7edc2d	-0.24888678
61	0xbe0c53b1	-0.137038
62	0xbdc38987	-0.09547716
63	0xbd6c6484	-0.057713047
64	0xbe58b00b	-0.21160905
65	0xbdfe1d57	-0.1240794
66	0x3cf99973	0.030468678
67	0x3c1d1ecc	0.009589862
68	0x3d594600	0.053045273
69	0xbd611e96	-0.05496081
70	0x3e0ed0c0	0.1394682
71	0x3e51f7fe	0.20504758
72	0xbb817e48	-0.0039518215
73	0xbd474ec5	-0.048659105
74	0xbdf049d6	-0.11732833
75	0xbe87eed4	-0.265494
76	0xbe81b562	-0.25333697
77	0x3c9d9a13	0.019238507
78	0xbbe29f34	-0.006915951
79	0xbe998e0d	-0.2999119
80	0xbbf207fb	-0.0073862053
81	0xbcc65cb1	-0.02421412
82	0xbd13f98f	-0.03612667
83	0x3d310342	0.043215998
84	0xbd4ad872	-0.049522825
85	0xbe085695	-0.13314278
86	0xbdc05c59	-0.09392614
87	0xbe478698	-0.19484937
88	0xbe870557	-0.2637126
89	0xbe89eca4	-0.26938355
90	0xbe7c342f	-0.24629281
91	0x3cecc399	0.028901862
92	0x3d9ff6cc	0.07810745
93	0x3e1496f8	0.14510715
94	0x3dc7fa64	0.09764555
95	0x3e823538	0.25431228
96	0x3db2da30	0.08733022
97	0x3d4d7e34	0.050169185
98	0xbb67910e	-0.0035334262
99	0xbd2b275b	-0.04178558
100	0x3db4fbfd	0.088371255
101	0x3caabe70	0.02084276
102	0xbbe9b013	-0.0071315854
103	0x3de6fa96	0.11278264
104	0x3e62394d	0.22092171
105	0xbc398ce0	-0.011325091
106	0x3dc31cfc	0.09527013
107	0x3dc276d1	0.09495319
108	0x3e1a188b	0.15048425
109	0x3d7c088a	0.06153158
110	0x3da629e6	0.0811346
111	0xbd0643f6	-0.032779656
112	0x3d7c3cfa	0.06158159
113	0x3e0a8226	0.1352621
114	0x3e175b89	0.14781012
115	0x3e20191b	0.15634577
116	0x3d9c7844	0.07640126
117	0x3b83d605	0.004023316
118	0xbe69cefe	-0.22832868
119	0xbcca136b	-0.024667462
120	0xbd6d28f9	-0.057900403
121	0xba68fac5	-0.0008887465
122	0x3e839f7f	0.25707623
123	0x3ead803c	0.33886898
124	0x3e40f291	0.18842532
125	0x3be942e5	0.00711857
126	0x3e96ed3c	0.2947787
127	0x3e467299	0.19379653
128	0x3c859381	0.016305687
129	0x3e1c4e10	0.15264153
130	0x3ed66330	0.4187255
131	0x3ee48731	0.44634393
132	0x3e86a0dc	0.262946
133	0x3db63673	0.08897104
134	0xbcb6cb36	-0.022313695
135	0x3d9621c1	0.07330657
136	0xbd8dba75	-0.069203295
137	0x3dcf629d	0.10126231
138	0x3dcf9a23	0.10136821
139	0x3e339903	0.17538838
140	0x3d4bdf97	0.04977378
141	0x3c5be8c6	0.013422197
142	0x3e6a0741	0.2285433
143	0x3df7b702	0.12095453
144	0xbc4188a6	-0.011812365
145	0x3d3ae6eb	0.045630377
146	0x3cd37204	0.025811203
147	0xbdb6595e	-0.08903764
148	0xbce2986d	-0.027660573
149	0xbddf078a	-0.1089011
150	0xbdc0e1c7	-0.094180636
151	0xbdc587c2	-0.096450344
152	0xbdb063dd	-0.086127974
153	0xbe1c4287	-0.15259753
154	0xbe410b42	-0.18851951
155	0xbe415113	-0.18878584
156	0xbe2f0245	-0.1709071
157	0xbe8f8f87	-0.2803919
158	0xbe5e6ebe	-0.21721932
159	0xbe1f075c	-0.15530151
160	0xbe13a75a	-0.14419308
161	0xbdc5e6da	-0.09663172
162	0xbe473e07	-0.19457255
163	0xbe644406	-0.22291574
164	0xbe27fe09	-0.164055
165	0xbc0c7770	-0.008573398
166	0x3dd3d499	0.10343284
167	0x3d229e7d	0.039701927
168	0x3d38d0b0	0.045120895
169	0x3d628ea1	0.055311803
170	0xbd8b8545	-0.068125285
171	0xbcead4e7	-0.028665973
172	0x3e375784	0.17904478
173	0xbc9d6789	-0.019214408
174	0xbc7667e2	-0.015039416
175	0x3e86c061	0.26318648
176	0x3e573576	0.21016487
177	0xbd972373	-0.07379808
178	0xbe081fbc	-0.13293356
179	0xbd8f8b20	-0.07008958
180	0xbe4105b1	-0.18849827
181	0xbdb597cc	-0.088668436
182	0xbca40ed4	-0.020026602
183	0x3d843d84	0.06457046
184	0x3d4a0f22	0.049330838
185	0xbcf90244	-0.030396588
186	0x3d4584a3	0.048222195
187	0xbd40f34e	-0.047107033
188	0xbdca3613	-0.09873595
189	0xbdf263e0	-0.11835456
190	0xbde2afe0	-0.11068702
191	0xbdfa0548	-0.122080386
192	0xbd7ca0a0	-0.06167662
193	0xbd894150	-0.067019105
194	0xbe65adf0	-0.22429633
195	0x3e1cec8d	0.15324612
196	0xbe1f7c3f	-0.1557474
197	0xbe827b0e	-0.25484508
198	0xbdb5c35f	-0.08875155
199	0xbe6b2f00	-0.22967148
200	0xbdea5f77	-0.1144399
201	0xbdef43e8	-0.11682874
202	0xbd130b74	-0.035899594
203	0xbda918f5	-0.08256713
204	0xbde08139	-0.10962147
205	0x3e5e462d	0.21706457
206	0x3e85e2dd	0.26149645
207	0x3e599d06	0.21251306
208	0x3eb319f6	0.34980744
209	0x3e7d25e6	0.24721488
210	0x3e84b476	0.2591893
211	0x3eb71ff6	0.35766572
212	0x3e8468ca	0.25861198
213	0x3eb0493d	0.34430876
214	0x3ed89e1a	0.42308122
215	0x3ebc9f9c	0.36840522
216	0x3e38f89d	0.18063588
217	0x3df55dfc	0.11980817
218	0xbce75a65	-0.028241346
219	0xbd2a75c5	-0.04161622
220	0x3e91e5b6	0.28495568
221	0x3ddb6633	0.10712852
222	0x3d4aa65b	0.049475055
223	0x3da5dcbb	0.080987416
224	0x3e33c052	0.17553833
225	0x3ef4201c	0.47680748
226	0x3e0c81fb	0.13721459
227	0xbdba6dfa	-0.091030076
228	0x3d3bbd9d	0.045835126
229	0x3e84c5aa	0.25932056
230	0x3e1623e7	0.14662133
231	0xbe06fe79	-0.13183011
232	0xbd58e851	-0.05295593
233	0xbe762f78	-0.24041545
234	0x3dffa929	0.124834366
235	0x3e2844e7	0.16432534
236	0xbd2a3704	-0.041556373
237	0x3e645025	0.22296198
238	0x3e816386	0.25271243
239	0xbdbbdf59	-0.091734596
240	0xbe73e5b5	-0.23818095
241	0xbe271ae4	-0.16318852
242	0xbeade3d6	-0.33962888
243	0xbe857741	-0.26067546
244	0xbe36d062	-0.17852929
245	0xbe8462a3	-0.25856504
246	0xbd4185e8	-0.047246844
247	0xbcd7ed4a	-0.026358265
248	0xbe767f55	-0.24072011
249	0xbe502c2e	-0.20329353
250	0xbe3f3b1b	-0.1867489
251	0xbe91df1b	-0.28490528
252	0xbebeab18	-0.3723991
253	0xbe8e10eb	-0.27747282
254	0xbe915d97	-0.28391716
255	0xbecfbb53	-0.40572605

bias f4 [24]
0	0xbe0a5210	-0.13507867
1	0xbe30b940	-0.17258167
2	0xbe965cee	-0.29367775
3	0xbe3609cf	-0.17777179
4	0xbe4ecbd4	-0.20194942
5	0xbe36419f	-0.1779847
6	0xbe1ca6c1	-0.15297987
7	0xbe48511d	-0.19562192
8	0xbeb95786	-0.36199588
9	0xbe42b623	-0.19014792
10	0xbe4f1ccc	-0.20225829
11	0xbe0b0507	-0.13576137
12	0xbe73c9e3	-0.23807482
13	0xbe0cde3b	-0.13756649
14	0xbe8a1e27	-0.2697613
15	0xbe46c782	-0.19412044
16	0xbe5326a9	-0.20620216
17	0xbe4cf0d3	-0.20013742
18	0xbe71be28	-0.23607695
19	0xbe76f6ae	-0.24117538
20	0xbe655925	-0.22397287
21	0xbe7a30fe	-0.24432752
22	0xbdfa059d	-0.12208102
23	0xbe82add4	-0.25523245

weight f4 [96, 24, 16]
0	0x3c873a3a	0.016507257
1	0xbe1205b6	-0.14259991
2	0x3ddd1449	0.10794885
3	0xbd5037c2	-0.050834425
4	0x3d1a8eb0	0.037733734
5	0xbe00810b	-0.12549226
6	0x3dfe9a83	0.124318145
7	0xbdaf6a1e	-0.08565162
8	0xbeaa9a00	-0.33320618
9	0x3c5e1e3c	0.013557013
10	0x3c751771	0.014959202
11	0x3c362101	0.011116267
12	0xbddee175	-0.10882846
13	0x3e3de517	0.18544422
14	0x3e246d54	0.1605733
15	0xbd9e7678	-0.0773744
16	0x3e4bb911	0.19894816
17	0xbd7c4304	-0.06158735
18	0x3d6c2dc7	0.057660844
19	0xbdfa52ef	-0.122228496
20	0x3e93cf31	0.28869012
21	0x3d80eca7	0.06295138
22	0x3daecd59	0.08535261
23	0xbdd146c4	-0.102185756
24	0xbd996a53	-0.07490983
25	0xbccc2e8b	-0.024924537
26	0x3e371cf4	0.17882138
27	0x3d966576	0.07343571
28	0xbc8a4d0f	-0.016882448
29	0x3debba9e	0.11510204
30	0x3e278f8b	0.16363351
31	0x3e5ba4b4	0.21449548
32	0x3e773e5c	0.24144882
33	0x3d46795b	0.048455577
34	0x3e59ad6e	0.21257564
35	0x3ea7b219	0.32753065
36	0x3c521d01	0.012824298
37	0x3e4315d8	0.19051301
38	0xbd056182	-0.032563694
39	0xbbd5f8e4	-0.006529914
40	0xbd853cc4	-0.06505731
41	0xbd331c46	-0.043728136
42	0xbe6e8389	-0.23292364
43	0x3d9a6fe0	0.0754087
44	0xbe01c2bb	-0.1267194
45	0x3da98cee	0.08278833
46	0xbe4f51cb	-0.20246045
47	0x3e920558	0.28519702
48	0xbe32bd11	-0.17454936
49	0x3daa44b1	0.08313883
50	0xbe6c5932	-0.230809
51	0xbe45372d	-0.19259329
52	0xbe3961f6	-0.18103775
53	0xbdb57c2e	-0.08861576
54	0xbdb274c9	-0.08713681
55	0xbd9f1e49	-0.07769448
56	0xbdfa367e	-0.12217425
57	0x3da23a86	0.07921319
58	0xbd5bf5d4	-0.053701237
59	0xbd075be3	-0.033046614
60	0x3cbca2a9	0.023026781
61	0x3d66a5cf	0.05631047
62	0xbe9167db	-0.28399548
63	0x3e24b3a5	0.16084154
64	0xbe2c915b	-0.16852324
65	0xbc472ad8	-0.012156211
66	0xbcc00cc1	-0.023443582
67	0xbdcc6402	-0.099800125
68	0xbc601799	-0.013677501
69	0x3c87d6e6	0.016581964
70	0x3dc1fc55	0.09471957
71	0xbe16922d	-0.14704199
72	0xbe90c4c4	-0.2827512
73	0xbde40b77	-0.11134999
74	0xbe4a0608	-0.19728863
75	0xbcc4e4a9	-0.024034815
76	0xbd2a846f	-0.041630205
77	0xbd5dfe31	-0.054197494
78	0xbe3c66b1	-0.18398549
79	0x3d657ca1	0.05602706
80	0xbe5ed05e	-0.21759173
81	0xbe9b356a	-0.3031419
82	0xbe1746d4	-0.14773113
83	0xbd101515	-0.035176355
84	0xbe000c55	-0.12504704
85	0xbd4f6b37	-0.050639357
86	0xbd77bf95	-0.06048544
87	0xbe300b8d	-0.17191906
88	0xbe85bf01	-0.26122287
89	0xbe808c1a	-0.2510689
90	0xbdae1640	-0.085003376
91	0xbcf5199e	-0.029919442
92	0xbe88cdfe	-0.2671966
93	0xbc9d653d	-0.019213313
94	0xbe13d307	-0.1443597
95	0xbd8ae0e6	-0.06781177
96	0xbd2c9d2c	-0.04214208
97	0xbe39ff51	-0.18163802
98	0xbdce926e	-0.10086523
99	0xbdafd4df	-0.08585524
100	0xbdc3b052	-0.09555115
101	0xbd85cc7e	-0.065331444
102	0x3cda9f1d	0.0266872
103	0xbe58fdda	-0.21190587
104	0xbe99c745	-0.30034843
105	0x3cfc81e2	0.030823652
106	0xbe406110	-0.18787026
107	0xbe56f844	-0.20993143
108	0x3d590ce8	0.052990824
109	0x3cbdb353	0.023156798
110	0xbe9f164d	-0.31071702
111	0xbe34c01e	-0.17651412
112	0x3e37af7b	0.17938034
113	0x3de6cbfc	0.11269376
114	0xbddebd05	-0.10875896
115	0xbe6c4726	-0.23074016
116	0x3c381032	0.01123433
117	0xbe12f10b	-0.14349763
118	0xbe4cdf25	-0.20006998
119	0xbd71612d	-0.058930565
120	0x3b53e79a	0.003233409
121	0xbe34cb8d	-0.17655773
122	0xbddeb840	-0.10874987
123	0x3d316181	0.043305878
124	0x3db944c2	0.09046318
125	0xbe517ef0	-0.20458579
126	0x3e17b816	0.14816317
127	0xbe09aff0	-0.13446021
128	0x3d4bd6a5	0.049765248
129	0x3d831e5c	0.06402275
130	0x3d04d04e	0.032425217
131	0x3c272610	0.010201946
132	0x3e33bc0b	0.17552201
133	0xbe1b248f	-0.15150665
134	0x3df356b9	0.118817754
135	0xbdcf78e3	-0.10130479
136	0xbe3efe32	-0.18651655
137	0xbc4b5511	-0.012410418
138	0x3d9378b1	0.072007544
139	0x3e21dea5	0.15807588
140	0xbda236cc	-0.07920608
141	0x3e19ada4	0.15007645
142	0x3ea39a72	0.3195377
143	0xbb606417	-0.0034239346
144	0xbe0660d9	-0.13122882
145	0xbd2dac71	-0.04240078
146	0xbd3d38ae	-0.046196632
147	0xbecdc945	-0.4019262
148	0xbd6c38f2	-0.057671495
149	0xbe0465e4	-0.12929493
150	0xbe63cf54	-0.22247058
151	0xbdb93a9b	-0.09044381
152	0xbe0a2f79	-0.13494672
153	0xbe632958	-0.2218374
154	0xbe2e893c	-0.17044538
155	0xbc58b5a1	-0.013226897
156	0x3d43180e	0.047630362
157	0x3c795d39	0.01521998
158	0x3e28440e	0.16432211
159	0xbdf4ddb9	-0.11956353
160	0x3de32374	0.110907465
161	0x3db0e963	0.08638265
162	0xbd7d6191	-0.061860625
163	0xbdc8de07	-0.09807973
164	0x3e5c0360	0.21485662
165	0x3bdfa0cb	0.006824588
166	0x3d0b3ede	0.0339955
167	0xbe0209a1	-0.12698986
168	0xbe641a3e	-0.22275636
169	0xbd81e889	-0.06343181
170	0xbd062ba6	-0.03275647
171	0x3eace8d9	0.337714
172	0xbd8abbf7	-0.06774133
173	0x3e81cfcf	0.25353858
174	0x3e62ea6c	0.22159737
175	0x3c2750ab	0.010212104
176	0xbe293672	-0.16524675
177	0xbdaa65f7	-0.083202295
178	0xbe17c3cc	-0.14820784
179	0xbeac393f	-0.33637425
180	0x3be59ad7	0.0070069837
181	0xbe8c848b	-0.27444872
182	0xbe9649ba	-0.29353124
183	0xbf001d02	-0.5004426
184	0xbe27a916	-0.16373095
185	0x3b435db6	0.0029810495
186	0xbe41d18e	-0.18927595
187	0xbb5ea97c	-0.0033975532
188	0xbe4c000c	-0.19921893
189	0xbe38fad6	-0.18064436
190	0xbe8609ec	-0.26179445
191	0xbdfb7ff2	-0.12280263
192	0x3e9811cc	0.29701078
193	0x3e695b1d	0.22788663
194	0xbe91df01	-0.2849045
195	0x3da5f20e	0.08102809
196	0x3e783b2b	0.24241321
197	0xbd2716fa	-0.040793397
198	0xbe1cb85d	-0.15304704
199	0xbd56d6cf	-0.05245095
200	0xbdbedc54	-0.09319368
201	0x3b28413f	0.0025673655
202	0x3d20aacb	0.03922538
203	0xbd89132e	-0.06693111
204	0x3d2a9497	0.041645613
205	0x3e0cd417	0.13752781
206	0x3e5cb508	0.21553433
207	0xbc9a391a	-0.018826056
208	0xbe8d976d	-0.2765459
209	0xbe752135	-0.23938449
210	0xbe67b28a	-0.22626701
211	0xbe7819fc	-0.24228662
212	0xbe962831	-0.2932754
213	0xbefd15ab	-0.49430594
214	0xbf0ec1a8	-0.55764246
215	0xbeaab34a	-0.33339912
216	0xbe434e39	-0.19072808
217	0xbe80a0ab	-0.2512258
218	0xbeab4095	-0.3344771
219	0xbe3cf4d0	-0.18452764
220	0xbc413e1c	-0.011794593
221	0xbe8c42af	-0.27394626
222	0x3ce5401f	0.027984677
223	0xbdb2fc3e	-0.08739518
224	0x3eb720ea	0.357673
225	0x3d65182f	0.055931266
226	0xbdf71bcf	-0.12065851
227	0x3dcedd3a	0.10100789
228	0x3e601ad3	0.21885233
229	0x3e0c4f0f	0.13702033
230	0x3b56a67c	0.003275304
231	0xbd8d612b	-0.06903299
232	0x3b139fbb	0.0022525627
233	0xbe3528f3	-0.17691402
234	0xbef4de74	-0.47825968
235	0xbc66d26a	-0.014088253
236	0x3ea4614e	0.32105488
237	0x3cf8b4e7	0.030359698
238	0xbe69549b	-0.2278618
239	0x3e09b1e8	0.13446772
240	0x3e7fa20e	0.24964163
241	0x3d38b33b	0.045092802
242	0xba3c81f6	-0.00071909965
243	0xbd8128a2	-0.06306578
244	0x3e93f3d7	0.28896973
245	0xbd646b2f	-0.05576628
246	0xbb5a0896	-0.0033269278
247	0x3d367ad0	0.044550717
248	0x3e33a967	0.1754509
249	0x3b9d02d6	0.004791598
250	0x3e220c79	0.1582507
251	0x3e8a3178	0.26990867
252	0xbe3a2ca4	-0.18181092
253	0xbd5adfbb	-0.053436022
254	0x3e7d9c69	0.24766697
255	0x3eba71cd	0.36414948

bias f4 [96]
0	0xbc30b6e7	-0.010785795
1	0x3dea8237	0.11450618
2	0x3dce485d	0.10072396
3	0xbd0a3bff	-0.033748623
4	0xbd4bae93	-0.049727034
5	0x3d9201a6	0.07129221
6	0xbc39462d	-0.011308235
7	0xbd3a4bd7	-0.045482483
8	0xbe1e3369	-0.15449299
9	0x3df372ff	0.11887168
10	0x3d8c2d5c	0.06844589
11	0xbde0fbea	-0.10985549
12	0xbd19713a	-0.037461497
13	0xbdb9ff04	-0.090818435
14	0xbd865801	-0.06559754
15	0x3d487790	0.04894215
16	0xbdd42e96	-0.10360448
17	0xbcea297b	-0.028584233
18	0xbd9c3d24	-0.07628849
19	0xbde11480	-0.10990238
20	0x3dc6dbf2	0.0970992
21	0xbd676bee	-0.056499414
22	0xbdef6bc0	-0.116904736
23	0x3e93b824	0.28851426
24	0xbd8ec626	-0.069713876
25	0x3d6bc2b1	0.05755872
26	0xbbd1c446	-0.0064015714
27	0xbce52421	-0.02797133
28	0xbc9b9e5f	-0.018996416
29	0xbd92b801	-0.07164002
30	0xbd18434a	-0.037173547
31	0xbe1b57b9	-0.15170182
32	0x3e0bdee8	0.1365925
33	0xbd67913b	-0.056534987
34	0xbda85cd0	-0.082208276
35	0xbd94f20f	-0.072727315
36	0xbe31a210	-0.17346978
37	0x3e1689ce	0.14701006
38	0xbd24977d	-0.040183533
39	0xbb4dfd82	-0.003143162
40	0xbd2750d4	-0.040848568
41	0x3dac8dbb	0.084254704
42	0x3e2d6342	0.16932395
43	0x3e1525d8	0.14565217
44	0x3d109099	0.03529415
45	0xbdbdea5a	-0.09273215
46	0xbdfd500f	-0.123687856
47	0xbd3f3b1c	-0.04668723
48	0xbc96d4b8	-0.01841198
49	0xbd8d43cb	-0.06897696
50	0xbce4e10a	-0.027939338
51	0xb9fbb34d	-0.0004800804
52	0xbcf1e6e3	-0.02952904
53	0x3d0899cb	0.033349793
54	0xbc956021	-0.018234314
55	0x3db6054b	0.08887728
56	0x3e2d19c8	0.16904366
57	0x3de2b6ea	0.11070044
58	0xbbd90b4f	-0.0066236625
59	0xbe14a79c	-0.14517063
60	0xbd095c93	-0.03353555
61	0xbbe31b00	-0.006930709
62	0x3e321fd9	0.17394961
63	0xbd370506	-0.044682525
64	0xbcbbae46	-0.022910248
65	0x3eac6271	0.33668855
66	0xbd8b6096	-0.06805532
67	0xbb247af4	-0.00250977
68	0xbd92bad9	-0.071645446
69	0xbcb7ae20	-0.022421896
70	0xbbfe0a7b	-0.007752714
71	0xbafb7eb9	-0.0019187547
72	0x3ca9a09e	0.020706471
73	0x3d22f4f9	0.039784405
74	0xbd87ba90	-0.06627381
75	0x3d727dc7	0.059201982
76	0x3d7a8312	0.061160155
77	0x3e43f4e8	0.19136393
78	0x3dd7d6fb	0.10539051
79	0x3e0af0a2	0.13568357
80	0xbe0a10f1	-0.13483025
81	0x3d762172	0.06009049
82	0xbd8d32fb	-0.068944894
83	0xbd8702b8	-0.065923154
84	0xbb625a7e	-0.00345388
85	0x3e516ca6	0.20451602
86	0xbdb8f7ed	-0.09031663
87	0x3e6b88c3	0.23001389
88	0xbd9af3ba	-0.075660184
89	0xbc47492d	-0.012163443
90	0x3d9f90e7	0.0779131
91	0xbc252a3d	-0.010080871
92	0xbd384956	-0.044991814
93	0x3dcc8d8b	0.09987935
94	0xbc7850ce	-0.015155984
95	0x3b7dbd19	0.0038717447

weight f4 [64, 3072]
0	0xbc915af2	-0.017743561
1	0xbcb766a4	-0.02238781
2	0x3c744710	0.014909521
3	0xbc6e5d37	-0.014548591
4	0x3c2b9d4d	0.010474515
5	0xbb2ccba9	-0.0026366508
6	0xbc9b1708	-0.01893188
7	0xbcc66d84	-0.024222143
8	0x3c4a7b8d	0.012358558
9	0xbb4cf7d9	-0.0031275658
10	0xbbfa5dd7	-0.007640581
11	0x3c719a83	0.014746311
12	0x3c305825	0.010763203
13	0xbc9d8705	-0.019229421
14	0xbc502b2b	-0.012705605
15	0xbb25c2ee	-0.002529319
16	0x3b9d6657	0.0048034596
17	0x3b2e0791	0.0026554803
18	0xbc9eb5fc	-0.019373886
19	0x3bd495c0	0.006487578
20	0x3c1c8ae8	0.009554602
21	0x3bce2c5e	0.00629191
22	0x3bf1cdb6	0.007379259
23	0x3b683749	0.0035433343
24	0xba77865a	-0.0009442322
25	0x3c4a29c7	0.012339062
26	0x3c89c603	0.016818052
27	0x3bc206ec	0.0059212353
28	0xbc42fc3b	-0.011900957
29	0xbd0f2975	-0.034951646
30	0xbd02c4c6	-0.03192594
31	0xbba596bf	-0.0050533707
32	0x3c201fdd	0.009773222
33	0xbb5e2502	-0.003389657
34	0x3c527345	0.012844865
35	0xbc8895be	-0.016672965
36	0xbbee27c2	-0.007267923
37	0x3baebd69	0.005332638
38	0xbc0e3154	-0.008678753
39	0xbcc0deb9	-0.023543702
40	0x3c186e8f	0.009303703
41	0xbc40a619	-0.011758351
42	0xbcccbb1d	-0.024991566
43	0xbbd5f091	-0.006528922
44	0x3bab25d1	0.005223014
45	0xbae43151	-0.0017409717
46	0xbc8702e0	-0.016480863
47	0x3b455806	0.003011228
48	0xbc2cdd66	-0.010550832
49	0xbc085bed	-0.008322698
50	0xb98acaaa	-0.00026472408
51	0xbc8387dd	-0.016055996
52	0xbc9cdae1	-0.019147338
53	0xbccb13dd	-0.024789745
54	0xbbf5d710	-0.007502444
55	0xbca1680e	-0.019702937
56	0x3a5a843b	0.0008335744
57	0xbb66962a	-0.003518472
58	0xbb387916	-0.0028148345
59	0xbc59cc1e	-0.013293294
60	0x3c0ae030	0.008476302
61	0xbcf895c9	-0.03034486
62	0x3b419ad5	0.002954175
63	0x3b2b6508	0.0026152749
64	0xbc8056cb	-0.015666386
65	0xbcf7397b	-0.030178776
66	0xbc94e3b6	-0.018174987
67	0xbd27b0b6	-0.04094001
68	0xbcb90a76	-0.022587996
69	0xbc546958	-0.012964569
70	0xbba564f5	-0.0050474354
71	0xbcad5b18	-0.021161601
72	0xbc6f6114	-0.014610548
73	0x3b4c49ed	0.0031171993
74	0xbb9dc910	-0.0048152283
75	0xbbc47747	-0.0059956643
76	0xbc118876	-0.0088826325
77	0xbd4c83d5	-0.049930412
78	0xbca8df21	-0.020614209
79	0xbb1bab1c	-0.0023753112
80	0xbc84b9d3	-0.01620189
81	0xbcd54fc7	-0.026039017
82	0xbca1c5ab	-0.019747576
83	0xbb806a8b	-0.003918951
84	0xbcccadbd	-0.024985189
85	0xbc786e3d	-0.015163002
86	0xbca1194c	-0.019665383
87	0xbc9d7011	-0.019218476
88	0xbbd0423a	-0.006355551
89	0xbd2d2e6e	-0.042280607
90	0xbd3ec3a4	-0.046573296
91	0xbd487249	-0.048937116
92	0xbca00602	-0.019534115
93	0xbc5149b8	-0.012773924
94	0xbc8496e5	-0.016185233
95	0xba05a965	-0.0005098789
96	0x3c2600ac	0.010131996
97	0xbc4f5983	-0.012655619
98	0xbc1f7b74	-0.009734023
99	0xbc0a533c	-0.008442696
100	0xbc4805e0	-0.012208432
101	0xbbd00ed9	-0.006349426
102	0xbc02f65a	-0.007993305
103	0x3c415b15	0.011801501
104	0xb9243692	-0.00015660588
105	0x3c031078	0.007999532
106	0xbbc72148	-0.0060769655
107	0x3c345140	0.0110057
108	0xbcc4b844	-0.024013646
109	0xbc798bc2	-0.015231075
110	0xbad1e7ca	-0.0016014513
111	0xbc615b8b	-0.013754736
112	0xbbb0b10f	-0.005392201
113	0xbc8fbd10	-0.017546207
114	0x3b3e7cca	0.002906608
115	0x3b4c7b01	0.0031201246
116	0x3c8687b7	0.016422136
117	0x3c51a049	0.012794563
118	0xbb451d8f	-0.0030077433
119	0xbc85c698	-0.016330048
120	0x3b40d2bf	0.002942249
121	0xbc09dd0f	-0.008414521
122	0xbc5b093e	-0.013368903
123	0x3c4d60d9	0.012535297
124	0xbc96020c	-0.018311523
125	0x3bb2d926	0.005458015
126	0x3b8ca9e3	0.004292713
127	0x3b932529	0.004490514
128	0xbb6e4365	-0.0036356088
129	0x3c288dd0	0.010287717
130	0xbc1ad8d9	-0.009451115
131	0xbb8366ef	-0.0040100734
132	0xb9b04ee9	-0.0003362813
133	0xbb639801	-0.0034728053
134	0xbca6ea14	-0.020375289
135	0xb92ed8c5	-0.00016674686
136	0x3b955bfe	0.0045580855
137	0xbc0c8e5a	-0.008578861
138	0xbc9c5173	-0.019081807
139	0x3beed0dd	0.007288082
140	0xbcbbcef0	-0.022925824
141	0xbc9f988d	-0.019481922
142	0xbc9d3c2c	-0.019193731
143	0x3c2c7eee	0.010528309
144	0xbbaafa80	-0.00521785
145	0x3ac6fa60	0.0015180819
146	0x3c2e2643	0.0106292395
147	0xbb84edf8	-0.0040566884
148	0xbc5497fb	-0.012975688
149	0xbbb2f92f	-0.005461834
150	0xba76e010	-0.0009417543
151	0xbc4572a5	-0.012051259
152	0x3b144f7c	0.0022630384
153	0x3aeaf137	0.0017924671
154	0x3c0a861b	0.008454825
155	0xbca90f68	-0.02063723
156	0x3a900d1a	0.0010990233
157	0x3c42fa39	0.011900478
158	0x3b091717	0.0020918304
159	0x3b83d60e	0.00402332
160	0x3c1fd675	0.00975572
161	0x39faff1e	0.00047873793
162	0x3b1418b6	0.0022597737
163	0xbcb6a736	-0.02229653
164	0xbc3fcf32	-0.011707114
165	0x3c30b9fa	0.010786528
166	0x3c086911	0.008325831
167	0x39488293	0.00019122129
168	0xbc2b86bf	-0.010469138
169	0x3c7d052f	0.01544313
170	0x3c3f6a41	0.011683048
171	0xbc3d19a6	-0.01154176
172	0xbca0a55b	-0.019610098
173	0x3b0664ce	0.0020506862
174	0xbc2cfb7d	-0.010558006
175	0x3a38eea7	0.0007054605
176	0xbbd8573b	-0.0066021956
177	0xbc70338d	-0.014660728
178	0x3bb3bfd2	0.0054855132
179	0xbb019402	-0.0019772057
180	0x3bd8e08b	0.0066185645
181	0xbb84f085	-0.0040569925
182	0xbc9f1a0a	-0.019421596
183	0x3c60f7af	0.013730927
184	0x3c15326e	0.009106262
185	0xbc91fd9b	-0.017821124
186	0x3c82a766	0.015948962
187	0xbb550fdf	-0.003251068
188	0xbd00fcd0	-0.0314911
189	0xbd12ce20	-0.035841107
190	0xbb96258e	-0.0045821136
191	0x3b8c0592	0.004273125
192	0x3c0a955c	0.008458462
193	0xbca75fd2	-0.020431433
194	0x3b849394	0.004045913
195	0xbc2db4d7	-0.010602198
196	0xbcc15b10	-0.023602992
197	0xbb98bbfe	-0.0046610823
198	0xbcc84673	-0.024447655
199	0x3c27c69b	0.010240222
200	0x3c04b242	0.008099141
201	0x3c475b42	0.012167754
202	0x3c22a6bf	0.009927451
203	0x3c0b6c5c	0.008509722
204	0x3bef5f4f	0.007305063
205	0xbc1a342d	-0.009411854
206	0xbc8b97c9	-0.01704015
207	0xbbdcae0e	-0.006734616
208	0x3c65e9f4	0.01403283
209	0xb9908290	-0.00027563097
210	0xbc58458f	-0.013200178
211	0xbc570348	-0.013123341
212	0xbc93671c	-0.017993502
213	0xbc80f9a4	-0.015744038
214	0xbc364385	-0.011124496
215	0xbcb6d2a5	-0.02231724
216	0xbc85d860	-0.016338527
217	0xbc4816ed	-0.012212497
218	0xbc6f0552	-0.014588671
219	0xbb2ea959	-0.0026651232
220	0xbc5a2ea3	-0.013316783
221	0xbb5479c8	-0.003242122
222	0xbc8a5867	-0.016887857
223	0xbcae9f13	-0.021316087
224	0xbba76b20	-0.005109206
225	0x3c0f5b9c	0.008749869
226	0xbc8bc968	-0.017063811
227	0xbb2f4681	-0.0026744904
228	0xba9ae947	-0.001181879
229	0xba08c0b0	-0.0005216701
230	0x3caec451	0.021333845
231	0xbc83fe0c	-0.01611235
232	0xbca9ad8d	-0.020712638
233	0xbbf229d0	-0.0073902383
234	0xbc0513b1	-0.008122371
235	0x3b97c502	0.0046316395
236	0x3aef6861	0.001826536
237	0x3b042316	0.0020162514
238	0xbc32bbf2	-0.0109090675
239	0xbc2bc994	-0.010485072
240	0xbc338104	-0.010956053
241	0xbc9c9ffd	-0.019119257
242	0xbc030fa5	-0.007999335
243	0xbc68d166	-0.014210081
244	0xbca30eda	-0.019904543
245	0xbc0e6cc4	-0.008692924
246	0xb95d4c84	-0.00021104707
247	0xbbb48a09	-0.005509619
248	0x3c0452cb	0.00807638
249	0x3b41e0ac	0.0029583378
250	0xbca2d933	-0.01987896
251	0xbb696b00	-0.0035616755
252	0xbc5fd841	-0.013662399
253	0xbc7494f6	-0.014928093
254	0x3aa9ba8a	0.001294927
255	0xbaba0b3d	-0.0014194023

bias f4 [64]
0	0xbbb3754b	-0.005476629
1	0xbcba1863	-0.022716707
2	0xbcae437d	-0.021272415
3	0xbc957a78	-0.018246874
4	0xbdc3b8da	-0.09556742
5	0x3e71d544	0.2361651
6	0xbce20eb1	-0.027594896
7	0xbd04f658	-0.032461494
8	0xbce25f9d	-0.027633483
9	0xbc865dfa	-0.016402233
10	0xbd68a8fb	-0.056801777
11	0xbd8ec558	-0.06971234
12	0xbdda27d7	-0.1065213
13	0xbd89b346	-0.06723647
14	0xbd4ee132	-0.05050773
15	0x3eb94d12	0.36191612
16	0xbbca2940	-0.006169468
17	0xbc0ce86f	-0.008600338
18	0xbbed7eaf	-0.007247768
19	0xbc3160d8	-0.010826312
20	0xb9e2b5a9	-0.00043241426
21	0x3ad9ce46	0.001661726
22	0xbd7052ed	-0.058672834
23	0x3eb3a45b	0.3508633
24	0x3e971673	0.29509315
25	0xbbd4e05e	-0.006496473
26	0xbe3d00f6	-0.18457398
27	0xbcda83f0	-0.02667424
28	0xbd542602	-0.05179406
29	0x3bd64e23	0.0065400763
30	0xbd1773d2	-0.03697569
31	0xbc1cbb38	-0.009566121
32	0x3b8ba0b3	0.0042611
33	0xbca8279b	-0.020526698
34	0xbd14154c	-0.036153123
35	0xbe2e06d0	-0.16994786
36	0xbcd0b51f	-0.02547699
37	0x3c2250c0	0.009906948
38	0x3c0b312c	0.00849561
39	0xbda70edf	-0.08157133
40	0xbe6bdffb	-0.2303466
41	0x3db6c9ad	0.08925185
42	0xbcea1d85	-0.02857853
43	0xbc208a9e	-0.009798674
44	0xbcfbde62	-0.030745689
45	0xbcc31901	-0.023815634
46	0xbcb73e05	-0.02236844
47	0xbc724bf3	-0.0147886155
48	0x3ba2e6cc	0.004971361
49	0xbad1c526	-0.0016004189
50	0xbd817a33	-0.06322136
51	0xbdb5736e	-0.08859907
52	0xbcd12ff5	-0.025535563
53	0xbd46dad9	-0.048548553
54	0x3bbd4ff1	0.005777352
55	0xbbc6b9c6	-0.0060646264
56	0x3daeee8f	0.08541595
57	0xbcbbd3d2	-0.022928152
58	0xbcb592ca	-0.022164721
59	0x39d6b86f	0.00040954674
60	0xbc85e043	-0.016342288
61	0xbc240079	-0.010009878
62	0xbc783045	-0.015148227
63	0xb99ebd38	-0.00030277087

weight f4 [25, 64]
0	0x3d78bb5e	0.060725562
1	0xbc4deecd	-0.012569142
2	0xbdae4856	-0.08509891
3	0x3cf50802	0.029911045
4	0x3cc02a85	0.023457775
5	0x3e0885ed	0.13332339
6	0xbc69eebf	-0.014278113
7	0x3d3041a0	0.043031335
8	0xbd5a82d1	-0.053347412
9	0xbcd79c10	-0.026319534
10	0xbc965054	-0.01834885
11	0xbd9aefd1	-0.075652726
12	0xbce9c7e8	-0.028537706
13	0xbe03975e	-0.12850711
14	0x3cf2052a	0.029543478
15	0xbe7ded4d	-0.24797554
16	0x3d81fa55	0.06346575
17	0x3db6b5f8	0.089214265
18	0xbdd3f90f	-0.103502385
19	0x3dbb915b	0.09158584
20	0x3d7aac07	0.061199214
21	0x3e04872d	0.1294219
22	0xbad5da85	-0.0016315734
23	0x3d7da3a1	0.061923627
24	0x3e83c854	0.25738776
25	0x3cda81e6	0.026673269
26	0x3cb234e3	0.021753734
27	0x3d8986c0	0.06715155
28	0x3c7697c1	0.015050829
29	0xbdc7bb3f	-0.09752511
30	0xbdaba010	-0.08380139
31	0xbb8eb6a2	-0.0043552676
32	0x3da49f18	0.08038157
33	0x3ca6b329	0.020349102
34	0x3c333ec3	0.0109402565
35	0xbe9f26b1	-0.31084207
36	0x3d176de7	0.036970045
37	0xbc86b901	-0.016445639
38	0xbd9006c8	-0.070325434
39	0xbe611033	-0.21978836
40	0xbd7d108d	-0.061783362
41	0xb9f602e2	-0.00046922924
42	0x3d0b4f32	0.034011073
43	0xb996995a	-0.00028724485
44	0x3c07562c	0.008260291
45	0xbd88e0c4	-0.06683496
46	0xbdcc608b	-0.099793516
47	0xbdbd59d7	-0.09245651
48	0x3dc62517	0.09675043
49	0x3df02cf0	0.11727321
50	0xbc27b755	-0.010236581
51	0xbdc906de	-0.09815763
52	0xbda07984	-0.07835677
53	0x3cbea4a7	0.023271872
54	0x3d8079b7	0.06273215
55	0xbd8b0f8e	-0.06790076
56	0xbe9d83e7	-0.30764696
57	0xbd6722de	-0.056429736
58	0x3cf1683b	0.029468646
59	0xbd9ef93b	-0.07762381
60	0xbdbce606	-0.09223561
61	0xbde7e5fb	-0.11323162
62	0xbb1031fc	-0.002200245
63	0xbdaff91e	-0.08592437
64	0xbd40e753	-0.047095608
65	0x3dc426aa	0.09577687
66	0x3dc7b8ac	0.0975202
67	0x3d23f65b	0.040029865
68	0xbdcaf4da	-0.09909983
69	0xbedcca8c	-0.4312328
70	0xbd7d3d1f	-0.061825868
71	0xbd8a7588	-0.067606986
72	0x3db2f7aa	0.087386444
73	0x3c907227	0.017632557
74	0xbdae0836	-0.0849766
75	0xbe290071	-0.16504075
76	0x3c4b5d75	0.012412419
77	0xbd83615a	-0.06415053
78	0x3cd15572	0.025553439
79	0xbd9a8476	-0.07544796
80	0xbd8819b9	-0.06645531
81	0xbdd97f52	-0.106199875
82	0x3c7c3dd5	0.015395601
83	0xbdc43d86	-0.09582047
84	0x3ba10831	0.0049143066
85	0xbcae38e6	-0.021267366
86	0x3cc65088	0.024208322
87	0xbe83952e	-0.25699753
88	0xbd0b9a76	-0.034082852
89	0x3dda7025	0.10665921
90	0x3d931d0d	0.07183275
91	0xbdd27515	-0.10276238
92	0x3db67a96	0.089101
93	0xbe004e43	-0.12529854
94	0x3c4c0876	0.012453189
95	0xbd390fcf	-0.045181092
96	0xbdb163e7	-0.08661633
97	0x3da8171b	0.08207532
98	0x3c05c69a	0.008165026
99	0x3dfa81d1	0.12231792
100	0xbd68c699	-0.056830022
101	0xbd5aa4c5	-0.053379793
102	0x3d8b0b38	0.06789249
103	0xbe13331a	-0.14374962
104	0x3d36cefa	0.044630982
105	0xbf0755ea	-0.5286547
106	0x3cf4c72c	0.029880129
107	0xbdd40e8c	-0.10354337
108	0xbdec707b	-0.115448914
109	0x3d8a9f1e	0.067686304
110	0x3c19ef08	0.009395368
111	0xbcaaa6a5	-0.020831415
112	0x3dca76ec	0.09885964
113	0x3deccc8e	0.11562453
114	0x3db9db50	0.09075034
115	0x3cbe5d3d	0.023237819
116	0xbcb4ea18	-0.02208428
117	0xbdb4f017	-0.08834856
118	0x3d87f894	0.066392094
119	0x3dcc590b	0.09977921
120	0xbd28a3b6	-0.041171752
121	0x3d9064a9	0.070504494
122	0xbce68f8c	-0.02814462
123	0x3ccadab2	0.024762485
124	0x3d1edf6a	0.038787283
125	0xbd4b7d43	-0.049680006
126	0x3d106ed3	0.03526194
127	0x3acd6d60	0.0015672855
128	0x3dfb5547	0.12272125
129	0x3d7cac16	0.06168755
130	0xbaffbdcd	-0.0019511521
131	0x3c05bc39	0.008162552
132	0x3c9c4e15	0.019080201
133	0xbc8b517b	-0.017006626
134	0x3ce1b793	0.027553355
135	0xbc80f2ae	-0.015740719
136	0x3d01347f	0.031544205
137	0x3d2efd05	0.042721767
138	0x3cbde7ae	0.023181763
139	0x3e11887b	0.1421222
140	0xbe29e589	-0.16591467
141	0xbcceb12e	-0.02523097
142	0x3d4636c2	0.048392065
143	0xbeca3cd3	-0.3949953
144	0xbdd438f1	-0.10362423
145	0xbcf167b3	-0.029468393
146	0xbdf79413	-0.1208879
147	0xbcaff0c0	-0.021477103
148	0xbdd4e73b	-0.10395666
149	0x3d879967	0.06621056
150	0xbd40ad2e	-0.047040157
151	0x3e0ccdab	0.13750331
152	0x3e92a48e	0.2864117
153	0x3d4a5e69	0.049406443
154	0xbe23d51c	-0.15999264
155	0xbc9b2709	-0.018939512
156	0x3d3fca22	0.04682363
157	0xbdef2c77	-0.11678403
158	0xbd15174c	-0.03639917
159	0xbd883782	-0.06651212
160	0xb98b41a7	-0.0002656106
161	0x3dcae1fe	0.09906386
162	0x3dbcf72c	0.09226832
163	0x3c8847e7	0.016635848
164	0x3de65c70	0.112481
165	0xbbb07eda	-0.0053862156
166	0x3da73fb5	0.08166448
167	0xbe038661	-0.1284423
168	0xbe2c0650	-0.16799283
169	0x3e481d55	0.1954244
170	0xbdaa0973	-0.083025835
171	0xbd8c29bd	-0.068438984
172	0x3bae46fe	0.0053185215
173	0x3da9af4a	0.08285387
174	0xbd791bb6	-0.060817443
175	0x3c0a6aa2	0.008448275
176	0xbd7c55cc	-0.06160526
177	0xbde6934d	-0.11258564
178	0xbdb3df04	-0.08782771
179	0xbd979968	-0.07402307
180	0x3da87bf5	0.08226768
181	0x3dad9f0c	0.084776014
182	0xbdbe4dd8	-0.09292191
183	0x3de7d855	0.11320559
184	0xbe76fd11	-0.24119975
185	0xbde7a7d4	-0.113113075
186	0x3cf224b5	0.029558519
187	0x3d36438a	0.044498004
188	0x3d444946	0.04792144
189	0x3de15108	0.110017836
190	0xbded9898	-0.116013706
191	0xbd4de8e5	-0.050270934
192	0x3c936214	0.017991103
193	0xbcdcdf71	-0.026962014
194	0x3cbfa128	0.023392275
195	0xbd1fffa3	-0.039062154
196	0xbd408e59	-0.047010753
197	0xbea554a2	-0.32291132
198	0x3d43e7fe	0.047828667
199	0xbce84af5	-0.028356055
200	0x3da37442	0.07981159
201	0x3dff9ce3	0.12481096
202	0xbcedcbe9	-0.029027896
203	0xbe315513	-0.1731761
204	0x3d64b9aa	0.055841126
205	0xbe179284	-0.14801985
206	0xbdbf3aba	-0.09337373
207	0xbeea7f79	-0.4580038
208	0xbdb32caf	-0.08748757
209	0xbdbba598	-0.09162444
210	0xbd92eb8c	-0.07173833
211	0xba95ab6e	-0.0011418888
212	0xbd97a82e	-0.074051246
213	0xbdee6967	-0.11641198
214	0x3d24248f	0.040073927
215	0x3c73f260	0.01488933
216	0x3c28c70f	0.0103013655
217	0xbc3aec7d	-0.011408922
218	0xbdaec48e	-0.085335836
219	0x3d522a16	0.051309668
220	0xbde0a6b0	-0.10969293
221	0x3dce082b	0.10060152
222	0xbe18ad5a	-0.14909878
223	0x3d254fcd	0.040359307
224	0x3d7ba1a5	0.061433453
225	0xbdbefcff	-0.09325599
226	0xbccd4a84	-0.025059946
227	0xbd7b41b4	-0.061341956
228	0x3d9b6df6	0.07589333
229	0x3dcfadcd	0.10140572
230	0x3d36c622	0.044622548
231	0xbdbc616c	-0.09198269
232	0x3e4974e3	0.19673495
233	0xbe51ea82	-0.20499614
234	0xbcb6f52e	-0.022333708
235	0xbdd91949	-0.10600526
236	0x3b8777bf	0.004134148
237	0xbdbcf9b4	-0.092273146
238	0xbd714799	-0.05890617
239	0x3b923f2e	0.004463098
240	0xbddac37f	-0.10681819
241	0xbdae7a39	-0.08519406
242	0x3d38d990	0.04512936
243	0x3d78c8d8	0.060738415
244	0x3cecd318	0.028909251
245	0x3c342e2b	0.010997335
246	0xbdba029f	-0.09082531
247	0x3cf2f51a	0.02965789
248	0x3d3345bc	0.043767676
249	0x3d5d8f0a	0.05409149
250	0xbde664dd	-0.11249707
251	0x3d4055df	0.046956893
252	0x3ddcd2ec	0.10782418
253	0xbc01897a	-0.007906312
254	0x3dcfd8fc	0.10148808
255	0xbc4c8533	-0.012482929

bias f4 [25]
0	0xbddce039	-0.107849546
1	0x3c282863	0.010263535
2	0x3e51cd76	0.20488533
3	0xbe704e51	-0.23467375
4	0x3da65e44	0.081234485
5	0x3d976ffc	0.07394406
6	0x3eb4438c	0.35207784
7	0x3e71797c	0.23581499
8	0x3e04ccab	0.129687
9	0x3e2b98ec	0.16757554
10	0x3ebd9b43	0.37032518
11	0x3ea3ffe7	0.32031175
12	0x3ec0f858	0.3768947
13	0xbde9a815	-0.11409012
14	0x3d86d6d5	0.06583945
15	0x3d8589d6	0.06520431
16	0xbb46fcc8	-0.0030363072
17	0x3be50780	0.0069894195
18	0xbe8f5027	-0.2799084
19	0xbdaaf280	-0.083470345
20	0x3d552451	0.052036587
21	0xbf0883a9	-0.533259
22	0xbd21f745	-0.039542455
23	0xbe267ea0	-0.16259241
24	0xbe9ed98d	-0.31025353
