result/config6/preliminary_model13.pt (torch_old, 996807 bytes, 8 tensors)

weight f4 [24, 2, 192]
0	0xbeaf44ea	-0.34232265
1	0x3d15ca79	0.036570046
2	0x3de2489d	0.11049006
3	0x3e521985	0.20517547
4	0x3d990eb4	0.074735075
5	0xbe54747e	-0.20747563
6	0xbc8eaea1	-0.017417254
7	0xbe163ad9	-0.14670886
8	0xbe1d1f89	-0.15344061
9	0xbe8accb4	-0.271093
10	0xbda1c6b9	-0.078992315
11	0x3d7ca12d	0.061677147
12	0xbdd67fa3	-0.104735635
13	0xbec08ad0	-0.37605906
14	0xbd528866	-0.05139961
15	0x3e58fd0b	0.21190278
16	0x3e36cfe6	0.17852744
17	0x3e07f9b8	0.13278854
18	0xbd597451	-0.053089444
19	0xbdc860e1	-0.09784103
20	0xbc401a60	-0.011725038
21	0xbd7a8642	-0.061163194
22	0xbe762801	-0.24038698
23	0x3d68ba1a	0.056818105
24	0x3e32f913	0.17477827
25	0x3e6b002b	0.22949283
26	0x3de5193b	0.11186453
27	0x3e9c9e45	0.305895
28	0x3eac334f	0.33632895
29	0x3ec92ffa	0.39294416
30	0x3e88e309	0.26735714
31	0x3e87c469	0.26517037
32	0x3d5c1540	0.053731203
33	0x3e2363ed	0.15956087
34	0x3eab2b1f	0.33431336
35	0x3ed5e807	0.41778585
36	0x3e48ec2f	0.19621347
37	0x3e0657c1	0.13119413
38	0x3d99605c	0.07489082
39	0xbd241ae4	-0.040064707
40	0x3e1f5a29	0.15561737
41	0x3d06b212	0.032884665
42	0xbe6d98a8	-0.23202765
43	0x3e18eefe	0.14934918
44	0x3ed02dfc	0.40660083
45	0x3eb1735a	0.3465832
46	0x3dd9f863	0.10643079
47	0xbeae33be	-0.3402385
48	0x3e199318	0.14997518
49	0xbdf8faaa	-0.121571854
50	0xbcedb49c	-0.029016785
51	0x3dc5721c	0.09640905
52	0xbba310d1	-0.00497637
53	0x3db3505d	0.087555625
54	0xbd858ea0	-0.06521344
55	0xbd53fc2e	-0.05175417
56	0x3ce512bb	0.027963033
57	0x3e55c016	0.20874056
58	0x3e23b883	0.15988354
59	0xbe53f1d0	-0.20697713
60	0xbebaeb66	-0.3650772
61	0xbe3c99cd	-0.18418045
62	0xbdbb5719	-0.09147472
63	0xbce3304b	-0.027732989
64	0xbe7d3b47	-0.24729644
65	0xbe188e07	-0.14897929
66	0xbd899e35	-0.06719629
67	0xbd488003	-0.048950206
68	0x3d340323	0.043948304
69	0xbc258d46	-0.010104483
70	0x3e416c68	0.1888901
71	0x3e55f60c	0.2089464
72	0x3d44e310	0.048068106
73	0xba54befd	-0.00081156177
74	0xbe187ff3	-0.14892559
75	0xbeaf0208	-0.34181237
76	0xbea86586	-0.32889956
77	0xbc5c7085	-0.013454561
78	0xbc221836	-0.009893468
79	0xbe9fe4de	-0.312293
80	0xbd01fa5b	-0.0317329
81	0xbe049349	-0.1294681
82	0xbd6184ff	-0.055058476
83	0x3dcec07f	0.100953095
84	0x3ceec823	0.029148167
85	0xbdbacd2d	-0.091211654
86	0xbdc00c7d	-0.09377382
87	0xbe97b349	-0.2962897
88	0xbe988a80	-0.29793167
89	0xbe9871e6	-0.29774398
90	0xbe7dc20a	-0.24781051
91	0x3d01c7c1	0.03168464
92	0x3c47db20	0.01219824
93	0x3daadb3d	0.08342598
94	0x3d6c7d89	0.057736907
95	0x3ec973f4	0.39346278
96	0x3e2201f6	0.1582106
97	0x3dacb1f3	0.084323786
98	0x3c90f7d6	0.017696302
99	0xbd91fb80	-0.07128048
100	0x3dd6fc92	0.10497393
101	0x3d2ba39c	0.041904077
102	0x3ccc0aa5	0.02490742
103	0x3e268333	0.16260986
104	0x3e851e3c	0.2599963
105	0xbd3e378b	-0.04643969
106	0x3db69470	0.08915031
107	0x3e222dd1	0.1583779
108	0x3e423eee	0.18969318
109	0x3da60a2b	0.08107408
110	0x3de3cd4b	0.11123141
111	0x3da273af	0.07932221
112	0x3dc3653f	0.095407955
113	0x3e494391	0.19654681
114	0x3e83c9b5	0.25739828
115	0x3e354325	0.17701395
116	0xbc003546	-0.007825201
117	0xbd8a7836	-0.0676121
118	0xbe9d044d	-0.30667344
119	0xbdcb881c	-0.0993807
120	0xbdbdae09	-0.0926171
121	0x3cc27500	0.02373743
122	0x3e98fa26	0.29878348
123	0x3ed00344	0.4062749
124	0x3e23f0ce	0.16009828
125	0xbdda1730	-0.10648954
126	0x3eadeb7b	0.3396872
127	0x3e799991	0.24374987
128	0x3daf42c7	0.08557659
129	0x3e501ebb	0.20324223
130	0x3f0930ac	0.5358989
131	0x3f07158a	0.5276724
132	0x3e985739	0.29754046
133	0x3e0c7ced	0.1371953
134	0x3ce39cf7	0.027784808
135	0x3e20cf3a	0.1570405
136	0x3ba45ed3	0.0050161867
137	0x3e583a92	0.21116093
138	0x3e325025	0.17413385
139	0x3e52cd82	0.20586208
140	0x3c0ff16d	0.008785588
141	0xbd4451bd	-0.047929514
142	0x3e757e74	0.2397402
143	0x3e16e23f	0.14734744
144	0xba9f004c	-0.0012130826
145	0x3dababa6	0.08382349
146	0xbc7a7dbf	-0.015288769
147	0xbe029520	-0.12752199
148	0xbe0113f1	-0.12605263
149	0xbe24b62c	-0.16085118
150	0xbdc5db72	-0.096609965
151	0xbd92c4fd	-0.07166479
152	0xbd904709	-0.07044799
153	0xbe620ef1	-0.22076012
154	0xbe83406b	-0.25635085
155	0xbe4c02ee	-0.19922993
156	0xbe13d491	-0.14436556
157	0xbea7d834	-0.32782137
158	0xbe756267	-0.23963319
159	0xbe4c0660	-0.19924307
160	0xbe2f31d5	-0.17108853
161	0xbe34762d	-0.17623205
162	0xbe96848c	-0.29398
163	0xbe92afc0	-0.28649712
164	0xbe180527	-0.14845715
165	0xbb501ee2	-0.003175669
166	0x3df0e047	0.117615275
167	0x3dc662ed	0.09686837
168	0x3dc56908	0.09639174
169	0x3dd30927	0.1030448
170	0xbd5899ed	-0.05288117
171	0x3b9c257e	0.0047652116
172	0x3e0e1c15	0.138779
173	0xbbb657b8	-0.005564656
174	0x3d1b1bee	0.037868433
175	0x3e7c7c2b	0.24656741
176	0x3e5a6c3a	0.21330348
177	0xbe12faf2	-0.1435354
178	0xbe86c632	-0.26323086
179	0xbdafc188	-0.08581835
180	0xbe25c837	-0.16189657
181	0xbe1194d3	-0.14216928
182	0xbdfe1892	-0.1240703
183	0x3ce30b2d	0.02771529
184	0x3cd70e88	0.026252046
185	0xbce71fb7	-0.028213365
186	0x3befe25c	0.0073206853
187	0xbd1b5227	-0.037920143
188	0xbdc9b059	-0.09848089
189	0xbe6219d6	-0.22080168
190	0xbe280d5f	-0.1641135
191	0xbe3fa60a	-0.18715683
192	0xbd416e18	-0.047224134
193	0xbdbe38d7	-0.09288185
194	0xbea49228	-0.32142758
195	0x3e52cbcf	0.2058556
196	0xbe4e9a5b	-0.2017607
197	0xbe9161c8	-0.28394914
198	0xbde825d0	-0.11335337
199	0xbea07eae	-0.3134665
200	0xbe25f8a9	-0.16208138
201	0xbd841ab4	-0.06450406
202	0x3d0cbbf7	0.034358945
203	0xbdc293de	-0.0950086
204	0xbdbfa35f	-0.093573324
205	0x3e38bc07	0.18040477
206	0x3e9acf55	0.30236307
207	0x3e7c608e	0.24646208
208	0x3ee90a7f	0.4551582
209	0x3e9dc46f	0.3081393
210	0x3ebdd1fc	0.37074268
211	0x3ed838e6	0.4223091
212	0x3e9101cb	0.2832168
213	0x3ede46b1	0.43413308
214	0x3f0a88a5	0.54114753
215	0x3ed98da4	0.42490876
216	0x3e25b1d3	0.16181116
217	0x3e1e3f1a	0.15453759
218	0x3d708811	0.058723513
219	0x3d3911d2	0.04518301
220	0x3eaf11cb	0.34193262
221	0x3d0d7dc1	0.034543756
222	0xbd5aa8f0	-0.053383768
223	0xbc20c06d	-0.009811503
224	0x3e3aa9ff	0.18228911
225	0x3f022629	0.5083948
226	0x3da6a0da	0.08136149
227	0xbd5e70be	-0.054306738
228	0x3d540146	0.051759027
229	0x3e594f9c	0.21221775
230	0x3e0592dd	0.13044305
231	0xbe3ff41b	-0.18745463
232	0xbd757b47	-0.05993202
233	0xbe801702	-0.25017554
234	0x3d35533d	0.044268835
235	0x3e68b35a	0.22724667
236	0xbd837613	-0.06419005
237	0x3dd1e400	0.10248566
238	0x3e597e61	0.21239616
239	0xbdf2c411	-0.11853803
240	0xbeb4ac7c	-0.35287845
241	0xbe062041	-0.13098241
242	0xbeb1bce4	-0.34714425
243	0xbeafe029	-0.34350708
244	0xbe79cfeb	-0.2439572
245	0xbe8c4245	-0.2739431
246	0xbd7ea936	-0.06217309
247	0xbd822581	-0.063548096
248	0xbe643c6c	-0.22288674
249	0xbe6c8744	-0.23098475
250	0xbe61c4e5	-0.22047766
251	0xbe926908	-0.28595757
252	0xbeba2ce1	-0.36362365
253	0xbebfba7a	-0.37446958
254	0xbeab24f3	-0.33426628
255	0xbeed1e7a	-0.46312314

bias f4 [24]
0	0xbe0cc9a2	-0.13748792
1	0xbe5216b6	-0.20516476
2	0xbeb39e4e	-0.35081714
3	0xbe576688	-0.21035206
4	0xbe80ccbe	-0.25156206
5	0xbe490825	-0.19632013
6	0xbe35ce07	-0.17754374
7	0xbe68b874	-0.22726613
8	0xbed2d843	-0.4118062
9	0xbe5b7114	-0.21429855
10	0xbe7c0280	-0.24610329
11	0xbe2cbe5b	-0.1686949
12	0xbe9c28ad	-0.30499783
13	0xbe23546f	-0.15950178
14	0xbeaf130d	-0.34194222
15	0xbe68606d	-0.22693034
16	0xbe778d02	-0.24174884
17	0xbe6a1390	-0.22859025
18	0xbe7f8dcb	-0.24956433
19	0xbe82a27d	-0.25514594
20	0xbe7800f8	-0.2421912
21	0xbe941deb	-0.28929076
22	0xbe041174	-0.12897283
23	0xbe8a389a	-0.2699631

weight f4 [96, 24, 16]
0	0x3ddcfaa9	0.10789997
1	0xbdb2a169	-0.08722193
2	0x3dad4abf	0.08461522
3	0xbc1bee94	-0.009517331
4	0x3de00b29	0.10939629
5	0xbe6611ce	-0.2246773
6	0x3e1f1ccc	0.15538329
7	0xbd664e90	-0.056227267
8	0xbeb2e0e1	-0.34937194
9	0xbd7e7256	-0.062120758
10	0x3cc774ea	0.024347741
11	0x3c092d5b	0.00837263
12	0xbe584eb8	-0.21123779
13	0x3e59ccdb	0.21269552
14	0x3e157e0f	0.14598869
15	0xbd474c23	-0.048656594
16	0x3e475e5e	0.19469592
17	0xbdd5ca22	-0.104389444
18	0x3d9fe3a6	0.07807092
19	0xbe8fcbd8	-0.28085208
20	0x3eab0517	0.3340232
21	0xbdc2ad6f	-0.09505736
22	0x3c8eb877	0.017421944
23	0xbe8be62d	-0.27324048
24	0xbe0c94e9	-0.1372868
25	0xbd7defc4	-0.061996236
26	0x3e674d94	0.22588187
27	0xbcde5ddb	-0.027144363
28	0x3cd0cdc9	0.025488751
29	0x3e393de5	0.18090017
30	0x3e423872	0.18966845
31	0x3e6da37d	0.23206897
32	0x3ebe574f	0.37175986
33	0xbd53e556	-0.051732384
34	0x3e8a8af2	0.27059132
35	0x3ec25c4e	0.37961048
36	0xbd7eceba	-0.06220887
37	0x3debb106	0.11508374
38	0x3d93442d	0.07190738
39	0xbd8e98a0	-0.06962705
40	0xbda01a84	-0.078175575
41	0xbb203cd7	-0.0024450326
42	0xbe62d8ac	-0.22152966
43	0x3e116a56	0.1420072
44	0xbe8c3e2d	-0.27391186
45	0x3e3baae4	0.18326908
46	0xbe4f352a	-0.20235124
47	0x3ecde344	0.40212452
48	0xbe42cb44	-0.19022852
49	0x3dab1bb1	0.08354891
50	0xbe98388a	-0.29730636
51	0xbe758a9e	-0.2397866
52	0xbe1eb63f	-0.15499209
53	0xbe1651c6	-0.14679632
54	0xbdc23e61	-0.09484554
55	0x3da4f340	0.08054209
56	0xbe27a401	-0.16371156
57	0x3d1d772f	0.03844374
58	0xbd00ac37	-0.031414237
59	0xbbf3a3b8	-0.0074352883
60	0xbcc8fe67	-0.024535371
61	0x3e069233	0.13141708
62	0xbedf7f8c	-0.43651998
63	0x3d48aad0	0.048991024
64	0xbe033526	-0.12813243
65	0x3d831f8e	0.06402503
66	0x3dfa2560	0.1221416
67	0xbdd1a60e	-0.102367505
68	0x3d9d0daa	0.07668622
69	0x3e76c280	0.24097633
70	0x3aa65a45	0.0012691697
71	0xbdc78830	-0.097427726
72	0xbe8f38fb	-0.2797316
73	0xbe312e6e	-0.17302868
74	0xbe85c9e8	-0.26130605
75	0xbc6bbeac	-0.014388721
76	0x3d56dc59	0.052456234
77	0xbe7b38e5	-0.24533422
78	0xbe62bd3c	-0.221425
79	0x3d38089e	0.044930093
80	0xbe7ca3c9	-0.24671854
81	0xbed0ed43	-0.40806016
82	0xbe33af3c	-0.17547315
83	0xbccdf220	-0.025139868
84	0xbe29594a	-0.16537967
85	0xbe5d7e61	-0.21630241
86	0xbcb1b84f	-0.02169433
87	0xbe935d59	-0.28782156
88	0xbeb5b1bb	-0.3548716
89	0xbeb52438	-0.35379195
90	0xbe14cdac	-0.14531583
91	0xbd5f1e18	-0.05447206
92	0xbea8412b	-0.3286222
93	0x3c778455	0.015107234
94	0xbe41f168	-0.18939745
95	0xbe67d613	-0.22640257
96	0xbe267371	-0.16254975
97	0xbe57938c	-0.21052378
98	0xbe10b4a8	-0.14131415
99	0xbd693570	-0.056935728
100	0xbe031355	-0.12800343
101	0x3cf0b274	0.029381968
102	0x3e59dfbd	0.21276756
103	0xbe7ae7e5	-0.24502523
104	0xbed81263	-0.42201528
105	0x3d32d094	0.043655947
106	0xbe527bf8	-0.20555103
107	0xbe7cb3f6	-0.24678025
108	0x3d5106fb	0.051032048
109	0x3ccc6506	0.024950515
110	0xbebafa5a	-0.36519128
111	0xbe20f248	-0.15717423
112	0x3d2b0149	0.041749272
113	0x3e40e244	0.18836313
114	0xbdeb1f63	-0.11480596
115	0xbed27a4d	-0.41108933
116	0xbbcdecb0	-0.006284319
117	0xbd84d097	-0.06485098
118	0xbead728b	-0.33876452
119	0xbe0a1375	-0.13483985
120	0x3c3d9262	0.011570545
121	0xbe73917b	-0.23785965
122	0xbe2952a2	-0.16535428
123	0xbc81afca	-0.015830893
124	0x3cada11e	0.02119499
125	0xbe9f3357	-0.31093857
126	0x3d3e98a8	0.046532303
127	0xbe30a21d	-0.17249341
128	0x3de6e221	0.112735994
129	0x3d0b5a95	0.034021933
130	0x3d5aebaa	0.053447403
131	0x3b5bdc88	0.0033548195
132	0x3e645fb2	0.2230213
133	0xbe107aa3	-0.14109282
134	0xbc16c797	-0.009202859
135	0xbcd5c2a4	-0.026093788
136	0xbe53432f	-0.20631097
137	0xbc5a8d92	-0.013339417
138	0x3dae70ac	0.08517584
139	0x3e83eda5	0.25767246
140	0xbdf54e05	-0.11977772
141	0x3dd4f287	0.10397821
142	0x3e99e4f2	0.30057484
143	0x3d84ef01	0.06490899
144	0xbe11b3fb	-0.14228813
145	0xbd9f5d65	-0.077814855
146	0xbdae0951	-0.08497871
147	0xbeed3bed	-0.46334782
148	0x3da9f76e	0.082991466
149	0xbe4606e0	-0.1933856
150	0xbe3fcc35	-0.18730243
151	0xbe29b57b	-0.16573136
152	0xbe19fde2	-0.15038255
153	0xbe6d0e11	-0.23149897
154	0xbe489ab4	-0.19590265
155	0xbdb16c49	-0.08663232
156	0xbd56c5a5	-0.052434582
157	0xbc1d7736	-0.009610942
158	0x3e761b58	0.24033868
159	0xbdf93664	-0.12168577
160	0x3e282b15	0.16422684
161	0x3dd6e86a	0.10493548
162	0xbd719c5f	-0.058987018
163	0x3ca9e42a	0.02073868
164	0x3eb60d83	0.35557184
165	0x3d81199e	0.06303714
166	0xbb9a858b	-0.0047156266
167	0xbe2bf52a	-0.16792741
168	0xbe87502c	-0.26428354
169	0x3ba45161	0.005014584
170	0xbd622f76	-0.055221044
171	0x3ed28aa1	0.4112139
172	0xbd8c937f	-0.0686407
173	0x3e55af22	0.20867589
174	0x3e96aad1	0.29427198
175	0x3d8b64c6	0.068063304
176	0xbe296ce1	-0.1654544
177	0xbe3ce454	-0.18446475
178	0xbde33602	-0.110942855
179	0xbed5176e	-0.41619438
180	0xbdd1f7c6	-0.10252337
181	0xbe6f8cbb	-0.23393528
182	0xbe9e987e	-0.30975717
183	0xbf204bd4	-0.62615705
184	0xbe6446a4	-0.22292572
185	0x3e38cf94	0.18047935
186	0xbe6479aa	-0.22312036
187	0x3e0aa65c	0.13540024
188	0xbe50363e	-0.20333192
189	0xbe68a4fa	-0.22719184
190	0xbe8e11ea	-0.27748042
191	0xbe4d5371	-0.20051362
192	0x3e4f50f8	0.20245731
193	0x3e95c647	0.29252836
194	0xbeb21228	-0.34779477
195	0x3dabf1e2	0.08395745
196	0x3e51bda3	0.20482497
197	0x3d2570c1	0.040390734
198	0xbe6ad05f	-0.2293105
199	0xbe45334b	-0.19257848
200	0xbe016949	-0.1263782
201	0xbdb7337a	-0.08945365
202	0xbdfb2198	-0.12262267
203	0x3c64fb99	0.013976001
204	0xbd466525	-0.048436303
205	0x3e14014f	0.14453624
206	0x3e1a4998	0.15067136
207	0xbc7b5783	-0.015340689
208	0xbecefe46	-0.4042837
209	0xbe967c7d	-0.29391852
210	0xbe4325bb	-0.19057362
211	0xbe80169a	-0.25017244
212	0xbece027c	-0.4023627
213	0xbf0533d1	-0.5203219
214	0xbf2b1cb8	-0.66840696
215	0xbee16347	-0.44021055
216	0xbe93419e	-0.28761
217	0xbe4562a9	-0.19275917
218	0xbea45339	-0.32094744
219	0xbe31dd01	-0.17369463
220	0xbcdc0bc7	-0.026861085
221	0xbeae3052	-0.3402124
222	0x3d11c02e	0.035583667
223	0x3d15a008	0.03652957
224	0x3ec202e8	0.37892842
225	0x3cb56d80	0.02214694
226	0xbcca42e5	-0.0246901
227	0x3e24bf1d	0.16088529
228	0x3e9583ed	0.29202214
229	0x3e129392	0.14314106
230	0x3e09e573	0.13466434
231	0xbd1c2980	-0.038125515
232	0x3d835753	0.0641314
233	0xbea73575	-0.32657972
234	0xbf0912a0	-0.53544044
235	0xbd905a8e	-0.07048522
236	0x3eb5c3ce	0.3550095
237	0xbda0c896	-0.07850759
238	0xbeac9005	-0.33703628
239	0x3e15fa32	0.14646223
240	0x3e5c5293	0.21515875
241	0x3ca5da58	0.020245716
242	0xbba0c8a6	-0.0049067317
243	0xbdfb1f00	-0.12261772
244	0x3ec88926	0.39167136
245	0xbc02d896	-0.007986208
246	0x3ce1cdd8	0.027563974
247	0x3e158562	0.14601663
248	0x3dba3e15	0.090938725
249	0xbd7fe105	-0.062470455
250	0x3e8d9405	0.27651992
251	0x3ea7a306	0.32741565
252	0xbe8cec85	-0.275242
253	0xbe12da97	-0.14341198
254	0x3e8b283b	0.2717913
255	0x3ea985e7	0.33109972

bias f4 [96]
0	0xbda8c09b	-0.082398616
1	0x3df2ad7b	0.11849495
2	0x3d8a87a2	0.06764151
3	0xbc974503	-0.018465525
4	0xbdca7682	-0.09885885
5	0x3dbb6d92	0.09151758
6	0xbd29ec4f	-0.041485127
7	0xbdba39d7	-0.09093063
8	0xbe459e19	-0.1929859
9	0x3dafab72	0.085776225
10	0x3d153870	0.036430776
11	0xbdb603ce	-0.088874444
12	0xbd402ca2	-0.046917565
13	0xbe0726a6	-0.13198337
14	0xbdb6ddae	-0.08929001
15	0x3d3b65a7	0.04575124
16	0xbdf7d231	-0.12100638
17	0xbd703e31	-0.05865306
18	0xbda3f1f1	-0.08005131
19	0xbe1497ce	-0.14511034
20	0x3e0d0f02	0.13775256
21	0xbd7d2874	-0.061806157
22	0xbe0ec746	-0.13943204
23	0x3eb6f584	0.3573419
24	0xbd80f1eb	-0.06296142
25	0x3c6aff37	0.0143430745
26	0x3cb9dd54	0.022688545
27	0xbc055963	-0.008138987
28	0xbd83d923	-0.064379
29	0xbd9a0d70	-0.07522094
30	0x3da32233	0.07965507
31	0xbe20ab7a	-0.15690413
32	0x3d95462e	0.07288776
33	0xbdd83e4d	-0.10558758
34	0xbdef4f64	-0.116850644
35	0xbda0f76c	-0.07859692
36	0xbe7984d4	-0.24367076
37	0x3e28a519	0.1646923
38	0xbd8deb16	-0.06929605
39	0xbd24eb81	-0.040263657
40	0xbd2deb92	-0.042460985
41	0x3de874e0	0.11350417
42	0x3dff3f48	0.12463242
43	0x3dc1a2a3	0.094548486
44	0xbbdd7dea	-0.006759395
45	0xbdd02560	-0.10163379
46	0xbe442d64	-0.1915794
47	0xbdc59837	-0.09648173
48	0x3e0bb327	0.1364256
49	0xbd309869	-0.0431141
50	0xbdabb21a	-0.083835796
51	0xbd332272	-0.04373402
52	0xbdb1ecc8	-0.086877406
53	0x3d81d27f	0.06338977
54	0xbca0331d	-0.019555623
55	0x3e0a776b	0.13522117
56	0x3df7bccb	0.12096556
57	0x3e0dbea9	0.13842262
58	0x39f3f6ff	0.00046532598
59	0xbe3cf1eb	-0.1845166
60	0xbd97b964	-0.07408407
61	0x3c9bb1f3	0.019005751
62	0x3e6943c7	0.22779761
63	0xbd8ca519	-0.068674274
64	0xbca223ea	-0.019792516
65	0x3ed9fb01	0.42574313
66	0xbd2f8a66	-0.042856596
67	0xbd2a62e8	-0.04159823
68	0xbe034df5	-0.12822707
69	0xbcca1418	-0.024667785
70	0xbb80fe5a	-0.003936571
71	0x3c4d7619	0.012540364
72	0xbbc8223f	-0.006107598
73	0x3a7921e5	0.0009503647
74	0xbe171ccd	-0.1475708
75	0x3c7289e2	0.014803382
76	0x3ddd8a3a	0.1081738
77	0x3e2f24c9	0.17103876
78	0x3de62d90	0.11239159
79	0x3dd23005	0.10263065
80	0xbd9305d0	-0.07178843
81	0x3c9cd937	0.019146545
82	0xbde88a9e	-0.11354564
83	0xbd447237	-0.047960486
84	0x3c5afe1e	0.01336625
85	0x3e1749da	0.14774266
86	0xbe024ee0	-0.12725401
87	0x3ea9fb14	0.3319937
88	0xbde1e78c	-0.11030492
89	0xbce57d53	-0.02801386
90	0x3dc3dfc8	0.09564167
91	0x39ebff3e	0.00045012863
92	0xbe2a167a	-0.16610137
93	0x3dd5e0cb	0.104432665
94	0xbd3ca340	-0.046054125
95	0xbccba02d	-0.024856651

weight f4 [64, 3072]
0	0xbc915af2	-0.017743561
1	0xbcb766a4	-0.02238781
2	0x3c744710	0.014909521
3	0xbc6e5d37	-0.014548591
4	0x3c2b9d4d	0.010474515
5	0xbb2ccba9	-0.0026366508
6	0xbc9b1708	-0.01893188
7	0xbcc66d84	-0.024222143
8	0x3c4a7b8d	0.012358558
9	0xbb4cf7d9	-0.0031275658
10	0xbbfa5dd7	-0.007640581
11	0x3c719a83	0.014746311
12	0x3c305825	0.010763203
13	0xbc9d8705	-0.019229421
14	0xbc502b2b	-0.012705605
15	0xbb25c2ee	-0.002529319
16	0x3b9d6657	0.0048034596
17	0x3b2e0791	0.0026554803
18	0xbc9eb5fc	-0.019373886
19	0x3bd495c0	0.006487578
20	0x3c1c8ae8	0.009554602
21	0x3bce2c5e	0.00629191
22	0x3bf1cdb6	0.007379259
23	0x3b683749	0.0035433343
24	0xba77865a	-0.0009442322
25	0x3c4a29c7	0.012339062
26	0x3c89c603	0.016818052
27	0x3bc206ec	0.0059212353
28	0xbc42fc3b	-0.011900957
29	0xbd0f2975	-0.034951646
30	0xbd02c4c6	-0.03192594
31	0xbba596bf	-0.0050533707
32	0x3c201fdd	0.009773222
33	0xbb5e2502	-0.003389657
34	0x3c527345	0.012844865
35	0xbc8895be	-0.016672965
36	0xbbee27c2	-0.007267923
37	0x3baebd69	0.005332638
38	0xbc0e3154	-0.008678753
39	0xbcc0deb9	-0.023543702
40	0x3c186e8f	0.009303703
41	0xbc40a619	-0.011758351
42	0xbcccbb1d	-0.024991566
43	0xbbd5f091	-0.006528922
44	0x3bab25d1	0.005223014
45	0xbae43151	-0.0017409717
46	0xbc8702e0	-0.016480863
47	0x3b455806	0.003011228
48	0xbc2cdd66	-0.010550832
49	0xbc085bed	-0.008322698
50	0xb98acaaa	-0.00026472408
51	0xbc8387dd	-0.016055996
52	0xbc9cdae1	-0.019147338
53	0xbccb13dd	-0.024789745
54	0xbbf5d710	-0.007502444
55	0xbca1680e	-0.019702937
56	0x3a5a843b	0.0008335744
57	0xbb66962a	-0.003518472
58	0xbb387916	-0.0028148345
59	0xbc59cc1e	-0.013293294
60	0x3c0ae030	0.008476302
61	0xbcf895c9	-0.03034486
62	0x3b419ad5	0.002954175
63	0x3b2b6508	0.0026152749
64	0xbc8056cb	-0.015666386
65	0xbcf7397b	-0.030178776
66	0xbc94e3b6	-0.018174987
67	0xbd27b0b6	-0.04094001
68	0xbcb90a76	-0.022587996
69	0xbc546958	-0.012964569
70	0xbba564f5	-0.0050474354
71	0xbcad5b18	-0.021161601
72	0xbc6f6114	-0.014610548
73	0x3b4c49ed	0.0031171993
74	0xbb9dc910	-0.0048152283
75	0xbbc47747	-0.0059956643
76	0xbc118876	-0.0088826325
77	0xbd4c83d5	-0.049930412
78	0xbca8df21	-0.020614209
79	0xbb1bab1c	-0.0023753112
80	0xbc84b9d3	-0.01620189
81	0xbcd54fc7	-0.026039017
82	0xbca1c5ab	-0.019747576
83	0xbb806a8b	-0.003918951
84	0xbcccadbd	-0.024985189
85	0xbc786e3d	-0.015163002
86	0xbca1194c	-0.019665383
87	0xbc9d7011	-0.019218476
88	0xbbd0423a	-0.006355551
89	0xbd2d2e6e	-0.042280607
90	0xbd3ec3a4	-0.046573296
91	0xbd487249	-0.048937116
92	0xbca00602	-0.019534115
93	0xbc5149b8	-0.012773924
94	0xbc8496e5	-0.016185233
95	0xba05a965	-0.0005098789
96	0x3c2600ac	0.010131996
97	0xbc4f5983	-0.012655619
98	0xbc1f7b74	-0.009734023
99	0xbc0a533c	-0.008442696
100	0xbc4805e0	-0.012208432
101	0xbbd00ed9	-0.006349426
102	0xbc02f65a	-0.007993305
103	0x3c415b15	0.011801501
104	0xb9243692	-0.00015660588
105	0x3c031078	0.007999532
106	0xbbc72148	-0.0060769655
107	0x3c345140	0.0110057
108	0xbcc4b844	-0.024013646
109	0xbc798bc2	-0.015231075
110	0xbad1e7ca	-0.0016014513
111	0xbc615b8b	-0.013754736
112	0xbbb0b10f	-0.005392201
113	0xbc8fbd10	-0.017546207
114	0x3b3e7cca	0.002906608
115	0x3b4c7b01	0.0031201246
116	0x3c8687b7	0.016422136
117	0x3c51a049	0.012794563
118	0xbb451d8f	-0.0030077433
119	0xbc85c698	-0.016330048
120	0x3b40d2bf	0.002942249
121	0xbc09dd0f	-0.008414521
122	0xbc5b093e	-0.013368903
123	0x3c4d60d9	0.012535297
124	0xbc96020c	-0.018311523
125	0x3bb2d926	0.005458015
126	0x3b8ca9e3	0.004292713
127	0x3b932529	0.004490514
128	0xbb6e4365	-0.0036356088
129	0x3c288dd0	0.010287717
130	0xbc1ad8d9	-0.009451115
131	0xbb8366ef	-0.0040100734
132	0xb9b04ee9	-0.0003362813
133	0xbb639801	-0.0034728053
134	0xbca6ea14	-0.020375289
135	0xb92ed8c5	-0.00016674686
136	0x3b955bfe	0.0045580855
137	0xbc0c8e5a	-0.008578861
138	0xbc9c5173	-0.019081807
139	0x3beed0dd	0.007288082
140	0xbcbbcef0	-0.022925824
141	0xbc9f988d	-0.019481922
142	0xbc9d3c2c	-0.019193731
143	0x3c2c7eee	0.010528309
144	0xbbaafa80	-0.00521785
145	0x3ac6fa60	0.0015180819
146	0x3c2e2643	0.0106292395
147	0xbb84edf8	-0.0040566884
148	0xbc5497fb	-0.012975688
149	0xbbb2f92f	-0.005461834
150	0xba76e010	-0.0009417543
151	0xbc4572a5	-0.012051259
152	0x3b144f7c	0.0022630384
153	0x3aeaf137	0.0017924671
154	0x3c0a861b	0.008454825
155	0xbca90f68	-0.02063723
156	0x3a900d1a	0.0010990233
157	0x3c42fa39	0.011900478
158	0x3b091717	0.0020918304
159	0x3b83d60e	0.00402332
160	0x3c1fd675	0.00975572
161	0x39faff1e	0.00047873793
162	0x3b1418b6	0.0022597737
163	0xbcb6a736	-0.02229653
164	0xbc3fcf32	-0.011707114
165	0x3c30b9fa	0.010786528
166	0x3c086911	0.008325831
167	0x39488293	0.00019122129
168	0xbc2b86bf	-0.010469138
169	0x3c7d052f	0.01544313
170	0x3c3f6a41	0.011683048
171	0xbc3d19a6	-0.01154176
172	0xbca0a55b	-0.019610098
173	0x3b0664ce	0.0020506862
174	0xbc2cfb7d	-0.010558006
175	0x3a38eea7	0.0007054605
176	0xbbd8573b	-0.0066021956
177	0xbc70338d	-0.014660728
178	0x3bb3bfd2	0.0054855132
179	0xbb019402	-0.0019772057
180	0x3bd8e08b	0.0066185645
181	0xbb84f085	-0.0040569925
182	0xbc9f1a0a	-0.019421596
183	0x3c60f7af	0.013730927
184	0x3c15326e	0.009106262
185	0xbc91fd9b	-0.017821124
186	0x3c82a766	0.015948962
187	0xbb550fdf	-0.003251068
188	0xbd00fcd0	-0.0314911
189	0xbd12ce20	-0.035841107
190	0xbb96258e	-0.0045821136
191	0x3b8c0592	0.004273125
192	0x3c0a955c	0.008458462
193	0xbca75fd2	-0.020431433
194	0x3b849394	0.004045913
195	0xbc2db4d7	-0.010602198
196	0xbcc15b10	-0.023602992
197	0xbb98bbfe	-0.0046610823
198	0xbcc84673	-0.024447655
199	0x3c27c69b	0.010240222
200	0x3c04b242	0.008099141
201	0x3c475b42	0.012167754
202	0x3c22a6bf	0.009927451
203	0x3c0b6c5c	0.008509722
204	0x3bef5f4f	0.007305063
205	0xbc1a342d	-0.009411854
206	0xbc8b97c9	-0.01704015
207	0xbbdcae0e	-0.006734616
208	0x3c65e9f4	0.01403283
209	0xb9908290	-0.00027563097
210	0xbc58458f	-0.013200178
211	0xbc570348	-0.013123341
212	0xbc93671c	-0.017993502
213	0xbc80f9a4	-0.015744038
214	0xbc364385	-0.011124496
215	0xbcb6d2a5	-0.02231724
216	0xbc85d860	-0.016338527
217	0xbc4816ed	-0.012212497
218	0xbc6f0552	-0.014588671
219	0xbb2ea959	-0.0026651232
220	0xbc5a2ea3	-0.013316783
221	0xbb5479c8	-0.003242122
222	0xbc8a5867	-0.016887857
223	0xbcae9f13	-0.021316087
224	0xbba76b20	-0.005109206
225	0x3c0f5b9c	0.008749869
226	0xbc8bc968	-0.017063811
227	0xbb2f4681	-0.0026744904
228	0xba9ae947	-0.001181879
229	0xba08c0b0	-0.0005216701
230	0x3caec451	0.021333845
231	0xbc83fe0c	-0.01611235
232	0xbca9ad8d	-0.020712638
233	0xbbf229d0	-0.0073902383
234	0xbc0513b1	-0.008122371
235	0x3b97c502	0.0046316395
236	0x3aef6861	0.001826536
237	0x3b042316	0.0020162514
238	0xbc32bbf2	-0.0109090675
239	0xbc2bc994	-0.010485072
240	0xbc338104	-0.010956053
241	0xbc9c9ffd	-0.019119257
242	0xbc030fa5	-0.007999335
243	0xbc68d166	-0.014210081
244	0xbca30eda	-0.019904543
245	0xbc0e6cc4	-0.008692924
246	0xb95d4c84	-0.00021104707
247	0xbbb48a09	-0.005509619
248	0x3c0452cb	0.00807638
249	0x3b41e0ac	0.0029583378
250	0xbca2d933	-0.01987896
251	0xbb696b00	-0.0035616755
252	0xbc5fd841	-0.013662399
253	0xbc7494f6	-0.014928093
254	0x3aa9ba8a	0.001294927
255	0xbaba0b3d	-0.0014194023

bias f4 [64]
0	0xbbb3754b	-0.005476629
1	0xbcba1863	-0.022716707
2	0xbcae437d	-0.021272415
3	0xbc957a78	-0.018246874
4	0xbdbcd431	-0.0922016
5	0x3e90d716	0.28289098
6	0xbce20eb1	-0.027594896
7	0xbd04f658	-0.032461494
8	0xbce25f9d	-0.027633483
9	0xbc865dfa	-0.016402233
10	0xbd68a8fb	-0.056801777
11	0xbd84ff40	-0.064939976
12	0xbe07f6d2	-0.13277748
13	0xbdaa1e7b	-0.08306595
14	0xbd4ee132	-0.05050773
15	0x3ef38267	0.47560427
16	0xbbca2940	-0.006169468
17	0xbc0ce86f	-0.008600338
18	0xbbed7eaf	-0.007247768
19	0xbc3160d8	-0.010826312
20	0xb9e2b5a9	-0.00043241426
21	0x3ad9ce46	0.001661726
22	0xbd7052ed	-0.058672834
23	0x3ee00a86	0.4375803
24	0x3e985aa9	0.29756668
25	0xbbd4e05e	-0.006496473
26	0xbe83a764	-0.25713646
27	0xbcda83f0	-0.02667424
28	0xbd542602	-0.05179406
29	0x3bd64e23	0.0065400763
30	0xbd1773d2	-0.03697569
31	0xbc1cbb38	-0.009566121
32	0x3b8ba0b3	0.0042611
33	0xbca8279b	-0.020526698
34	0xbd14154c	-0.036153123
35	0xbe4ab671	-0.19796158
36	0xbd7132eb	-0.05888645
37	0x3c2250c0	0.009906948
38	0x3c0b312c	0.00849561
39	0xbda7871a	-0.081800655
40	0xbe8f73cf	-0.28018042
41	0x3e0987d1	0.13430716
42	0xbcea1d85	-0.02857853
43	0xbc208a9e	-0.009798674
44	0xbd442ef3	-0.047896337
45	0xbcc31901	-0.023815634
46	0xbcb73e05	-0.02236844
47	0xbc724bf3	-0.0147886155
48	0x3ba2e6cc	0.004971361
49	0xbad1c526	-0.0016004189
50	0xbd817a33	-0.06322136
51	0xbced91ab	-0.029000124
52	0xbcd12ff5	-0.025535563
53	0xbd46dad9	-0.048548553
54	0x3bbd4ff1	0.005777352
55	0xbbc6b9c6	-0.0060646264
56	0x3d6b135c	0.05739151
57	0xbcbbd3d2	-0.022928152
58	0xbcb592ca	-0.022164721
59	0x39d6b86f	0.00040954674
60	0xbc85e043	-0.016342288
61	0xbc240079	-0.010009878
62	0xbc783045	-0.015148227
63	0xb99ebd38	-0.00030277087

weight f4 [25, 64]
0	0x3d78bb5e	0.060725562
1	0xbc4deecd	-0.012569142
2	0xbdae4856	-0.08509891
3	0x3cf50802	0.029911045
4	0xbd89330e	-0.06699191
5	0x3e4a026c	0.19727486
6	0xbc69eebf	-0.014278113
7	0x3d3041a0	0.043031335
8	0xbd5a82d1	-0.053347412
9	0xbcd79c10	-0.026319534
10	0xbc965054	-0.01834885
11	0xbddfafaa	-0.10922177
12	0xbd922dfa	-0.071376756
13	0xbe03975e	-0.12850711
14	0x3cf2052a	0.029543478
15	0xbe78d4b4	-0.2429989
16	0x3d81fa55	0.06346575
17	0x3db6b5f8	0.089214265
18	0xbdd3f90f	-0.103502385
19	0x3dbb915b	0.09158584
20	0x3d7aac07	0.061199214
21	0x3e04872d	0.1294219
22	0xbad5da85	-0.0016315734
23	0x3ce89df4	0.02839563
24	0x3e9dc41f	0.3081369
25	0x3cda81e6	0.026673269
26	0xbd4d111b	-0.05006514
27	0x3d8986c0	0.06715155
28	0x3c7697c1	0.015050829
29	0xbdc7bb3f	-0.09752511
30	0xbdaba010	-0.08380139
31	0xbb8eb6a2	-0.0043552676
32	0x3da49f18	0.08038157
33	0x3ca6b329	0.020349102
34	0x3c333ec3	0.0109402565
35	0xbf0cabc3	-0.5494959
36	0x3aece50e	0.0018073635
37	0xbc86b901	-0.016445639
38	0xbd9006c8	-0.070325434
39	0xbec78e78	-0.38975883
40	0xbdd0db03	-0.10198023
41	0xbcfe82d4	-0.031068243
42	0x3d0b4f32	0.034011073
43	0xb996995a	-0.00028724485
44	0xbcc3d67e	-0.023905989
45	0xbd88e0c4	-0.06683496
46	0xbdcc608b	-0.099793516
47	0xbdbd59d7	-0.09245651
48	0x3dc62517	0.09675043
49	0x3df02cf0	0.11727321
50	0xbc27b755	-0.010236581
51	0xbc992229	-0.018693047
52	0xbda07984	-0.07835677
53	0x3cbea4a7	0.023271872
54	0x3d8079b7	0.06273215
55	0xbd8b0f8e	-0.06790076
56	0xbe9c4f02	-0.30529028
57	0xbd6722de	-0.056429736
58	0x3cf1683b	0.029468646
59	0xbd9ef93b	-0.07762381
60	0xbdbce606	-0.09223561
61	0xbde7e5fb	-0.11323162
62	0xbb1031fc	-0.002200245
63	0xbdaff91e	-0.08592437
64	0xbd40e753	-0.047095608
65	0x3dc426aa	0.09577687
66	0x3dc7b8ac	0.0975202
67	0x3d23f65b	0.040029865
68	0xbdc3ee93	-0.09566989
69	0xbee7d27a	-0.45277768
70	0xbd7d3d1f	-0.061825868
71	0xbd8a7588	-0.067606986
72	0x3db2f7aa	0.087386444
73	0x3c907227	0.017632557
74	0xbdae0836	-0.0849766
75	0xbe303488	-0.17207539
76	0xbcb4e35b	-0.022081068
77	0xbd83615a	-0.06415053
78	0x3cd15572	0.025553439
79	0xbdef35dc	-0.11680195
80	0xbd8819b9	-0.06645531
81	0xbdd97f52	-0.106199875
82	0x3c7c3dd5	0.015395601
83	0xbdc43d86	-0.09582047
84	0x3ba10831	0.0049143066
85	0xbcae38e6	-0.021267366
86	0x3cc65088	0.024208322
87	0xbe2a72dd	-0.1664538
88	0xbd86e265	-0.0658615
89	0x3dda7025	0.10665921
90	0x3d98a686	0.07453637
91	0xbdd27515	-0.10276238
92	0x3db67a96	0.089101
93	0xbe004e43	-0.12529854
94	0x3c4c0876	0.012453189
95	0xbd390fcf	-0.045181092
96	0xbdb163e7	-0.08661633
97	0x3da8171b	0.08207532
98	0x3c05c69a	0.008165026
99	0x3e1ecf69	0.15508808
100	0xbd48ae90	-0.0489946
101	0xbd5aa4c5	-0.053379793
102	0x3d8b0b38	0.06789249
103	0xbe9f1444	-0.3107015
104	0xbc7783a2	-0.015107067
105	0xbf260a5a	-0.64859545
106	0x3cf4c72c	0.029880129
107	0xbdd40e8c	-0.10354337
108	0xbe4dc569	-0.20094837
109	0x3d8a9f1e	0.067686304
110	0x3c19ef08	0.009395368
111	0xbcaaa6a5	-0.020831415
112	0x3dca76ec	0.09885964
113	0x3deccc8e	0.11562453
114	0x3db9db50	0.09075034
115	0x3c7be3dc	0.01537415
116	0xbcb4ea18	-0.02208428
117	0xbdb4f017	-0.08834856
118	0x3d87f894	0.066392094
119	0x3dcc590b	0.09977921
120	0xbd21c625	-0.039495606
121	0x3d9064a9	0.070504494
122	0xbce68f8c	-0.02814462
123	0x3ccadab2	0.024762485
124	0x3d1edf6a	0.038787283
125	0xbd4b7d43	-0.049680006
126	0x3d106ed3	0.03526194
127	0x3acd6d60	0.0015672855
128	0x3dfb5547	0.12272125
129	0x3d7cac16	0.06168755
130	0xbaffbdcd	-0.0019511521
131	0x3c05bc39	0.008162552
132	0x3db419dd	0.087939955
133	0x3b80f31f	0.0039352323
134	0x3ce1b793	0.027553355
135	0xbc80f2ae	-0.015740719
136	0x3d01347f	0.031544205
137	0x3d2efd05	0.042721767
138	0x3cbde7ae	0.023181763
139	0x3df0be37	0.117550306
140	0xbe59f48e	-0.21284696
141	0xbcceb12e	-0.02523097
142	0x3d4636c2	0.048392065
143	0xbf04291f	-0.51625246
144	0xbdd438f1	-0.10362423
145	0xbcf167b3	-0.029468393
146	0xbdf79413	-0.1208879
147	0xbcaff0c0	-0.021477103
148	0xbdd4e73b	-0.10395666
149	0x3d879967	0.06621056
150	0xbd40ad2e	-0.047040157
151	0x3e0a3d4e	0.13499948
152	0x3eaa5e8f	0.33275267
153	0x3d4a5e69	0.049406443
154	0xbe806183	-0.25074396
155	0xbc9b2709	-0.018939512
156	0x3d3fca22	0.04682363
157	0xbdef2c77	-0.11678403
158	0xbd15174c	-0.03639917
159	0xbd883782	-0.06651212
160	0xb98b41a7	-0.0002656106
161	0x3dcae1fe	0.09906386
162	0x3dbcf72c	0.09226832
163	0x3dd9c664	0.10633543
164	0x3e039e3b	0.12853329
165	0xbbb07eda	-0.0053862156
166	0x3da73fb5	0.08166448
167	0xbe647a8c	-0.22312373
168	0xbe5eb4e5	-0.21748693
169	0x3e9044a7	0.28177378
170	0xbdaa0973	-0.083025835
171	0xbd8c29bd	-0.068438984
172	0xbdbd178c	-0.09233007
173	0x3da9af4a	0.08285387
174	0xbd791bb6	-0.060817443
175	0x3c0a6aa2	0.008448275
176	0xbd7c55cc	-0.06160526
177	0xbde6934d	-0.11258564
178	0xbdb3df04	-0.08782771
179	0xbdb5e673	-0.08881845
180	0x3da87bf5	0.08226768
181	0x3dad9f0c	0.084776014
182	0xbdbe4dd8	-0.09292191
183	0x3de7d855	0.11320559
184	0xbe8317d6	-0.25604123
185	0xbde7a7d4	-0.113113075
186	0x3cf224b5	0.029558519
187	0x3d36438a	0.044498004
188	0x3d444946	0.04792144
189	0x3de15108	0.110017836
190	0xbded9898	-0.116013706
191	0xbd4de8e5	-0.050270934
192	0x3c936214	0.017991103
193	0xbcdcdf71	-0.026962014
194	0x3cbfa128	0.023392275
195	0xbd1fffa3	-0.039062154
196	0x3db1478a	0.08656223
197	0xbeba33e1	-0.36367705
198	0x3d43e7fe	0.047828667
199	0xbce84af5	-0.028356055
200	0x3da37442	0.07981159
201	0x3dff9ce3	0.12481096
202	0xbcedcbe9	-0.029027896
203	0xbe28049f	-0.16408013
204	0x3d2c2f61	0.04203737
205	0xbe179284	-0.14801985
206	0xbdbf3aba	-0.09337373
207	0xbf01790a	-0.50575316
208	0xbdb32caf	-0.08748757
209	0xbdbba598	-0.09162444
210	0xbd92eb8c	-0.07173833
211	0xba95ab6e	-0.0011418888
212	0xbd97a82e	-0.074051246
213	0xbdee6967	-0.11641198
214	0x3d24248f	0.040073927
215	0x3cc0119b	0.023445895
216	0xb9c2d7cf	-0.00037163353
217	0xbc3aec7d	-0.011408922
218	0xbe003772	-0.1252115
219	0x3d522a16	0.051309668
220	0xbde0a6b0	-0.10969293
221	0x3dce082b	0.10060152
222	0xbe18ad5a	-0.14909878
223	0x3d254fcd	0.040359307
224	0x3d7ba1a5	0.061433453
225	0xbdbefcff	-0.09325599
226	0xbccd4a84	-0.025059946
227	0xbe07ad23	-0.1324964
228	0x3d947db2	0.07250537
229	0x3dcfadcd	0.10140572
230	0x3d36c622	0.044622548
231	0xbdb44852	-0.088028565
232	0x3e92edc4	0.28697026
233	0xbe79222f	-0.24329446
234	0xbcb6f52e	-0.022333708
235	0xbdd91949	-0.10600526
236	0x3cfa3e0c	0.030547164
237	0xbdbcf9b4	-0.092273146
238	0xbd714799	-0.05890617
239	0x3b923f2e	0.004463098
240	0xbddac37f	-0.10681819
241	0xbdae7a39	-0.08519406
242	0x3d38d990	0.04512936
243	0xbc8ac8f6	-0.016941529
244	0x3cecd318	0.028909251
245	0x3c342e2b	0.010997335
246	0xbdba029f	-0.09082531
247	0x3cf2f51a	0.02965789
248	0x3d70d741	0.058799032
249	0x3d5d8f0a	0.05409149
250	0xbde664dd	-0.11249707
251	0x3d4055df	0.046956893
252	0x3ddcd2ec	0.10782418
253	0xbc01897a	-0.007906312
254	0x3dcfd8fc	0.10148808
255	0xbc4c8533	-0.012482929

bias f4 [25]
0	0xbde8f598	-0.11374968
1	0x3d4c0ba3	0.049815785
2	0x3e05a770	0.13052154
3	0xbe8d07d5	-0.27545038
4	0x3e159a0c	0.14609545
5	0x3ceb685d	0.028736288
6	0x3ef94735	0.4868714
7	0x3e32a65f	0.17446278
8	0x3dfcf06f	0.123505466
9	0x3e4f184d	0.20224114
10	0x3ee1d63b	0.44108757
11	0x3ef8bfb1	0.4858375
12	0x3ebe468c	0.37163198
13	0xbdfe6de6	-0.12423305
14	0x3d80fc24	0.06298092
15	0x3e0d2b94	0.13786155
16	0x3cd4b89f	0.02596694
17	0xbd33bd87	-0.04388192
18	0xbec53c05	-0.38522354
19	0xbdf79323	-0.12088611
20	0x3e25e31f	0.16199921
21	0xbf272a8c	-0.65299296
22	0xbdb47ef3	-0.08813276
23	0xbe6ce3d3	-0.23133783
24	0xbea77b37	-0.32711193
