result/config6/preliminary_model1.pt (torch_old, 996807 bytes, 8 tensors)

weight f4 [24, 2, 192]
000000 57 8a 37 bd 72 e7 aa 3d 37 06 21 3d e9 57 87 3d
       -0.044809666 0.08344926 0.039312568 0.066085644
000010 de eb f4 3c 71 ad e5 bd b5 21 ea bd 95 61 90 bc
       0.029897626 -0.11214722 -0.1143221 -0.017624656
000020 2c 33 43 bc 59 45 aa bd 95 9a a3 bd e8 34 07 bd
       -0.011914056 -0.08314008 -0.079884686 -0.03300944
000030 d4 ab cc bd 34 e1 39 be 10 f2 85 bd e7 90 bb 3d
       -0.09993711 -0.18152314 -0.065403104 0.09158497
000040 45 4f 6b 3d 06 d3 28 3d e3 48 dd 3c 65 3f fd 3c
       0.057448644 0.041216873 0.027012294 0.030914018
000050 dd 4b 6c 3c 7f 1d 2a 3c 99 7f 8c bd ca 59 67 3d
       0.014422384 0.010383009 -0.06860275 0.056482114
000060 62 1d 50 3d 1c 81 6a 3d e9 e3 cd 3d c5 11 1d 3e
       0.05080927 0.057252035 0.10053236 0.1533881
000070 52 64 27 3e 90 7c 67 3e be e2 03 3e 23 21 2b 3e
       0.16346863 0.2260611 0.12879464 0.1671186
000080 dc 3a 9f 3d dc 22 e2 3d 2a e5 1b 3e 3d c5 54 3e
       0.077748984 0.11041805 0.15224138 0.20778365
000090 7c 89 48 3e d1 d6 ec 3d dd bd df 3d aa 7c 80 3c
       0.19583696 0.115644105 0.109248854 0.015684444
0000a0 a4 e9 44 3d 87 63 1f 3d 14 a0 23 bc fe 1f 55 3d
       0.04807438 0.038913276 -0.009986896 0.052032463
0000b0 07 5c 43 3e 31 83 81 3e 71 55 91 3d 21 b0 05 bd
       0.19078074 0.25295404 0.07096375 -0.032638673
0000c0 e2 5b c3 3b fe a2 cf 3c 95 32 26 bd 1b a6 f2 bc
       0.005961881 0.025346275 -0.040575583 -0.02962022
0000d0 e1 3f e9 3d 4c 74 2c 3d 65 2b d7 bd 60 69 b3 bd
       0.11389137 0.042103097 -0.10506324 -0.08760333
0000e0 3e f6 a2 bd ed 54 26 bd b9 c0 bd bc b9 50 12 be
       -0.07957123 -0.040608335 -0.023163186 -0.14288606
0000f0 1c 53 3e be 1b 97 b2 bd 3f e4 c4 bb ad 23 b8 3c
       -0.18586391 -0.08720227 -0.0060086544 0.022477949
000100 52 6c a1 bb b8 97 a6 bc c3 c1 c8 3c 84 99 1b bd
       -0.004926243 -0.020336017 0.024506455 -0.0379882
000110 f1 2a 11 bd d8 0b f3 bd 39 ed 33 bd 4c 09 6c 3d
       -0.035441343 -0.118674934 -0.043927405 0.057626054
000120 87 10 10 3c f8 ae 6b bd 30 90 a1 bd 19 cf d2 bd
       0.008793003 -0.05753991 -0.0788883 -0.10293407
000130 b9 a5 3c be 5f ea 20 bd e3 29 1f bd 7b 07 27 be
       -0.18422593 -0.039286014 -0.038858306 -0.16311447
000140 b4 55 c1 3c 4c bd c5 3c 64 8a f6 3c 39 55 9d bd
       0.023600437 0.024138115 0.030095287 -0.076822706
000150 1c c3 93 bd 7e 00 3a bd 8b e0 3a bd 83 61 23 bd
       -0.072149485 -0.045410626 -0.045624297 -0.039887916
000160 18 1f 28 bd d9 6d 8d bd fe ac 9e bd b8 ab 9c bb
       -0.04104528 -0.069057174 -0.077478394 -0.0047812127
000170 2d 1d b0 bb 94 dd 94 3d 8d ba 43 3d 74 6a 4c 3d
       -0.005374572 0.07268825 0.04778533 0.04990621
000180 61 5b 80 3d 8d 62 2a 3d 17 e3 61 bd 3c ce e4 bc
       0.06267429 0.04159789 -0.05514821 -0.027930371
000190 2d a0 c5 3d 0c 2c bb 3d e1 71 6f 3d fa bd 7b 3d
       0.09649692 0.09139261 0.058458213 0.061460473
0001a0 03 6c b8 3d ec de 8b 3d 6f 4e b8 3d 3e 18 f0 3d
       0.090049766 0.06829628 0.08999335 0.11723374
0001b0 17 d7 61 3d 2a 8f 94 3c d5 36 65 3d 38 81 98 bd
       0.055136766 0.018134672 0.055960495 -0.074465215
0001c0 64 19 12 bc ff 8b d2 3d 41 d1 b3 3d 30 41 d8 3d
       -0.008917186 0.102806084 0.087801464 0.105593085
0001d0 cc a2 45 3e ec ac b8 3d 85 a4 3c bd 4b 0d 02 3d
       0.19300383 0.09017357 -0.046055336 0.03175096
0001e0 1b 87 5e 3d dc e7 5c 3d 46 fb c8 bc d6 28 d3 3c
       0.054328065 0.053932056 -0.024533879 0.025776308
0001f0 93 29 75 3d 0c 7a 12 bc 83 f5 0e 3e 96 48 6b 3d
       0.0598541 -0.008940231 0.13960843 0.05744227
000200 10 dd c7 3c 0d ad 94 3d a0 a9 18 3e 57 a4 68 3e
       0.024397403 0.07259569 0.14908457 0.2271894
000210 02 ee 0d 3e 34 29 b8 3c cf 61 33 bc ba db f8 3c
       0.13860324 0.022480585 -0.010948612 0.030378211
000220 6c 65 05 3d 84 33 f7 3c 2f 22 bd 3a 7a ab ea 3c
       0.032567427 0.030175932 0.0014429743 0.02864622
000230 20 19 23 3c cb 32 6d 3c f1 bf 19 3e cb 27 87 3d
       0.009954721 0.014477442 0.15014626 0.06599387
000240 ba aa 68 bd cc 98 85 bd b6 be 80 bc f7 c4 c2 bd
       -0.056803443 -0.06523284 -0.015715938 -0.09510224
000250 ab 8d 4a bd e6 f3 aa bc c2 f3 8a bd 23 53 0b 3c
       -0.04945151 -0.020868253 -0.06784774 0.008503708
000260 ec c7 85 bd 00 fe f8 bd f3 59 ef bd c9 62 10 bd
       -0.06532273 -0.12157822 -0.11687078 -0.03525046
000270 03 04 0d be 7e c9 dc bd 23 2e 6c bd c1 83 c1 bc
       -0.13771062 -0.10780619 -0.057661187 -0.023622395
000280 01 67 59 bd 5d f9 bf bd cb 87 50 3d 23 7c aa bb
       -0.053076748 -0.09373734 0.050910752 -0.0052027865
000290 1b eb 19 bd e4 87 3c bd bb cd 41 bc 4c 4a 4d bd
       -0.03757773 -0.046028033 -0.011828835 -0.050119683
0002a0 1b cf a3 3c 07 02 57 3d b5 cf 8b bd 75 ee 6c bd
       0.019996217 0.052492168 -0.06826726 -0.057844598
0002b0 49 2c cf bc 00 9f 99 bd 4f 44 1a bd 32 d8 96 3d
       -0.025289671 -0.0750103 -0.0376628 0.07365455
0002c0 07 8c 78 3d 25 e3 26 bd bf 82 25 3d 7f 0e 99 bd
       0.060680415 -0.040743966 0.040407892 -0.07473468
0002d0 6e a8 82 bc 55 29 f3 3b 2e 26 6c bd 63 4c 14 3d
       -0.015949454 0.0074206986 -0.0576536 0.03620566
0002e0 2c 2b 5c 3c 07 41 6b 3d e0 11 c6 3c 37 3c 72 bd
       0.013438027 0.05743506 0.024178445 -0.059139457
0002f0 f8 1b 2a bd ec cf 18 be a5 c7 b6 bd e5 b9 c1 bc
       -0.04153058 -0.14923066 -0.08924798 -0.023648212
000300 52 14 d6 bd ea fb b0 bd a1 a8 a7 bd 85 91 e1 3d
       -0.104530945 -0.08641799 -0.0818646 0.11014084
000310 0e 1c 47 3d 83 6c f3 bd c2 85 62 bc a8 f2 18 bd
       0.04861074 -0.11885931 -0.013825836 -0.03734079
000320 4b 92 95 bd 30 8c 95 bd 93 4a aa bb b9 05 05 bd
       -0.07303294 -0.07302129 -0.005196878 -0.03247616
000330 0c 50 5a bd 86 d0 f4 3d c6 d5 97 3c ba df c6 3c
       -0.053298995 0.11953835 0.018534552 0.024276603
000340 ac 3e 43 3e 62 ae 19 3e b3 33 22 3e 2b 73 f7 3d
       0.19066876 0.15007928 0.15840034 0.120825134
000350 ea 4f cf 3d ca 69 0e 3e dc f2 60 3e b0 3b 2d 3e
       0.10122664 0.13907543 0.21967643 0.169173
000360 e9 db f8 3d f4 34 23 3e f2 49 5b 3d 40 88 d3 3d
       0.121513195 0.15938169 0.053537317 0.10328722
000370 12 a7 68 3e 71 60 4f 3e 7a bc fc 3d b1 3d 08 3e
       0.22719982 0.20251633 0.123406366 0.13304783
000380 17 a6 cf 3d e3 b1 8b 3e e4 7a a7 3d f3 1b b4 bc
       0.10139101 0.27284154 0.081777364 -0.021985983
000390 1d 2f c9 3c 1c 8b b0 3d ba 71 fa 3d 31 06 85 bd
       0.024558598 0.08620283 0.12228723 -0.064953215
0003a0 da 25 e6 bb 0e 1e a2 bd c5 0d dc 3d 42 30 01 3e
       -0.007023555 -0.07915889 0.10744814 0.12616065
0003b0 0d 3e fd bb 3e 50 b4 3d df 02 05 3e 45 63 b2 bc
       -0.0077283443 0.088043675 0.12989376 -0.021775851
0003c0 77 29 d9 bd 8b 1d 0e be ba c6 38 be 02 cf c4 bd
       -0.10603612 -0.13878457 -0.18044558 -0.09609796
0003d0 e3 e9 bd bd b6 74 1e be cd ea c2 bc 98 3a d6 bd
       -0.09273126 -0.15474209 -0.023793602 -0.104603946
0003e0 b0 01 2b be 7e 8a 5d be 18 f2 5e be 08 3c 2a be
       -0.16699862 -0.21634862 -0.21772039 -0.16624463
0003f0 49 26 a1 be 89 5b 52 be ee e1 65 be 09 33 59 be
       -0.31474522 -0.2054273 -0.22449467 -0.21210875

bias f4 [24]
000000 30 a1 e2 bd 04 0e 04 bd c8 d9 19 be 16 93 82 bd
       -0.110659 -0.03223993 -0.15024483 -0.06375711
000010 ca a5 cb bd 0b 09 dd bd 7e cc 82 bd 09 46 44 bd
       -0.09943731 -0.107927404 -0.0638666 -0.047918353
000020 b4 b2 4c be 43 34 cd bd 41 3e b3 bd 26 32 a0 bd
       -0.19990045 -0.10019734 -0.08752108 -0.07822065
000030 b2 48 8a bd 84 97 87 bd de a9 11 be f8 16 dc bd
       -0.06752147 -0.06620696 -0.14224955 -0.107465684
000040 9e bf 71 bd 6e 02 af bd 82 03 db bd 17 ff c4 bd
       -0.05902063 -0.08545385 -0.106940284 -0.09618967
000050 31 ed ce bd c5 e0 f1 bd 81 6b b2 bd af 1b dc bd
       -0.101038344 -0.118104495 -0.08711911 -0.10747468

weight f4 [96, 24, 16]
000000 08 53 0b bd 51 f5 a7 bd d0 27 6d 3d 45 2c 32 bd
       -0.03401473 -0.08201087 0.057899296 -0.04349925
000010 e8 7c 05 3d 75 78 32 bd f3 43 1c 3d 97 0f 89 bd
       0.032589823 -0.043571908 0.03815074 -0.06692427
000020 e0 5c fb bd e5 21 b2 3b d7 b0 80 bd f8 4d a0 bd
       -0.12273574 0.0054361694 -0.062837295 -0.07827371
000030 d2 13 88 bd 55 bd 33 bc 2f be a3 3d ca 11 7a bc
       -0.066444054 -0.010970433 0.07995259 -0.01526303
000040 05 e9 d0 3d 3f 62 c3 3c 34 ff bb 3c c0 7e 91 3c
       0.10200695 0.023850558 0.022948839 0.017760634
000050 32 2f 92 3d 4d db b9 3d dd fe 19 3e 7d 8a 91 3c
       0.07137908 0.090750314 0.15038629 0.017766232
000060 40 ab 92 3d 39 aa 24 3d bf 81 d8 3d 77 ad 46 3d
       0.071615696 0.0402014 0.10571622 0.048505273
000070 e0 15 a4 3d ce 84 07 3e a5 37 14 3e 8c f2 0c 3e
       0.08011985 0.13234255 0.14474352 0.137644
000080 7e 29 07 3e 27 96 c3 3d e0 65 79 3c e3 d4 48 3e
       0.13199422 0.09550124 0.015222043 0.1961246
000090 49 96 7c 3d 45 0b 19 3e a2 3b 72 bc d4 46 b4 bc
       0.06166676 0.14945705 -0.014784725 -0.02200643
0000a0 2a 45 16 3d 0d f4 3e bd a8 af 83 bd 90 4c ed bc
       0.036687054 -0.046619464 -0.06429988 -0.028967172
0000b0 f6 0d 03 bd 34 a0 09 3e bc e5 5f 3c b1 46 bf 3d
       -0.031995736 0.13440019 0.013665613 0.09339655
0000c0 e7 06 8e bd c4 c3 fd bc 67 bd d3 bd bb 4c 23 bd
       -0.0693491 -0.030977137 -0.1033886 -0.039868098
0000d0 33 ec 59 bd 7b 22 f9 bc 63 fc bc bd 8d 53 a4 bc
       -0.053203773 -0.03041195 -0.092278264 -0.020059371
0000e0 0f 28 a2 3c de 59 fb ba dd c7 a8 bd 98 6a 99 bd
       0.019794492 -0.0019176563 -0.08241246 -0.07491034
0000f0 26 af a4 bc 7e 6b 19 bc b7 e3 58 bd 9f 41 51 3d
       -0.020103049 -0.009364007 -0.05295154 0.05108797
000100 2c 95 c8 bd 80 dd 89 bd 20 7e fc bc f4 98 a1 bd
       -0.09794077 -0.06731701 -0.03082186 -0.078905016
000110 5c 90 a7 bd d3 55 5f bd 47 17 09 bd 7e d2 44 bd
       -0.08181831 -0.054525208 -0.033469465 -0.048052303
000120 e9 e4 01 be 91 3a 94 bd 35 ea 01 be f7 67 be bd
       -0.12684979 -0.07237733 -0.12686999 -0.092971735
000130 85 e6 cd bd 03 d6 be bd 79 d3 8d bd 57 5b 20 3b
       -0.10053734 -0.09318163 -0.06925101 0.0024468505
000140 1b f3 63 bd 1d 4b de bd cd d0 ac bd 70 23 24 bc
       -0.055651765 -0.108541705 -0.08438263 -0.010018215
000150 41 6c e0 bd b8 6f 8a bd 16 61 a5 bd ad b8 09 bd
       -0.10958148 -0.0675959 -0.08075158 -0.033623386
000160 30 78 b1 bd 46 53 b2 bd 5e 50 a4 bd 3d a7 41 3d
       -0.08665502 -0.087072894 -0.08023141 0.04727863
000170 1b ef 1a be 7b 90 12 be 89 12 2b bd 3a a5 8c bc
       -0.15130274 -0.14312927 -0.041765723 -0.01716863
000180 23 65 28 bd 0a ba d1 bd 00 2b 65 bd ac 2f b2 bd
       -0.041112076 -0.10240562 -0.05594921 -0.08700499
000190 d6 58 b3 bd b4 f1 92 bc 84 82 6b bd 69 f8 6c bd
       -0.087571785 -0.017937519 -0.057497516 -0.05785409
0001a0 e1 7e d8 bd 32 91 28 bd 59 53 2b bd 00 49 9a bd
       -0.10571075 -0.041154094 -0.041827533 -0.07533455
0001b0 c0 29 a6 bd b0 ca 23 3d 47 7c df bb f5 52 0f bd
       -0.08113432 0.03998822 -0.006820235 -0.034991223
0001c0 d7 ba 2a 3d c6 94 84 3d 83 00 68 bd 58 a6 42 bd
       0.04168209 0.06473689 -0.056641113 -0.04752192
0001d0 7d 9c 0d 3c 3a f9 00 be 58 32 da bd a0 00 bb 3c
       0.008643267 -0.12595072 -0.106541336 0.022827446
0001e0 76 bd 96 bd c7 57 80 bd 74 79 8f 3b e0 71 64 bd
       -0.073603556 -0.06266742 0.004378492 -0.055772662
0001f0 36 23 64 3d 9e c1 ee bc f7 eb c7 3b cc 46 ad bd
       0.055697642 -0.029145058 0.0061011272 -0.08460769
000200 87 75 eb 3d 60 a3 53 3c e1 56 94 3d cd 22 cc 3d
       0.11497026 0.01291737 0.07243133 0.09967575
000210 7f 72 68 3d e6 89 75 bd 5c 8b 0f 3e 81 52 ff 3d
       0.056749817 -0.059945963 0.14018005 0.12466908
000220 ca 15 3e 3d 47 92 18 bd fd 2e 23 3d ad 41 e2 3d
       0.0464075 -0.037248876 0.039839733 0.11047683
000230 6a a1 b9 3c cc f0 93 3b 8b 5e 36 3e ae 97 c0 3d
       0.022659976 0.004514789 0.17809503 0.094039306
000240 32 1e 2e bd fe 2f 99 bd 95 88 57 bd 98 d3 df bd
       -0.042509265 -0.07479857 -0.05262049 -0.1092903
000250 39 47 43 bd a0 48 6d bd b2 99 c2 bd 50 03 14 bd
       -0.047675345 -0.05793059 -0.09501971 -0.03613597
000260 be d0 07 be ae 3b c1 bd 9a eb cf bd 4d 2d 95 bd
       -0.13263223 -0.09435211 -0.10152359 -0.07284031
000270 06 52 1d bc 56 f6 af bc dc 42 48 bd 88 52 06 be
       -0.009602075 -0.021479767 -0.048891887 -0.1311742
000280 f1 53 27 bc ce 23 c3 bb 2e f0 2f bd d1 6b 8d bd
       -0.010212884 -0.005955196 -0.042953663 -0.0690533
000290 9c 5b 50 bd a3 5a a9 bd 09 f2 6e bd 04 29 bc bc
       -0.050868616 -0.08269241 -0.05833629 -0.022968777
0002a0 9f f7 fc bd ee 2d 13 bd 7e 48 d9 bc 5d 25 19 3d
       -0.123519175 -0.035932474 -0.026523825 0.037389148
0002b0 3e 20 52 bb e4 fd 48 3d ab 6e bc 3d 8e 94 c0 bd
       -0.0032062675 0.049070254 0.09200796 -0.094033346
0002c0 63 b6 d3 bd 20 da 76 bd 6b 19 b4 bd 15 ab 1f be
       -0.10337522 -0.060266614 -0.087939106 -0.15592606
0002d0 c3 53 39 bd f8 c5 44 bd 32 56 46 be 80 7d 92 be
       -0.045245897 -0.04804036 -0.19368818 -0.28611374
0002e0 74 d0 b5 bd 7c 2d 14 bd de c8 a5 bd 75 22 f5 bd
       -0.0887765 -0.03617619 -0.08094953 -0.11969463
0002f0 27 c1 ad bd 7c f8 d3 bd 3d ce 3e be 4d a1 10 be
       -0.084841065 -0.10350129 -0.18633361 -0.14124031
000300 34 6b b8 3d a1 28 cc 3d 21 0e 09 bb df 65 8e 3c
       0.090048224 0.09968687 -0.0020912963 0.01738256
000310 0b 50 c7 3d 71 76 4f 3d 23 a4 ef 3d 76 6a 9c 3d
       0.09732064 0.050650064 0.117012285 0.07637493
000320 42 c5 9a 3d b2 b3 96 3d 19 98 62 3c 84 1c c1 3d
       0.07557155 0.07358493 0.013830208 0.09429267
000330 ce bc bc 3d 8b 83 16 3e 2a 43 f7 3d 81 30 c2 3d
       0.09215699 0.14698617 0.120733574 0.09481908
000340 3d d9 24 be e9 01 d3 bd ba 53 1d be c8 72 11 be
       -0.16098495 -0.10303099 -0.1536397 -0.14203942
000350 99 fb c7 bd 8f f7 51 be 5e 94 7c be 66 a7 5a be
       -0.09764785 -0.20504592 -0.24665973 -0.2135292
000360 61 b5 f7 bd 2e 5d 0e be 4d 81 fc bd 83 cd 2b be
       -0.12095142 -0.13902733 -0.1232935 -0.16777615
000370 b4 c4 4a bc c2 1f e3 bd d6 08 e1 bd a1 8b 0d be
       -0.012375999 -0.11090042 -0.109880134 -0.13822795
000380 1b fb 29 3e 59 f7 e6 3d 6f 78 cc 3c 79 6b 26 3d
       0.16599695 0.112776466 0.024959771 0.040629838
000390 b7 f9 d7 3d 84 60 f1 3d 38 b5 25 bc f0 b1 23 3c
       0.10545676 0.11785987 -0.010114007 0.009991154
0003a0 f0 8d 3a 3d 98 e2 ba bc b7 7a 7d bd d0 f9 24 3d
       0.04554552 -0.022813126 -0.061884608 0.040277302
0003b0 ae 73 0b 3e 62 40 4d 3d ee 2a a4 bd 71 5b d0 3d
       0.13618347 0.05011023 -0.08016001 0.10173691
0003c0 59 5a 9f 3d 6c bc 45 3d 4e d4 ff 3d 0f 3c e0 3c
       0.07780904 0.048275396 0.12491666 0.027372388
0003d0 e4 e7 61 3d be c4 4c 3d b1 90 4d 3d cc 3e 9a 3d
       0.05515279 0.049992315 0.050186817 0.07531509
0003e0 5a 47 dd 3d 8a 2c 05 3d 33 cf d1 3d 5e 41 f3 3d
       0.10804625 0.03251318 0.10244598 0.11877702
0003f0 a9 b0 9f 3b c8 97 af bb 3a bb ee 3d 7e 64 5e 3e
       0.0048733545 -0.00535867 0.116568044 0.21718022

bias f4 [96]
000000 59 84 6b 3c 37 20 c9 3d e1 65 84 3d 11 e1 c2 bb
       0.014374816 0.098205976 0.06464744 -0.00594724
000010 7d 41 18 3d 1c b4 00 bd 79 9b 91 bb 17 3e c6 bc
       0.03717183 -0.031421766 -0.0044435826 -0.024199529
000020 fd 76 19 bd ef a0 a2 3d 0d 5e 30 bd 63 84 75 3b
       -0.03746699 0.07940852 -0.043058444 0.0037462942
000030 ca 00 b6 3c e3 18 9c 3a 49 32 1f bc da 48 da bb
       0.022217173 0.0011909272 -0.009716579 -0.0066615166
000040 5b 75 ce bb b8 96 18 bd da 00 30 bb 62 e9 0d bc
       -0.006300611 -0.03725311 -0.0026855976 -0.0086616
000050 8d fe 0e bd 80 60 00 3d e7 71 6a 3c 7d 5a 53 bc
       -0.034910727 0.03134203 0.014309383 -0.012899992
000060 7e 1d 8e 38 90 42 b3 3d a3 c2 18 bc 23 14 e7 bb
       6.776581e-05 0.0875293 -0.009323749 -0.007051961
000070 38 da 7c bc 4d 30 7b bc 74 d3 47 bd 13 f6 36 bd
       -0.015432887 -0.01533134 -0.04878564 -0.04466827
000080 d4 31 02 3e e9 fa 31 3c 64 b8 8a bb 40 03 07 bd
       0.1271432 0.010863044 -0.004233407 -0.032962084
000090 3b 4f 0e 3b c4 21 21 bc 00 67 c1 3c 31 3f a1 3d
       0.0021714706 -0.0098347105 0.023608685 0.07873381
0000a0 78 86 74 bb db 2b d0 bc 58 6e cb 3d 56 da 1e bd
       -0.0037311595 -0.025411537 0.09933156 -0.03878244
0000b0 81 b2 83 bd fc de b1 bc f8 a7 5f bc c4 7e 4c bc
       -0.06430531 -0.021712773 -0.013650887 -0.012481395
0000c0 49 cb 3b bc c0 a4 b7 bd 40 f7 c5 bc f1 fd 87 3d
       -0.011462041 -0.089669704 -0.02416575 0.06640232
0000d0 3d 68 52 bb 11 6f cb bc 40 bb fd bc 11 f6 d5 3c
       -0.0032105588 -0.024833234 -0.030973077 0.02611831
0000e0 f7 80 d9 3d 66 e3 ae bc 5e 7f 89 3c 07 bc 93 bc
       0.10620301 -0.021348666 0.016784366 -0.018033994
0000f0 aa 83 93 bc 3e 5e 24 bc e7 57 64 bd 2d 4f 39 bd
       -0.018007118 -0.010032235 -0.055747893 -0.045241524
000100 23 3e 11 bd d7 5e d1 bc 97 89 64 bc 92 ff 0c bd
       -0.03545965 -0.025557918 -0.01394882 -0.03442342
000110 af 2a 67 bc e0 a6 0b bd d9 59 8d bd 21 c1 06 bd
       -0.014109298 -0.03409469 -0.06901903 -0.032899026
000120 5c 3c 63 3b bb 3c 63 bc bf cf ce bb 49 e8 a6 3d
       0.0034673428 -0.01386946 -0.0063113864 0.08149774
000130 c3 87 af bd 61 74 7e 3b f1 56 8c bd 33 81 df 3d
       -0.08570816 0.0038826691 -0.0685252 0.10913315
000140 77 fb 0d bd 16 b9 73 3d 85 20 81 3d 12 04 29 bc
       -0.034663644 0.059502684 0.06305031 -0.010315912
000150 96 2b 38 bc da 97 ac 3d af f4 91 bc f3 ff 41 bd
       -0.01124086 0.08427401 -0.01781687 -0.047363233
000160 34 17 4e bd 2b 1b 3d 3c 62 c4 16 3d b3 74 b0 3c
       -0.050315097 0.011542122 0.03680838 0.021540022
000170 6f 61 18 bc 6b 65 d6 3b 83 35 8b 3c 19 85 a0 3c
       -0.009300574 0.0065428517 0.01699329 0.019594716

weight f4 [64, 3072]
000000 f2 5a 91 bc a4 66 b7 bc 10 47 74 3c 37 5d 6e bc
       -0.017743561 -0.02238781 0.014909521 -0.014548591
000010 4d 9d 2b 3c a9 cb 2c bb 08 17 9b bc 84 6d c6 bc
       0.010474515 -0.0026366508 -0.01893188 -0.024222143
000020 8d 7b 4a 3c d9 f7 4c bb d7 5d fa bb 83 9a 71 3c
       0.012358558 -0.0031275658 -0.007640581 0.014746311
000030 25 58 30 3c 05 87 9d bc 2b 2b 50 bc ee c2 25 bb
       0.010763203 -0.019229421 -0.012705605 -0.002529319
000040 57 66 9d 3b 91 07 2e 3b fc b5 9e bc c0 95 d4 3b
       0.0048034596 0.0026554803 -0.019373886 0.006487578
000050 e8 8a 1c 3c 5e 2c ce 3b b6 cd f1 3b 49 37 68 3b
       0.009554602 0.00629191 0.007379259 0.0035433343
000060 5a 86 77 ba c7 29 4a 3c 03 c6 89 3c ec 06 c2 3b
       -0.0009442322 0.012339062 0.016818052 0.0059212353
000070 40 01 c5 3a ef 3d b2 bc c6 c4 02 bd bf 96 a5 bb
       0.001503028 -0.021758048 -0.03192594 -0.0050533707
000080 f0 f4 40 3c f7 a2 96 ba c7 95 71 3c 90 ea 6b bc
       0.011777148 -0.0011492659 0.014745182 -0.014399186
000090 01 76 a0 bb 7e 20 fe 3b c9 2f d8 bb 74 c4 b5 bc
       -0.0048968797 0.007755338 -0.0065974933 -0.022188403
0000a0 54 e1 3e 3c 2c 10 22 bc 75 8f bc bc 7f 03 87 bb
       0.011650402 -0.009891551 -0.023017624 -0.00412029
0000b0 b7 79 ec 3b 93 74 48 3a ae d0 69 bc 14 df aa 3b
       0.007216658 0.00076467654 -0.0142709445 0.0052145813
0000c0 2a b7 04 bc 5d f0 d0 bb d5 de 1b 3b ab 7b 60 bc
       -0.00810031 -0.00637631 0.0023783941 -0.01370136
0000d0 93 47 8d bc b1 cd b9 bc ca bf b0 bb b6 af 88 bc
       -0.017246043 -0.02268109 -0.005393957 -0.016685348
0000e0 48 03 48 3b 01 2b b3 ba a2 f1 39 ba e1 41 34 bc
       0.0030519534 -0.0013669432 -0.0007093196 -0.011002035
0000f0 32 11 34 3c 30 27 f0 bc d5 9a 41 3b 08 65 2b 3b
       0.010990428 -0.029315561 0.002954175 0.0026152749
000100 17 3e 67 bc 75 42 e8 bc 95 6c 81 bc a2 cf 17 bd
       -0.0141139245 -0.028352002 -0.015798846 -0.03706325
000110 00 c3 5e bc 90 17 95 bb b1 d5 08 3b 1a 57 6b bc
       -0.013596296 -0.004549928 0.0020879323 -0.014364028
000120 d9 48 d5 bb 3e fd 2f 3c ae 98 33 3b e3 26 ca 3a
       -0.0065089283 0.01074153 0.0027404237 0.0015422966
000130 d1 2b ed b9 f6 8b 31 bd 20 43 8c bc bf 85 b4 3b
       -0.00045236808 -0.043346368 -0.017121851 0.005509108
000140 ba d6 42 bc 38 4e b1 bc 5e 25 43 bc 71 bb 58 3b
       -0.011892015 -0.021643743 -0.0119107645 0.0033070708
000150 2f 63 96 bc ee 1e e2 bb 45 e1 43 bc 80 4c 40 bc
       -0.018357841 -0.0069006598 -0.011955564 -0.011736989
000160 51 95 2e 3b 7d ee 14 bd 37 80 2b bd 0d e9 37 bd
       0.0026639292 -0.036360253 -0.041870322 -0.04489999
000170 4a 7b 10 bc b8 49 51 bc 9a f3 33 3c 65 a9 05 ba
       -0.008818457 -0.012773924 0.010983372 -0.0005098789
000180 7e 81 2e 3c ed c5 46 bc 72 e9 16 bc c5 b5 02 bc
       0.0106509905 -0.01213215 -0.009210931 -0.007977908
000190 a4 da 3f bc c9 99 c1 bb 35 b2 f1 bb 8f 5e 49 3c
       -0.011709843 -0.005908225 -0.0073759803 0.012290611
0001a0 8f 92 86 39 15 bb 0b 3c 47 9c b5 bb 27 94 3c 3c
       0.00025667666 0.008528491 -0.0055423114 0.011509932
0001b0 70 9d bf bc 6b 65 71 bc 78 2f 9d ba 5b e8 59 bc
       -0.023390502 -0.014733653 -0.0011992296 -0.013300027
0001c0 7d 8e 9c bb 9d d5 8a bc 70 1c 5f 3b 96 d9 74 3b
       -0.004777728 -0.016947562 0.003404405 0.0037361137
0001d0 7f fe 8a 3c 7e 55 5a 3c 8e f1 23 bb 96 3a 81 bc
       0.016967056 0.013326047 -0.0025015804 -0.015775006
0001e0 c7 26 70 3b 93 22 01 bc 7f 07 53 bc 06 9f 54 3c
       0.0036644207 -0.007881778 -0.012880205 0.012977367
0001f0 45 d2 91 bc 26 d9 b2 3b e3 a9 8c 3b 29 25 93 3b
       -0.01780046 0.005458015 0.004292713 0.004490514
000200 65 43 6e bb d0 8d 28 3c d9 d8 1a bc ef 66 83 bb
       -0.0036356088 0.010287717 -0.009451115 -0.0040100734
000210 e9 4e b0 b9 01 98 63 bb 14 ea a6 bc c5 d8 2e b9
       -0.0003362813 -0.0034728053 -0.020375289 -0.00016674686
000220 fe 5b 95 3b 5a 8e 0c bc 73 51 9c bc dd d0 ee 3b
       0.0045580855 -0.008578861 -0.019081807 0.007288082
000230 f0 ce bb bc 8d 98 9f bc 2c 3c 9d bc ee 7e 2c 3c
       -0.022925824 -0.019481922 -0.019193731 0.010528309
000240 80 fa aa bb 60 fa c6 3a 43 26 2e 3c f8 ed 84 bb
       -0.00521785 0.0015180819 0.0106292395 -0.0040566884
000250 fb 97 54 bc 2f f9 b2 bb 10 e0 76 ba a5 72 45 bc
       -0.012975688 -0.005461834 -0.0009417543 -0.012051259
000260 7c 4f 14 3b 37 f1 ea 3a 1b 86 0a 3c 68 0f a9 bc
       0.0022630384 0.0017924671 0.008454825 -0.02063723
000270 f0 4b 21 3c 39 fa 42 3c 17 17 09 3b 0e d6 83 3b
       0.009844765 0.011900478 0.0020918304 0.00402332
000280 1a 36 5d 3c 95 61 72 3b 62 6d b7 3b c9 4a 96 bc
       0.013501668 0.0036984433 0.0055977562 -0.018346207
000290 ba b6 07 bc 9e f6 6a 3c e7 a2 40 3c 34 18 67 3b
       -0.0082833115 0.014341025 0.011757589 0.003526223
0002a0 86 00 e0 bb e9 df 96 3c 35 79 82 3c 89 62 e6 bb
       -0.006836 0.018417316 0.015926937 -0.0070307893
0002b0 6d 4c 77 bc 27 43 c9 3b c5 c1 cc bb cf 0f 86 3b
       -0.015093905 0.0061420384 -0.006248685 0.00409124
0002c0 e0 84 fb ba 12 8e 24 bc 40 0c 17 3c d3 eb 1f 3b
       -0.001918938 -0.010043638 0.009219229 0.0024402037
0002d0 e2 12 31 3c 18 77 eb b8 fe 76 84 bc a3 63 92 3c
       0.010807725 -0.00011227856 -0.016170021 0.017869776
0002e0 51 91 52 3c a2 08 63 bc 97 b2 9e 3c b9 38 88 3a
       0.012852029 -0.013857039 0.019372268 0.0010392881
0002f0 5a 87 29 bc 79 d8 28 bc 8e 25 96 bb 92 05 8c 3b
       -0.010347212 -0.010305517 -0.0045821136 0.004273125
000300 5c 95 0a 3c d2 5f a7 bc 94 93 84 3b d7 b4 2d bc
       0.008458462 -0.020431433 0.004045913 -0.010602198
000310 10 5b c1 bc fe bb 98 bb 73 46 c8 bc 9b c6 27 3c
       -0.023602992 -0.0046610823 -0.024447655 0.010240222
000320 42 b2 04 3c 42 5b 47 3c bf a6 22 3c 5c 6c 0b 3c
       0.008099141 0.012167754 0.009927451 0.008509722
000330 4f 5f ef 3b 2d 34 1a bc c9 97 8b bc 0e ae dc bb
       0.007305063 -0.009411854 -0.01704015 -0.006734616
000340 f4 e9 65 3c 90 82 90 b9 8f 45 58 bc 48 03 57 bc
       0.01403283 -0.00027563097 -0.013200178 -0.013123341
000350 1c 67 93 bc a4 f9 80 bc 85 43 36 bc a5 d2 b6 bc
       -0.017993502 -0.015744038 -0.011124496 -0.02231724
000360 60 d8 85 bc ed 16 48 bc 52 05 6f bc 59 a9 2e bb
       -0.016338527 -0.012212497 -0.014588671 -0.0026651232
000370 99 de f5 ba a4 95 23 3c 67 58 8a bc 13 9f ae bc
       -0.0018758356 0.009984408 -0.016887857 -0.021316087
000380 20 6b a7 bb 9c 5b 0f 3c 68 c9 8b bc 81 46 2f bb
       -0.005109206 0.008749869 -0.017063811 -0.0026744904
000390 47 e9 9a ba b0 c0 08 ba 51 c4 ae 3c 0c fe 83 bc
       -0.001181879 -0.0005216701 0.021333845 -0.01611235
0003a0 8d ad a9 bc d0 29 f2 bb b1 13 05 bc 02 c5 97 3b
       -0.020712638 -0.0073902383 -0.008122371 0.0046316395
0003b0 61 68 ef 3a 16 23 04 3b f2 bb 32 bc 94 c9 2b bc
       0.001826536 0.0020162514 -0.0109090675 -0.010485072
0003c0 04 81 33 bc fd 9f 9c bc a5 0f 03 bc 66 d1 68 bc
       -0.010956053 -0.019119257 -0.007999335 -0.014210081
0003d0 da 0e a3 bc c4 6c 0e bc 84 4c 5d b9 09 8a b4 bb
       -0.019904543 -0.008692924 -0.00021104707 -0.005509619
0003e0 cb 52 04 3c ac e0 41 3b 33 d9 a2 bc 00 6b 69 bb
       0.00807638 0.0029583378 -0.01987896 -0.0035616755
0003f0 41 d8 5f bc f6 94 74 bc 8a ba a9 3a 3d 0b ba ba
       -0.013662399 -0.014928093 0.001294927 -0.0014194023

bias f4 [64]
000000 51 58 38 bb 63 18 ba bc 7d 43 ae bc 78 7a 95 bc
       -0.0028128813 -0.022716707 -0.021272415 -0.018246874
000010 25 4b 22 bc 16 20 8a 3c b1 0e e2 bc 4b 0d 9d bc
       -0.009905611 0.016861003 -0.027594896 -0.019171378
000020 01 2d a7 bc fa 5d 86 bc fb a8 68 bd ad 55 66 bc
       -0.020407202 -0.016402233 -0.056801777 -0.014058513
000030 23 75 18 bd 23 3c a9 bc 2b 01 9b bc 0b 7b 06 3e
       -0.037221085 -0.020658558 -0.018921455 0.13132875
000040 40 29 ca bb 6f e8 0c bc af 7e ed bb d8 60 31 bc
       -0.006169468 -0.008600338 -0.007247768 -0.010826312
000050 a9 b5 e2 b9 46 ce d9 3a 59 cd b1 bc 6a 8a 5c 3e
       -0.00043241426 0.001661726 -0.021704363 0.21537176
000060 ab 0f 2c 3e 5e e0 d4 bb 0a 77 75 bd f0 83 da bc
       0.16802852 -0.006496473 -0.059927978 -0.02667424
000070 e7 57 bb bc 23 4e d6 3b d2 81 90 bc 38 bb 1c bc
       -0.022869064 0.0065400763 -0.017640028 -0.009566121
000080 b3 a0 8b 3b 9b 27 a8 bc 4c 15 14 bd 70 33 92 bd
       0.0042611 -0.020526698 -0.036153123 -0.07138717
000090 c2 da cd bc c0 50 22 3c 2c 31 0b 3c 03 02 87 bd
       -0.025128726 0.009906948 0.00849561 -0.065921806
0000a0 81 16 cd bd 5e 91 fe bc 85 1d ea bc 9e 8a 20 bc
       -0.10014058 -0.031075176 -0.02857853 -0.009798674
0000b0 17 2b b0 3a 01 19 c3 bc 05 3e b7 bc f3 4b 72 bc
       0.0013440576 -0.023815634 -0.02236844 -0.0147886155
0000c0 cc e6 a2 3b 26 c5 d1 ba d1 97 01 bd 67 15 6f bc
       0.004971361 -0.0016004189 -0.031638924 -0.014592505
0000d0 45 96 8c 3b d9 da 46 bd f1 4f bd 3b c6 b9 c6 bb
       0.0042903745 -0.048548553 0.005777352 -0.0060646264
0000e0 f8 99 d3 3d 6c 6c a2 ba ca 92 b5 bc 6f b8 d6 39
       0.103321016 -0.0012391931 -0.022164721 0.00040954674
0000f0 56 3b 05 3c 79 00 24 bc 45 30 78 bc 38 bd 9e b9
       0.008131823 -0.010009878 -0.015148227 -0.00030277087

weight f4 [25, 64]
000000 09 a4 74 3d cd ee 4d bc 56 48 ae bd 02 08 f5 3c
       0.05972675 -0.012569142 -0.08509891 0.029911045
000010 6e 29 45 3d eb 33 35 3d bf ee 69 bc a0 41 30 3d
       0.048135214 0.044238966 -0.014278113 0.043031335
000020 d6 82 5a bd 10 9c d7 bc 54 50 96 bc 1b 9f f3 bd
       -0.05334743 -0.026319534 -0.01834885 -0.11895581
000030 4a 2e 00 bd 5a ae ce bd 37 df f3 3c ad be 73 bd
       -0.031294145 -0.10091849 0.029769523 -0.059508014
000040 55 fa 81 3d f8 b5 b6 3d 0f f9 d3 bd 5b 91 bb 3d
       0.06346575 0.089214265 -0.103502385 0.09158584
000050 07 ac 7a 3d 2d 87 04 3e 71 dc d5 ba c3 28 01 3e
       0.061199214 0.1294219 -0.0016316307 0.12613206
000060 66 96 1e 3e e6 81 da 3c 5a 49 a3 bc c0 86 89 3d
       0.1548706 0.026673269 -0.019932438 0.06715155
000070 cd 97 76 3c 3f bb c7 bd 44 90 aa bd a2 b6 8e bb
       0.015050841 -0.09752511 -0.08328298 -0.0043552676
000080 18 9f a4 3d 29 b3 a6 3c c3 3e 33 3c 33 fc e0 bc
       0.08038157 0.020349102 0.0109402565 -0.027464008
000090 e7 6d 17 3d 01 b9 86 bc c8 06 90 bd be f6 72 bd
       0.036970045 -0.016445639 -0.070325434 -0.059317343
0000a0 a2 e7 81 3d 58 23 28 3d 32 4f 0b 3d 5a 99 96 b9
       0.063430086 0.04104933 0.034011073 -0.00028724485
0000b0 ec 4e 40 ba c4 e0 88 bd 8b 60 cc bd d7 59 bd bd
       -0.0007335979 -0.06683496 -0.099793516 -0.09245651
0000c0 17 25 c6 3d f0 2c f0 3d 3e b7 27 bc ce 1c 86 bd
       0.09675043 0.11727321 -0.010236559 -0.06548463
0000d0 d1 02 ae bd a7 a4 be 3c b7 79 80 3d 8e 0f 8b bd
       -0.08496631 0.023271872 0.06273215 -0.06790076
0000e0 7b 6e 45 be 62 23 67 bd 3b 68 f1 3c 3b f9 9e bd
       -0.19280426 -0.056430228 0.029468646 -0.07762381
0000f0 9e 21 b3 bd fb e5 e7 bd fc 31 10 bb 1e f9 af bd
       -0.08746646 -0.11323162 -0.002200245 -0.08592437
000100 da e7 40 bd aa 26 c4 3d ac b8 c7 3d 5b f6 23 3d
       -0.04709611 0.09577687 0.0975202 0.040029865
000110 10 de ca bd 9d 85 2c be 1f 3d 7d bd 88 75 8a bd
       -0.09905636 -0.16847844 -0.061825868 -0.067606986
000120 9e f7 b2 3d 27 72 90 3c 36 08 ae bd c0 d9 cd bd
       0.087386355 0.017632557 -0.0849766 -0.10051298
000130 f2 41 c8 bd 9e 92 1b bd da a3 d1 3c 7c fd 6a 3c
       -0.09778203 -0.037981622 0.025590826 0.014342662
000140 b9 19 88 bd 52 7f d9 bd d5 3d 7c 3c 86 3d c4 bd
       -0.06645531 -0.106199875 0.015395601 -0.09582047
000150 31 08 a1 3b e6 38 ae bc f0 82 c6 3c 62 d9 cf bd
       0.0049143066 -0.021267366 0.024232358 -0.10148884
000160 1e 74 48 bd 25 70 da 3d ba b7 28 bd 15 75 d2 bd
       -0.048938863 0.10665921 -0.04119084 -0.10276238
000170 af 7a b6 3d 43 4e 00 be 3f b2 4c 3c cf 0f 39 bd
       0.08910119 -0.12529854 0.012493669 -0.045181092
000180 e7 63 b1 bd 1b 17 a8 3d 9a c6 05 3c 25 6c b7 3b
       -0.08661633 0.08207532 0.008165026 0.0055976086
000190 99 c6 68 bd c5 a4 5a bd 38 0b 8b 3d 9c 89 ce bd
       -0.056830022 -0.053379793 0.06789249 -0.10084841
0001a0 33 42 78 bd 32 24 a4 3b 2c c7 f4 3c 8c 0e d4 bd
       -0.060610007 0.0050091976 0.029880129 -0.10354337
0001b0 9b 8b 8f bd 1e 9f 8a 3d 08 ef 19 3c a5 a6 aa bc
       -0.070090495 0.067686304 0.009395368 -0.020831415
0001c0 ec 76 ca 3d 8e cc ec 3d 64 db b9 3d 96 e8 e0 3c
       0.09885964 0.11562453 0.090750486 0.027454656
0001d0 17 d6 c0 bc 17 f0 b4 bd 94 f8 87 3d 0b 59 cc 3d
       -0.023539586 -0.08834856 0.066392094 0.09977921
0001e0 33 38 a2 bd f0 62 90 3d 8c 8f e6 bc b2 da ca 3c
       -0.079208754 0.07050121 -0.02814462 0.024762485
0001f0 cc e1 23 3d 43 7d 4b bd d3 6e 10 3d 60 6d cd 3a
       0.04001026 -0.049680006 0.03526194 0.0015672855
000200 da ad f0 3d 16 ac 7c 3d cd bd ff ba 39 bc 05 3c
       0.117519096 0.06168755 -0.0019511521 0.008162552
000210 f3 a6 81 3d 77 64 43 3d 93 b7 e1 3c ae f2 80 bc
       0.06330671 0.047703233 0.027553355 -0.015740719
000220 46 34 01 3d 05 fd 2e 3d ae e7 bd 3c 00 05 03 3e
       0.031543992 0.042721767 0.023181763 0.12794876
000230 bf d0 21 3b 9c c4 12 bd 68 04 48 3d 81 4c 6e 3d
       0.0024691073 -0.035832033 0.048832327 0.05817843
000240 f1 38 d4 bd b3 67 f1 bc 13 94 f7 bd c0 f0 af bc
       -0.10362423 -0.029468393 -0.1208879 -0.021477103
000250 3b e7 d4 bd 67 99 87 3d 2e ad 40 bd e2 0c b3 3d
       -0.10395666 0.06621056 -0.047040157 0.087426916
000260 fa 21 dd 3d 69 5e 4a 3d 1c c3 97 bb 09 27 9b bc
       0.10797496 0.049406443 -0.004631413 -0.018939512
000270 4d ca 3f 3d 77 2c ef bd e0 f8 14 bd 82 37 88 bd
       0.04682379 -0.11678403 -0.03637016 -0.06651212
000280 a7 41 8b b9 fe e1 ca 3d 2c f7 bc 3d 47 24 31 bd
       -0.0002656106 0.09906386 0.09226832 -0.043247487
000290 70 5c e6 3d da 7e b0 bb b5 3f a7 3d 96 62 62 39
       0.112481 -0.0053862156 0.08166448 0.00021589766
0002a0 f0 42 fa bc 08 93 95 3d 73 09 aa bd bd 29 8c bd
       -0.030549496 0.073034346 -0.083025835 -0.068438984
0002b0 11 b5 25 3d 4a af a9 3d b6 1b 79 bd a2 6a 0a 3c
       0.04045588 0.08285387 -0.060817443 0.008448275
0002c0 cc 55 7c bd 4d 93 e6 bd 18 69 b3 bd a6 38 82 bd
       -0.06160526 -0.11258564 -0.087602794 -0.06358461
0002d0 ac 6f 90 3d 0c 9f ad 3d d8 4d be bd 55 d8 e7 3d
       0.0705255 0.084776014 -0.09292191 0.11320559
0002e0 86 b4 fa bd f5 ab e7 bd b5 24 f2 3c 8a 43 36 3d
       -0.12241463 -0.11312095 0.029558519 0.044498004
0002f0 4b be 83 3d 08 51 e1 3d 98 98 ed bd e5 e8 4d bd
       0.0643278 0.110017836 -0.116013706 -0.050270934
000300 10 5b 93 3c 71 df dc bc 28 a1 bf 3c a3 ff 1f bd
       0.017987758 -0.026962014 0.023392275 -0.039062154
000310 6b 83 3a bd ad af b4 bd fe e7 43 3d f5 4a e8 bc
       -0.045535486 -0.0882257 0.047828667 -0.028356055
000320 42 74 a3 3d e3 9c ff 3d e9 cb ed bc 32 4e b4 bd
       0.07981159 0.12481096 -0.029027896 -0.08803977
000330 6a 49 b1 bd e1 19 d9 bd 8e 85 ae bd c1 63 6f be
       -0.08656581 -0.10600639 -0.08521567 -0.23377897
000340 af 2c b3 bd 98 a5 bb bd 8c eb 92 bd 6e ab 95 ba
       -0.08748757 -0.09162444 -0.07173833 -0.0011418888
000350 2e a8 97 bd 67 69 ee bd 03 39 24 3d 94 90 21 3c
       -0.074051246 -0.11641198 0.040093433 0.00986113
000360 fc 00 9b 3d 7d ec 3a bc 3d 47 95 bb 16 2a 52 3d
       0.07568547 -0.011408922 -0.0045556114 0.051309668
000370 e4 3a e0 bd 2b 08 ce 3d b1 9e 18 be cd 4f 25 3d
       -0.109487325 0.10060152 -0.14904286 0.040359307
000380 a5 a1 7b 3d ff fc be bd 84 4a cd bc f4 00 7b 3d
       0.061433453 -0.09325599 -0.025059946 0.061280206
000390 f6 6d 9b 3d cd ad cf 3d 22 c6 36 3d 50 ed a8 bc
       0.07589333 0.10140572 0.044622548 -0.020620972
0003a0 a8 23 17 bd f8 c7 c1 3d 2e f5 b6 bc 49 19 d9 bd
       -0.03689924 0.09461969 -0.022333708 -0.10600526
0003b0 b4 26 95 3d b4 f9 bc bd 99 47 71 bd 2e 3f 92 3b
       0.07282773 -0.092273146 -0.05890617 0.004463098
0003c0 7f c3 da bd 39 7a ae bd b9 d9 38 3d ff 58 4e 3d
       -0.10681819 -0.08519406 0.04512951 0.050377842
0003d0 14 0a 8f 3c 2b 2e 34 3c 9f 02 ba bd 1a f5 f2 3c
       0.01746086 0.010997335 -0.09082531 0.02965789
0003e0 98 f7 b8 3d ae 8c 5d 3d dd 64 e6 bd df 55 40 3d
       0.090316 0.05408924 -0.11249707 0.046956893
0003f0 df 45 e5 3d 7a 89 01 bc fc d8 cf 3d 33 85 4c bc
       0.111949675 -0.007906312 0.10148808 -0.012482929

bias f4 [25]
000000 80 d7 80 3d 2e 70 29 3d 24 22 92 3d 69 c0 0d be
       0.06291103 0.04136675 0.07135418 -0.1384293
000010 72 eb e1 bb b7 db 1e 3e 0e 0e 1a 3e 3c 61 57 3e
       -0.0068945223 0.15513502 0.15044424 0.21033186
000020 42 c2 d8 3d 99 31 21 3e f8 ee 21 3e 03 ec 19 3e
       0.10583927 0.15741576 0.15813816 0.15031438
000030 24 8b d7 3d 05 6d b1 bc 02 f1 00 3e c3 ed ac bc
       0.10524586 -0.02165843 0.12591937 -0.021109467
000040 46 d0 7d 3c da 5e 48 bd c0 c1 fa bd 3f 00 31 bd
       0.015491551 -0.048918582 -0.12243986 -0.043213125
000050 4b 27 85 bd 6a d2 8a be 8e e1 94 bc ff fa ab bd
       -0.06501635 -0.27113658 -0.01817396 -0.08397483
000060 43 c8 9c be
       -0.30621538
