result/config0_main/preliminary_model17.pt (torch_old, 164193 bytes, 10 tensors)

weight f4 [12, 2, 192]
0	0x3e74d158	0.23907983
1	0x3c093251	0.008373813
2	0x3e28afa0	0.16473246
3	0x3c08bf07	0.008346326
4	0xbdaa5e88	-0.08318812
5	0xbe7a0fa3	-0.24420027
6	0xbe1b75f9	-0.15181722
7	0x3eb09dde	0.34495443
8	0x3e7c2f77	0.24627481
9	0x3c92346e	0.017847266
10	0xbefde9d3	-0.49592456
11	0xbe042f64	-0.12908703
12	0x3dc2d2e9	0.09512884
13	0x3d47d37e	0.04878568
14	0x3e6fdaf0	0.23423362
15	0xbdb1038b	-0.08643254
16	0x3e16a6e7	0.14712106
17	0x3e44c583	0.1921597
18	0x3e8e91a1	0.2784548
19	0x3def8473	0.116951846
20	0xbe072b40	-0.13200092
21	0xbd8dd959	-0.069262214
22	0xbd4672f0	-0.048449457
23	0x3e17a287	0.14808093
24	0xbd8d8fa6	-0.069121644
25	0x3e66c8cb	0.22537534
26	0x3e5bb0c7	0.21454154
27	0xbd9d756e	-0.076884136
28	0x3df85dd8	0.12127274
29	0x3e99151e	0.29898924
30	0x3e13144e	0.14363214
31	0x3ce8d4f3	0.028421855
32	0x3d2b35b7	0.041799273
33	0x3ea70062	0.3261748
34	0x3ea10500	0.31449127
35	0x3e9b65ca	0.30351096
36	0x3dae1eef	0.08501994
37	0xbf1cafd7	-0.6120581
38	0xbdcdebe7	-0.100547604
39	0x3e60de85	0.21959884
40	0xbd3080d9	-0.04309163
41	0xbd8250f8	-0.063631
42	0x3e8fe212	0.28102165
43	0x3c19700d	0.009365094
44	0xbecafaea	-0.39644557
45	0x3d23a3a9	0.039951
46	0x3ed6a44d	0.41922227
47	0x3e892700	0.26787567
48	0x3dd1f4f0	0.10251796
49	0x3eaeda4f	0.3415093
50	0xbd67adbf	-0.05656218
51	0xbe163512	-0.14668682
52	0x3e886908	0.26642632
53	0x3e6e29a7	0.23258077
54	0x3edd309f	0.43201157
55	0x3e52152e	0.20515892
56	0xbd07b200	-0.03312874
57	0xbac1f6be	-0.0014798266
58	0x3e0c1a36	0.13681874
59	0x3e707108	0.23480618
60	0x3eb531bd	0.3538951
61	0x3e8d05b0	0.27543402
62	0x3c8fa5a9	0.017535048
63	0xbddffc87	-0.10936838
64	0x3d4f473c	0.050605044
65	0x3e5be5f3	0.21474437
66	0x3cf4e29c	0.029893212
67	0x3cb4b901	0.022060873
68	0x3e911450	0.2833581
69	0x3de91bc1	0.11382247
70	0xbe4b7e57	-0.19872414
71	0x3d12e96b	0.035867136
72	0x3dd3b4c9	0.103372164
73	0xbd88bf58	-0.06677121
74	0x3df015a3	0.11722877
75	0x3d9b82f3	0.07593336
76	0x3e2bfea5	0.16796358
77	0x3ed3ed86	0.41392154
78	0x3ece3ef0	0.40282393
79	0xbed42413	-0.41433772
80	0xbecbdff9	-0.39819315
81	0xbcf40168	-0.029785827
82	0x3db324bd	0.08747242
83	0x3dfda825	0.12385587
84	0xbd74078b	-0.059577506
85	0x3d78a6a8	0.06070581
86	0xbe41c8d4	-0.18924266
87	0x3d7cf387	0.061755683
88	0x3e063413	0.13105802
89	0xbcade143	-0.021225577
90	0xbcc4ee78	-0.024039492
91	0xbdbc0153	-0.0917994
92	0xbbce84ac	-0.006302437
93	0x3ee8030e	0.4531483
94	0x3e95f4ed	0.29288426
95	0xbe8cc7c1	-0.2749615
96	0x3dec980b	0.115524374
97	0xbdd0e47a	-0.101998284
98	0xbe87cf64	-0.26525414
99	0x3e8fde87	0.28099462
100	0x3e348122	0.17627385
101	0x3e13ead0	0.14445043
102	0xbdc0a28d	-0.09406004
103	0xbe1be6af	-0.15224718
104	0x3c5484d1	0.012971119
105	0xbd0a9107	-0.033829715
106	0xbc7dd16a	-0.015491823
107	0xbde3569e	-0.11100505
108	0x3c32306e	0.010875804
109	0xbdb77355	-0.08957545
110	0xbe21ba01	-0.15793611
111	0x3ddabce6	0.10680561
112	0xbe112836	-0.14175496
113	0xbe606fda	-0.21917668
114	0x3bcda7b4	0.0062760953
115	0xbba697fe	-0.005084037
116	0xbda7db6b	-0.081961475
117	0xbeb58768	-0.3545487
118	0xbe735388	-0.23762333
119	0x3db676de	0.08909391
120	0x3e82a26c	0.25514543
121	0xb8ee8bbb	-0.00011374751
122	0x3cc40751	0.02392927
123	0xbcce096d	-0.025150979
124	0x3e8000c2	0.25000578
125	0x3d8f54d1	0.06998599
126	0xbd6c0dac	-0.057630226
127	0xbdb2eb46	-0.08736281
128	0xbe3a7bed	-0.18211336
129	0xbea846e5	-0.32866588
130	0x3e807649	0.25090244
131	0x3ec28e49	0.3799918
132	0xbe405be0	-0.18785048
133	0xbe3d9736	-0.18514714
134	0xbe91b7f7	-0.28460667
135	0x3db267c6	0.087111995
136	0x3e6959ca	0.22788158
137	0xbb924dfd	-0.0044648633
138	0xbc63bb0b	-0.013899575
139	0x3df943b4	0.121711165
140	0xbc7dede9	-0.015498617
141	0x3e8cb90d	0.27484933
142	0xbe0e3dd1	-0.13890769
143	0xbe94810b	-0.29004702
144	0xbe30294b	-0.17203252
145	0xbc803fbf	-0.015655397
146	0x3f04709a	0.51734316
147	0x3eb6e6db	0.35723004
148	0xbd1da8ac	-0.038490936
149	0xbdf3bf0b	-0.11901673
150	0xbe905358	-0.28188586
151	0xbeb20360	-0.347682
152	0xbe2d0e4f	-0.1689999
153	0x3d28be56	0.041197143
154	0x3e855e79	0.2604864
155	0xbda9f5a1	-0.08298803
156	0xbd4a3548	-0.04936722
157	0xbdc6ca2d	-0.09706531
158	0xbd57a6ca	-0.052649297
159	0x3c0d54ed	0.008626205
160	0xbe844e9d	-0.25841227
161	0xbe73d6c8	-0.23812401
162	0x3d1ed06b	0.03877298
163	0xbccd5fda	-0.02507012
164	0x3b4daf2a	0.0031384923
165	0x3d2b4c2b	0.041820686
166	0xbd08b712	-0.033377714
167	0xbd984072	-0.07434167
168	0xbbfa0cac	-0.007630905
169	0x3cbd743f	0.02312672
170	0xbe2d712d	-0.16937704
171	0x3d6bab63	0.057536494
172	0x3cdaf139	0.026726352
173	0x3e278fc1	0.16363432
174	0x3e14dd8a	0.14537635
175	0xbb1aece3	-0.002363973
176	0x3e7f5338	0.24934089
177	0xbd9caa60	-0.07649684
178	0x3ca74787	0.02041985
179	0x3e40a8af	0.18814348
180	0x3d1aa619	0.03775606
181	0x3cf6d4ed	0.030130828
182	0x3d076d71	0.033063356
183	0x3cdef6a8	0.027217224
184	0xbdfff819	-0.12498493
185	0x3e69575a	0.22787228
186	0x3ea6e5e1	0.3259726
187	0x3d49c29a	0.049257852
188	0x3ea0e718	0.3142631
189	0x3cf682c6	0.030091655
190	0xbde14f86	-0.11001496
191	0x3e9ae15d	0.30250064
192	0x3e168bf7	0.1470183
193	0x3db3dc2c	0.08782229
194	0x3e5181eb	0.20459716
195	0xbd55a6b5	-0.052160937
196	0x3de879f2	0.11351384
197	0xbdf663ee	-0.12030779
198	0x3de1d34c	0.1102663
199	0x3e962723	0.29326734
200	0xbe55c391	-0.20875384
201	0x3de5a2b1	0.112126715
202	0x3e70ba81	0.23508646
203	0xbe4b44bb	-0.19850437
204	0xbda9d765	-0.08293036
205	0x3d07961b	0.033102136
206	0xbdbeee0f	-0.0932275
207	0xbefa45a0	-0.48881245
208	0xbe9605f5	-0.2930142
209	0xbe8069a9	-0.25080612
210	0xbb4d4365	-0.0031320688
211	0xbe21c976	-0.15799507
212	0xbf218b87	-0.63103527
213	0xbef2d78b	-0.4743007
214	0xbec6dff2	-0.38842732
215	0xbebf8810	-0.37408495
216	0x3e1da11c	0.1539349
217	0x3e323395	0.1740249
218	0xbd6c3e48	-0.057676584
219	0x3d9bbb3c	0.076040715
220	0x3ebc9835	0.36834875
221	0x3e8ec0f7	0.27881595
222	0xbdc069b6	-0.09395163
223	0x3e2d9b2c	0.16953725
224	0x3befbc4e	0.007316149
225	0x3dc9b06f	0.09848105
226	0x3e0caab0	0.13736987
227	0x3cacacb9	0.021078454
228	0x3dcd6ab8	0.100301206
229	0xbe219a9a	-0.15781632
230	0xbbd0a3e2	-0.0063671926
231	0x3e1b1402	0.15144351
232	0xbe05db1a	-0.13071862
233	0x3e3c50e3	0.18390231
234	0x3eda9c4c	0.4269737
235	0xbd4aac21	-0.04948056
236	0xbcf3934d	-0.029733324
237	0x3e3cf6f4	0.1845358
238	0x3e933892	0.28754097
239	0x3e74795d	0.23874421
240	0x3e7f044b	0.24903981
241	0x3eb1b988	0.34711862
242	0x3e956e60	0.29185772
243	0x3e476dd1	0.19475485
244	0x3e03242a	0.12806764
245	0x3e56804d	0.2094738
246	0x3e443a75	0.19162925
247	0x3e0a7521	0.13521244
248	0x3e65b6e2	0.22433046
249	0x3db0e188	0.08636767
250	0x3e5375f3	0.20650463
251	0x3f275028	0.65356684
252	0x3e9d37e0	0.30706692
253	0x3eac067c	0.33598697
254	0x3eca882c	0.39557016
255	0xbea0e175	-0.3142201

bias f4 [12]
0	0xbe5c23ee	-0.21498081
1	0xbea50375	-0.322292
2	0xbea3edd0	-0.32017374
3	0xbec38248	-0.38185334
4	0xbe8a84c3	-0.27054414
5	0xbdc83c75	-0.09777156
6	0xbe8cab50	-0.2747445
7	0xbe523a84	-0.20530134
8	0xbeb25f99	-0.3483856
9	0xbe8ee4f1	-0.27909043
10	0xbe79d344	-0.24396998
11	0xbebd92f8	-0.3702619

weight f4 [24, 12, 16]
0	0x3d228a82	0.039682873
1	0x3d9bb3f1	0.076026805
2	0xbe733a03	-0.23752598
3	0x3c420524	0.011842046
4	0x3e4ef7a8	0.20211661
5	0xbdf6c327	-0.12048941
6	0xbe2d3599	-0.16914977
7	0xbdf47f48	-0.119383395
8	0xbdcb28a8	-0.09919864
9	0x3ded6b87	0.11592775
10	0x3d91ea8b	0.07124814
11	0x398dca4f	0.00027044347
12	0x3cab8e00	0.020941734
13	0xbeaf1009	-0.3419192
14	0xbe445c6c	-0.19175881
15	0xbe100c59	-0.1406721
16	0xbe5a7e65	-0.21337278
17	0xbe1cd706	-0.153164
18	0xbd242058	-0.040069908
19	0xbe112680	-0.14174843
20	0xbe8f28aa	-0.27960712
21	0xbde13748	-0.10996872
22	0xbddd76dd	-0.10813687
23	0x3d621638	0.05519697
24	0x3c6733f2	0.014111506
25	0xbe07b161	-0.13251258
26	0xbd471c3a	-0.048610903
27	0x3e924770	0.28570127
28	0x3e093ec8	0.13402855
29	0xbde9c3e4	-0.11414316
30	0xbea2e4b3	-0.3181511
31	0xbdcd30ce	-0.100190744
32	0xbe00b880	-0.12570381
33	0xbde0378d	-0.109480955
34	0xbd9b92b2	-0.07596339
35	0xbe36113d	-0.17780013
36	0xbe96e1b7	-0.29469082
37	0xbe3f8c98	-0.18705976
38	0x3d05c3bf	0.03265738
39	0x3e89e285	0.26930633
40	0xbde781c5	-0.113040484
41	0x3ee88635	0.45414892
42	0x3e1f8b7e	0.15580556
43	0x3d9b2849	0.07576043
44	0x3dcfa7a3	0.10139396
45	0xbbf6ae2c	-0.007528087
46	0xbe9f06c8	-0.3105986
47	0xbd001b58	-0.031276077
48	0xbcc26e2e	-0.023734178
49	0xbca56a60	-0.020192325
50	0xbd9f9bbd	-0.077933766
51	0xbdee54c8	-0.116372645
52	0xbce59d81	-0.028029205
53	0x3dc54891	0.096329816
54	0xbe82a818	-0.2551887
55	0x3e84a997	0.25910637
56	0x3e66ba56	0.22532019
57	0xbd41a077	-0.04727217
58	0x3dcd22f3	0.10016432
59	0x3e153f98	0.1457504
60	0x3ec060a4	0.3757373
61	0x3dfa8612	0.12232603
62	0xbe1772ec	-0.14789933
63	0xbe4df34c	-0.20112342
64	0xbde5bcf5	-0.11217681
65	0x3e0b1690	0.13582826
66	0xbd695f49	-0.056975637
67	0xbef7f4bc	-0.48428905
68	0x3eaf1eca	0.34203178
69	0xbd8dd0dd	-0.06924603
70	0xbdaf16c0	-0.08549261
71	0xbdfa5128	-0.122225106
72	0xbee8b5ad	-0.45451108
73	0xbdf94ca0	-0.12172818
74	0xbdfea8c0	-0.1243453
75	0xbe5eadb2	-0.21745947
76	0x3c4142e7	0.011795736
77	0x3e48ac1c	0.19596905
78	0xbda74782	-0.08167936
79	0x3d36e776	0.044654332
80	0x3e36be76	0.17846093
81	0xbd35e36e	-0.044406347
82	0x3dd0eeb9	0.10201783
83	0xbb9eab24	-0.004842179
84	0xbe447b86	-0.19187745
85	0xbe032903	-0.12808613
86	0x3e09213a	0.13391581
87	0x3e95e526	0.2927639
88	0x3df2f16e	0.11862455
89	0x3d9ff9d4	0.07811323
90	0x3d48286a	0.048866667
91	0xbeecefa2	-0.46276575
92	0x3c438735	0.011934091
93	0xbee4d37a	-0.44692594
94	0x3e00c627	0.12575589
95	0x3cf4ae5c	0.029868297
96	0x3e7541c6	0.23950872
97	0x3c7578d9	0.014982426
98	0xbd9f9a57	-0.0779311
99	0x3de6af67	0.11263924
100	0x3d55ab32	0.052165218
101	0x3ea1b356	0.31582135
102	0x3e364f3d	0.17803665
103	0x3e79ad8a	0.24382606
104	0x3e82cec1	0.25548366
105	0xbcb6be9c	-0.022307687
106	0xbd9c8a8f	-0.076436155
107	0x3ede5abe	0.43428606
108	0xbe04c11c	-0.1296429
109	0xbd7149ef	-0.0589084
110	0x3c4aeeb5	0.012386014
111	0xbde2f9cc	-0.11082801
112	0xbe363a1a	-0.17795601
113	0x3e9761ea	0.2956689
114	0x3b80bc48	0.003928695
115	0x3da0609e	0.07830928
116	0x3c34790f	0.011015191
117	0xbd54d1d9	-0.05195794
118	0xbe2c4aaf	-0.16825365
119	0x3edcfc5a	0.4316128
120	0x3d87256e	0.06598936
121	0xbe6e18c8	-0.23251641
122	0x3dd9417a	0.10608192
123	0xbdff0e47	-0.12453895
124	0xbeb34797	-0.35015556
125	0x3e8c8b5b	0.2745007
126	0xbdfda521	-0.123850115
127	0x3ed7a7ef	0.4212031
128	0xbd8eddb0	-0.06975877
129	0x3eb577d0	0.35442972
130	0xbe605bc8	-0.21910012
131	0xbd9c9b6a	-0.076468304
132	0x3e3c8bcc	0.18412703
133	0x3deedbb0	0.11662996
134	0x3dd34c17	0.10317247
135	0xbe83b2cf	-0.25722358
136	0xbd669e5b	-0.056303363
137	0xbc8d0847	-0.017215861
138	0x3e9501f5	0.29103056
139	0xbd1f4664	-0.03888549
140	0x3e07782a	0.13229433
141	0xbe03151b	-0.1280102
142	0x3da285c3	0.07935669
143	0x3b34307a	0.0027494715
144	0x3e800e5f	0.25010964
145	0x3e3cc8c5	0.18435962
146	0xbeb41fe8	-0.35180593
147	0xbe1f062c	-0.15529698
148	0x3e40134f	0.18757366
149	0xbf34a0e7	-0.7055802
150	0xbe6f9846	-0.23397931
151	0x3d3135e9	0.043264303
152	0xbe30f744	-0.17281824
153	0x3ec2bdfe	0.38035578
154	0x3e16e4e0	0.14735746
155	0x3e5af2b1	0.21381642
156	0xbe832f2b	-0.25621924
157	0xbe0a3cf0	-0.13499808
158	0xbf0c704f	-0.5485887
159	0x3d0a81ec	0.03381531
160	0xbe9f3320	-0.31093693
161	0xbdddd348	-0.10831314
162	0xbdc908a2	-0.098161
163	0x3e1d44db	0.15358298
164	0xbdb418be	-0.08793782
165	0xbe31b856	-0.17355475
166	0xbe015e66	-0.12633666
167	0x3c0146d6	0.007890424
168	0xbe4f5300	-0.20246506
169	0xbd9bc124	-0.07605198
170	0x3c8bea39	0.01707946
171	0xbec9d736	-0.39422005
172	0xbe0f2157	-0.13977562
173	0xbe67e3a7	-0.22645436
174	0xbf0974aa	-0.5369364
175	0xbd8d8633	-0.06910362
176	0x3ccec14e	0.02523866
177	0xbe5cc254	-0.21558505
178	0x3d0fbfee	0.035095148
179	0xbea69c7d	-0.32541266
180	0x3dd1291c	0.10212919
181	0xbebd7c86	-0.37009066
182	0xbdee90d8	-0.116487205
183	0xbc519330	-0.01279144
184	0x3c50861e	0.0127272885
185	0xbe6d1049	-0.23150744
186	0x3e0194d1	0.12654425
187	0xbdb7e77e	-0.089797005
188	0x39bbd69a	0.0003582731
189	0xbe519d12	-0.20470074
190	0x3ede9795	0.43475023
191	0xbe0b24ab	-0.13588206
192	0xbdd01efe	-0.10162161
193	0x3e73d439	0.23811425
194	0x3dc37a3e	0.095448
195	0xbe7bc7c4	-0.24587923
196	0xbe96a983	-0.29426202
197	0xbebbd19f	-0.36683366
198	0x3e47de18	0.19518316
199	0x3c87af61	0.01656312
200	0xbd0f477a	-0.034980275
201	0xbead6e07	-0.33873007
202	0x3d42130a	0.04738144
203	0x3e86a531	0.26297906
204	0x3c9f9e63	0.019484704
205	0xbe590a05	-0.21195228
206	0xbe124140	-0.14282703
207	0x3de4cd2a	0.111719444
208	0xbe70b83e	-0.23507783
209	0x3df6ab04	0.120443374
210	0x3d4b53b2	0.049640365
211	0xbce48e79	-0.027899968
212	0x3e4d12a8	0.20026648
213	0x3eaf27fb	0.3421019
214	0x3daeba87	0.08531671
215	0x3da368fb	0.07979008
216	0x3e4e43a6	0.20142993
217	0xbcedf982	-0.029049639
218	0xbe81be49	-0.2534049
219	0xbe88926a	-0.26674205
220	0xbb6ac1ff	-0.0035821197
221	0x3e44f1ef	0.19232915
222	0x3e0f86e1	0.14016296
223	0xbe7ccf29	-0.246884
224	0xbe227e0f	-0.158684
225	0x3de97da1	0.11400915
226	0x3e029782	0.12753108
227	0x3cbf291a	0.023335028
228	0x3e8f097c	0.27936924
229	0x3e0d8cc7	0.13823234
230	0xbe27648f	-0.16346954
231	0x3e4d1742	0.20028403
232	0x3b62f2a4	0.0034629488
233	0x3eb0c363	0.34524068
234	0x3e833995	0.2562987
235	0xbd508738	-0.050910205
236	0x3d503d22	0.05083955
237	0xbe0095d9	-0.12557162
238	0x3e43b385	0.1911145
239	0x3e8340bc	0.25635326
240	0xbeb7e5c5	-0.35917488
241	0xbdb4c2c8	-0.08826214
242	0xbc0d09c2	-0.0086082835
243	0x3ea14294	0.31496108
244	0x3e280825	0.16409357
245	0x3e1f87ad	0.155791
246	0xbe8a02c6	-0.2695524
247	0x3e9efe00	0.31053162
248	0xbddc52af	-0.10757958
249	0x3dcece36	0.10097925
250	0x3e66b0ba	0.22528353
251	0xbe91a912	-0.28449303
252	0x3e3bee21	0.18352558
253	0xbe08f6a9	-0.13375343
254	0xbf2aaaba	-0.6666676
255	0x3e1f2e92	0.15545109

bias f4 [24]
0	0x3e814e51	0.25255063
1	0x3bb98f6a	0.0056628482
2	0xbdc87521	-0.097879656
3	0x3e0edbaf	0.1395099
4	0x3dc0b261	0.09409023
5	0x3da33c7f	0.07970523
6	0x3da25e19	0.07928104
7	0x3e0ba0dd	0.13635583
8	0x3ea1e32d	0.31618634
9	0xbbf824b7	-0.007572736
10	0x3dc007c6	0.09376483
11	0xbb9be5a1	-0.0047575985
12	0xbdb38533	-0.0876564
13	0x3d9b5d5c	0.07586166
14	0x3bad83c5	0.005295249
15	0x3e118bf2	0.14213541
16	0xba99c089	-0.0011730354
17	0x3dd94a2b	0.106098495
18	0x3d55c627	0.052190926
19	0xbd001c09	-0.031276736
20	0x3d5ce24b	0.053926747
21	0xbe7f5853	-0.24936037
22	0x3df21b4c	0.11821613
23	0x3d6b5a3d	0.057459105

weight f4 [48, 24, 2]
0	0xbe53bad0	-0.20676732
1	0x3b44471b	0.0029949609
2	0x3ef5e6a5	0.4802753
3	0x3f05928b	0.5217673
4	0x3ed88a67	0.42293093
5	0x3ef75b80	0.48311996
6	0xbf11d7c4	-0.5696986
7	0xbed2eb4c	-0.41195142
8	0xbebac23b	-0.3647631
9	0xbc530eff	-0.012881993
10	0xbee75836	-0.45184487
11	0xbd0bc65d	-0.03412472
12	0x3e7387f4	0.23782331
13	0x3eeb26fe	0.45928186
14	0xbdcc3770	-0.09971511
15	0x3dd16ae6	0.102254674
16	0xbecd77b5	-0.40130392
17	0xbd85cd56	-0.06533305
18	0xbe2f9cc4	-0.17149645
19	0xbe130726	-0.14358196
20	0xbd3522b1	-0.044222537
21	0xbe2517e0	-0.16122389
22	0xbe49fc8c	-0.19725245
23	0xbed0fb00	-0.40816498
24	0xbda9af4c	-0.08285388
25	0xbec34bcb	-0.38143763
26	0xbeb05eab	-0.34447226
27	0xbe812f63	-0.25231466
28	0x3ec0db10	0.3766713
29	0x3f18e939	0.5973087
30	0x3bfe0e18	0.007753145
31	0xbe0bf15c	-0.1366629
32	0x3de8571c	0.1134474
33	0xbd81e8ae	-0.06343208
34	0xbdc38d72	-0.09548463
35	0xbe98cf72	-0.29845768
36	0x3e22ac2c	0.15885991
37	0xbe67dd74	-0.22643071
38	0x3eba97d3	0.36443958
39	0x3ec004f0	0.37503767
40	0xbd05d665	-0.032675166
41	0xbea2b3f4	-0.31777918
42	0x3e5e5585	0.2171231
43	0x3d9f7e0c	0.077877134
44	0x3e1d6a50	0.15372586
45	0x3dc46942	0.09590389
46	0xbdeb78b8	-0.11497635
47	0x3e384f5b	0.17999022
48	0xbd3fe014	-0.046844557
49	0xbcb3f8ba	-0.021969188
50	0x3e2dc09e	0.16968009
51	0x3dbba45a	0.09162207
52	0xbe1460b7	-0.14490019
53	0x3c1753ff	0.009236335
54	0x3e499b7f	0.19688223
55	0xbe11aa1c	-0.14225048
56	0x3ea4bd2e	0.32175583
57	0x3f15c710	0.5850687
58	0xbe61ff0c	-0.22069949
59	0xbf0a3e2b	-0.5400111
60	0x3eb55eb3	0.35423812
61	0x3e2e11ff	0.16999052
62	0x3e3f104a	0.18658558
63	0x3eca3436	0.3949296
64	0xbf04e7a1	-0.5191594
65	0xbe8e4220	-0.27784824
66	0xbe31892c	-0.17337483
67	0xbdc920b4	-0.09820691
68	0xbf17072b	-0.5899531
69	0xbefbbc3a	-0.49167043
70	0xbf1ea49f	-0.6196994
71	0xbf124d2c	-0.57149005
72	0xbebbc9a7	-0.36677286
73	0xbea15816	-0.31512517
74	0xbd1f5be5	-0.038905997
75	0xbcc5a696	-0.024127286
76	0x3dc0c477	0.09412473
77	0x3ed0e654	0.40800726
78	0xbefdd96b	-0.4957994
79	0xbedc36a4	-0.43010437
80	0xbea0bee8	-0.3139565
81	0xbf27432e	-0.65336883
82	0xbe8931db	-0.2679585
83	0xbe9ac0cd	-0.3022522
84	0xbea42a87	-0.32063696
85	0xbf121633	-0.57065123
86	0x3e8d1d73	0.2756153
87	0xbd7c0544	-0.06152846
88	0x3dea7937	0.11448901
89	0xbe05dad7	-0.13071762
90	0xbe1a23dc	-0.15052742
91	0xbed2fd73	-0.4120899
92	0xbec44b0d	-0.3833851
93	0xbea2d414	-0.31802428
94	0xbe0656d3	-0.13119058
95	0xbee43471	-0.4457126
96	0x3ee3c8f8	0.44489264
97	0x3ed941a2	0.42432886
98	0xbe7d795a	-0.24753323
99	0xbe43fe50	-0.19139981
100	0xbdf888e1	-0.121354826
101	0xbd51360e	-0.05107694
102	0x3d520eaa	0.051283516
103	0xbe164bc5	-0.14677341
104	0x3e926bf3	0.28597984
105	0x3f1741df	0.59084886
106	0x3e00bb40	0.1257143
107	0x3ea18f60	0.315547
108	0xbeccaa6b	-0.3997377
109	0xbeab332a	-0.33437473
110	0x3e06861f	0.131371
111	0x3e4d1781	0.20028497
112	0xbea4762f	-0.32121417
113	0xbee0feb4	-0.43944323
114	0xbe5e16e0	-0.21688414
115	0xbe8dfb49	-0.27730778
116	0x3e2246f0	0.15847373
117	0x3c62b3ae	0.013836784
118	0x3e55d5e2	0.20882371
119	0xbe05e6da	-0.13076344
120	0x3e24d86a	0.1609818
121	0x3e1db99b	0.15402834
122	0xbf1e6314	-0.6186993
123	0xbedb4a79	-0.42830256
124	0xbc01de31	-0.00792651
125	0xbe90aae7	-0.28255388
126	0x3eb783a4	0.3584262
127	0xbd0b7224	-0.0340444
128	0x3e937d55	0.28806558
129	0x3e2b49ce	0.16727373
130	0x3d360184	0.04443504
131	0x3e44c7cc	0.19216841
132	0xbea2b3c9	-0.3177779
133	0xbe67b064	-0.22625881
134	0xbeafcced	-0.34336033
135	0xbeacfc1b	-0.3378609
136	0xbbede33e	-0.0072597554
137	0xbc162825	-0.009164845
138	0xbda8e1f9	-0.08246226
139	0xbe951e58	-0.29124713
140	0x3e18440e	0.14869711
141	0x3e213ab8	0.15745056
142	0xbe6e8a42	-0.23294929
143	0x3d6319ec	0.055444643
144	0xbdcbcbcd	-0.09950981
145	0xbe34fe4c	-0.17675132
146	0x3ea6fca1	0.32614616
147	0x3e059079	0.13043393
148	0x3e724101	0.2365761
149	0xbdf95aae	-0.12175499
150	0xbe153936	-0.14572605
151	0xbed6a1b1	-0.41920236
152	0x3e4fd48c	0.20295924
153	0x3f09e9a9	0.5387216
154	0x3e88eb8f	0.26742217
155	0x3e6340b0	0.22192645
156	0x3d78e80f	0.060768183
157	0x3e7a4dad	0.24443693
158	0x3e2c156e	0.1680505
159	0xbeabcd6c	-0.33555162
160	0x3e3d0193	0.18457632
161	0x3e7b67a6	0.24551257
162	0x3e238bb3	0.1597126
163	0xbcbc65a7	-0.02299769
164	0xbe9c12df	-0.30483148
165	0x3e457e5d	0.19286485
166	0xbec6337e	-0.3871116
167	0x3d4004d5	0.04687961
168	0xbe333377	-0.17500101
169	0x3e7d24fe	0.24721143
170	0x3d78b386	0.060718082
171	0x3ddd4744	0.108046085
172	0xbeac3f5b	-0.33642086
173	0xbe14f277	-0.14545618
174	0xbf07ecfb	-0.5309598
175	0xbe4e23a8	-0.2013079
176	0xbda0470b	-0.0782605
177	0xbe39661d	-0.1810536
178	0xbd1ea935	-0.038735587
179	0xbdb5b0f6	-0.08871643
180	0xbf00453d	-0.5010565
181	0x3d24abf0	0.040203035
182	0xbd683469	-0.056690607
183	0xbee7711f	-0.45203492
184	0x3de51acb	0.11186751
185	0x3e572e93	0.2101386
186	0xbefe6f4a	-0.49694282
187	0xbf09c1a4	-0.538111
188	0x3dd4dca0	0.103936434
189	0x3dd6481c	0.104629725
190	0x3e028843	0.12747292
191	0x3c6f922c	0.014622252
192	0xbe87eec5	-0.26549354
193	0xbe43cc59	-0.19120921
194	0xbdc1c8d2	-0.094621316
195	0xbc188559	-0.009309136
196	0x3d7c7ec6	0.061644338
197	0xbd8b428a	-0.06799801
198	0xbeaad33f	-0.33364293
199	0xbda60aa0	-0.08107495
200	0x3d660858	0.0561603
201	0x3de22492	0.110421315
202	0xbe22c641	-0.1589594
203	0xbdfd79b3	-0.12376728
204	0xbdec9d24	-0.1155341
205	0xbe2814b1	-0.16414143
206	0xbe8d7e8b	-0.27635607
207	0xbd829543	-0.06376126
208	0x3dc5ec6b	0.09664234
209	0x3e1795de	0.14803264
210	0x3d784c16	0.060619436
211	0x3c93d50a	0.01804592
212	0x3d850bef	0.06496417
213	0xbe59e1a9	-0.21277489
214	0x3dc69ac6	0.096974894
215	0x3d63f2b7	0.055651393
216	0xbe8ec71a	-0.27886277
217	0x3c986999	0.01860504
218	0xbe2c5b6c	-0.1683175
219	0x3b2cde21	0.0026377516
220	0xbe26a8e1	-0.1627536
221	0x3dc017e7	0.09379559
222	0xbe4505d4	-0.19240505
223	0x3c93605c	0.017990284
224	0x3c5029dc	0.012705293
225	0xbe9895c1	-0.29801753
226	0xbd873f7b	-0.06603905
227	0xbde09d95	-0.109675564
228	0xbe49891d	-0.19681211
229	0xbe981724	-0.29705155
230	0xbe685e55	-0.22692235
231	0xbc9aee5b	-0.018912485
232	0xbcbeb38b	-0.023278972
233	0xbd30bf1c	-0.043151006
234	0xbcffde8f	-0.031234054
235	0xbe5f4df7	-0.21807085
236	0xbdc7e395	-0.09760205
237	0xbe6a742d	-0.2289588
238	0xbe3bfc31	-0.18357922
239	0xbe928e0b	-0.28623995
240	0x3ca39b42	0.019971494
241	0xbd8c374a	-0.06846483
242	0x3c701613	0.0146537
243	0x3d76cfb1	0.060256664
244	0x3cfb8ee7	0.03070779
245	0xbdf0f9aa	-0.1176637
246	0x3cc9f35d	0.024652177
247	0x3d953684	0.07285789
248	0xbdb8f535	-0.090311445
249	0xbce5d835	-0.028057197
250	0xbd8eab04	-0.069662124
251	0xbbc947a9	-0.0061425758
252	0xbcf9468d	-0.030429149
253	0xbe5dcb8d	-0.2165968
254	0xbe18b635	-0.14913256
255	0xbc857c3b	-0.01629459

bias f4 [48]
0	0x3e961319	0.29311445
1	0x3d853991	0.065051205
2	0x3d53dd44	0.051724687
3	0xbe4dc136	-0.20093235
4	0xbe9d4a49	-0.30720738
5	0xbe84fc5d	-0.25973788
6	0xbd6f1ba3	-0.058375966
7	0x3ea0f67f	0.31438062
8	0xbe5de8bb	-0.21670811
9	0x3eb36fdd	0.35046282
10	0xbdd2338a	-0.102637365
11	0xbde6bd8c	-0.11266622
12	0xbe1e53c3	-0.1546164
13	0x3dceca57	0.10097187
14	0x3f02a633	0.5103485
15	0xbdb53ae4	-0.08849123
16	0x3d19f2fb	0.03758524
17	0x3d524f50	0.05134517
18	0x3dbc3980	0.09190655
19	0xbe1273fb	-0.14302056
20	0x3e07230f	0.13196968
21	0xbdd164eb	-0.10224327
22	0x3dc4e817	0.0961458
23	0x3e6ada39	0.22934808
24	0xbddec1da	-0.10876818
25	0xbd93bc07	-0.07213598
26	0xbcc10437	-0.02356158
27	0xbd7b4963	-0.061349284
28	0xbe6a3bac	-0.22874326
29	0x3ebac834	0.36480868
30	0xbda9a769	-0.08283884
31	0x3cc59a2b	0.024121365
32	0x3e2d939b	0.16950838
33	0xbe17e456	-0.14833197
34	0x3b3cb278	0.00287929
35	0x3cc67403	0.02422524
36	0x3da63c5e	0.08116983
37	0xbdf9616f	-0.12176787
38	0x3d52b169	0.051438723
39	0x3e8ea2f9	0.27858713
40	0xbc71dbcd	-0.014761877
41	0xbcf0b67b	-0.029383888
42	0xbeca7d6a	-0.39548808
43	0x3e8bc496	0.2729842
44	0x3c9707d9	0.01843636
45	0xbda18f90	-0.078887105
46	0xbe87260a	-0.2639621
47	0xbb555fb4	-0.0032558264

weight f4 [64, 384]
0	0xbe13faf3	-0.14451198
1	0xbddcb882	-0.107773796
2	0xbd9c322b	-0.07626756
3	0xbcd8ce0d	-0.02646544
4	0xbb44d078	-0.0030031484
5	0xbd46cbc8	-0.048534185
6	0xbc6ca360	-0.0144432485
7	0xb9e9ed9f	-0.00044618265
8	0x3d3670c5	0.04454114
9	0x3e7dc4e5	0.2478214
10	0x3d3d0e83	0.046156418
11	0x3df6b14e	0.12045537
12	0x3dadbe65	0.084835805
13	0x3e1db4ce	0.15401003
14	0x3cbd9c5b	0.023145845
15	0x3d281ead	0.04104488
16	0xbc67576c	-0.014119964
17	0x3cee4756	0.02908675
18	0x3e4b67f8	0.1986388
19	0x3df0cd92	0.117579594
20	0x3d97d60d	0.07413874
21	0x3ddba53e	0.10724877
22	0x3e8148da	0.25250894
23	0x3da0649f	0.07831692
24	0xbde79dec	-0.11309418
25	0x3e577090	0.21039033
26	0x3e171747	0.14754973
27	0x3dc9f264	0.098606855
28	0xbd8a5d13	-0.06756034
29	0xbd5bbb46	-0.053645395
30	0x3e2e24bd	0.17006202
31	0x3d4537e2	0.048148997
32	0xbe42b162	-0.19012979
33	0x3deeceed	0.11660562
34	0x3e0c6aab	0.13712566
35	0xbe02fb18	-0.12791097
36	0xbce9bb4c	-0.028531693
37	0x3d94ea8a	0.07271297
38	0xbdc89d98	-0.097956836
39	0xbe2fd615	-0.1717151
40	0x3d6193ef	0.05507272
41	0x3b4879db	0.003059021
42	0x3d141d01	0.036160473
43	0x3d96177c	0.07328698
44	0x3c18e2ac	0.009331387
45	0xbcd8b816	-0.026454967
46	0x3d020094	0.031738833
47	0xbd5809e9	-0.052743826
48	0x3e4f52f3	0.20246486
49	0x3e8efe25	0.27928272
50	0x3e93cf3f	0.28869054
51	0x3e959525	0.2921535
52	0x3ec069b1	0.37580636
53	0x3d509068	0.050918967
54	0xbcc0fd4a	-0.023558278
55	0xbb951d56	-0.0045506163
56	0x3e077771	0.13229157
57	0x3ea907f9	0.33013895
58	0x3edfc8bc	0.43707836
59	0x3f1322cf	0.5747499
60	0x3eb6dbe1	0.3571463
61	0x3f302674	0.68808675
62	0x3f15784b	0.5838668
63	0x3d34ae6a	0.044111647
64	0xbd94c6ff	-0.07264518
65	0x3c9814e7	0.018564655
66	0xbd3a826c	-0.045534536
67	0xbe5f98ad	-0.21835585
68	0xbe8de18c	-0.2771114
69	0xbdaf31c1	-0.08554412
70	0xbe2a646b	-0.16639869
71	0xbe28e0e9	-0.16492046
72	0xbda258ae	-0.079270706
73	0xbe647f40	-0.22314167
74	0xbedfb1f0	-0.43690443
75	0xbedb4173	-0.4282337
76	0xbec95df3	-0.3932949
77	0xbed79cd8	-0.4211185
78	0xbeee0489	-0.46487835
79	0xbd0719f3	-0.03298373
80	0x3e8be464	0.27322686
81	0x3e8ce05b	0.2751492
82	0x3d3f1194	0.046647623
83	0x3c9fca8c	0.019505762
84	0xbe8f9935	-0.28046575
85	0xbd0da06c	-0.03457682
86	0xbda0641c	-0.07831594
87	0xbd2dffba	-0.042480208
88	0x3d5c959a	0.05385361
89	0x3e36bf92	0.17846516
90	0x3e170074	0.14746267
91	0x3d8b8b18	0.068136394
92	0x3d674a70	0.056467474
93	0xbdaac361	-0.08338047
94	0x3c7b27ca	0.015329311
95	0xbbbbd18c	-0.005731767
96	0xba22ee75	-0.00062153424
97	0x3ba6424d	0.0050738216
98	0xbde6da2e	-0.11272083
99	0x3b7af8b8	0.003829522
100	0xbcc5fde1	-0.02416891
101	0x3b56638f	0.003271315
102	0xbb04a601	-0.0020240548
103	0xbe10092c	-0.14065999
104	0x3e05ce47	0.1306697
105	0x3dac7f9a	0.084227756
106	0xbdb8b2f6	-0.09018509
107	0xbd004b26	-0.031321667
108	0x3da8c23d	0.08240173
109	0x3d8cfdec	0.06884369
110	0x3de10888	0.10987955
111	0x3d93c6a4	0.07215622
112	0x3eb65744	0.35613453
113	0x3e6d9920	0.23202944
114	0x3f127375	0.57207423
115	0x3edee09d	0.4353074
116	0x3f1d94a1	0.61554915
117	0x3f08db03	0.53459185
118	0x3ef64cae	0.48105377
119	0x3e618fd7	0.22027527
120	0xbd6e3b92	-0.05816228
121	0xbd9ca6df	-0.07649016
122	0xbd4f0d29	-0.05054966
123	0xbc322342	-0.010872664
124	0xbda29a47	-0.07939582
125	0x3cd8138e	0.026376512
126	0x3d107dd5	0.035276253
127	0xbd917162	-0.07101704
128	0xbd4cc5ee	-0.049993448
129	0xbea206c9	-0.31645802
130	0xbea927cb	-0.33038172
131	0xbc2c2722	-0.010507377
132	0x3dde9fef	0.10870349
133	0x3e7a56ec	0.2444722
134	0xbd0df6d9	-0.03465924
135	0xbd3ef194	-0.046617106
136	0x3eb325e8	0.34989858
137	0xbc0a92d0	-0.008457854
138	0x3dd2f7b0	0.10301149
139	0x3e0933f5	0.13398726
140	0xbe992753	-0.29912814
141	0xbded8057	-0.115967445
142	0x3cbd886c	0.02313634
143	0x3e0a7863	0.13522486
144	0xbdf5f409	-0.12009437
145	0xbd61fcc1	-0.055172686
146	0x3dd2d829	0.102951355
147	0xbe3a5b5f	-0.18198918
148	0xbe813e84	-0.25243008
149	0xbe0888e9	-0.13333477
150	0xbe88214b	-0.265879
151	0xbea3dc38	-0.3200395
152	0x3c331861	0.010931105
153	0xbd97d086	-0.074128196
154	0xbbba602e	-0.005687735
155	0x3d9f85fb	0.077892266
156	0x3d646d37	0.055768218
157	0x3e61fb88	0.22068608
158	0xbdcddfda	-0.10052462
159	0xbcbb42c6	-0.022858988
160	0x3eb86198	0.36011958
161	0x3edaa542	0.42704207
162	0x3ea1eab3	0.31624374
163	0x3edbf01d	0.4295663
164	0x3f0c1278	0.5471568
165	0x3ee7f7bb	0.4530619
166	0x3ecd492a	0.40094882
167	0x3e8e49c4	0.27790654
168	0x3dc8809c	0.09790155
169	0x3e7cd40a	0.24690261
170	0xbd589fcf	-0.05288678
171	0xbc946943	-0.018116599
172	0xbe4f732f	-0.20258783
173	0x3d7f8d8d	0.062390853
174	0x3e265604	0.1624375
175	0xbd704ea3	-0.058668744
176	0x3dc1edd8	0.09469193
177	0x3e760c4b	0.24028127
178	0x3eca6543	0.39530382
179	0x3e540585	0.2070523
180	0x3ebc61d9	0.36793402
181	0x3eae35d6	0.3402545
182	0x3e5e90e1	0.21734954
183	0xbd545e07	-0.051847484
184	0x3dde4947	0.1085382
185	0x3e715271	0.23566605
186	0x3e37fc75	0.17967398
187	0x3db38d71	0.08767212
188	0x3e47ee18	0.1952442
189	0x3e95c85c	0.29254425
190	0x3ef21e09	0.4728854
191	0x3dddee81	0.10836507
192	0xbe17284f	-0.1476147
193	0xbd8b8d6f	-0.06814086
194	0xbe914418	-0.28372264
195	0xbdb8a9af	-0.090167396
196	0xbe0f9d83	-0.1402493
197	0xbdc02688	-0.09382349
198	0x3e0435d6	0.12911162
199	0x3d09a007	0.03359988
200	0x3c84e873	0.016224122
201	0xbe837d62	-0.25681597
202	0xbe02de24	-0.12780052
203	0xbeb38486	-0.35062045
204	0xbec98a8b	-0.39363512
205	0xbee16c0e	-0.44027752
206	0xbe5dfee7	-0.21679269
207	0x3e1f2ffb	0.15545647
208	0x3eadfe4c	0.33983076
209	0x3e4cf523	0.20015387
210	0x3dae1eeb	0.08501991
211	0x3dc8f93b	0.09813162
212	0x3ccd57af	0.025066225
213	0xbdfdd376	-0.123938486
214	0xbe1738b2	-0.14767721
215	0xbc28e3f5	-0.010308255
216	0xbbef1aad	-0.007296881
217	0xbd4e2a51	-0.050333325
218	0xbea41215	-0.32045045
219	0xbed1200f	-0.4084477
220	0xbe213b9d	-0.15745397
221	0xbe5a7b4a	-0.21336094
222	0xbe28e342	-0.16492942
223	0xbe4ebc4b	-0.20189016
224	0x3ebda6e9	0.37041405
225	0x3e565f16	0.2093471
226	0x3e5f3205	0.21796425
227	0x3e598adc	0.21244377
228	0x3ed2d6a7	0.41179392
229	0x3ead696c	0.33869493
230	0x3e8a27ff	0.2698364
231	0x3ea83264	0.32850945
232	0x3ebe79bc	0.3720225
233	0x3ec3700e	0.38171428
234	0x3f10bfdc	0.56542754
235	0x3ee585bf	0.44828603
236	0x3ef65bee	0.48117012
237	0x3f19f600	0.6014099
238	0x3ee6b5bd	0.4506053
239	0x3ea4f241	0.32216075
240	0x3c3a1310	0.011357084
241	0x3ddf2d78	0.10897344
242	0x3e15ef9b	0.14642183
243	0x3e15bb5b	0.14622252
244	0xbe158660	-0.14602041
245	0x3d4e516d	0.050370622
246	0x3cdfee33	0.027335262
247	0xbdc8c841	-0.098038204
248	0x3d036763	0.03208102
249	0x3d71391d	0.058892358
250	0xbb076972	-0.0020662216
251	0xbcac0b1a	-0.021001387
252	0x3d0ffca6	0.035153054
253	0xbd0cf850	-0.034416497
254	0x3e30e52a	0.17274919
255	0x3d9b31cf	0.075778596

bias f4 [64]
0	0xbd82fb7d	-0.06395624
1	0x3d6946fe	0.05695247
2	0xbe182eb7	-0.1486157
3	0xbdb5e42e	-0.088814124
4	0x3dcd46d7	0.10023277
5	0x3e7ce445	0.24696453
6	0x3d37dfa0	0.044891
7	0x3e6f7790	0.23385453
8	0x3e1ba7e4	0.15200764
9	0xbd468e28	-0.048475415
10	0xbdc8c532	-0.09803237
11	0xbe46a47e	-0.19398686
12	0x3e2e4ad9	0.1702074
13	0xbdd3e904	-0.103471786
14	0x3d9f38a4	0.07774475
15	0x3b6015ad	0.0034192607
16	0xbdee7d47	-0.116449885
17	0xbe00b6cc	-0.12569731
18	0xbd8b9739	-0.06815953
19	0x3e9e73c4	0.30947697
20	0x3dc556d4	0.09635702
21	0xbdc875ce	-0.097880945
22	0x3d88fe74	0.06689158
23	0xbdcb6786	-0.09931855
24	0x3d1127c5	0.035438318
25	0x3eb9ada2	0.36265284
26	0x3e2af8e6	0.1669651
27	0x3bd8c924	0.0066157747
28	0xbe05a3f0	-0.13050818
29	0x3e0c1e34	0.13683397
30	0x3d0b7206	0.034044288
31	0xbeb4dee1	-0.35326293
32	0xbe27d744	-0.16390711
33	0x3e008169	0.12549366
34	0x3eabcd54	0.3355509
35	0x3edc2998	0.43000484
36	0xbe4496ed	-0.19198199
37	0xbe29775f	-0.16549443
38	0xbe17cad6	-0.1482347
39	0x3e1a28e3	0.1505466
40	0x3ca8dfd7	0.020614548
41	0xbd7e9759	-0.062156055
42	0x3d9698fe	0.073534
43	0x3e7438e1	0.23849823
44	0x3e21db44	0.158063
45	0x3e6f253a	0.23354045
46	0xbe0b23c8	-0.13587868
47	0xbdba3303	-0.09091761
48	0xbe873e9f	-0.26414964
49	0xbe44a55a	-0.19203702
50	0x3cef1542	0.029184941
51	0x3e83b2e2	0.25722414
52	0x3e19d1fc	0.15021509
53	0xbe419709	-0.18905272
54	0x3dc36641	0.09540988
55	0xbecbfcc3	-0.3984128
56	0xbe8f7941	-0.28022197
57	0x3e262ea9	0.16228737
58	0xbe5a1ed4	-0.21300822
59	0x3d814e5b	0.06313773
60	0xbed7fc9c	-0.42184913
61	0xbe81fe96	-0.25389546
62	0xbd5b88ea	-0.05359737
63	0x3ddb5714	0.10709968

weight f4 [25, 64]
0	0x3c6adef9	0.014335387
1	0xbe90642b	-0.28201422
2	0x3ec26be1	0.3797293
3	0xbeb1c218	-0.34718394
4	0x3ce614ea	0.028086144
5	0xbe398c7b	-0.18119995
6	0xbcef8e4d	-0.029242659
7	0xbe8653a4	-0.26235688
8	0x3dec2a14	0.11531463
9	0xbe917be3	-0.2841483
10	0xbdd3397d	-0.103136994
11	0xbdf1ddbc	-0.118098706
12	0x3eaa47c7	0.33257887
13	0x3e8b78bd	0.27240553
14	0x3e4179c9	0.18894114
15	0xbddaf238	-0.10690731
16	0xbec6ae4b	-0.3880485
17	0x3e828e3d	0.25499144
18	0x3eeef668	0.46672368
19	0xbd3afbf9	-0.045650456
20	0xbe0aa6bf	-0.13540171
21	0xbec685c6	-0.38773936
22	0x3e5662c3	0.20936112
23	0xbe825a61	-0.2545958
24	0x3c9b506e	0.01895925
25	0x3dde9f7d	0.10870264
26	0x3d9559ec	0.07292542
27	0xbe6699ad	-0.2251956
28	0x3e01b5e7	0.12667046
29	0xbc821627	-0.015879704
30	0xba6cf3b9	-0.0009039003
31	0x3e231286	0.15925035
32	0xbe4f3a72	-0.20237139
33	0x3dfa4baa	0.12221463
34	0x3e9ae75d	0.3025464
35	0xbe901cd5	-0.28146997
36	0x3cf85919	0.030315923
37	0x3e2410df	0.16022061
38	0x3e91c120	0.28467655
39	0xbe224799	-0.15847625
40	0x3e1f72ff	0.15571211
41	0xbc9bdad0	-0.019025236
42	0xbeb264e7	-0.34842607
43	0x3eb2063c	0.3477038
44	0x3d6e7af4	0.058222726
45	0xbe595875	-0.2122515
46	0xbea61c87	-0.3244364
47	0xbe91c087	-0.284672
48	0x3e10e5ca	0.14150158
49	0x3de46abe	0.11153172
50	0x3e1bf79c	0.15231174
51	0xbe962b0a	-0.2932971
52	0x3e20d1fb	0.15705101
53	0x3daea41b	0.085273944
54	0x3e945b3c	0.28975856
55	0xbce4a4eb	-0.02791067
56	0x3e34a02c	0.17639226
57	0x3b6f54d2	0.0036519063
58	0x3d34cef9	0.044142697
59	0x3d37c9f9	0.04487035
60	0x3dcb5e75	0.099301256
61	0xbeb09625	-0.3448955
62	0x3e9684e1	0.29398254
63	0xbe533100	-0.20624161
64	0x3e2c7073	0.16839771
65	0x3e50efc3	0.20403962
66	0x3dd5c78a	0.1043845
67	0x3e0b9872	0.13632372
68	0xbb012e2b	-0.0019711356
69	0x3ea04d3d	0.31308928
70	0x3f156c38	0.58368254
71	0xbe8ff0c7	-0.28113386
72	0xbed683c9	-0.4189742
73	0x3dfd4922	0.123674646
74	0x3fabd509	1.3424388
75	0x3d278467	0.040897753
76	0xbe0fee8a	-0.14055839
77	0x3ef6b060	0.48181438
78	0x3e85697a	0.26057035
79	0x3f9bc0cc	1.2168212
80	0xbe154cc3	-0.14580064
81	0xbdd12721	-0.10212541
82	0xbd25a55f	-0.040440913
83	0xbcf69421	-0.03009993
84	0x3eb5c1ec	0.35499513
85	0xbc19eeef	-0.009395345
86	0xbed7dd48	-0.42161012
87	0x3e8558bd	0.26044264
88	0xbcfb03dc	-0.030641489
89	0xbd3aac15	-0.045574266
90	0x3df9b7b7	0.12193244
91	0x3d62bab4	0.055353835
92	0xbe8aef75	-0.27135816
93	0xbe4108e6	-0.1885105
94	0xbe84f7da	-0.25970346
95	0xbe8c96d8	-0.27458835
96	0xbbc94e94	-0.0061434004
97	0x3c8fa3c3	0.017534142
98	0xbc354cfa	-0.011065716
99	0x3eb33ef0	0.35008955
100	0xbe37eef0	-0.17962241
101	0xbeb14e41	-0.34630015
102	0xbe99b42e	-0.3002028
103	0x3e819c85	0.25314727
104	0xbeb20aa0	-0.3477373
105	0x3c9fee64	0.019522853
106	0x3e2542df	0.1613879
107	0xbe9367be	-0.28790087
108	0xbef7b9da	-0.4838398
109	0x3ee1788c	0.44037282
110	0x3f0f7291	0.5603419
111	0x3f15e764	0.585562
112	0xbd9ff535	-0.078104414
113	0xbecb8fd6	-0.39758176
114	0xbe09e66a	-0.13466802
115	0x3cb60298	0.022218034
116	0xbe81f8c5	-0.2538511
117	0xbe475554	-0.19466144
118	0xbed00664	-0.40629876
119	0xbe596410	-0.21229577
120	0xbe003883	-0.12521558
121	0xbece627a	-0.40309507
122	0xbf0c1c18	-0.5473037
123	0x3cec3671	0.028834553
124	0xbcaa4595	-0.020785132
125	0x3e46b6f2	0.19405726
126	0xbe01a034	-0.12658769
127	0xbd825010	-0.06362927
128	0xbe8127df	-0.25225732
129	0xbc745889	-0.014913687
130	0x3e975764	0.2955886
131	0x3e68d4fc	0.22737497
132	0x3da477f6	0.08030693
133	0x3e2d4d1d	0.16923948
134	0x3e24f696	0.1610969
135	0x3e93c2d8	0.2885959
136	0x3eb4554c	0.35221326
137	0xbe1857a6	-0.14877185
138	0xbda7f124	-0.08200291
139	0xbd1b5b75	-0.037929017
140	0x3e193a9c	0.14963764
141	0xbe12d1e5	-0.14337881
142	0xbda8b2e1	-0.082372434
143	0xbe0f3aef	-0.13987325
144	0xbec3704a	-0.38171607
145	0x3e5b5ff9	0.2142333
146	0x3da42551	0.0801493
147	0x3e4951d8	0.19660127
148	0x3dc5dc8f	0.09661209
149	0xbdfd74cb	-0.12375792
150	0x3e9bf26e	0.30458397
151	0xbea1a3d0	-0.31570292
152	0x3e15ed3d	0.1464128
153	0x3eede041	0.46460155
154	0x3e81e501	0.2537003
155	0xbe9e07fa	-0.3086546
156	0xbd6edfba	-0.05831883
157	0x3dc28ff4	0.09500113
158	0xbe3d6291	-0.18494631
159	0xbda93a72	-0.08263101
160	0xbed9fe87	-0.42577
161	0x3de34add	0.110982634
162	0x3ef71290	0.4825635
163	0xbe095ae9	-0.13413586
164	0xbe82f1b5	-0.25575033
165	0x3dcb9379	0.099402376
166	0xbe84af24	-0.25914872
167	0x3bdafa1d	0.006682648
168	0x3e184877	0.14871393
169	0x3e013d5f	0.12621067
170	0xbdfbc54b	-0.1229349
171	0x3e96a18c	0.29420125
172	0x3e518fee	0.20465061
173	0x3e5e5de0	0.21715498
174	0xbe55fbf1	-0.2089689
175	0xbcfbbd2c	-0.030729853
176	0x3e1898bf	0.14902018
177	0xbec24b94	-0.37948287
178	0x3e48513f	0.19562243
179	0x3da2f602	0.079570785
180	0x3e5f42fe	0.21802899
181	0x3e6111df	0.21979474
182	0x3e8930b4	0.2679497
183	0xbe75f305	-0.24018486
184	0xbdc7a4de	-0.09748243
185	0xbc12963b	-0.008946951
186	0xbde1d350	-0.11026633
187	0x3ebb3a8e	0.3656811
188	0xbde4d84b	-0.11174067
189	0xbea903db	-0.33010754
190	0xbdcfbcb9	-0.10143418
191	0xbcebba1b	-0.028775265
192	0xbee7af94	-0.45251143
193	0x3dde85b9	0.10865349
194	0xbd812be5	-0.063072
195	0xbebd2c21	-0.3694773
196	0xbed5664b	-0.41679606
197	0x3ea3ce1f	0.31993195
198	0x3e1febd6	0.15617308
199	0xbea6de93	-0.32591686
200	0xbe6035a4	-0.21895462
201	0x3e4b48a9	0.19851936
202	0x3c8d4fdd	0.017249996
203	0xbcdd8059	-0.02703874
204	0x3e05152e	0.1299636
205	0xbdb78db8	-0.089625776
206	0x3d02898b	0.031869452
207	0x3d95ccaf	0.07314431
208	0xbe6a9905	-0.22909935
209	0xbdc5d991	-0.09660638
210	0x3dfe6b4e	0.124228105
211	0x3e9c22ea	0.30495387
212	0xbd9e7679	-0.077374406
213	0xbd4e1eef	-0.05032247
214	0xbe90f520	-0.28312016
215	0x3ea1ce75	0.31602827
216	0xbe9b5969	-0.30341652
217	0xbd0984de	-0.033573978
218	0x3e873073	0.2640415
219	0x3e8dc487	0.27689
220	0xbe99228d	-0.29909173
221	0xbed45880	-0.4147377
222	0x3e4c332b	0.19941394
223	0xbe81e854	-0.25372565
224	0xbd731d49	-0.0593541
225	0xbf0bea5a	-0.5465447
226	0x3eefd7e5	0.46844402
227	0x3e25f9ba	0.16208544
228	0xbdd8ab72	-0.105795756
229	0xbec03ae7	-0.3754494
230	0x3e454937	0.1926621
231	0x3e2a07e4	0.16604573
232	0x3e73cb6c	0.23808068
233	0xbe5f3d63	-0.21800761
234	0x3de2e17d	0.11078165
235	0x3ec4b7df	0.38421533
236	0x3c17816f	0.009247168
237	0x3e4d9c99	0.20079269
238	0x3da8c43d	0.082405545
239	0xbda49e95	-0.080380596
240	0xbef2063a	-0.47270375
241	0xbe3c3106	-0.18378076
242	0xbe877a8b	-0.2646068
243	0x3e826e75	0.25474897
244	0xbce3f172	-0.027825091
245	0x3ec90a28	0.3926556
246	0xbda288ee	-0.079362735
247	0xbe8d25e4	-0.2756797
248	0xbd38c585	-0.045110244
249	0x3e9209b0	0.28523016
250	0xbe519770	-0.20467925
251	0x3cf9d2f0	0.03049609
252	0xbeaf119c	-0.34193122
253	0xbe310951	-0.1728871
254	0x3d86589c	0.0655987
255	0x3e1849a3	0.1487184

bias f4 [25]
0	0x3c9563f6	0.018236142
1	0xbe6cc09b	-0.23120348
2	0x3f208150	0.62697315
3	0x3eb9788f	0.3622479
4	0xbe1f6f9c	-0.1556992
5	0x3d9a4a06	0.0753365
6	0x3eacb525	0.33731952
7	0xbe1530c8	-0.1456939
8	0x3d3c4b5c	0.045970306
9	0xbe123e44	-0.14281565
10	0x3c6431f3	0.013927924
11	0x3ee047cd	0.4380478
12	0x3e3957b9	0.1809987
13	0x3cfbb7e5	0.030727336
14	0xbf072ce3	-0.52802867
15	0x3df47213	0.119358204
16	0x3e9e4d61	0.3091841
17	0x3e7bd163	0.24591593
18	0x3d48cebc	0.049025282
19	0xbe2cfbec	-0.16892976
20	0x3e30e981	0.17276575
21	0xbe822c9d	-0.25424662
22	0x3c7a2f22	0.015270026
23	0x3e059d14	0.13048202
24	0xbf1dd537	-0.61653465
