result/config0_main/preliminary_model0.pt (torch_old, 164193 bytes, 10 tensors)

weight f4 [12, 2, 192]
0	0xbc83ffcc	-0.016113184
1	0xbda56c30	-0.08077276
2	0x3d35f864	0.044426337
3	0xbe02b093	-0.1276267
4	0xbdda6c2b	-0.10665163
5	0xbc721523	-0.014775547
6	0xbc97f5c4	-0.018549807
7	0x3d7fc4f8	0.062443703
8	0xbd851d1b	-0.06499692
9	0xbcb03b62	-0.021512691
10	0xbd760b5d	-0.06006943
11	0xbde7fdfb	-0.1132774
12	0xbbfede14	-0.0077779386
13	0x3d068281	0.032839302
14	0x3af81ab6	0.0018928859
15	0x3cc64298	0.024201676
16	0xbd3f8d4f	-0.04676562
17	0x3e010c54	0.12602359
18	0x3e1d6e96	0.15374216
19	0x3dc3c5d1	0.09559215
20	0xbd2cc6db	-0.04218183
21	0x3dd08d12	0.10183157
22	0x3afc618f	0.0019255149
23	0x3d8a8239	0.06763119
24	0x3d1c8bd4	0.038219288
25	0x3d48c7a0	0.049018502
26	0x3d919986	0.071093604
27	0x3d4f0697	0.050543394
28	0x3d695bcc	0.05697231
29	0x3dc8c281	0.09802724
30	0xbc8e3aa6	-0.01736195
31	0xbdefad18	-0.11702937
32	0xbbbc1fb0	-0.005741082
33	0x3da54a17	0.08070772
34	0x3e4a1abf	0.19736765
35	0x3d9366c9	0.07197339
36	0xbd380b00	-0.044932365
37	0xbe5b5a5d	-0.2142119
38	0xbd42da44	-0.047571436
39	0x3d5b1990	0.053491175
40	0x3d1020fa	0.0351877
41	0xbb7bcdb2	-0.0038422165
42	0x3dac96dd	0.084272124
43	0x3ca61b0b	0.020276567
44	0xbc290649	-0.01031644
45	0xbcd9669b	-0.026538184
46	0x3d88a55a	0.06672163
47	0xbd94f77b	-0.07273766
48	0xbb077439	-0.002066864
49	0x3dc0a1e9	0.09405882
50	0x3dab1e47	0.08355384
51	0x3c9e9b12	0.019361053
52	0x3cea005f	0.02856463
53	0x3dd230be	0.10263203
54	0x3da4d0a2	0.08047606
55	0xbbcfdfee	-0.006343833
56	0xbd0ce5f6	-0.034398995
57	0x3d4b4cd5	0.04963382
58	0x3c8181c3	0.015808946
59	0x3cf69906	0.030102264
60	0x3dd42960	0.10359454
61	0x3d87193b	0.06596609
62	0x3d8ff73c	0.07029578
63	0x3be8d8b7	0.0071059125
64	0x3ce13027	0.027488781
65	0x3d91befa	0.07116504
66	0x3d28f7ee	0.04125207
67	0xbd37d195	-0.044877607
68	0x3d848bc2	0.06471969
69	0x3db56c42	0.08858539
70	0xbcc8ec0b	-0.024526617
71	0x3e1d3cc6	0.15355214
72	0x3ca51adf	0.020154415
73	0xbd526687	-0.05136731
74	0xbbe146e4	-0.006874906
75	0xbb469ad5	-0.003030469
76	0x3c7f91ea	0.0155987535
77	0x3d3ea1be	0.046540968
78	0x3cbb96c7	0.022899045
79	0xbd995d42	-0.07488491
80	0xbd98d34b	-0.07462176
81	0xbc760928	-0.015016831
82	0xbcaf6f3d	-0.021415347
83	0x3d2e1baf	0.04250687
84	0x3cbe6e0d	0.023245836
85	0xbd65bdfd	-0.05608939
86	0xbc99357b	-0.01870226
87	0x3d63844d	0.055546094
88	0x3ba4a674	0.0050247256
89	0xbd605f63	-0.054778468
90	0xbdb7aca4	-0.089684755
91	0xbd87be53	-0.06628098
92	0xbd317578	-0.043324918
93	0x3d2ea031	0.04263324
94	0xbacb31a7	-0.0015502468
95	0x3aaec22b	0.0013333013
96	0x3e21ec76	0.15812859
97	0xbd939050	-0.0720526
98	0xbd54e743	-0.05197836
99	0x3d41d030	0.047317684
100	0xbd427934	-0.04747887
101	0xbdc0b740	-0.09409952
102	0xbc3efa13	-0.011656302
103	0x3d185cc8	0.037197858
104	0x3dc939de	0.098254904
105	0xbccfd647	-0.02537073
106	0x3cc0196d	0.023449624
107	0xbd33ee35	-0.043928344
108	0xbd00289c	-0.031288728
109	0xbdb9664b	-0.09052714
110	0xbddd9bb9	-0.10820717
111	0xbd826d17	-0.063684635
112	0xbc66a520	-0.014077455
113	0x3d386edd	0.045027602
114	0xbcdbbcf6	-0.026823502
115	0xbdcfaddb	-0.10140582
116	0xbde13c0f	-0.109977834
117	0xbe0748bf	-0.13211344
118	0xbd948d04	-0.07253459
119	0x3a8feff6	0.0010981548
120	0x3d78c590	0.060735285
121	0x3c466c29	0.012110748
122	0xbcbb5d60	-0.022871673
123	0xbda84c82	-0.08217718
124	0x3d56a98b	0.052407783
125	0x3cc8df9e	0.024520691
126	0xbd8d7884	-0.06907752
127	0xbcb09918	-0.021557376
128	0x3b483b42	0.0030552899
129	0x3b1542d6	0.0022775433
130	0x3d4f0984	0.050546184
131	0x3da2676e	0.07929884
132	0xbc85d60c	-0.016337417
133	0x3cfa3f6b	0.030547818
134	0xbbe1fa84	-0.006896319
135	0x3cd4893a	0.025944341
136	0x3d1821ff	0.037141796
137	0x3d811865	0.06303481
138	0x3d6e56f0	0.05818838
139	0x3d2c5c09	0.04207996
140	0x3e244627	0.16042386
141	0x3d87830a	0.066167906
142	0xbcfdbda1	-0.030974211
143	0xbd8851fb	-0.066562615
144	0x3993b415	0.00028172196
145	0xbc1e36aa	-0.009656588
146	0x3dd9ca20	0.106342554
147	0x3df96a67	0.12178498
148	0x3d24fcdc	0.040280208
149	0x3ca2653a	0.01982366
150	0xbdc7fd53	-0.09765115
151	0xbe0298cc	-0.127536
152	0xbd43cbe5	-0.04780187
153	0x3d75a50a	0.059971847
154	0x3d2296f0	0.039694726
155	0x3cc95b7f	0.024579762
156	0xbe0b5ee0	-0.1361041
157	0xbd65a4e9	-0.056065474
158	0x3daa0e0c	0.083034605
159	0x3dfda340	0.12384653
160	0x3c9ce56a	0.019152362
161	0xbd837f3e	-0.06420754
162	0xbdb28207	-0.08716207
163	0xbdd96ca4	-0.10616425
164	0x3d5e95e8	0.05434218
165	0x3de70d6a	0.112818554
166	0x3c9778cd	0.01849022
167	0x3b20911a	0.002450055
168	0xbd1b98ca	-0.037987508
169	0x3b8c11b8	0.004274573
170	0x3d8ffc70	0.070305705
171	0xbcb81af9	-0.022473799
172	0x3de69874	0.11259547
173	0x3d226837	0.03965017
174	0x3d9737c9	0.07383687
175	0x3d2d3b0c	0.04229264
176	0x3ca92a97	0.020650191
177	0x3b1f4da6	0.0024307757
178	0x3cf3e51e	0.029772338
179	0x3db1e9a6	0.08687143
180	0x3d252dcb	0.040326875
181	0x3d417626	0.047231816
182	0x3b1c6b2a	0.0023867586
183	0x3af6fc71	0.0018843544
184	0x3cf69abf	0.030103086
185	0x3d13d7a0	0.036094308
186	0x3dac1fee	0.084045276
187	0x3ca7ab22	0.020467345
188	0x3d1bacaa	0.038006462
189	0x3cd08d43	0.025457984
190	0xbe01870c	-0.12649173
191	0xbd36d560	-0.044637084
192	0x3cda70cb	0.026665112
193	0xbd31f44f	-0.04344588
194	0xbc018a7d	-0.007906553
195	0x3d8f1d37	0.06987994
196	0x3c30acfe	0.010783432
197	0xbdd58ec0	-0.10427618
198	0xbd0fac61	-0.035076503
199	0x3d9b6954	0.07588449
200	0xbd91486b	-0.07093891
201	0x3d7d0a2f	0.06177729
202	0x3e1ef550	0.15523267
203	0xba92f51e	-0.0011211967
204	0xbd8be806	-0.06831364
205	0xbdd49cb0	-0.10381448
206	0xbd7cbfd6	-0.061706387
207	0xbde8eeb4	-0.11373654
208	0xbdd4dcf4	-0.10393706
209	0x3c953bc7	0.01821698
210	0x3bd297e1	0.006426797
211	0x3c326b0e	0.010889782
212	0xbdfb3366	-0.12265663
213	0xbd64c1b9	-0.05584881
214	0x3c910972	0.0177047
215	0x3da40eb8	0.0801062
216	0x3e29f492	0.16597202
217	0x3e2c9fbe	0.16857812
218	0x3e162b6a	0.14664999
219	0xbd574dd0	-0.052564442
220	0x3da15a10	0.07878506
221	0x3dc1565f	0.09440302
222	0x3d2a4161	0.041566256
223	0x3c92cef1	0.017920943
224	0x3c7b28b7	0.015329531
225	0x3d863549	0.06553132
226	0x3e4dc609	0.20095076
227	0x3e10f2fd	0.14155193
228	0x3d643de1	0.055723075
229	0xbd876bc6	-0.06612353
230	0xbd8dc0b9	-0.069215246
231	0x3d8ea15a	0.06964369
232	0xbc96c889	-0.01840617
233	0x3d13de51	0.03610069
234	0x3df81044	0.121124774
235	0xbd366383	-0.044528496
236	0xbcc30980	-0.02380824
237	0xbb9209c1	-0.004456729
238	0x3df70376	0.12061207
239	0x3c36e770	0.011163577
240	0xbd1ed97d	-0.03878163
241	0x3dd20ff6	0.102569506
242	0x3e5cffd9	0.21581973
243	0x3da8f122	0.082491174
244	0x3d58df70	0.05294746
245	0x3d7271ee	0.059190683
246	0x3d664f80	0.05622816
247	0x3d823adb	0.06358882
248	0x3d959e47	0.0730558
249	0x3d27cb15	0.04096516
250	0x3daf0a0a	0.08546837
251	0x3e84d6f8	0.25945258
252	0x3d992b09	0.074789114
253	0x3de45437	0.11148875
254	0x3e5a39b8	0.2131108
255	0x3b2512ac	0.0025188131

bias f4 [12]
0	0xbd1a3322	-0.03764642
1	0xbdcb62ee	-0.09930979
2	0xbdce3c2d	-0.10070071
3	0xbe08d14c	-0.1336109
4	0xbdb42719	-0.0879652
5	0x3d2ab086	0.041672252
6	0xbd33c1c4	-0.04388596
7	0xbc6fe2a1	-0.014641435
8	0xbd365406	-0.044513725
9	0xbdd9eedd	-0.10641263
10	0xbdcd6539	-0.10029072
11	0xbded302c	-0.11581454

weight f4 [24, 12, 16]
0	0xbd04296c	-0.032266065
1	0xbdbfd045	-0.09365896
2	0xbda0d5ff	-0.078533165
3	0x3ba9fe32	0.005187773
4	0xbd32b5d9	-0.043630455
5	0x3c266964	0.010156963
6	0x3c3ac59e	0.011399655
7	0xbb36e0fd	-0.00279051
8	0xbd982c81	-0.074303634
9	0x3ccdefdc	0.025138788
10	0xbcd19e73	-0.02558825
11	0xbd2cf66a	-0.042227186
12	0xbc07e0cf	-0.008293345
13	0xbd2051c2	-0.03914047
14	0xbda8e07e	-0.082459435
15	0xbd3b35cd	-0.045705605
16	0x3c09ca14	0.008409996
17	0x3ccc67ad	0.02495178
18	0xbd58b0cb	-0.052902978
19	0xbd0bd6ce	-0.0341404
20	0x3d0f8c0e	0.035045676
21	0x3ce6358c	0.028101705
22	0xbdab1139	-0.08352894
23	0xbc889269	-0.016671376
24	0x3c7718b7	0.015081576
25	0xbd3c37f0	-0.045951784
26	0xbd3796f1	-0.044821683
27	0x3b8a5744	0.0042218287
28	0x3c17a253	0.00925501
29	0xbca9edbf	-0.020743249
30	0xbd44bfd8	-0.04803452
31	0xbdac6021	-0.08416773
32	0x3cb1270f	0.02162507
33	0xbd7d190c	-0.061791465
34	0xbd3d73e1	-0.04625309
35	0x3c8df3cc	0.017328165
36	0xbcfd2104	-0.030899532
37	0xbc33bd02	-0.010970356
38	0xbdb0919b	-0.08621522
39	0xbca104b4	-0.019655563
40	0x3c98cc21	0.018652024
41	0xbd40aac3	-0.04703785
42	0x3cb41ec5	0.021987328
43	0x3d20ebbc	0.039287314
44	0x3c75bcc4	0.0149986185
45	0xbc54f9ec	-0.012999039
46	0xbd4f1b7e	-0.050563328
47	0x3c23a744	0.00998861
48	0x3c8bb996	0.017056268
49	0xbd74731f	-0.0596801
50	0x3c419bbd	0.011816916
51	0xbcbc5fdd	-0.02299493
52	0xbc2a01dc	-0.01037642
53	0x3bc14b06	0.005898836
54	0x3c8269e6	0.015919637
55	0x3c86ba3a	0.016446222
56	0x3aeceddc	0.0018076259
57	0xbba849e9	-0.005135764
58	0x3d07986a	0.033104338
59	0x3d39b981	0.045342926
60	0x3c471481	0.012150885
61	0xbd5f6470	-0.054539144
62	0xbcd95ca9	-0.026533442
63	0x3bdb6ee6	0.0066965697
64	0xbaa05e32	-0.0012235104
65	0x3c6892b5	0.014195134
66	0x3c90ceb7	0.017676694
67	0xbda12385	-0.07868103
68	0xbce8bfbf	-0.028411744
69	0xbc67b685	-0.014142637
70	0xbcc97265	-0.02459068
71	0xbcc48514	-0.023989238
72	0x3b8347a1	0.0040063416
73	0x3d4a306f	0.049362596
74	0xbd7a5bbc	-0.06112264
75	0x3d456b11	0.04819781
76	0xbcaa2560	-0.020769775
77	0x3cc4e434	0.024034597
78	0x3d025e32	0.031828113
79	0x3c8ccb7a	0.017186869
80	0xbcc0f383	-0.023553615
81	0x3cb753e1	0.022378864
82	0xbce05ca4	-0.027387924
83	0xbceea021	-0.02912909
84	0xbd95a8a0	-0.07307553
85	0xbdb02213	-0.08600249
86	0xbd8ca60b	-0.06867608
87	0xbd795304	-0.060870185
88	0xbd90886f	-0.07057273
89	0xbd2a80c0	-0.04162669
90	0xbc8d10e3	-0.017219966
91	0xbd767a47	-0.060175207
92	0x3d397c86	0.04528477
93	0xbdbe2766	-0.092848584
94	0xbd895d5c	-0.0670726
95	0xbd4a843a	-0.049442507
96	0xbd5d448f	-0.05402046
97	0xbccdf0a0	-0.025139153
98	0xbd491871	-0.049095575
99	0xbbea50c2	-0.0071507404
100	0x3ce026e5	0.027362296
101	0xbd5d529f	-0.05403387
102	0x3c05155f	0.008122771
103	0xbd5ead72	-0.05436463
104	0xbc7fe8fa	-0.015619511
105	0xbdb6268a	-0.088940695
106	0xbcb2963f	-0.021800159
107	0x3d40e9e3	0.04709805
108	0xbd38bcab	-0.045101803
109	0xbd8302e9	-0.063970394
110	0xbdb06aa4	-0.0861409
111	0xbd878aaa	-0.06618245
112	0xbd3cefce	-0.046127133
113	0x3d00c15e	0.03143441
114	0xbd495414	-0.04915245
115	0x3b830b6c	0.0039991643
116	0x3baa6f5e	0.0052012643
117	0xbd8195a8	-0.06327373
118	0xbdc10d68	-0.09426385
119	0x3cabf928	0.02099283
120	0xbc4bb8ab	-0.012434165
121	0x3d00ea8a	0.031473674
122	0xbcb31a19	-0.02186303
123	0xbdb75e2c	-0.08953509
124	0xbcbe1adf	-0.023206173
125	0x3c0960e7	0.00838492
126	0x3d223588	0.039601833
127	0x3ca9ed66	0.020743083
128	0xbc2368fb	-0.00997376
129	0xbc5da38a	-0.01352776
130	0xbccbd692	-0.024882589
131	0x3d386705	0.045020122
132	0xbae3ad6d	-0.001737041
133	0x3cada740	0.021197915
134	0x3cf27eb9	0.029601442
135	0xbc638c21	-0.01388839
136	0xbbd4c8b0	-0.0064936504
137	0xbd2be689	-0.041967902
138	0xbda66b71	-0.081259616
139	0xbc63fc96	-0.013915202
140	0xbcde24a2	-0.027117077
141	0xbb1ade79	-0.002363114
142	0xbb8af965	-0.004241156
143	0xbd65ab57	-0.056071606
144	0xbda43a82	-0.08018972
145	0x3c581a77	0.013189903
146	0x382ee73e	4.1700194e-05
147	0x3cbe7938	0.023251161
148	0x3d116c2f	0.035503563
149	0xbd560d1e	-0.052258603
150	0xbd8ec898	-0.06971854
151	0xbd285472	-0.04109616
152	0xbd9b8c7f	-0.07595157
153	0x3d45c843	0.048286688
154	0x3d14f150	0.036362946
155	0xbd571fab	-0.052520435
156	0xbd489558	-0.04897055
157	0xbd96063e	-0.07325409
158	0xbdba9ed7	-0.091123275
159	0xbceecc91	-0.02915028
160	0xbbd4d7c2	-0.006495447
161	0xbc49b2e4	-0.012310717
162	0xbd7bcd47	-0.061475065
163	0xbc342e60	-0.010997385
164	0x3af18150	0.0018425379
165	0xbab388de	-0.0013697406
166	0xbdc19203	-0.09451678
167	0xbd81e4f1	-0.06342495
168	0xbd71a417	-0.05899438
169	0xbd764b42	-0.060130365
170	0xbac4ba62	-0.001500916
171	0x3c6a3668	0.014295198
172	0xbd70760b	-0.058706325
173	0xbd91d4df	-0.0712068
174	0xbc14bf5f	-0.00907883
175	0xbda9638d	-0.08270941
176	0xbd205404	-0.039142624
177	0x3c75a228	0.014992274
178	0x3c1eaa9b	0.00968423
179	0xbcc6ff50	-0.024291664
180	0xbc90c292	-0.017670903
181	0xbcadda2b	-0.021222195
182	0xbc91cf02	-0.017798904
183	0xbd6287e3	-0.055305373
184	0x3cb8226c	0.022477351
185	0x3c04c6cc	0.0081040375
186	0x3bbcfe89	0.0057676476
187	0xbd7ca582	-0.061681278
188	0xbdad3f54	-0.084593445
189	0xbd5d8f65	-0.05409183
190	0x3d0c43de	0.03424441
191	0xbd9b0a2f	-0.07570302
192	0xbd664063	-0.056213748
193	0xbc5dc673	-0.0135360835
194	0xbc9fe06d	-0.019516194
195	0xbe4691b1	-0.19391514
196	0xbda8808c	-0.08227643
197	0x3d254c40	0.04035592
198	0xbd8efad5	-0.06981436
199	0x3d906efc	0.070524186
200	0xbde5f601	-0.11228562
201	0xbdec35c8	-0.115336955
202	0xbbfe33df	-0.0077576484
203	0xbd758dd7	-0.059949722
204	0xbc85ed8f	-0.016348628
205	0xbd62ef28	-0.05540386
206	0xbd7f5acc	-0.06234245
207	0xbd92b5ea	-0.071636036
208	0xbcfd8c10	-0.030950576
209	0x3d9630d4	0.07333532
210	0x3d98e28c	0.074650854
211	0x3d8bb306	0.068212554
212	0x3dc2cc05	0.0951157
213	0x3cd9625d	0.026536161
214	0x3dfca79e	0.12336658
215	0x3d86f79c	0.065901965
216	0x3d2fc037	0.04290792
217	0x3e2daa4f	0.16959499
218	0xbd605e63	-0.054777514
219	0x3d5d16a4	0.05397667
220	0x3c8787cc	0.016544245
221	0x3d894d67	0.067042165
222	0x3de10d6c	0.10988888
223	0x3cff86cb	0.031192204
224	0x3ca3970e	0.01996949
225	0x3dd15d27	0.102228455
226	0x3cc4c4ed	0.024019683
227	0x3c064805	0.008195882
228	0x3dafcbb5	0.08583776
229	0xbb2c16f0	-0.002625879
230	0xbc3b5e24	-0.011436019
231	0x3d8cb4fe	0.06870459
232	0x3c3bafb6	0.011455467
233	0x3e2123ca	0.15736309
234	0x3e16037e	0.1464977
235	0xbc5c9a15	-0.01346447
236	0x3cc989f1	0.024601908
237	0x3d81fba9	0.063468285
238	0x3ddefd37	0.10888141
239	0x3dcf5253	0.10123124
240	0xbde1fcdb	-0.110345565
241	0x3b42900d	0.0029687912
242	0x3d84698b	0.06465443
243	0x3de035bd	0.1094775
244	0x3cff1b0f	0.031140832
245	0x3d9545ce	0.07288705
246	0x3b4ce24c	0.0031262813
247	0x3d836cd0	0.06417239
248	0xbd20651a	-0.039158918
249	0x3c151070	0.009098157
250	0x3dd83bdc	0.10558292
251	0xbd013e1b	-0.03155337
252	0x3daa88eb	0.08326896
253	0x3ca9c8ab	0.020725569
254	0x3ca3064f	0.01990047
255	0x3dc6f860	0.097153425

bias f4 [24]
0	0xbcf5766f	-0.0299637
1	0x3d61783f	0.055046316
2	0xbd16e819	-0.03684244
3	0x3d8907d0	0.06690943
4	0x3d68a479	0.05679748
5	0x3d4ad274	0.04951711
6	0x3d385433	0.045002174
7	0x3d5c9c30	0.05385989
8	0x3da36d26	0.07979803
9	0x3e314175	0.17310126
10	0x3e1a6495	0.15077431
11	0x3dc3bf68	0.09557992
12	0xbcc0caa2	-0.023534123
13	0x3d7bcb24	0.061473027
14	0x3d9016b3	0.070355795
15	0x3d682e08	0.056684524
16	0x3cfdaa15	0.03096489
17	0x3c9b9cec	0.018995725
18	0x3cc17a94	0.02361802
19	0x3d84b97b	0.0648069
20	0x3c8fe54f	0.017565398
21	0xbe2dd4b3	-0.1697567
22	0x3e026c86	0.12736711
23	0x3d4f578a	0.050620593

weight f4 [48, 24, 2]
0	0xbbbf3d3c	-0.005836157
1	0x3d9c6ad0	0.0763756
2	0x3e315cce	0.17320558
3	0x3e62abbf	0.22135828
4	0x3e762622	0.24037984
5	0x3e220913	0.15823774
6	0xbe0a43e9	-0.13502468
7	0xbd089543	-0.033345472
8	0xbe155d18	-0.14586294
9	0x3da6e885	0.08149818
10	0xbe196e0e	-0.14983389
11	0x3d2836d3	0.04106791
12	0x3d87bb1b	0.066274844
13	0x3e0110f0	0.12604117
14	0x3e0e472c	0.13894337
15	0x3e357c20	0.17723131
16	0xbd8f109a	-0.06985588
17	0xbc1ec6cc	-0.009690952
18	0xbe0093c8	-0.12556374
19	0xbdd930be	-0.10605
20	0xbcd6d123	-0.026222771
21	0xbd4d5b18	-0.050135702
22	0xbe15f356	-0.14643607
23	0xbdead86b	-0.1146706
24	0xbd927847	-0.07151847
25	0xbe051df7	-0.12999712
26	0xbe00686d	-0.12539835
27	0xbe349f88	-0.17638981
28	0x3e0022c7	0.12513267
29	0x3e5291cf	0.20563434
30	0x3d8aa622	0.067699686
31	0xbe1cde39	-0.15319146
32	0xbbf4ab61	-0.007466719
33	0xbd93918e	-0.07205497
34	0xbe030140	-0.12793446
35	0xbde6830a	-0.112554625
36	0xbb1956a8	-0.0023397598
37	0xbd7a2f02	-0.061079986
38	0x3e8d3d96	0.2758605
39	0x3e2edaa3	0.17075591
40	0xbd75e6d6	-0.060034595
41	0xbd736eb5	-0.05943175
42	0x3dc4eb9a	0.0961525
43	0x3de68ccc	0.112573236
44	0xbd0f3b45	-0.034968633
45	0xbe33e8fb	-0.17569344
46	0xbd689537	-0.056782927
47	0x3e14c837	0.14529501
48	0x3d6704b5	0.056400973
49	0x3de5712c	0.112032264
50	0x3e3d7a04	0.18503577
51	0x3c67f0da	0.014156545
52	0x3b90bafb	0.004416821
53	0x3cb4721f	0.022027073
54	0x3d1626ba	0.036658026
55	0xbdfcf491	-0.12351335
56	0xbd7759fd	-0.060388554
57	0x3e5a0632	0.21291426
58	0xbda2ddfd	-0.07952497
59	0xbd1335d0	-0.03593999
60	0x3e4190ea	0.18902937
61	0x3d564666	0.05231323
62	0x3b541faa	0.0032367506
63	0x3e4b4ab4	0.19852716
64	0xbdd335d6	-0.10313003
65	0xbdff02ee	-0.12451731
66	0xbd7f6c17	-0.062358942
67	0x3dd3d07b	0.10342499
68	0xbe906b58	-0.28206897
69	0xbe364263	-0.17798762
70	0xbe4c6f7b	-0.19964401
71	0xbe3b883b	-0.18313687
72	0xbd3617f9	-0.044456456
73	0xbe62c4a1	-0.2214532
74	0x3d2dfcdc	0.042477474
75	0x3cb1c472	0.021700118
76	0xbd299ddc	-0.041410312
77	0x3e1f35a1	0.15547802
78	0x3ccb3aeb	0.024808368
79	0xbe307019	-0.17230262
80	0xbe7125af	-0.23549531
81	0xbd9349a2	-0.07191779
82	0xbe06efc4	-0.13177401
83	0xbe3f0652	-0.18654755
84	0xbd9398de	-0.072068915
85	0xbe1f89b0	-0.15579867
86	0x3e4dae9a	0.20086136
87	0x3dd43954	0.10362497
88	0xbdf8bf9b	-0.12145921
89	0xbd9187aa	-0.07105954
90	0xbe0cde5d	-0.137567
91	0xbdffd781	-0.12492276
92	0xbe8c85d2	-0.27445847
93	0xbe037c5e	-0.12840411
94	0xbe3ed43c	-0.18635648
95	0xbe365b36	-0.17808232
96	0x3d81fa18	0.0634653
97	0x3dc67452	0.09690155
98	0x3dbb0ed7	0.0913369
99	0xbca7c665	-0.020480344
100	0xbc02c762	-0.007982107
101	0x3d0dfb5b	0.03466354
102	0xbc207889	-0.009794363
103	0x3d287596	0.041127764
104	0x3d316ca0	0.043316483
105	0x3e8620a5	0.2619678
106	0x3db47bb9	0.08812661
107	0x3e13ac92	0.14421299
108	0xbce55724	-0.027995653
109	0xbcb71917	-0.022350831
110	0xbce715c7	-0.028208626
111	0x3da0fbf9	0.0786056
112	0xbdab3424	-0.083595544
113	0x3daf0a1a	0.085468486
114	0xbd9d64b6	-0.07685225
115	0xbda4dcca	-0.08049925
116	0x3e5eae75	0.21746238
117	0x3cd838db	0.026394298
118	0x3cff5c85	0.031172046
119	0x3db2784c	0.08714351
120	0x3dd2b443	0.102882884
121	0x3e3b7cca	0.18309322
122	0xbd121d29	-0.03567234
123	0xbe1878cb	-0.14889829
124	0xbdb01590	-0.08597863
125	0xbdb64775	-0.08900348
126	0x3db7616c	0.089541286
127	0xbb4e89ec	-0.0031515313
128	0x3e1a6936	0.15079197
129	0x3dbf4b33	0.09340515
130	0xbda16d0f	-0.078821294
131	0x3e0b0170	0.13574767
132	0xbddc7838	-0.107651174
133	0xbc8994f1	-0.016794654
134	0xbe10399b	-0.14084475
135	0xbe28cc89	-0.16484274
136	0x3d058221	0.032594804
137	0xbe0629bd	-0.1310186
138	0xbe7894b9	-0.24275483
139	0xbe5471e9	-0.20746578
140	0x3e4978fe	0.19675061
141	0x3e1c5638	0.15267265
142	0xbc7ae3a4	-0.015313063
143	0x3de117d3	0.10990872
144	0x3cef18f6	0.029186707
145	0xbe0f47f4	-0.13992292
146	0xbc2e286f	-0.010629757
147	0xbc7af1a5	-0.015316402
148	0x3e043acd	0.12913056
149	0xbd1c33e5	-0.038135428
150	0xbd891dee	-0.06695162
151	0xbd143568	-0.036183745
152	0x3bf76907	0.007550362
153	0x3e890608	0.26762414
154	0x3dfa6c0f	0.12227642
155	0xbc209467	-0.009801007
156	0xbe0a1197	-0.13483272
157	0xbda94d44	-0.082666904
158	0x3d6875fb	0.05675314
159	0xbe2e8a99	-0.17045058
160	0x3e303325	0.1720701
161	0x3e1c7ece	0.15282747
162	0x3d07a2b7	0.03311416
163	0xbc32d36c	-0.010914665
164	0x3db9a9eb	0.090656124
165	0x3e126cac	0.14299268
166	0x3e4e359a	0.20137635
167	0x3c2e3f41	0.010635198
168	0x3d805ab9	0.06267304
169	0x3e1a89ad	0.15091582
170	0xbccf3322	-0.025292937
171	0x3d1ce278	0.038301915
172	0xbd967d56	-0.07348125
173	0x3dd79ef9	0.105283685
174	0xbb3691c9	-0.002785789
175	0x3b65bdd7	0.003505578
176	0x3c1ea66d	0.009683234
177	0xba139c20	-0.00056308694
178	0x3d0fab73	0.035075616
179	0x3d648d87	0.055799033
180	0xbe2e51b5	-0.17023356
181	0x3df202a3	0.11816909
182	0x3d7e52bc	0.06209062
183	0xbd23693d	-0.039895285
184	0x3dd972fd	0.106176354
185	0x3e2f5966	0.17123947
186	0xbe4ce33b	-0.20008557
187	0xbe90e064	-0.28296196
188	0x3e3cc961	0.18436195
189	0x3e77c8ea	0.24197736
190	0x3d0ce57a	0.034398533
191	0x3de0ac0e	0.10970317
192	0xbd9db634	-0.07700768
193	0x3c6716e0	0.014104575
194	0x3c9b8117	0.018982453
195	0xbc58d8fa	-0.013235325
196	0xbde7ebca	-0.1132427
197	0xbde64df3	-0.112453364
198	0xbdfc685e	-0.12324594
199	0xbdb873fa	-0.09006496
200	0xbdcb9a57	-0.09941547
201	0x3cae12f7	0.021249278
202	0x3c8aec94	0.016958512
203	0xbe12aade	-0.14322993
204	0xbe4f5a69	-0.20249332
205	0xbcaa6160	-0.020798385
206	0xbe1df9ab	-0.15427272
207	0xbd1b6d88	-0.037946254
208	0x3e06237b	0.13099472
209	0x3dd46827	0.10371428
210	0xbd8f50ae	-0.0699781
211	0x3dcd77dc	0.10032627
212	0x3d6ccfad	0.057815243
213	0xbe270efb	-0.16314308
214	0x3d05b381	0.03264189
215	0x3d0597db	0.032615524
216	0xbde3bf9d	-0.11120532
217	0xba17736c	-0.0005777392
218	0xbe062024	-0.13098198
219	0x3d7753eb	0.060382765
220	0xbd49e442	-0.04928995
221	0x3da2e9be	0.07954739
222	0xbdc0fcb7	-0.094232015
223	0xbc8c62dc	-0.017136984
224	0xbbf7695a	-0.0075504007
225	0xbdf6f36e	-0.12058149
226	0xbda107ac	-0.078627914
227	0x3d22f211	0.039781634
228	0xbddba05d	-0.10723946
229	0xbe25df86	-0.16198549
230	0xbda35e90	-0.07977021
231	0x3cc59885	0.024120579
232	0x3c28f294	0.010311741
233	0xbcbcb9b6	-0.023037773
234	0x3ddcbbb8	0.10777992
235	0xbc9abf9c	-0.018890195
236	0xbe05e090	-0.13073945
237	0xbd7e29ba	-0.062051512
238	0xbdecd7e1	-0.11564613
239	0xbe09475b	-0.13406126
240	0x3dd8e57e	0.10590647
241	0xbc9aca92	-0.018895421
242	0x3df2734c	0.118383974
243	0x3dd49336	0.10379641
244	0x3d8a5c99	0.06755943
245	0xbdd860f2	-0.10565366
246	0x3de1b334	0.110205084
247	0x3d2c18d7	0.042015877
248	0xbe003973	-0.12521915
249	0x3b38431f	0.002811618
250	0xbca3639c	-0.019944958
251	0x3d0ae61e	0.033910863
252	0xbd1a5fca	-0.037689008
253	0xbe536c08	-0.2064668
254	0xbe0c03e1	-0.13673355
255	0xbd130f7a	-0.03590343

bias f4 [48]
0	0x3dc855c5	0.09781984
1	0x3e050175	0.12988837
2	0x3dd34e4f	0.103176706
3	0xbcc800ca	-0.024414439
4	0xbded69ce	-0.11592446
5	0xbe0d66f0	-0.13808799
6	0xbdbd8623	-0.092541
7	0x3df60f9e	0.120146975
8	0xbe0bba80	-0.13645363
9	0x3e5afa40	0.21384525
10	0xbe1c9fff	-0.15295409
11	0x3c6b21a4	0.014351282
12	0xbdd27313	-0.10275855
13	0x3dcb4bf9	0.099266
14	0x3e4a8a2b	0.1977927
15	0x3d5f5030	0.054519832
16	0xbdcfcc11	-0.101463445
17	0x3dae6ab8	0.08516449
18	0x3d380bc7	0.044933107
19	0xbe2f156b	-0.17098014
20	0x3df26611	0.11835874
21	0xbd4524c2	-0.048130758
22	0x3e09e65c	0.13466781
23	0x3d6a600e	0.05722051
24	0xbd81bc8f	-0.06334793
25	0xbe01c27c	-0.12671846
26	0xbdd93103	-0.10605051
27	0x3df6c942	0.12050106
28	0xbe5b1173	-0.21393375
29	0x3df235f8	0.118267
30	0xbc8771cf	-0.01653376
31	0x3d7c6d0f	0.061627444
32	0x3e0d0921	0.13773014
33	0x3d176d89	0.036969695
34	0x3cefc0fa	0.029266823
35	0x3d317e71	0.043333475
36	0x3ca926d3	0.020648396
37	0xbe13ec37	-0.14445578
38	0x3d65a043	0.05606104
39	0x3e10dc55	0.1414655
40	0xbde9bbe4	-0.114127904
41	0xbe30eaa0	-0.17277002
42	0xbe12fe66	-0.14354858
43	0x3dfa71a3	0.12228706
44	0x3d0b7864	0.03405036
45	0xbdbbb6a7	-0.091656975
46	0xbc97a475	-0.018511036
47	0x3d5b3198	0.053514093

weight f4 [64, 384]
0	0x3d1d8fcd	0.038467217
1	0x3d2746d8	0.040839046
2	0x3ccf71ce	0.025322821
3	0x3dd15054	0.102203995
4	0x3dfe3754	0.12412897
5	0x3d7181df	0.058961745
6	0x3d6cdda2	0.057828553
7	0x3c844766	0.016147327
8	0x3cb815f8	0.022471413
9	0x3daceecc	0.084439844
10	0x3d290271	0.041262094
11	0x3dc37b93	0.09545054
12	0x3de43b8f	0.111441724
13	0x3db86b73	0.09004869
14	0x3e1e90d7	0.1548494
15	0x3d6e0371	0.05810875
16	0x3c72e394	0.014824767
17	0xbc85376d	-0.01626178
18	0xbce3248c	-0.027727388
19	0xbca9a749	-0.02070965
20	0x3ba0a314	0.004902253
21	0x3ccb6878	0.024830088
22	0xbd15fd8b	-0.03661875
23	0x3d1b7dda	0.03796182
24	0x3bf27f0c	0.007400399
25	0x3d3b057e	0.045659535
26	0x3bc69f00	0.0060614347
27	0xbc93994f	-0.01801744
28	0xbdad1d5c	-0.084528655
29	0xbc8d506c	-0.017250262
30	0xbc78f0a1	-0.015194089
31	0x3cb599de	0.022168096
32	0xbd2010ed	-0.03907864
33	0x3c0e8e5c	0.008700933
34	0xbd73ad27	-0.059491303
35	0x3d1ab989	0.037774596
36	0x3ca3a009	0.019973772
37	0x3ce7b341	0.028283717
38	0x3cdb4c32	0.026769731
39	0xbd1b1739	-0.037863944
40	0x3cb9a098	0.022659585
41	0x3c783d5c	0.015151348
42	0x3c1ed1f7	0.009693614
43	0x3c3d5023	0.011554751
44	0xbcda13d5	-0.026620785
45	0xbdc3d879	-0.09562773
46	0x3c323e1a	0.010879064
47	0xbd94f1b0	-0.07272661
48	0x3d48b294	0.04899843
49	0x3d9d1add	0.076711394
50	0x3dd1a1bb	0.10235926
51	0x3d031d9c	0.03201066
52	0x3d48d4d3	0.04903109
53	0x3d957ea7	0.07299548
54	0x3a9b77b8	0.001186124
55	0xbd27461a	-0.04083834
56	0x3a0707fb	0.00051510305
57	0x3b648c0f	0.003487352
58	0x3d8b0592	0.06788172
59	0x3c8a1fb2	0.016860817
60	0x3dbdc2e0	0.09265685
61	0x3df42183	0.11920454
62	0x3dc9b582	0.09849073
63	0x3c43a5b5	0.011941363
64	0x39c5869e	0.00037675066
65	0x3ca2988c	0.01984813
66	0xbb1e2154	-0.0024128752
67	0xbd3dc27e	-0.04632806
68	0xbce5ef83	-0.02806831
69	0xbabf14a2	-0.0014578293
70	0xbd38e2cc	-0.045138165
71	0x3d446880	0.04795122
72	0x3d815e13	0.06316771
73	0x3d5b33e2	0.053516276
74	0xbd4b9919	-0.049706552
75	0xbc099057	-0.00839623
76	0xbd2f307e	-0.042770855
77	0xbd462023	-0.04837049
78	0xbc2e6b10	-0.010645643
79	0x3c985b50	0.018598229
80	0xbc9478ec	-0.018124066
81	0xbd797f6c	-0.060912535
82	0xbd12e182	-0.035859592
83	0x3d06aaa3	0.032877576
84	0xbc47028e	-0.012146605
85	0x3cb9338b	0.022607585
86	0x3d60d8c4	0.054894224
87	0x3d56dd49	0.052457128
88	0xbb040f6a	-0.002015079
89	0x3c1c17b4	0.009527136
90	0x3d35417d	0.044251908
91	0x3d46e110	0.04855448
92	0xbbbe6ee0	-0.005811557
93	0xbd7c6704	-0.06162168
94	0x3c8dd16b	0.017311772
95	0x3d379484	0.04481937
96	0x3c98f171	0.018669816
97	0xbcfdbcb9	-0.030973779
98	0xbd4c7643	-0.04991747
99	0x3d4fef0a	0.050765075
100	0xbd3c99b7	-0.04604503
101	0x3cde95b1	0.027170988
102	0xbb4f83ad	-0.0031664178
103	0xbd7172ba	-0.058947302
104	0x3ce077e0	0.02740091
105	0x3d2cc85a	0.042183258
106	0x3deeafbd	0.11654613
107	0x3cfecaca	0.031102557
108	0x3da6f04a	0.081513
109	0x3dcc3fe6	0.09973125
110	0x3d905f4a	0.07049425
111	0x3ce0a072	0.027420256
112	0x3da25fa2	0.07928397
113	0x3c3c9aec	0.011511546
114	0x3e156bf3	0.1459196
115	0x3db692e1	0.08914734
116	0x3df05442	0.11734821
117	0x3e1311f5	0.14362319
118	0x3db18a3d	0.08668945
119	0xbbdf3752	-0.0068120146
120	0x3d36e7d8	0.044654697
121	0x3d0231a6	0.03178563
122	0x3c276079	0.010215872
123	0xbc31c03f	-0.010849058
124	0x3c4dba6e	0.012556655
125	0xbbe505c5	-0.006989213
126	0xbdbb52b3	-0.09146633
127	0xbcc64706	-0.024203788
128	0xbce662d7	-0.028123302
129	0xbd7bd439	-0.06148169
130	0xbd92557b	-0.0714521
131	0x3ca6dd88	0.020369306
132	0x3d0f84b4	0.035038665
133	0x3d058c3d	0.032604445
134	0xbc43dba3	-0.011954221
135	0x3d2fffed	0.04296868
136	0x3c9f7e28	0.019469336
137	0xbc594cc6	-0.013262933
138	0x3c81e4f3	0.015856242
139	0x3d037ba4	0.032100335
140	0xbd210e99	-0.039320562
141	0xbc0c3290	-0.008556977
142	0xbd74a69c	-0.059729204
143	0xbd07fbb4	-0.033199027
144	0x3d793e97	0.060850706
145	0xbcd13097	-0.025535865
146	0x3d95b09a	0.07309075
147	0xbd05b7a9	-0.032645855
148	0x3c7f580e	0.015584959
149	0xbb9839ef	-0.004645578
150	0xbc8d4018	-0.017242476
151	0xbca97454	-0.020685352
152	0xbd9be128	-0.076113045
153	0x3c9e715d	0.019341165
154	0xbd62bb43	-0.055354368
155	0xbb85fff1	-0.0040893485
156	0xbc42d654	-0.01189192
157	0x3d9ef3f4	0.07761374
158	0xba88679f	-0.0010406858
159	0xbd4ca9cc	-0.04996662
160	0x3d04e98d	0.032449294
161	0x3dd2d613	0.10294738
162	0x3dfed6d1	0.12443317
163	0x3e3f041a	0.18653908
164	0x3e51b990	0.20480943
165	0x3e36dd21	0.17857791
166	0x3e098d9f	0.1343293
167	0x3d085631	0.033285324
168	0xbc781f46	-0.015144175
169	0x3c0a0fcc	0.008426618
170	0xbbe1779c	-0.0068807136
171	0xbd0d14de	-0.03444373
172	0xbd18aff6	-0.037277184
173	0x3cf3a5b8	0.029742107
174	0x3d12719d	0.03575288
175	0xbc65b8d3	-0.014021116
176	0xbd0883fd	-0.033329
177	0xbb788691	-0.0037922005
178	0x3d923422	0.0713885
179	0x3ca52c75	0.0201628
180	0x3da84571	0.0821637
181	0x3d3ede82	0.04659892
182	0x3d91a72e	0.07111965
183	0xbd3aa9a7	-0.04557195
184	0x3d1679e7	0.03673735
185	0x3cbcd85e	0.02305239
186	0x3d569ce8	0.05239573
187	0x3d3d5f22	0.046233304
188	0x3c887589	0.016657608
189	0x3d6b63f2	0.057468362
190	0x3d9acc65	0.075585164
191	0x3b2c7d3e	0.0026319767
192	0x3b0b0f68	0.00212189
193	0xbd00e7cb	-0.031471055
194	0x3dbbc643	0.09168675
195	0x3d95ffd2	0.073241845
196	0xbb9c25b0	-0.004765235
197	0x3c814157	0.015778227
198	0x3e51cb0b	0.20487611
199	0x3cc95279	0.024575459
200	0x3ca8b157	0.020592375
201	0x3d84d0d7	0.064851455
202	0xbcf4bed1	-0.029876145
203	0xba952394	-0.0011378401
204	0xbd06f46d	-0.032947946
205	0xbd8fecd7	-0.070275955
206	0x3d8cb31b	0.06870099
207	0x3e319664	0.17342526
208	0x3bfe3474	0.0077577177
209	0xbcb15fd3	-0.021652138
210	0x3d1ccb44	0.038279787
211	0x3b673ec5	0.0035285216
212	0x3d32dee8	0.04366961
213	0xbd7e2b52	-0.062053032
214	0x3cef45d0	0.029208094
215	0x3cb6ab90	0.022298604
216	0x3d7cf96a	0.061761297
217	0x3ccbca82	0.024876837
218	0x3c9f5147	0.019447936
219	0x3990dff4	0.00027632678
220	0x3c1352aa	0.008991877
221	0x3d45f38c	0.048327968
222	0xbceee9e1	-0.029164257
223	0x3d288509	0.041142497
224	0x3dc4e331	0.09613646
225	0x3d4fcbd9	0.050731514
226	0x3c813a21	0.015774788
227	0x3c50989a	0.012731696
228	0x3e354ddf	0.17705487
229	0x3e15c228	0.14624846
230	0x3daec48e	0.085335836
231	0x3d81c1d5	0.06335799
232	0x3d0a8ebe	0.033827536
233	0x3d705cd8	0.058682293
234	0x3e16c4d3	0.1472352
235	0x3dfa8626	0.12232618
236	0x3e346958	0.1761831
237	0x3e3bc9d4	0.1833871
238	0x3e06b244	0.1315394
239	0x3da5a465	0.080879964
240	0x3cd7bcce	0.026335146
241	0xbd23d688	-0.039999515
242	0xbbfcb0b2	-0.0077114934
243	0xbb85b5f7	-0.00408053
244	0xbd7ac3fb	-0.061222058
245	0xbcb02657	-0.021502657
246	0xbd752cd5	-0.05985721
247	0xbd9804f2	-0.07422818
248	0x3d27c0c6	0.040955327
249	0x3d0b598e	0.034020953
250	0x3e0500bd	0.12988563
251	0x3e2dda35	0.1697777
252	0x3e03d868	0.12875521
253	0x3e0280b4	0.12744409
254	0x3deffc9f	0.117181055
255	0x3d924e3f	0.071438305

bias f4 [64]
0	0x3c94b47b	0.018152466
1	0xbc1e09b1	-0.009645865
2	0x3b1e7cf3	0.0024183362
3	0xbd36632f	-0.044528183
4	0x3c53adef	0.012919887
5	0x3d5efdc2	0.05444122
6	0x3cc90f23	0.02454335
7	0x3cf0ddae	0.02940258
8	0x3d92e4af	0.07172524
9	0xbcf1b332	-0.029504392
10	0xbc721c24	-0.014777217
11	0xbcb2cbe5	-0.02182574
12	0x3c58e982	0.013239266
13	0xbd9d8523	-0.076914094
14	0xbc42cd1b	-0.011889721
15	0xbdab4acc	-0.08363876
16	0xbc3d4c65	-0.011553858
17	0xbd2966ef	-0.04135793
18	0xbd458614	-0.04822357
19	0x3c6daf67	0.014507151
20	0x3be63243	0.0070250346
21	0xbc07dfdc	-0.008293118
22	0xbc91d622	-0.017802302
23	0xbd0c9b24	-0.03432764
24	0x3d13e8b6	0.036110602
25	0x3dad19b3	0.08452167
26	0x3d15a31d	0.03653251
27	0xbc0e3d63	-0.008681628
28	0x3caf980a	0.021434803
29	0xbc27c479	-0.010239714
30	0x3baec790	0.0053338483
31	0xbd97a37c	-0.07404229
32	0xbbb845f2	-0.0056235725
33	0x3e019364	0.12653881
34	0x3d4e94b6	0.05043479
35	0x3dd01de1	0.10161949
36	0xbdb336cf	-0.08750688
37	0xbd39a0fd	-0.045319546
38	0xbcaef0ee	-0.021355119
39	0x3ce5e868	0.028064921
40	0x3c48dcfb	0.012259717
41	0xbc9066dc	-0.017627172
42	0x3d7d449f	0.06183302
43	0x3c831336	0.016000371
44	0x3c4361f4	0.011925209
45	0x3d486005	0.048919696
46	0xbda2deb5	-0.07952634
47	0xbcf47169	-0.029839234
48	0x3caeea2f	0.021351902
49	0xbcfd238b	-0.030900737
50	0x3dd16278	0.102238595
51	0x3dce0129	0.10058815
52	0xbd54a4bd	-0.05191492
53	0xbd210d15	-0.039319117
54	0x3d5fa369	0.0545992
55	0xbd105022	-0.03523267
56	0xbd6550e9	-0.055985365
57	0xbd3d0876	-0.046150647
58	0x3c5d3325	0.013500963
59	0xbd2421fd	-0.040071476
60	0xbd546ec8	-0.05186346
61	0x3ca57910	0.020199329
62	0x3afac9b0	0.0019133594
63	0x3cbefdac	0.02331432

weight f4 [25, 64]
0	0xbcfeb15e	-0.031090435
1	0xbe3c76a7	-0.18404637
2	0x3db571fe	0.08859633
3	0xbba9e261	-0.005184457
4	0xbc344ffc	-0.011005398
5	0x39494933	0.00019196123
6	0xbd89bb1f	-0.06725144
7	0xbd6aa605	-0.057287235
8	0x3c9cb3f3	0.019128775
9	0xbde64bb4	-0.11244908
10	0xb8d5d8d1	-0.00010197017
11	0xbd81116f	-0.06302153
12	0x3e2d33e7	0.1691433
13	0x3d50f68e	0.051016383
14	0x3c88fcc2	0.016722087
15	0x3c619dcd	0.013770533
16	0xbdac2121	-0.08404756
17	0x3e12bf74	0.14330846
18	0x3ddc259c	0.10749361
19	0x3d3748c7	0.04474714
20	0xbe17ad0e	-0.14812109
21	0xbdcc2553	-0.099680565
22	0x3d51ff12	0.051268645
23	0xbdd052ed	-0.10172067
24	0xbc455f38	-0.012046628
25	0xbcc1df4c	-0.023666047
26	0x3c663c9f	0.014052539
27	0xbcd9e073	-0.026596284
28	0xbd6a165f	-0.05715024
29	0xbd287d16	-0.041134916
30	0x3cd61517	0.026133103
31	0x3cf231a6	0.02956469
32	0xbdfa6e21	-0.12228037
33	0x3d6eb314	0.05827625
34	0x3db2e9aa	0.08735974
35	0xbe0d5443	-0.13801675
36	0x3d347304	0.044055
37	0xbc55d88e	-0.013052119
38	0xbd6e00ff	-0.05810642
39	0xbda95240	-0.08267641
40	0x3e16bab0	0.14719653
41	0xbc571d2f	-0.0131295165
42	0xbd9ca623	-0.076488756
43	0x3db39b81	0.087698944
44	0xbce9b9d7	-0.028530998
45	0xbd152bd8	-0.036418766
46	0xbe292ad9	-0.16520251
47	0xbdecf776	-0.11570637
48	0x3c7186d9	0.014741623
49	0x3cc67b7e	0.024228808
50	0x3dc9c547	0.09852081
51	0xbc2684b3	-0.010163474
52	0x3c70d4b4	0.01469915
53	0x3dbd1b95	0.092337765
54	0x3de0f8b6	0.10984938
55	0xbd89ac99	-0.067223735
56	0x3dd83b52	0.105581895
57	0x3c21ff71	0.009887562
58	0xbb895a53	-0.0041916757
59	0x3b376f28	0.0027989838
60	0xbdbf088e	-0.093278036
61	0xbe083b73	-0.13303928
62	0x3d1f2caf	0.038860973
63	0xbd2dbbda	-0.042415477
64	0x3df41462	0.1191795
65	0x3e2cc933	0.16873626
66	0x3dc9781b	0.098373614
67	0xbd5636e3	-0.052298438
68	0xbcf2fbc8	-0.029661074
69	0xbad1f7c6	-0.0016019277
70	0x3d926173	0.07147493
71	0xbe10236d	-0.14076014
72	0xbe36b6b9	-0.1784314
73	0x3dab75a0	0.083720446
74	0x3de56e0d	0.11202631
75	0x3c554737	0.013017467
76	0xbddd398e	-0.10801993
77	0x3dc27f9a	0.09496994
78	0x3dfdabef	0.12386309
79	0x3dfeade5	0.124355115
80	0xbd6eb141	-0.05827451
81	0xbdd89834	-0.105759054
82	0xbc5f2058	-0.013618551
83	0xbd9a40c0	-0.07531881
84	0x3e2aef20	0.16692781
85	0x3d109b50	0.035304368
86	0xbe1ed78c	-0.15511912
87	0x3d979710	0.0740186
88	0xbd87d392	-0.06632151
89	0xbd46e85d	-0.048561443
90	0x3cab3cf5	0.02090309
91	0x3cd5ac28	0.026083067
92	0xbd39ff3b	-0.045409422
93	0x395a115f	0.00020796571
94	0xbe04f9e2	-0.12985948
95	0xbe3575c5	-0.17720707
96	0x3d118695	0.035528738
97	0x3cb06c38	0.021535978
98	0xbd0c9737	-0.034323897
99	0x3e3f9a20	0.18711138
100	0xbdb9a14f	-0.0906397
101	0xbe0e7a24	-0.1391378
102	0xbd55bced	-0.052182127
103	0x3e14a037	0.14514242
104	0xbdb800e4	-0.08984545
105	0x3cf64828	0.030063704
106	0x3e0338ac	0.12814587
107	0xbe198f85	-0.14996155
108	0xbe29beaf	-0.16576646
109	0x3dba6cc5	0.091027774
110	0x3e0a2421	0.13490345
111	0x3df74473	0.120736025
112	0x3c9ce995	0.01915435
113	0xbd18180d	-0.03713231
114	0x3d957a92	0.07298769
115	0x3d555169	0.052079592
116	0xbe2288ed	-0.15872546
117	0xbdeb44a9	-0.11487705
118	0xbe1d0346	-0.1533328
119	0xbda21967	-0.07915001
120	0xbdbce81e	-0.0922396
121	0xbe16b5bd	-0.14717765
122	0xbd59d76a	-0.05318395
123	0xbcad357b	-0.021143666
124	0x3d4f360d	0.050588656
125	0x3dfc6b14	0.12325111
126	0x3d3b82d8	0.04577908
127	0xbd440aaa	-0.047861733
128	0xbd9c222b	-0.076237045
129	0x3cc3ca46	0.023900162
130	0x3de91dbf	0.11382627
131	0xbdb83fce	-0.08996545
132	0xbc9e4fe7	-0.01932521
133	0xbc541108	-0.012943514
134	0x3b9af2dd	0.0047286586
135	0x3dadf8b6	0.084947035
136	0x3e42f812	0.19039944
137	0xbd3e8232	-0.046510883
138	0x3d74c598	0.059758753
139	0x3bc49402	0.005999089
140	0x3d95f427	0.07321959
141	0xbd84716b	-0.06466945
142	0x3d7f0fbe	0.062270872
143	0xbc753fdb	-0.014968838
144	0xbe11767c	-0.14205354
145	0x3dc000aa	0.09375127
146	0x3d324eb7	0.0435321
147	0x3d763fd9	0.060119484
148	0xbcd40b0e	-0.025884178
149	0xbdf09ce4	-0.117486745
150	0x3e38afab	0.18035762
151	0xbe346fbb	-0.17620747
152	0x3cf57d0d	0.029966855
153	0x3de8c2be	0.11365269
154	0x3d2ff8d1	0.0429619
155	0xbe355b90	-0.1771071
156	0xbdbb752f	-0.0915321
157	0x3d04c7cf	0.032417115
158	0x3d97bdfb	0.07409283
159	0xbcb72415	-0.022356072
160	0xbe3750d6	-0.1790193
161	0x3dd9302e	0.10604893
162	0x3e2e70ad	0.1703517
163	0xbe14e392	-0.14539936
164	0xbd440d09	-0.047863994
165	0x3c77f114	0.015133161
166	0x3c848d8e	0.01618078
167	0x3d70f07d	0.058823097
168	0x3dacf28c	0.084447
169	0x3d5cfce1	0.0539521
170	0xbe10973d	-0.14120193
171	0x3dcc3b36	0.09972231
172	0x3e0c3ed5	0.13695844
173	0xbd202ff3	-0.039108228
174	0xbd4ac7e4	-0.049507037
175	0x3da5eb7d	0.081015565
176	0x3db13541	0.086527355
177	0xbdcc0abe	-0.099629864
178	0x3d82c2fa	0.06384845
179	0x3d268b4b	0.040660184
180	0x3e1b56f6	0.15169892
181	0x3c61dc6c	0.013785463
182	0x3dd006eb	0.101575695
183	0xbcdfde99	-0.027327823
184	0x3c3ecccc	0.011645507
185	0xbcf9c935	-0.03049145
186	0x3dc88907	0.09791761
187	0x3dd8f596	0.10593717
188	0xbda6e6de	-0.08149503
189	0xbe327349	-0.1742679
190	0x3d9bad82	0.07601453
191	0xbd3361a0	-0.043794274
192	0xbcb977e1	-0.02264017
193	0x3e0c6f89	0.13714422
194	0xbc22e142	-0.009941401
195	0xbde1487b	-0.11000153
196	0xbe10fbe0	-0.14158583
197	0x3cb069b0	0.02153477
198	0xbc06bdab	-0.008223931
199	0xbe29d7e2	-0.16586259
200	0xbe7c375b	-0.24630491
201	0x3c57f747	0.013181514
202	0x3da2529b	0.07925912
203	0x3e02a7b2	0.12759283
204	0xbde5fd49	-0.11229951
205	0x3d2ebb7e	0.042659275
206	0x3e022b64	0.12711865
207	0xbc97cec5	-0.018531213
208	0xbdcf644f	-0.10126554
209	0xbdeba9af	-0.11506974
210	0x3db01a25	0.08598737
211	0x3bcf286e	0.0063219583
212	0x3e2fb77c	0.17159837
213	0xbb9bb9eb	-0.0047523878
214	0xbd38bb83	-0.0451007
215	0x3dd47699	0.10374183
216	0xbe33c99f	-0.17557381
217	0xbd3bf634	-0.045889094
218	0xbd80a206	-0.062809035
219	0x3d4629ff	0.048379894
220	0xbaa4cdbb	-0.001257352
221	0xbda2fd33	-0.0795845
222	0x3ba6f02d	0.005094549
223	0xbd3f991c	-0.046776876
224	0x3d3eefc7	0.04661539
225	0xbe409390	-0.1880629
226	0x3b8dc5da	0.0043265643
227	0x3ded529a	0.115880206
228	0xbd3c2b34	-0.04593964
229	0xbdab6f7a	-0.08370872
230	0x3c92d2a2	0.017922703
231	0x3e1d24e9	0.15346111
232	0xbd9d9cba	-0.07695909
233	0xbaec8026	-0.0018043562
234	0x3d35c46e	0.044376783
235	0xbdd5676a	-0.10420115
236	0xbb415bdd	-0.0029504218
237	0x3a7db60c	0.0009678311
238	0x3da827a9	0.082106896
239	0x36f00ecf	7.1542813e-06
240	0xbddd49a2	-0.1080506
241	0xbcc73bc7	-0.024320496
242	0x3c136087	0.008995182
243	0xbd8b6613	-0.068065785
244	0x3d41d360	0.047320724
245	0x3d0551b2	0.032548614
246	0xbe4fce2b	-0.2029349
247	0xbcd6ea07	-0.02623464
248	0xbd8b2813	-0.06794753
249	0xbcc6de2c	-0.024275862
250	0xbdc87b2f	-0.097891204
251	0xbd49b6d9	-0.049246643
252	0x3c2395a8	0.009984411
253	0x3c969956	0.018383663
254	0x3c370629	0.011170902
255	0xbd3cd6c8	-0.04610327

bias f4 [25]
0	0xbd10a045	-0.035309095
1	0xbc8bf2e0	-0.017083585
2	0xbd2a8e74	-0.04163976
3	0x3cf7bc7d	0.030241245
4	0x3cb9981a	0.022655535
5	0xbdd6b80d	-0.10484324
6	0x3c1a99e3	0.0094361035
7	0xbd79333f	-0.060839888
8	0x3df88b64	0.12135962
9	0xbdf12dda	-0.117763236
10	0xbdb2f985	-0.08738998
11	0xbd8f6b9a	-0.07002945
12	0xbd853e1d	-0.06505988
13	0xbcf01c99	-0.029310511
14	0xbd9feeea	-0.07809241
15	0x3dcaeb0b	0.09908112
16	0xbc90eb31	-0.017690273
17	0x3d4d886f	0.05017894
18	0x3dd72cc9	0.10506589
19	0xbc87f7f5	-0.016597727
20	0x3db19faf	0.08673035
21	0xbd1c108b	-0.038101714
22	0xbd78c879	-0.06073806
23	0x3e233ecd	0.15941925
24	0xbea82356	-0.3283946
